dino_genetic_model.pth (torch, 48644 bytes, 8 tensors)

fc.0.weight f4 [128, 6]
00000000: 60a6 6dbd e7c7 633e 63f6 113e 1220 b2bd
00000010: fe7c cfbe 1513 19be f667 cb3e 1b83 4b3e
00000020: cb91 87be d20e 98bc 6abf 28be 7bb1 db3d
00000030: ef18 93be 54cc 1e3e be6d 5c3e dfdc 863c
00000040: ce4f d43d 20da 73bc d935 97be 7c60 a13b
00000050: 3702 143e c3fa 353d 41e4 6b3d 3648 48be
00000060: f990 fdbd 93ac 873e 77eb 79be fae0 a3be
00000070: bab3 91be b286 97be fdef 0a3e 8b6b 953e
00000080: f2e9 82be d29f bbbe 0880 69ba 5908 823e
00000090: 41a1 82bd 84df 70be dfa8 573e 4136 913e
000000a0: a965 03bd e09e a1bd 8ba9 943e abfd c9be
000000b0: 8e45 063e a6aa 863e 353d 753e f163 ca3d
000000c0: ed96 92be 3209 a4bc c902 943e 3fa0 c6be
000000d0: fa05 95be 6483 d23e eb26 a73d 6d68 9c3e
000000e0: 858e b7be 2d74 1b3e 0981 893e f624 243c
000000f0: 463e 20be 5e3d 83be 8460 d3bd a123 b1be
00000100: 247a c83e 6c10 b23e 9f36 be3e d24f 163c
00000110: 5814 36bd 1d6f c53d f04a 73bd 6bdf 7fbe
00000120: 542c 9e3e 1a0c 233e 468e 56be 7c3f 70be
00000130: d3cc 9abe 5653 b43c b1ac 00be d26f b4be
00000140: 229c babe 62c3 e8bd 4825 e2bd cec9 c43e
00000150: e088 763e 3eb6 78be 0293 24be ea1f b1be
00000160: a596 9dbd d58c 463e 68cf 23bd 5ca4 c33e
00000170: 75cc 99be f58a 5cbe b34b 6ebe 7633 72be
00000180: c779 0bbe 9ff9 f03d 323f b63e 59bc 883e
00000190: 85e4 643e 7efa f73d ae2e 343d fa03 803e
000001a0: 34d0 cfbd 4279 fa3d 7b22 663c 98c2 9fbb
000001b0: 0bfa 813d 2cba e2bb c522 993e bd3c 36be
000001c0: 3088 82be 4436 d6bc fe22 54be 3db6 9cbe
000001d0: 0bae 233e 3463 cd3e 0991 9c3e 5e7e e33d
000001e0: ef4a 93be edd0 a83e 21ad 8a3e 211a cf3d
000001f0: 801e e1bd 54f3 0cbe 4a2c 36be 1442 85be
00000200: 8490 a4be 56bb ddbd 55be b8be 2dc8 c5be
00000210: 4105 cebd a8fa 2dbe ece2 83bd 9e2e 373e
00000220: f57e 3c3e ae53 313e 708a b63d 9f5f b33e
00000230: d834 8bbe 797b 95be 31d2 cebd bf59 4a3e
00000240: 296f bd3e cf9f 993d 5a1c b9be 800b 95be
00000250: 00c5 e8bd f2ed 8abd ddf1 3c3e f2af 863e
00000260: 869f 973e f234 903e 6914 4dbe 406f c73e
00000270: da30 66be 54fa b83e b5ff 8e3e 5a96 f93d
00000280: d60d c3bd 1f55 8bbe b21e aa3e e99d 883d
00000290: cb36 8b3e 27bf 763e 4e65 83be db19 213d
000002a0: 0a4d cebe f3ed 7c3e fc83 87bd 6097 67be
000002b0: 4712 a7be 5287 36bd c65d 72be 13ec 0e3e
000002c0: 0931 bf3e 7c70 b43e 5b7c 3b3e 2b41 f2bd
000002d0: 6339 ad3e c5f1 c83d 381d 0d3d 15ac 493d
000002e0: 0671 f83c 4f85 a7be 4fee 8dbe 3b44 c1be
000002f0: 0e46 bc3e 3f3e b53e 6730 61be 4b12 d0be
00000300: a4a2 d63d 93ec 2b3e ec1b 7bbe 73bb c13e
00000310: 397e f33c d992 673d 2b7d 4b3e 132f cbbd
00000320: 0c7f 23be 6385 d7bd 6930 863e 754b 5ebe
00000330: 8f46 c03d 70ae 8fbe f6d8 b0be 2c53 f53d
00000340: 8dd0 c13d 86f3 7fbd cc16 c7be 0d4a a83e
00000350: 2ede 8abe 3ad5 233d c6a8 943b cc5a 14be
00000360: 1030 2cbe 1a78 2dbe 15a6 acbe 3cb8 56be
00000370: c025 9e3e 1ec1 b13e 900b 163e 9a7c 0fbe
00000380: 8557 633e dec4 b2bd 63ef 47bd 68b4 a6be
00000390: a5c9 8bbe a9df 9c3e f9b2 57be 3a73 bebe
000003a0: d1b5 05be 4f83 2a3e 3f19 81be 38d1 56bd
000003b0: 04cb 8a3b 971d afbc f0ed 8abb 7b35 87bd
000003c0: 2590 30be d799 5bbc 9676 a73c 67b3 c9be
000003d0: be83 39be 624e 16bd a88d b63c 8feb f23d
000003e0: 50dc df3d 38bb 6a3e f5f5 0d3e 1e64 bdbe
000003f0: 75e6 1f3e dc0d b0be 2660 333e e4b0 c83e
-0.058019996 0.22244225 0.14254145 -0.08697523 -0.4052505 -0.14948685 0.39727753 0.19874232
-0.2647842 -0.018561754 -0.16479269 0.10727211 -0.2872996 0.15507632 0.21526238 0.016462741
0.10366784 -0.014883548 -0.2953327 0.004924832 0.1445397 0.044428598 0.057590727 -0.19558796
-0.12381167 0.2649885 -0.24406229 -0.3200758 -0.28457433 -0.29594952 0.13568111 0.2918361
-0.2556911 -0.3664537 -0.0008907323 0.25396994 -0.06378413 -0.23522764 0.21060513 0.28361705
-0.032079373 -0.07891631 0.290356 -0.39451346 0.1311247 0.2630207 0.2394913 0.098823436
-0.28630772 -0.020023916 0.28908375 -0.38794133 -0.29106122 0.41115868 0.0816172 0.3054842
-0.3585092 0.15181036 0.2685626 0.010018578 -0.15648755 -0.25632757 -0.10321143 -0.34597495
0.39155686 0.34778154 0.37151048 0.009174304 -0.044452995 0.09640334 -0.059397638 -0.24987571
0.30893195 0.15922585 -0.2095271 -0.23461717 -0.30234393 0.022012394 -0.12565877 -0.35241562
-0.36447245 -0.11365391 -0.11042267 0.38435215 0.24075651 -0.2428827 -0.16071704 -0.3459466
-0.07694749 0.1938966 -0.03999272 0.38211334 -0.300388 -0.21537383 -0.23271064 -0.23652443
-0.13620673 0.117663614 0.3559509 0.26706198 0.22352798 0.121083245 0.04398983 0.25003034
-0.101471335 0.12230159 0.014046307 -0.0048754923 0.0634652 -0.006919166 0.2990934 -0.17796607
-0.25494528 -0.026148923 -0.20716473 -0.30607787 0.15984361 0.40114748 0.30579403 0.11108087
-0.28768107 0.32971898 0.27085212 0.101124056 -0.109921455 -0.13764697 -0.17790332 -0.26026976
-0.32141507 -0.10826747 -0.36082712 -0.38629285 -0.10059596 -0.16990149 -0.06439766 0.17888877
0.18407805 0.17317078 0.089131236 0.3503389 -0.27188754 -0.29195765 -0.100986846 0.19760798
0.3699887 0.07501184 -0.36154443 -0.29110336 -0.113657 -0.06783666 0.18451639 0.2630611
0.29613894 0.28165394 -0.20027317 0.38952065 -0.22479573 0.36128485 0.27929464 0.121868804
-0.09524123 -0.2721338 0.33226544 0.06670744 0.2719024 0.24096356 -0.25663227 0.0393313
-0.4029315 0.24700145 -0.06616971 -0.22616339 -0.32631132 -0.044562645 -0.23668584 0.13957243
0.37342098 0.3524207 0.18309157 -0.11828836 0.33832845 0.09811739 0.034451693 0.049236376
0.030327331 -0.32718894 -0.27720878 -0.37747368 0.36772197 0.35399053 -0.2199112 -0.40638956
0.1048024 0.16789465 -0.2452237 0.37838325 0.029723274 0.05653653 0.19871967 -0.09921088
-0.15966433 -0.105234884 0.2620881 -0.21708472 0.09388458 -0.28062773 -0.34540528 0.119787544
0.09463606 -0.0624881 -0.3888458 0.32868996 -0.27122635 0.03999827 0.004536721 -0.14487761
-0.1681521 -0.16940346 -0.3372046 -0.20968717 0.30888176 0.3471765 0.14652848 -0.14012375
0.22201355 -0.08728956 -0.04881228 -0.32559514 -0.2730228 0.3063939 -0.21064366 -0.37197286
-0.13057639 0.16651653 -0.25214574 -0.05244562 0.004235627 -0.021376414 -0.00423979 -0.066019975
-0.17242487 -0.0134033775 0.020442288 -0.39394686 -0.18116662 -0.036695845 0.022284344 0.118613355
0.10930693 0.22922981 0.13863356 -0.36990446 0.15615256 -0.34385574 0.17517146 0.39197457

fc.0.bias f4 [128]
00000000: 299b eabd 9d67 c4be 2270 afbd d752 58bd
00000010: 9021 b43e c350 a93e 4438 8abc e853 babc
00000020: 4af2 d9bb cf97 7cbc ab63 b9be a295 b63d
00000030: 4366 20be a6ed cebd f1da 5cbe 14e3 923e
00000040: a894 b63d 4696 5cbd 9462 3a3e df67 683e
00000050: bcbf 883e 1e8f 073e 5806 b73e d86f 84be
00000060: ce05 c53d c575 b9be 79c2 c8be bd46 e03d
00000070: 14c9 14bc 60da 323e be9e 51be aeb3 8ebe
00000080: a4da c4bc 69ef bc3e 3d2f 97bd 30ee 693e
00000090: f7b0 9cbe 2797 273e d03e 123e dc7f 773e
000000a0: 1475 c13d 82a4 ad3e 794f ff3d e653 d9bd
000000b0: 21d0 c13e 7c4f b4be 2b0b a03d 5863 dbbc
000000c0: 5aaf 333e 1f9a d5be e0a5 c13c 00b7 b63e
000000d0: 6829 d93e be09 853d cbff c03e 8834 77bd
000000e0: 6aa9 a43e 8e0d 003e c95f cd3d b512 583e
000000f0: fe12 b7be 020f 043e 8042 79be 7a03 71bd
00000100: 40e0 583e 53c6 b53d c3c5 b0bd b453 a4bc
00000110: d006 8d3d 3840 a4bd 9eaf 143e 4632 9b3e
00000120: 76c2 dbbe 2ecc f7bb 28db ad3e 4e79 e1bc
00000130: 9168 983e 440a a0be bd59 9abe cae7 f5bd
00000140: 3ee2 50be 0f18 b5be 8de1 823d b358 aabe
00000150: f699 65be a8c6 a9be 0831 a23d 2f49 613e
00000160: 5902 ba3e 9899 8e3d f25d fabd cf66 8d3e
00000170: d0f8 3e3e 2c58 6e3d 039b 733e 464d 593e
00000180: 3f67 ae3e e45b 4ebe d6a7 99be e155 b2be
00000190: ccdb 823e 3929 7d3e 7960 c5be 91f3 823e
000001a0: dd39 783e 0634 96be ba35 6cbe 4a48 513e
000001b0: f6ff 40be fdfb aebe 3461 0b3d 0298 a9be
000001c0: 22aa 25be 8e82 bcbe 49a1 c3be cbe2 8bbe
000001d0: 4801 da3d 334c 8b3e 4839 ad3d b11f c73e
000001e0: 3090 a0be db77 5b3e f513 bcbe d784 1cbd
000001f0: 8cdf 39be 8867 20bd 740a 813e dcd8 b13d
-0.11455376 -0.383603 -0.085663095 -0.052813377 0.35181856 0.3306943 -0.016872533 -0.022745088
-0.0066511976 -0.015417053 -0.36208853 0.08915259 -0.1566401 -0.101039216 -0.21567895 0.28688872
0.08915073 -0.05385425 0.18201667 0.22695874 0.26708782 0.13238189 0.35747027 -0.2586658
0.09620248 -0.36222664 -0.3921087 0.10950992 -0.009081144 0.17466116 -0.20470712 -0.2787146
-0.024030037 0.36901405 -0.07382057 0.22844768 -0.30603763 0.16366254 0.14281774 0.24169868
0.09446159 0.33914572 0.1246633 -0.106117055 0.37854102 -0.35216892 0.0781463 -0.02678077
0.1754736 -0.41719148 0.023638666 0.35686493 0.42414403 0.06495999 0.37695155 -0.060352832
0.32160503 0.1250517 0.10028035 0.21100886 -0.35756677 0.1289635 -0.24341774 -0.058841206
0.21179295 0.08875718 -0.0863147 -0.020059444 0.06886065 -0.08020061 0.14520118 0.30311793
-0.429218 -0.007562182 0.33956265 -0.027523663 0.29767278 -0.31257832 -0.3014659 -0.12007101
-0.20398805 -0.35369918 0.06390677 -0.33270797 -0.22422013 -0.33159375 0.07919508 0.22000574
0.36329916 0.069628894 -0.1222495 0.276175 0.18649602 0.058189556 0.23789601 0.21220884
0.34063146 -0.20152241 -0.3001086 -0.34831145 0.25558317 0.24722756 -0.38550165 0.2557645
0.24240823 -0.29336566 -0.2306737 0.20437732 -0.18847641 -0.34176627 0.034028247 -0.33123785
-0.16178182 -0.36818355 -0.38208988 -0.27321467 0.10644776 0.27206573 0.08458191 0.38891366
-0.31360006 0.2143244 -0.36733976 -0.038212623 -0.18151683 -0.039161235 0.25203288 0.08683941

fc.2.weight f4 [64, 128]
00000000: 4ed3 d93c 6aa6 71bd 5099 b5bd 7671 ab3b
00000010: 93cc 9f3d 68ab 9abd 857c 8dbd cd9e 903d
00000020: 93c9 053e 2f21 163d fd4c 26bd 4f12 68bd
00000030: 27ca 803d 820a 81bc 058c 8e3d 96fe 81bd
00000040: f36c 993c d44a 863d 9b50 933d 16a4 873d
00000050: f656 55bd cb6f 98bc fca4 1dbc c76c b5bc
00000060: 1bd6 d0bd 3497 3e3d 0ec9 a6bd 807e 80bc
00000070: 3ceb a1bb 9a7a fe3c 4c81 c43d b0e1 86bd
00000080: 2c3e 61bd 3c68 6abd 4987 933d 6290 a73d
00000090: 288b 9e3d 35a1 5a3d 0c91 103c af03 afbd
000000a0: a6ca 74bd 8b81 8e3d fa85 a4bd 7370 35bd
000000b0: 408a b8bd 2849 c3bd 8f45 b2bc 20ca 113c
000000c0: 83b3 84bb ea6a 96bc 16ec 05bd 6ce4 983d
000000d0: 3103 c2bd a2d3 2b3d 7279 e93c 68d2 533d
000000e0: e09f 04bd 961b 7f3b 2367 bc3d 9c99 95bd
000000f0: ca7f c53d 8668 d33c 6af1 8f3c 1240 5f3d
00000100: 0dd1 023d 1b88 91bd ce6b a03d f5ad 843c
00000110: 2dae 08bc f5c0 5d3d 25ab 8c3d 07f4 773d
00000120: fa2b 79bc 96a4 dabc 3203 efbc eeea a53d
00000130: 1821 3f3d e259 57bc b130 533d 8876 5cbd
00000140: 98e0 c6bd b80d 953d 8342 0cbd b70c 763d
00000150: 4c92 2abd 4040 a43b 1676 6b3d 529e b6bc
00000160: fa36 cebc ded5 773c 2541 c73d ca50 993d
00000170: 9c21 853d 8728 a63c d334 6fbd 164f c4bd
00000180: 4426 2bbc 3a5d a23d 260a 0fbd c44c c3bc
00000190: 7de9 203d 4848 833d 6777 e33c 28d5 633d
000001a0: c2e2 ba3d c732 353d 2b01 80bd e81d ab3d
000001b0: b65e 5c3d 3f42 4e3d 1492 c73a 66d1 bcbd
000001c0: b37e 783d b80c e9bd f814 db3c 8383 01bd
000001d0: 2ada a53c 8ae9 a83b 5a4e af3d c8c3 99bd
000001e0: 6843 dc3d 4a28 d73b 1d60 7b3d 0b03 7dbc
000001f0: 2432 913c 17dc 7c3d 0df4 9b3d 0e5a 123d
00000200: 11c9 6c3d 10ce f839 7f55 41bd e029 61bc
00000210: 1cb6 8b3c e6f4 3dbd df85 093d 4a7c 8d3d
00000220: fee4 0b3d 5920 a13d b746 36bd dce0 5fbc
00000230: 9648 933c 55e9 c8bd d2bc 70bd 06e0 36bd
00000240: 6cfa 1a3c 467b f7bb bac4 593c c3bd a5bd
00000250: a0d4 0f3b 766b 4a3d 0915 64bd 9ad4 2dbd
00000260: 6e67 523d aec9 9bbd 5065 4ebb 907c 18bd
00000270: 930a 7a3d 8cfe f8bc 0692 3abb e274 e13c
00000280: 48d7 dc3c 5479 683d e003 b73d 56b0 69bd
00000290: b3b2 9abd a915 27bd 31ed b9bd bbc7 b23d
000002a0: f453 3d3d a8e8 36bd 43fb 763d dbc4 ef3b
000002b0: 599b aebd 2dbe 843d 4067 2e3d a40e e0bc
000002c0: 65cb 61bd c821 913d 2e67 263b 849b be3d
000002d0: abca 21bd c63e 89bd d1d5 04bd 1013 92bd
000002e0: 2bfb 133d f7c7 933d 568c 113d bccc 32ba
000002f0: e854 ebba 7136 e13d 5f3b 4bbc da09 5e3d
00000300: d4be 66bc 4944 783c af15 82bd 7e3c 9abc
00000310: c4a8 ba3c 9286 513d 08fe 803d 7b1f a5bb
00000320: 01de 80bd 7d74 1ebd c73c 973b fd5f 02bd
00000330: c0c8 53ba 6cce 313d 961a 71bc a89f fb3c
00000340: cc69 8f3b 751d 84bd 331e 1d3d 1d81 953c
00000350: e649 3f3d 17db 8cbc b7cf b4bd 97a7 793d
00000360: 496c abbd dee3 7a3d d270 783c a0f1 d83a
00000370: 0041 50ba 4f8e 063d 2e60 d8bd 589c febd
00000380: dca5 c43d 1c9b 113d 904f 923d 7de9 3dbc
00000390: dd9a ad3d b09a d63d 6a0a 8b3d 32c1 d4bc
000003a0: e067 5e3c 7cde 2bbd 44f7 1e3d a36a 6c3c
000003b0: c5b9 8e3a f359 98bd 586d bd3d 59b4 ac3d
000003c0: 9606 863d c775 72bd 460c 003d 54f0 96bc
000003d0: 3071 55ba ecfc c33d eec6 223c 0078 1bb7
000003e0: 10cf 9d3c 455a 8b3d 328f 8fbd dae7 93bd
000003f0: 5609 e2bc b807 543d 5d91 083d 3bd4 113d
0.026590016 -0.058996595 -0.08867133 0.0052320315 0.07802691 -0.075522244 -0.06908516 0.07061539
0.13065176 0.03665274 -0.040600765 -0.056658085 0.062885575 -0.01575208 0.069603 -0.063473865
0.018728709 0.06557241 0.07193109 0.06623094 -0.052084886 -0.018607995 -0.009621855 -0.022146596
-0.101970874 0.046530917 -0.08143817 -0.01568532 -0.004941372 0.03106432 0.09594974 -0.06586015
-0.054990932 -0.057228312 0.07203538 0.08181836 0.07741386 0.053376395 0.008823644 -0.085456245
-0.059763573 0.06958302 -0.080333665 -0.044296693 -0.09010744 -0.09535438 -0.021761684 0.008898288
-0.00404972 -0.018361527 -0.032695852 0.07465443 -0.09473265 0.041949876 0.028500292 0.05171433
-0.03237903 0.0038926355 0.09199359 -0.07304689 0.096435145 0.025806677 0.01757117 0.05450446
0.031937648 -0.07106038 0.07833062 0.01619623 -0.008342308 0.054139096 0.06868581 0.060535457
-0.015208239 -0.026689809 -0.029176328 0.0810145 0.04666242 -0.013143988 0.051560108 -0.053823978
-0.097108066 0.07278007 -0.034243118 0.06007072 -0.041643426 0.005012542 0.057485662 -0.02229229
-0.0251727 0.0151266735 0.09729222 0.074861124 0.06500551 0.020282997 -0.058399986 -0.09585397
-0.010446135 0.07927938 -0.034921788 -0.023840316 0.03928517 0.06410271 0.027766896 0.055623204
0.09125282 0.04423788 -0.06250223 0.083553135 0.05380126 0.050356146 0.001522603 -0.09219627
0.060667705 -0.11379379 0.026743397 -0.03161956 0.02024563 0.005154793 0.08559866 -0.075080454
0.10755044 0.006566082 0.061370958 -0.01544262 0.017724104 0.06173333 0.07614908 0.035730414
0.05780894 0.00047455775 -0.047200676 -0.013742894 0.01705461 -0.04637613 0.033574935 0.06908472
0.03415393 0.07867498 -0.044501033 -0.0136644505 0.017978948 -0.098101296 -0.058773823 -0.04464724
0.009459119 -0.007552537 0.013291532 -0.08092835 0.0021946803 0.04941889 -0.055684123 -0.04243908
0.05136817 -0.07606827 -0.0031493492 -0.037228167 0.06104524 -0.030394815 -0.0028468384 0.027521554
0.026958123 0.056756333 0.08936286 -0.057052933 -0.075536154 -0.04079214 -0.09078444 0.08729502
0.046222642 -0.044655472 0.060298216 0.007317168 -0.08525724 0.06481586 0.042578936 -0.027350731
-0.055125613 0.070865214 0.002539109 0.09307006 -0.03949992 -0.06701426 -0.032430474 -0.07132542
0.036128204 0.07215875 0.035534225 -0.0006820669 -0.0017954381 0.10996712 -0.012404292 0.054208614
-0.014083583 0.015152999 -0.06351792 -0.018827673 0.022785552 0.051153727 0.062984526 -0.005039153
-0.06292344 -0.03868531 0.0046153995 -0.031829823 -0.00080789253 0.04340975 -0.014715811 0.030715778
0.0043766256 -0.06450931 0.03835888 0.018250043 0.046701334 -0.017194314 -0.08828681 0.06095084
-0.08370263 0.061252467 0.015163617 0.0016551502 -0.0007944256 0.03285056 -0.1056522 -0.12432164
0.09601948 0.035548314 0.071440816 -0.0115913125 0.084768035 0.10478723 0.06789096 -0.025971029
0.01357457 -0.041960225 0.03881003 0.014429721 0.0010889104 -0.074390315 0.09249371 0.08432836
0.06544225 -0.059194352 0.031261705 -0.018425144 -0.00081421714 0.095697254 0.009935124 -9.26666e-06
0.019263774 0.06804327 -0.07009734 -0.072219566 -0.027592342 0.051765174 0.033341754 0.03560279

fc.2.bias f4 [64]
00000000: caff bcbd 51cc fbbd 9cd6 19bd df5a 5d3d
00000010: d48d 073d c8cb 35bd 048d 433d bfee 0c3d
00000020: 97bc 22bd b0ed f03b 0c27 f93a f2d3 1bbc
00000030: b4a6 68bd ac66 eb3d 55b7 8dbd 96cc dabd
00000040: 5ac3 713d 8b09 5a3d fa4f 77bd 0871 213d
00000050: 79eb 3b3d f60f 7f3c 4525 cf3c e249 c6bd
00000060: 39b7 dcbd 5c87 b33d 61a2 76bd 78f3 6e3d
00000070: 562d 613d a079 9ebd 587a e13b 693c 80bd
00000080: b51b 1fbd dbb0 d93d c30a a43c db98 723d
00000090: cf1d bdbc 6405 523d b380 a73d 382b 203d
000000a0: a90d be3d a8a6 8cbb f29a 5b3b 681d d73c
000000b0: 2cfa 29bd fbd6 f03c f848 d13d 91d8 59bd
000000c0: d2b7 603d a41b 233d f2d5 dcbc 6241 98bd
000000d0: 9a28 17bc 0fbd a1bd 5459 a6bc 1506 253d
000000e0: c339 a83c 64f2 b9bc ff9b 40bb 81dc 6cbc
000000f0: 4ccb e3bd d443 e23c 379a 85bd d345 233c
-0.092284754 -0.1229483 -0.037558183 0.05404174 0.033094242 -0.044383794 0.047741905 0.034407374
-0.039730635 0.0073525533 0.0019008829 -0.009510981 -0.056799605 0.114941925 -0.069197334 -0.10683553
0.059024192 0.053231757 -0.060379006 0.039414436 0.04587886 0.01556777 0.025286326 -0.09682061
-0.107771344 0.08766052 -0.06021345 0.05833766 0.054974876 -0.07738042 0.0068810396 -0.06261522
-0.038844783 0.10629436 0.020024663 0.059227806 -0.023085503 0.051274672 0.08178844 0.039103717
0.09279949 -0.004292328 0.0033509103 0.02625914 -0.041498348 0.029399386 0.10218996 -0.05318505
0.054862805 0.039821282 -0.026957486 -0.07434346 -0.009225989 -0.07897388 -0.020306267 0.040289003
0.020535355 -0.022698589 -0.0029389856 -0.014456869 -0.1112276 0.027620234 -0.06523555 0.009965378

fc.4.weight f4 [32, 64]
00000000: 84d3 c7bd 5ef0 60bc 83d4 6dbc 40fa 10be
00000010: 814e b93d eef4 7bbd aa8b 193c 1e57 b03c
00000020: 00cc 23b9 58ed 07bb cc5f e83d bbb6 debd
00000030: 47be 34bc 29f9 c5bd 7ab1 ebbd 40fa 893c
00000040: 0e50 25bd cb15 88bd a0d0 60bd dd17 033d
00000050: 5fe5 8d3d 4651 08bd 069e bc3b d54c f8bc
00000060: 3e10 d83c 1c4b 073c 1e74 183e a70b 8c3d
00000070: c0dc e33d a75e 8abd f1d9 9b3d b5a8 9abd
00000080: 3de6 d33d 2181 ca3d bce8 e13d 324f 21be
00000090: 35fd 8dbd bb65 89bd d1b3 99bd 9622 a53b
000000a0: a6e5 ce3c 9c4f d53d ba88 66bd e00e 683d
000000b0: 1687 9bbc b7cb d9bd 2bd2 aabc e7ec a23d
000000c0: 049b a23b d80f 593d 961e 86bc 1e7b 67bd
000000d0: aa50 753c e574 15bd 545f fcbc 75ca d03c
000000e0: 4d15 4a3c 71be 5abd 4cc6 26bd da39 4a3d
000000f0: 2fb6 e43c 87dd 6c3d d222 1dbe b7d6 17bd
00000100: 2e71 c7bd e54a ca3d e7ca 1cbd b317 913d
00000110: 3445 84ba eb80 c43d 24c2 7d3d d725 d7bd
00000120: 7899 83bd 847c 293e 9ac8 a13c 7443 5fbb
00000130: 87ac 60bd 39c1 ef3d 6662 0c3d 68df e53d
00000140: 2d5b 7abd d515 b6bd 6e60 47bd 2c4e 52bc
00000150: 070a 243d 2a0a aabc 8e7e c33d c6ee debc
00000160: 08b2 8b3d 2f33 b73d cfca dd3d 0005 983d
00000170: 29a5 e7bc c39f 173e bb7c 78bd 00ac d23d
00000180: 3467 41bb 7903 123e 88e7 e13c 958f 813b
00000190: 42e1 a1bd f47e c63c b305 94bd aadb 073e
000001a0: 3553 8c3d 76b1 283d 7393 bbbd 965d acbc
000001b0: 7c07 333b 8332 84bd cd33 803d a037 89bc
000001c0: 61c4 b63d 20be 873d 4604 53bd 8805 163e
000001d0: 9daf bebc 3372 6bbd 03b2 dabd ca60 b23d
000001e0: d0ec 8f3d 0e17 3ebd 7d7f 983d 2a27 f6bc
000001f0: 572e 483c 78e3 c03d d893 d63d 7d6e a6bd
00000200: 1ab3 56bd b837 1d3d dfaf a13d 4367 79bd
00000210: f83d 013e e8ad a03d 5978 a53d aec2 67bd
00000220: c889 f53d 591f f6bd 7123 06be 587e 243d
00000230: 0077 693a 3141 bc3d a835 833d 3cf5 d83d
00000240: 060a c8bc f2a4 ba3d 30a9 c6bb 82f8 273d
00000250: c57d 183c 0507 2abd 0e03 b43d 5a79 c3bd
00000260: 89f3 663d daf9 063d 45fa 91bd 05e9 b53d
00000270: 3072 bcbc 2a70 9dbd 747b d83d b2e5 c13d
00000280: de6f 0bbd a0b3 ef3d f156 92bd af22 183d
00000290: 5091 853b 3cf4 abbd d27a afbd 0633 d0bb
000002a0: c8c8 8b3d 968e 72bc ad8d c03d 2d99 863c
000002b0: 3355 c3bc fbeb 883d dd77 c13d 7e9c 513d
000002c0: 019c ae3d 4461 9aba 4d1a d13d a4ba 96bd
000002d0: 2891 8ebb 684a 8bbc 7fae 9d3d 542a 0d3d
000002e0: 174c ce3d 7cbc e6bd d839 96ba c667 d7bd
000002f0: 7056 83bd ae9d 783c 6928 583d 0365 303d
00000300: c8ad 753b 6f97 2cbd 96c8 b43d 7317 7bbd
00000310: 3bac a7bc ad29 bf3c f017 ef3b 71e7 bf3d
00000320: 70fe 8c3d 9447 85bc 07c3 a63d 9ba7 e93d
00000330: 06a0 3d3b 1ddd 933d 7d42 253d b5f5 673d
00000340: 4c11 dabd b35e e1bc 1e46 12bd 578f a6bd
00000350: dcb5 9ebd 1c01 c0bb 55e2 6b3c c370 7e3d
00000360: 41db 20bd 9efc 59bd ef18 73bd af1c 1fbd
00000370: 1cb5 b03d 51ad 6e3d 0950 c53d 6209 a2bd
00000380: cf98 91bd b41c e2bc d215 44bd a08e 9b3a
00000390: 1f8b 51bd 0445 a83d ef90 3dbd ec0a 713d
000003a0: c0bd 0639 7c2b 88bb 61f5 89bd f975 773c
000003b0: 528d 5a3d b626 143e 0565 a13d f263 d13d
000003c0: e89d 833d 5290 80bd d6f4 95bd 2273 b93d
000003d0: 0562 023d 16a7 69bd 341a 89bd a76b 2c3c
000003e0: 4455 603d 6260 243d ad57 bb3d 9daa 1fbd
000003f0: ed44 fc3d 0c7f 183d c28a 63bd 7508 51bc
-0.0975714 -0.013729183 -0.014515999 -0.14157963 0.090481766 -0.06151288 0.009371677 0.021525916
-0.00015620887 -0.0020740833 0.11346397 -0.10874697 -0.011031694 -0.09666664 -0.1150846 0.016842961
-0.04035955 -0.06644782 -0.05488646 0.03200518 0.06928515 -0.033280633 0.0057561425 -0.030310074
0.026374932 0.008257654 0.14888045 0.0683816 0.11126089 -0.06756335 0.076099284 -0.075517096
0.10346649 0.09887911 0.11030719 -0.15752867 -0.06933061 -0.06708857 -0.075050004 0.0050395234
0.02525599 0.10415575 -0.056282736 0.05665481 -0.018985312 -0.10634559 -0.020852169 0.07955342
0.004962327 0.052993625 -0.016372006 -0.056513898 0.014972845 -0.036488432 -0.030807175 0.025487164
0.01233418 -0.053404275 -0.040716454 0.049371578 0.027918903 0.057828452 -0.15345314 -0.037070002
-0.09738384 0.09877566 -0.03827944 0.070845984 -0.0010091425 0.09594902 0.061952725 -0.10505264
-0.06425756 0.16551405 0.019748975 -0.0034067305 -0.054852035 0.11706776 0.034273528 0.11224252
-0.06112211 -0.08890883 -0.048675947 -0.01283602 0.040048625 -0.0207568 0.09545623 -0.027213465
0.06821066 0.08945309 0.10829698 0.07422829 -0.028276997 0.14807038 -0.060665827 0.10286713
-0.0029510977 0.14259137 0.027576223 0.003953884 -0.07904293 0.024230458 -0.072276495 0.13267389
0.06851808 0.041184865 -0.09158983 -0.021040719 0.0027317693 -0.06454947 0.0625988 -0.016750157
0.08924175 0.0662806 -0.051517747 0.14650548 -0.023277098 -0.057481956 -0.10678484 0.08709867
0.0702759 -0.046408705 0.074461915 -0.030047972 0.0122180795 0.09418386 0.10477418 -0.08126543
-0.0524169 0.038383216 0.07894873 -0.060889494 0.12621295 0.0784567 0.08079595 -0.056582145
0.1198917 -0.12017698 -0.13099457 0.040159553 0.0008905977 0.09192122 0.064067185 0.1059365
-0.024418842 0.09113492 -0.006062649 0.04100848 0.00930733 -0.0415106 0.08789645 -0.0954463
0.056384597 0.03295312 -0.07127813 0.088823356 -0.023003668 -0.07687409 0.10570422 0.09467639
-0.03404223 0.117041826 -0.07145489 0.03714245 0.0040761605 -0.083961934 -0.08568348 -0.0063537387
0.06825405 -0.014804503 0.094020225 0.016430462 -0.023844337 0.06685635 0.0944669 0.051174633
0.08525849 -0.0011778255 0.102100946 -0.073598176 -0.0043508 -0.017003253 0.07699298 0.034464195
0.10073107 -0.11266419 -0.001146133 -0.1051784 -0.06412971 0.0151743125 0.052772913 0.043065082
0.0037487615 -0.042136606 0.08827321 -0.06130166 -0.020467868 0.023335302 0.0072965547 0.09370316
0.068844676 -0.016269483 0.08142667 0.11408921 0.0028934493 0.072199084 0.04034661 0.05663081
-0.1064783 -0.027510976 -0.0357114 -0.08132809 -0.07749531 -0.0058595072 0.0143972235 0.062119257
-0.039271597 -0.05321943 -0.05934995 -0.038845714 0.08628294 0.058270756 0.09634406 -0.07911946
-0.07109224 -0.027601577 -0.047872372 0.0011868067 -0.051158067 0.08216289 -0.046280798 0.058848307
0.00012849923 -0.0041555744 -0.067362554 0.0151038105 0.05335743 0.14467892 0.07880596 0.10224141
0.064266026 -0.06277527 -0.073220894 0.09055163 0.03183176 -0.05704411 -0.06694451 0.010523713
0.054768816 0.04013098 0.09147582 -0.03898107 0.12317834 0.037230536 -0.05555225 -0.012758364

fc.4.bias f4 [32]
00000000: 2327 90bd 9d75 05be 1dc1 aa3d 5df4 7dbd
00000010: 71b1 a63d dcbf 1dbb f701 0f3e df03 d3bd
00000020: 9eed 493d db30 12be 7d35 543c e65e 31bb
00000030: ab16 8f3d a68f 1dbd 42b1 d0bd 1376 b63c
00000040: 14b6 c6bd cde2 713d 79f2 133e b661 17be
00000050: 7726 863d 2c26 86bc a037 c6bd a0dc 09be
00000060: c907 063d c3ec a9bc da19 d13d 45bc 8ebd
00000070: acf7 e83d fa54 6fbd a26f c0bd 499c a33d
-0.07038715 -0.13033147 0.08337615 -0.06200062 0.08139313 -0.0024070656 0.13965593 -0.10303473
0.049298875 -0.1427645 0.012952206 -0.002706462 0.069867454 -0.038467072 -0.10190059 0.022273099
-0.097026974 0.059054185 0.14447965 -0.14783368 0.06550305 -0.016375624 -0.096785784 -0.13463068
0.03272227 -0.02074278 0.10210009 -0.06969503 0.11375365 -0.05843065 -0.09396292 0.079887934

fc.6.weight f4 [3, 32]
00000000: a965 fbbd 7d6c 0d3e 9ac8 ff3c 88fa f23d
00000010: d286 a4bd c4df 723d 72fc b2bb 89c2 d73d
00000020: d782 0dbe acdd 3dbe 20d8 fb3d 6353 02bc
00000030: 9e70 803d f6ac 0cbe 96d9 bb3d 5353 32be
00000040: c614 973d b9e4 153e ce26 033d da1b 2e3e
00000050: bb90 c1bc 5a72 063c f92c f4bd a980 cb3d
00000060: 6fb3 d33c a66c 16be cbe0 02be 9e56 1fbe
00000070: 7b44 ab3d 02a3 0ebe ce80 dd3d 98a0 22be
00000080: f130 46bc 3c3d 0cbe 3be9 f6bd cf26 10be
00000090: f42c d7bd 2481 49bd 901b e9bd 52ad 09be
000000a0: 00fe 5cbd 315f 35be 08a6 76bd f0f5 ecbd
000000b0: 7d44 09be e184 c63d 8d6a e33c cd53 6b3d
000000c0: fdfb b03b 24e4 b03d da17 693d 22e4 ff3d
000000d0: b1b4 ed3d 72b4 e7bd 62ee 613c 28e2 ff3d
000000e0: 798a 173e 8487 4b3e be57 02bd 4c69 013d
000000f0: 8e12 8d3d a8dc a43d 822e 043d ce94 9c3d
00000100: 7bc7 cebc 328f 35bd 4469 003e 8b5d b8bd
00000110: 60cd 023c 3aeb 893d f825 463d 260a 1fbe
00000120: 02d0 593d e120 b03d d4ad 2dbe 438a 243e
00000130: f354 a0bd 26f9 1c3e edcf ee3d e98d 11be
00000140: 00c8 4fbe 72b1 3dbc 32e7 d7bd 9aaf 8f3c
00000150: e1aa 91bd 61b3 ed3c 026a e5bd ab7e 913c
00000160: d3fa a3bb ca34 07be b03f 30bb fa25 f5bd
00000170: a4be b3bd 7c42 bb3d b62d 263e e4fa 6c3d
-0.122752495 0.13810916 0.031223584 0.11864191 -0.080335274 0.05929543 -0.0054622227 0.105351515
-0.13819443 -0.18541592 0.12297082 -0.007954451 0.0627148 -0.13737854 0.091723606 -0.17414598
0.07377009 0.14638032 0.03201943 0.17002812 -0.023628583 0.0082059745 -0.1192264 0.09936649
0.025842397 -0.14689884 -0.12781064 -0.15560386 0.08362671 -0.1392937 0.10815583 -0.15881574
-0.0120966295 -0.13695234 -0.12056204 -0.14077304 -0.10506621 -0.049195424 -0.1138221 -0.13445023
-0.05395317 -0.17712094 -0.060216933 -0.11570346 -0.13405032 0.096933134 0.027760768 0.057452966
0.005401133 0.08637264 0.056907512 0.12494685 0.1160673 -0.11313714 0.013789745 0.12494308
0.14798917 0.19875914 -0.03182196 0.03159456 0.06888305 0.08049899 0.032270916 0.0764557
-0.025241604 -0.044326015 0.12540156 -0.09002217 0.0079835355 0.06734319 0.048376054 -0.15531215
0.053176887 0.08600021 -0.16960841 0.16068368 -0.07828703 0.15329418 0.116607524 -0.1421429
-0.20291138 -0.011577951 -0.10542144 0.017539788 -0.07112671 0.029016199 -0.1120186 0.017760595
-0.005004266 -0.13203731 -0.002689343 -0.11970134 -0.08776596 0.0914354 0.16228375 0.057856455

fc.6.bias f4 [3]
00000000: 2aa7 263e 2eff 28bd aee7 203e
0.16274706 -0.041258983 0.15713379
