dino_genetic_model1.pth (torch, 184416 bytes, 10 tensors)

fc.0.weight f4 [256, 6]
000000 1a c6 a6 be e6 ea 48 be 63 a9 36 3f d9 6f 48 be
       -0.32573014 -0.19620857 0.71352214 -0.19573916
000010 d6 8d 36 bd 6b 33 56 be 9d 0e 67 be 66 7c 01 bf
       -0.04456886 -0.20918052 -0.22564168 -0.5058044
000020 6b 0f d9 be c5 d0 81 be 8a fa 30 be fa ff 81 be
       -0.42394575 -0.2535459 -0.17283073 -0.25390607
000030 4a 81 6c 3f a6 dd 8e be d2 98 0f bf cc d9 25 bf
       0.9238478 -0.2790348 -0.5609256 -0.64785457
000040 38 5e d2 3d 06 e0 44 bf 76 c7 eb be 4c 94 87 3e
       0.10271877 -0.7690433 -0.46050614 0.2648033
000050 0c 91 33 be 34 2c 3f be 27 81 58 be d6 ef 9e 3c
       -0.175358 -0.18669206 -0.21143018 0.019401472
000060 df 53 5a be d6 e4 d7 3e a8 49 cc 3d 02 cf 4c 3f
       -0.21321057 0.42166775 0.09974986 0.8000337
000070 06 bf 7b 3d d5 df a7 be e1 8d 3b bf 6e 0c b2 3e
       0.06146147 -0.32787958 -0.73263365 0.34775108
000080 2c ab e8 be 26 5f 7d be aa 16 2c be 48 ef fa 3d
       -0.45443094 -0.24743327 -0.1680552 0.122526705
000090 d1 ae 1c bf e2 d4 81 bc fd 98 6c 3f 6e 39 eb be
       -0.6120425 -0.01584858 0.9242094 -0.45942253
0000a0 11 a0 ee 3e 9a 81 b1 3e e2 37 9c be ed 70 55 3e
       0.46606496 0.3466919 -0.30511385 0.20843859
0000b0 18 6f ba 3e 89 21 76 3f 18 40 fa be 12 f2 85 3e
       0.36412883 0.9614492 -0.48877025 0.26161247
0000c0 e2 ad ed be cd 4f 3e be 74 39 83 bd 82 ef ad 3e
       -0.46421725 -0.18585129 -0.06407443 0.33971792
0000d0 1a bd c2 3e 74 f2 18 bf e5 99 0c be d8 43 41 be
       0.38034898 -0.59744954 -0.13730581 -0.18873537
0000e0 af 17 11 3f 00 31 e3 3d e3 53 ad be ea 44 c8 3d
       0.56676763 0.110933304 -0.33853063 0.09778769
0000f0 c7 56 47 3f 5f 25 52 3e 88 aa 24 3f 35 c2 68 3d
       0.77866787 0.20522068 0.6432271 0.056825835
000100 08 b6 82 be 9a 10 23 3e 62 9d 31 3d 46 4f e6 bd
       -0.25529504 0.15924302 0.043362983 -0.11245589
000110 a7 f4 84 be 26 8f 3a 3f 06 b8 13 3f fa 7e fb bd
       -0.25967905 0.7287468 0.5770267 -0.12280078
000120 a0 92 09 be 2f aa 05 3f 89 2d 6d be 06 7d c4 3e
       -0.13434839 0.52212805 -0.23161902 0.38376635
000130 bd ce 18 3e 18 80 8b 3e c4 78 5f 3f db 5a f8 be
       0.14922614 0.27246165 0.8729365 -0.48506817
000140 11 fa 9c be bd f4 9c 3f 76 72 ed bd c2 bf 1b bd
       -0.30659536 1.2262188 -0.11594097 -0.03802467
000150 40 b3 75 3b 63 46 12 bf e1 d2 19 bf d0 7c cc be
       0.0037490875 -0.5713865 -0.600874 -0.39938974
000160 39 a3 0d be 00 45 76 3c 48 23 bf 3e 85 cd 38 3e
       -0.13831796 0.015031099 0.37331605 0.1804715
000170 a0 f2 2b bf e6 a4 61 3e 6a f2 fb bd e1 4f 01 bf
       -0.6716709 0.2203556 -0.12302096 -0.5051251
000180 d5 41 22 3f 03 71 0a bf 78 7b a5 3e 08 4a 49 3e
       0.633817 -0.5407869 0.32320762 0.19657147
000190 00 8b 53 bf 6e 24 82 be 70 54 b8 bd dd b0 8e bf
       -0.8263397 -0.2541842 -0.0900048 -1.1147724
0001a0 2e 86 6c 3f 42 9c 73 3e 1e a6 40 3f 8d b6 b9 3e
       0.9239224 0.23790076 0.75253475 0.36272088
0001b0 a9 44 96 bf ce 75 2c 3f bf 12 27 bf 1f 7b 12 bf
       -1.1739703 0.67367256 -0.6526298 -0.5721912
0001c0 92 82 0e 3f 00 d1 91 3f 0c aa 85 be 25 0b 8b 3f
       0.55667984 1.1391907 -0.26106298 1.0862776
0001d0 3a 8b 0a 3f 63 d9 09 3f 98 7c 13 be c5 49 79 be
       0.5411869 0.5384733 -0.14402997 -0.24344547
0001e0 80 44 48 3b a5 82 6e 3f e6 bd 07 3e d1 b1 99 3e
       0.0030558407 0.931681 0.13256034 0.30018476
0001f0 81 d8 d5 3e d4 70 f3 3c 0a 04 8f 3d 2c 66 5a be
       0.41766742 0.029716887 0.06983192 -0.21328038
000200 68 e2 9e bd 92 05 c4 3e fa f7 ba 3e af 7d d5 be
       -0.07758027 0.382855 0.36517316 -0.4169745
000210 58 60 d2 be cb 4e 4c 3e c8 42 d7 3d c8 d7 1d 3f
       -0.4108913 0.19951932 0.105107844 0.6165738
000220 94 0e c0 3e 5a b5 f6 be eb c8 16 3f 6a f8 3e 3d
       0.37511122 -0.48185235 0.58900326 0.046623625
000230 c6 87 b4 3c dd cf 08 3f 5a 12 92 3f 05 e8 a5 3e
       0.022037398 0.53442174 1.141185 0.3240358
000240 c4 96 ea 3e 40 88 1f 3b a4 3e 06 3f 2c 85 b9 be
       0.4581815 0.0024342686 0.5243933 -0.36234415
000250 ae df f5 be 11 1d f0 be 8d fa 9d 3e 70 60 fa bc
       -0.48022217 -0.46897176 0.30855218 -0.030563563
000260 21 b1 95 be 17 6d 84 3e 10 78 bb 3d de 34 9a 3e
       -0.292367 0.2586448 0.091537595 0.3011846
000270 5f 15 86 3d fd 6f 84 bd 0f 47 71 be 44 4e 98 3d
       0.06547045 -0.064666726 -0.23562263 0.07436803
000280 23 ad 83 3f b9 12 e7 3e 4e d1 87 3e 14 bb c8 be
       1.0287212 0.45131472 0.26526874 -0.3920523
000290 e9 5e d9 be 0e 54 e2 3e 66 c7 91 3d e9 0d 70 3e
       -0.42455223 0.44204754 0.0711811 0.23442806
0002a0 9c b1 0d bf 4c 7c d7 bc aa e6 b5 3e 78 17 e8 3e
       -0.55349135 -0.026304387 0.35527545 0.45330405
0002b0 c8 98 f2 bd 52 c3 02 3f b0 2b c4 3e ea 64 89 bd
       -0.11845547 0.51079285 0.3831458 -0.06708701
0002c0 d8 ac d5 3b f6 70 1c be 41 e3 21 3e 9b 9d 0d 3f
       0.0065208487 -0.15277466 0.15809347 0.5531861
0002d0 2a 10 9e be 5c 5c 25 3f 9a d3 62 3f 4c ab 1b be
       -0.30871707 0.64594054 0.8860413 -0.15202063
0002e0 04 f2 18 bf d1 ae 1d be 97 41 08 3f 39 95 39 3e
       -0.59744287 -0.15398718 0.5322508 0.1812333
0002f0 cf 90 2d bd ae f2 10 bd 82 54 aa be 38 65 93 be
       -0.04237443 -0.035387687 -0.332676 -0.2878816
000300 4c 1b 96 3e 95 d7 11 bf fb b1 bb be 7e 6d 39 be
       0.293177 -0.5696958 -0.36659226 -0.18108174
000310 6f 4e df 3e ca 90 16 bc c0 89 36 be 56 49 92 bf
       0.43614528 -0.009189794 -0.17825985 -1.142863
000320 e8 8c 21 bf fa 54 02 3f 7e 8c 86 3e 8c 71 12 3d
       -0.6310563 0.50910914 0.26279062 0.035752818
000330 30 55 26 3e 70 0f 8a be ba 01 cc be 08 6b 5d bd
       0.16243434 -0.26964903 -0.39845067 -0.05405715
000340 87 63 91 be 07 c3 84 be 87 c8 05 bf b9 36 81 3d
       -0.28396246 -0.25930044 -0.52259105 0.06309266
000350 0a e0 71 bd 57 ca ca 3e 8b ab 17 bf 6d e4 42 3e
       -0.05905155 0.39607498 -0.5924613 0.1903245
000360 cf 9a 56 bf 0c 81 91 bd 15 ae 7f bd 7c fe 05 3f
       -0.8382997 -0.07104692 -0.062421877 0.5234144
000370 68 bb 9d 3f 02 e9 e7 3e f7 48 20 3e a8 1a 4b 3b
       1.2322817 0.45294958 0.15652834 0.003099123
000380 95 ae f7 3e f7 a1 98 3e 67 5a 93 bd a2 2a 5e 3f
       0.48375383 0.2981107 -0.07194977 0.867838
000390 0d 17 f4 3d dc e6 82 be d0 1c 59 bf 32 e4 ab bd
       0.11918459 -0.25566757 -0.8480959 -0.08393134
0003a0 76 56 e4 bd 22 28 66 bf 58 74 e9 3c 9c 54 22 bd
       -0.111493036 -0.8990499 0.02849786 -0.03963147
0003b0 0c eb 03 be 07 8a 82 3e ce 38 d7 3c 91 81 5f be
       -0.12882632 0.25495932 0.026272204 -0.2182677
0003c0 6e 42 a6 3e 84 f3 18 3e d7 47 5c 3f 48 b4 9f be
       0.32472557 0.14936644 0.8604712 -0.3119223
0003d0 82 dd 1a 3e 9c 7f a2 be a6 40 91 be 5b da 8c bd
       0.15123561 -0.31737983 -0.28369635 -0.068775855
0003e0 27 fb 9e 3d e0 ee 9f be 66 d4 ea 3e de e2 25 3d
       0.07762747 -0.31236935 0.45865172 0.04049956
0003f0 37 a0 b9 bd dc f3 18 bf 02 48 16 bf 56 d2 1e bf
       -0.09063762 -0.597471 -0.58703625 -0.620397

fc.0.bias f4 [256]
000000 be 35 42 3e 8e e2 b7 be 2d e0 5b be ee b1 a7 bd
       0.18965814 -0.35915035 -0.21472235 -0.08188234
000010 b5 91 13 3e d5 f9 8a be 38 b6 31 3e 90 f5 4b be
       0.14411052 -0.27143732 0.17354667 -0.19917893
000020 44 7a 4a be 8c 15 16 bf 99 a6 bc 3e 26 b5 b1 bd
       -0.19773203 -0.5862663 0.36845854 -0.086771294
000030 71 5c f2 be 0d 45 78 3e dc 74 52 3d d6 6e f3 3d
       -0.47336152 0.24245091 0.051380977 0.11886375
000040 30 18 cc bc 10 1e 93 3d 97 50 fa be 9d ed e7 be
       -0.024913877 0.07183468 -0.4888961 -0.45298472
000050 ef fa c5 bd 96 95 ff 3c 1c cb ab 3d b5 b6 1e bf
       -0.096670024 0.031199258 0.083883494 -0.6199754
000060 6b 12 82 3e f3 ce f7 be 82 00 6c 3e 8d 58 ca 3f
       0.25404677 -0.48400077 0.23047069 1.5808274
000070 db 53 46 3f 55 31 18 3e c4 a3 4c bf 89 6b e8 3d
       0.77471703 0.14862569 -0.79937387 0.11348636
000080 a8 81 9d bd 52 37 ba 3d 3a 67 e4 3e 9c 1f 62 bf
       -0.076907456 0.09092583 0.44610006 -0.8832948
000090 e7 3a 02 bf 2c 99 90 be f2 49 0c bf ef 7a 89 3e
       -0.5087113 -0.2824186 -0.5480033 0.26851603
0000a0 6d a3 02 3f ba 47 f0 3e c8 8f b5 be e2 3b 6e be
       0.5103062 0.46929723 -0.3546126 -0.23265031
0000b0 c8 c1 01 3d 91 91 98 3f 74 3d 73 3d d9 86 fc be
       0.031678945 1.1919423 0.05938478 -0.4932163
0000c0 91 63 2f 3f 00 50 f0 be c2 89 1a 3e fe 24 f0 3e
       0.685113 -0.46936035 0.15091613 0.46903223
0000d0 52 5d 4e be 23 9c 81 be 20 bb 36 3f e7 c5 c2 be
       -0.20152786 -0.25314435 0.7137928 -0.38041613
0000e0 f0 0d 38 bf d6 40 10 3d be 76 5b be 54 f6 ae 3e
       -0.71896267 0.035218082 -0.21432015 0.34172308
0000f0 7a f1 e3 3d 0c 58 11 3e 58 26 bb 3c 9e a0 e3 3e
       0.111300424 0.14193743 0.022845432 0.4445848
000100 e8 79 6b 3d 60 b4 02 3f 52 b9 26 3f 45 ba 9e be
       0.057489306 0.5105648 0.65126526 -0.31001487
000110 14 0e 79 3e d1 41 b9 be e0 24 5e 3e d6 e2 0f 3e
       0.24321777 -0.36183026 0.21693754 0.14051375
000120 da 9f 57 be f1 1e 28 3f ec 58 89 be dc 1a 56 3f
       -0.21057072 0.6567221 -0.26825655 0.83634734
000130 34 28 f0 3d 92 95 6f bf b9 b1 10 bf e0 7a 98 3e
       0.11726418 -0.935876 -0.56521183 0.29781246
000140 66 5c 85 be 48 fd e6 bd 38 92 39 bd 5e 05 24 3f
       -0.26047057 -0.11278778 -0.04530546 0.6407069
000150 ae b5 b8 bd ba 6a 2b 3d 04 f0 9f bd cc 07 c3 be
       -0.09019028 0.04184983 -0.07809451 -0.38091886
000160 41 fd a3 3e b2 72 8b bd 6e bd 38 3e 77 8f 88 be
       0.32029155 -0.06808986 0.18041012 -0.26671955
000170 aa e4 76 bd 34 ef c9 3e d6 67 b6 3d c1 82 28 3e
       -0.060276665 0.3944031 0.08906524 0.16456129
000180 56 70 02 3e 7e 5a 82 3e 75 45 bb 3e 93 50 f1 3e
       0.12738165 0.25459665 0.3657643 0.47131786
000190 51 75 8b be b8 df 01 bf 6c 88 82 3e 62 90 7e 3e
       -0.27237943 -0.5073199 0.25494707 0.24859765
0001a0 81 4e bb 3e bd 21 a2 3e 58 f0 06 bf 64 a9 c2 be
       0.3658333 0.31666365 -0.52710485 -0.3801986
0001b0 88 c3 77 3e 11 79 c0 3e 7b 16 7c 3f 52 e4 54 bf
       0.24195683 0.37592366 0.984718 -0.8316089
0001c0 1e 70 e5 3e 43 96 21 3f 65 55 4d bf 60 9a b5 bd
       0.448121 0.63119906 -0.80208427 -0.08867335
0001d0 18 b1 0c bf e4 07 88 be a0 fa 2d bf dd 43 da be
       -0.54957724 -0.2656852 -0.6796055 -0.426299
0001e0 ec f0 99 3e f4 a2 17 bf 89 c5 5c be bc 7c 0b 3e
       0.3006662 -0.5923302 -0.21559729 0.13621801
0001f0 3a 04 fc 3e c8 b9 b0 be 1a 7a 9a 3e 4a 28 24 bf
       0.49221975 -0.3451674 0.3017128 -0.64123976
000200 44 39 b6 bc 14 70 86 bf 4d a6 36 bf e3 6a 0a be
       -0.022244103 -1.0502954 -0.71347505 -0.13517337
000210 cb c3 d7 be 33 e1 15 3e 36 9f e2 bd 80 b9 f4 be
       -0.42141566 0.14636688 -0.11065523 -0.47797775
000220 0a 38 37 3f 38 da 03 bf fd 86 27 3e d2 a5 5c be
       0.71569884 -0.5150485 0.16360088 -0.2154763
000230 ef 8a 8e be 72 5e d5 3d a6 68 11 bf 57 70 f3 3e
       -0.27840373 0.10418405 -0.56800306 0.47546646
000240 97 c0 48 3f 44 b2 eb bc d1 08 5e be 6f a7 95 3e
       0.7841887 -0.028771527 -0.2168305 0.29229304
000250 e3 db 6a bf bb 80 ae 3e 20 f8 32 bd ba 19 74 3e
       -0.9174177 0.3408259 -0.04369366 0.23837939
000260 b9 35 d2 3e 36 44 d4 be f8 92 83 be 80 0d a2 3e
       0.41056612 -0.4145829 -0.25698066 0.31650925
000270 02 81 9c 3c a8 cd dc bd 50 a5 e4 3e 84 fe c8 be
       0.019104484 -0.10781413 0.44657373 -0.3925668
000280 f7 50 81 3e b3 09 a3 3e 9d bf 0f 3f 0e 35 b1 bc
       0.25257084 0.31843337 0.56151754 -0.021631744
000290 e2 70 1f bf 5d ae 4c 3e ce 2d 58 be 58 eb cf 3e
       -0.6228162 0.1998839 -0.21111223 0.4060924
0002a0 fc ce b4 3e f4 73 b1 3e 34 58 a9 3e 8c 37 f4 3d
       0.35314167 0.34658778 0.33075106 0.11924657
0002b0 e5 38 96 3e ea c0 0a 3e cf 5b 8b 3e 37 2d 27 bd
       0.29340282 0.13550153 0.27218482 -0.040814605
0002c0 4b 97 8f be 3f 33 b8 3d f6 a6 0c 3d c3 21 45 3e
       -0.28045115 0.089941494 0.034338914 0.1925116
0002d0 90 23 bb be e7 2d ed bd 9b f2 ea 3d 9b 1b 39 be
       -0.3655057 -0.11581021 0.114720546 -0.18076937
0002e0 15 65 52 3c e7 a5 99 bd 5a c9 36 be d6 69 80 be
       0.012841483 -0.075023465 -0.17850247 -0.25080746
0002f0 32 5c 6f 3e dd c5 a8 3e e2 77 4a 3e 15 e8 db be
       0.23375013 0.32963458 0.19772294 -0.42950502
000300 54 13 72 3f 4b c5 b1 bd 4a fc 61 be d0 b4 3f 3c
       0.9456074 -0.08680209 -0.22068897 0.011700824
000310 38 0d 7d be 33 f0 11 3e 33 40 e2 3e 55 23 2d bf
       -0.24712074 0.14251785 0.44189605 -0.6763204
000320 6d 2d 45 3f 39 14 e9 3e 6e 0e d5 3e c1 69 a9 be
       0.7702244 0.4552324 0.4161257 -0.33088496
000330 5e 73 40 3f f1 89 3b bf 00 e4 07 bc 10 37 ee 3c
       0.75176036 -0.73257357 -0.0082941055 0.02907899
000340 0d 9a 05 3f e4 93 dd 3e 70 6a af be 18 1f 55 3e
       0.5218819 0.43276894 -0.34260893 0.20812643
000350 0f 52 13 3f 87 aa 48 bf da a2 07 3e 52 7a b7 3e
       0.57547086 -0.78385204 0.13245717 0.3583551
000360 3f 4b ac be d0 cf 26 bf ab e9 dd be 3b c9 bd bd
       -0.33651158 -0.65160847 -0.43342337 -0.09266897
000370 60 ef 2a 3c d6 c3 39 3d a2 a4 16 be db a3 00 bf
       0.010433048 0.04535278 -0.1471124 -0.50250024
000380 d3 19 89 3e ec 20 e6 be 11 6a b4 be db ce 9c be
       0.26777515 -0.44946992 -0.35237172 -0.30626568
000390 1d 58 ae be ad 26 9c 3e 08 f1 50 3e 00 56 00 3e
       -0.340516 0.30498257 0.20404446 0.12532806
0003a0 10 86 7d 3f ef da e2 3d d7 35 52 3f 7b f7 b2 3e
       0.9903269 0.110769145 0.82113403 0.34954438
0003b0 04 b3 38 3f d4 9e 7e bd d9 bf 3b be bf ca 0b bf
       0.72148156 -0.06216319 -0.18334903 -0.5460624
0003c0 23 4c 3b bf e0 e5 4e bf 23 47 e6 bd 6b 7e 29 3f
       -0.7316305 -0.8081951 -0.11244037 0.66208524
0003d0 9e 37 77 be d7 ff 0d bf 16 d2 02 3f aa 32 80 be
       -0.2414231 -0.55468506 0.51101816 -0.25038654
0003e0 a8 f8 b8 bd ef 2b 8d be 45 12 fc bd c8 df 93 be
       -0.090318024 -0.2757258 -0.12308172 -0.2888167
0003f0 1f f1 12 3f fe d4 9b 3c 62 1d 34 3f b4 7a f6 3e
       0.5739917 0.019022461 0.70357335 0.4814049

fc.3.weight f4 [128, 256]
000000 70 ae 2f 3d a2 f5 f1 bd ba dc d1 be 90 f2 e8 3b
       0.042890966 -0.11814429 -0.40988714 0.007108994
000010 f0 18 da 3e 3c 86 b8 be 55 89 20 be 54 62 ed 3d
       0.4259715 -0.36039913 -0.15677388 0.1159102
000020 8c 4a f4 3d 58 68 44 3d 23 a5 28 3f 54 2b 23 bd
       0.11928281 0.047951072 0.6587698 -0.039836243
000030 63 69 03 bf 64 4f 18 3d 9a be 0a 3e b4 72 a4 3d
       -0.5133268 0.037185088 0.13549271 0.080296904
000040 7d 7e 70 3f e8 ae b5 3d e9 97 16 bf c6 d0 91 3c
       0.93943006 0.08871251 -0.58825547 0.017799746
000050 10 39 15 3d ad e7 d9 3e cf ce 1c bf 7d 5d 2e 3f
       0.036431372 0.42559567 -0.61253065 0.681114
000060 68 ea 42 3e 6c d6 e1 3d 3a 13 56 3e d0 7c 8d be
       0.19034731 0.11027226 0.20905772 -0.27634287
000070 e4 5d 2a 3e fa 1d 30 be 74 01 c7 bd 7e 71 64 3d
       0.16637379 -0.17198935 -0.09717074 0.055772297
000080 f2 90 99 3d 18 fb 58 3e 60 23 80 3e 7d 84 d1 bc
       0.07498349 0.21189535 0.2502699 -0.02557587
000090 ee a7 31 3f 20 a6 41 3c 46 8b 3a 3e 56 55 e2 bd
       0.69396865 0.011819392 0.18217191 -0.11051433
0000a0 64 47 83 bd 7e ee ef be 99 2f dd 3d bb 54 82 be
       -0.06410101 -0.46861643 0.10800094 -0.2545527
0000b0 82 cf 54 3e ec 20 89 3e e3 ec 53 be 8f a0 f3 3e
       0.20782283 0.2678293 -0.20695834 0.47583434
0000c0 de 2d 42 3d 93 cc 69 be 40 e8 cf bb fb a0 a3 bd
       0.047407024 -0.22831945 -0.006344825 -0.07989689
0000d0 fa 08 41 be e6 31 04 3e 6c 39 18 3e 68 8b e5 3c
       -0.1885108 0.1290966 0.14865655 0.028020576
0000e0 44 6f 5c 3e e4 e1 24 3c f7 d2 03 bf 2c 5c 90 be
       0.2152682 0.010063622 -0.5149378 -0.28195322
0000f0 b6 96 48 be 69 cf 13 bf c8 64 ad 3e f6 74 e8 bd
       -0.19588742 -0.5773836 0.33865952 -0.113504335
000100 f0 8d 1e bf 8b 9b e7 3e 09 86 96 bd 12 03 cc 3e
       -0.6193533 0.45235857 -0.07349784 0.39846092
000110 91 46 bc 3e 41 98 e2 be 7f 37 c0 3e c3 0a b2 be
       0.36772588 -0.44256786 0.3754234 -0.34773836
000120 89 55 f7 3e 72 07 d9 be 3a ac ae bd 95 68 ca be
       0.48307446 -0.42388493 -0.08528943 -0.39532915
000130 cc d0 f9 be ae d2 dd 3d 94 f3 6e bf b0 72 91 be
       -0.48792112 0.108311996 -0.9334042 -0.28407812
000140 fa d3 d8 be e2 3b 16 be ff fb 92 3e bf 95 6f 3e
       -0.42349225 -0.14671281 0.28707883 0.23396967
000150 29 e4 89 be 60 37 3a bf 94 3d 05 3e 24 be d8 be
       -0.26931885 -0.72740746 0.13011771 -0.42332566
000160 3e 7a a4 be 26 0a da 3d 56 ca 8c be 4b 94 8d 3e
       -0.32124513 0.10646467 -0.2749812 0.276522
000170 26 0f cd 3e 16 c5 29 bd 5b 4d 16 3f b4 c8 c3 3e
       0.4005062 -0.04144772 0.58711785 0.38239062
000180 e4 bc 27 3e f4 e3 a2 bd b0 d6 07 3e 31 ea df 3e
       0.1638065 -0.07953635 0.1326549 0.4373336
000190 6a cd 15 be ae 9d 3b 3e 75 41 a5 3e 30 b6 4d bd
       -0.1462914 0.18321869 0.32276502 -0.050222576
0001a0 cd 3a 18 3d a8 95 8e be 89 1f 88 3e 68 55 cd bc
       0.03716545 -0.27848554 0.2658656 -0.025065139
0001b0 1c 9e 64 3e d1 1f b7 bd ba ed 78 3d a4 d3 57 3e
       0.22325939 -0.089416154 0.06077359 0.21076828
0001c0 41 6d 25 be df 64 a4 3e 19 4b 34 bf 83 2d 3b 3f
       -0.16154958 0.3210821 -0.7042709 0.7311632
0001d0 de 9a 00 3e c0 8a d7 3e e4 53 c2 be 86 0c ac 3e
       0.12559077 0.42098045 -0.37954628 0.33603305
0001e0 3c 3b 8c 3e 8f 11 a4 be 02 3f db 3e 68 55 36 3d
       0.27388942 -0.32044646 0.4282151 0.044515043
0001f0 52 f5 2d bd da fe 57 3f 90 7d 70 bc b7 6d 16 be
       -0.042470284 0.8437325 -0.014678374 -0.1469029
000200 a5 c8 cc be 2c b7 a5 bd ff fb 93 bd 0a 6f 31 be
       -0.3999683 -0.08091578 -0.07225799 -0.17327514
000210 91 24 4c 3e 21 16 86 3e 8f 57 05 bf c4 05 12 3e
       0.19935824 0.26188758 -0.5208673 0.14260012
000220 42 ef 4c be 93 e6 db be 58 ba f8 3d 30 74 76 bc
       -0.20013145 -0.42949352 0.12144917 -0.01504235
000230 77 df b0 3e 74 21 56 3e e4 a8 e5 be 74 aa d0 3e
       0.3454549 0.20911199 -0.44855416 0.40755045
000240 e3 db f3 3e 42 d7 5f bd 64 ff af 3e d1 46 97 3e
       0.47628698 -0.054648645 0.34374535 0.29546216
000250 b8 4b 90 3e 42 bc 5d be 91 d0 95 be 39 fb 55 be
       0.2818277 -0.21653846 -0.29260686 -0.20896615
000260 08 f0 08 3e c9 ad 00 3f a2 a6 23 3c 3a e9 81 be
       0.13372815 0.50265175 0.009988459 -0.2537325
000270 c5 cf 29 3f ad 58 65 3f e1 fa b7 bd 57 9f af 3d
       0.66332656 0.89588434 -0.08983398 0.085753135
000280 f6 5d 18 be fb 2c 8d 3e 3c a9 21 3f 75 25 20 3e
       -0.14879593 0.2757338 0.63148856 0.15639289
000290 a0 13 43 3d 80 e3 cf ba 1a 75 0a 3f c5 02 e1 be
       0.047626138 -0.0015860647 0.5408493 -0.43947425
0002a0 6b 3d 2d 3f cd 88 b4 3d d3 73 b7 3e 2f 8d 1c 3e
       0.6767184 0.08815155 0.35830554 0.15288232
0002b0 b6 3e 21 3c 78 75 1d bf d2 c2 a8 bd 59 22 b9 be
       0.009841612 -0.6150737 -0.08240284 -0.36159018
0002c0 77 e5 70 bf 1f 15 bd 3d ca ea 26 3f fb 59 18 3e
       -0.94100136 0.09232544 0.6520201 0.14878075
0002d0 43 2e 8c be 38 98 b8 3b a9 95 d3 be 3c 2d 23 3e
       -0.27379045 0.0056333803 -0.4132512 0.15935224
0002e0 91 3f 7c 3e d4 2e 4b 3e 32 7b d7 be 53 76 5c 3d
       0.24633624 0.19842082 -0.42086178 0.05382378
0002f0 ce 97 31 3d 7c 30 d1 3e e4 16 8c be 4b d8 63 bf
       0.043357663 0.40857303 -0.27361214 -0.8900191
000300 26 6f 31 bc 90 f4 4e 3c 8b cf dc be d4 91 ae 3c
       -0.0108297225 0.01263155 -0.43127093 0.02130977
000310 cd 65 bc 3e 67 4e 27 bd 08 0e 02 3e 60 78 6e be
       0.36796418 -0.040846255 0.12700665 -0.23288107
000320 1c 6c fe be dc d4 a0 3c 3a 91 82 3e 34 1e c0 3c
       -0.49691856 0.01963275 0.25501424 0.023451902
000330 f2 c5 4a 3e 80 64 73 3d b0 ee 3e 3f 8c 6a 87 3e
       0.19802073 0.059422016 0.7458296 0.26448476
000340 a1 63 96 3d b5 36 68 3e 75 12 d3 be bf 71 f9 be
       0.073432215 0.22677119 -0.4122502 -0.48719594
000350 dd a7 81 be 69 0f bd 3e c0 51 5a 3b 12 c7 31 bf
       -0.25323382 0.3692582 0.0033312887 -0.6944438
000360 ec 30 18 bf b6 36 11 3d 56 86 65 be 36 42 71 be
       -0.5944965 0.035452567 -0.22414526 -0.23560414
000370 ec c2 22 3d 9a e3 0e be 4e 79 66 3e 71 dc b6 3e
       0.039736673 -0.1395401 0.22507212 0.35715058
000380 cc 00 59 3e 26 f5 5b 3f a6 a2 97 3d 22 78 9e be
       0.2119171 0.8592094 0.074040696 -0.3095103
000390 fe 1e 23 bd a6 4b cf be 5e 3f ca 3e f0 f6 dc 3d
       -0.03982448 -0.40487403 0.3950147 0.10789287
0003a0 bf 29 74 bc c2 b0 ee 3d 41 d6 81 be 42 b9 d4 3e
       -0.014902531 0.116548076 -0.25358775 0.4154759
0003b0 5c 58 3f be 08 60 b8 be b8 31 d1 be 1a f6 aa 3e
       -0.1868605 -0.36010766 -0.40858245 0.33390886
0003c0 de 87 00 be 7b 91 aa be 83 d6 34 bf 14 15 2f 3e
       -0.12551829 -0.33314118 -0.7063982 0.17097884
0003d0 8e b7 c5 be de 18 0e 3d 23 bb dc 3e 92 87 8f 3e
       -0.38616604 0.034691684 0.43111524 0.2803312
0003e0 02 f1 08 bf 34 0d 8d 3e b5 86 c9 3e 20 cc b6 3e
       -0.5349275 0.27549136 0.39360586 0.3570261
0003f0 5a dc 33 be d2 b2 a1 3e 4d c6 29 3e e2 09 0c bf
       -0.17564526 0.31581742 0.16579552 -0.5470258

fc.3.bias f4 [128]
000000 d6 5c 29 3e c3 c4 24 3e 9f 7c ff be 20 d3 e0 be
       0.1653932 0.16090684 -0.49899766 -0.43911076
000010 cf 4d d6 be 00 10 fa be 08 61 70 be 48 54 a0 be
       -0.41856238 -0.48840332 -0.23474514 -0.31314301
000020 52 41 8b bc 68 95 a4 be 9c eb 56 3e 03 5e cc 3e
       -0.01699892 -0.32145238 0.20988315 0.39915475
000030 77 43 ea 3e e2 2a f6 bc 6b 98 3e bd c8 87 51 bd
       0.45754597 -0.030049745 -0.046532076 -0.05115488
000040 44 0c bd be f7 a2 c0 bd 61 a3 64 3e 98 cc 03 be
       -0.3692342 -0.09406083 0.22327949 -0.12871015
000050 54 7b ef 3e 19 4e 92 be 27 22 68 be 57 d0 3b be
       0.4677378 -0.2857521 -0.22669278 -0.18341194
000060 ad 06 72 3e ba 95 41 3d d8 83 bf 3e 4e b5 38 be
       0.23635359 0.04726193 0.37405276 -0.18037912
000070 4b 2d 20 be 40 d0 d5 3c 2e 52 b7 3e f7 d2 30 3e
       -0.15642278 0.026100278 0.35804886 0.17267977
000080 d7 47 cb bd b2 73 95 bd b8 b7 62 bc 54 81 0b be
       -0.09925812 -0.07297458 -0.013837747 -0.13623554
000090 7c bd 16 3f 19 6f a8 3d a2 44 0a 3d a4 95 78 bd
       0.5888288 0.08224315 0.03375686 -0.060689583
0000a0 4a 23 60 bf 82 e8 76 be 78 f0 3f 3c f8 49 1e bf
       -0.87553847 -0.24112132 0.011715047 -0.6183162
0000b0 bd ca 4a be ae 41 fc be 0b 86 12 3f a4 a2 2e 3d
       -0.19803901 -0.4926886 0.57235783 0.042635575
0000c0 0b 03 be be 1c 84 ac 3e 12 73 42 3e bc f5 c7 3d
       -0.37111697 0.3369454 0.18989208 0.09763667
0000d0 17 19 77 be c8 53 e3 3d 80 07 d6 3d 3c e4 ae bc
       -0.24130665 0.110999644 0.10450649 -0.021349065
0000e0 57 4d b2 3e de 33 5b 3e a8 3f af 3e 48 4b 66 3e
       0.3482463 0.21406505 0.34228253 0.22489655
0000f0 98 eb 18 3e b8 e9 d0 3d a5 f8 ac 3d 19 9b 71 3d
       0.14933622 0.10200828 0.08445863 0.058985803
000100 40 10 40 3b e4 77 d3 3e 3a e5 c3 3e fa d5 0a bf
       0.002930656 0.41302407 0.38260823 -0.5423275
000110 fa 09 94 3e 0b 2c 8f be f0 e0 4b 3e 1c 85 a6 3d
       0.28913862 -0.2796329 0.19910026 0.08130857
000120 2d 7d 00 3e 23 c2 9e 3d 85 9c 82 bf 7c 80 a9 3e
       0.12547751 0.077518724 -1.0204016 0.33105838
000130 0a 62 ea 3d 2d de 08 be 79 15 17 3f 3e 0f 3b 3f
       0.11444481 -0.13366003 0.5901714 0.7307013
000140 6e d8 bd be 35 a5 42 bf 9e 2b 08 bf 71 1a 09 bf
       -0.37079185 -0.76033336 -0.53191555 -0.5355597
000150 a7 0b 5b be 24 62 48 bd 3c b5 7d 3c 00 40 7f b8
       -0.21391164 -0.04892172 0.015485104 -6.0856342e-05
000160 ba bc 00 3d a4 52 a3 3d 67 18 1b 3e 2d b3 c6 be
       0.031429984 0.07974747 0.15146028 -0.38808575
000170 87 5a 9f bd c0 36 1e be 9b 88 0c 3f 05 8a 5f be
       -0.077809386 -0.15450573 0.54895943 -0.21829994
000180 94 2a 11 3d 4c a7 4e bc a8 3c 3b 3f 94 a8 32 3d
       0.035440996 -0.012613129 0.7313943 0.0436178
000190 60 07 6c 3e 40 87 e4 3a 84 24 83 3f e0 54 c9 bb
       0.23049688 0.0017435327 1.0245519 -0.006144151
0001a0 d3 92 8b 3e e0 4c 87 be 97 cd fd 3d 3c 1e 2c bf
       0.27260455 -0.26425838 0.12392729 -0.67233634
0001b0 83 95 1a 3f c4 3e a2 3b 91 26 67 3e 73 ba fa 3e
       0.60384387 0.00495133 0.22573306 0.48970374
0001c0 69 db 85 3d 34 4d 36 3d a2 75 52 3e 10 a0 0a 3f
       0.0653599 0.04450722 0.20552686 0.54150486
0001d0 71 7f 9e be 05 ea c1 3e 00 fd 2a bb 6c 5c c0 be
       -0.30956605 0.37873855 -0.002609074 -0.37570512
0001e0 b9 99 cb 3e 88 e9 61 bc f2 78 51 bf f0 f2 89 3e
       0.3976572 -0.013788588 -0.8182517 0.2694316
0001f0 3b a2 9b 3e 07 b2 4e be 5c 34 73 3e 12 ed 08 3d
       0.3039721 -0.201851 0.23750442 0.033429213

fc.5.weight f4 [64, 128]
000000 eb 67 24 bd 02 13 d2 3e fa 9e db bd f9 e2 1f bf
       -0.040138166 0.41030127 -0.10723682 -0.6245571
000010 6c e8 5e bf 13 20 1f be 01 33 be 3e c6 05 2a 3f
       -0.870734 -0.15539579 0.37148288 0.6641506
000020 b4 30 07 bf a0 ff f2 3c 00 4a 89 3e 0a 3c 36 bf
       -0.5280869 0.029662907 0.2681427 -0.7118536
000030 8c 32 b5 3e 3d 66 50 be 37 b1 0e 3e 00 c7 ef bc
       0.35390127 -0.20351501 0.1393479 -0.029269695
000040 05 f4 09 3f 90 9b 50 bd da e3 ec bd 6c c8 b8 3e
       0.5388797 -0.050929606 -0.11566897 0.3609041
000050 15 06 21 bf 2e 16 3f bd 80 37 37 be 31 bc 10 3e
       -0.62899905 -0.04665201 -0.17892265 0.1413429
000060 8e 8d fb be 20 6f a2 3d 2b 19 dd 3e 25 c0 ee 3e
       -0.49131435 0.07931352 0.43183264 0.4663097
000070 a2 4f a5 3c 8a 00 d0 be 16 0c d6 be 55 48 1f 3e
       0.020179573 -0.4062541 -0.41806096 0.15554936
000080 d0 bd 15 bd d9 4f 93 be 58 a7 44 3f 98 cd 74 be
       -0.036557972 -0.28771856 0.76817846 -0.23906553
000090 80 e4 0f bf fc 59 26 3e 58 09 9d 3d 4a b3 9c be
       -0.5620804 0.16245264 0.07667798 -0.30605537
0000a0 85 00 19 be ff 5b 1f 3e fc a7 65 3f 39 44 2b 3f
       -0.14941604 0.15562437 0.8970945 0.66900975
0000b0 17 99 bd 3d 5d d7 d4 be 23 e9 07 bf 08 51 0d bf
       0.09257715 -0.4157056 -0.53090113 -0.5520177
0000c0 7b b3 d0 be 2e 42 9d 3e b1 24 8b 3e 7b 44 d5 3e
       -0.40761933 0.30714554 0.2717643 0.4165381
0000d0 1e 0e 74 bd 43 a7 0a 3e a5 3c df 3e e6 06 e8 bd
       -0.059583776 0.13540368 0.43600956 -0.11329441
0000e0 94 fa ab bd 1a 7a d6 3e 0b 2c c9 be 4c 15 fe 3c
       -0.08397403 0.4189003 -0.39291415 0.031016015
0000f0 9e 68 61 3e e1 71 76 be c0 bb 2c 3e 00 7e fd b9
       0.22012565 -0.24066879 0.16868496 -0.00048349798
000100 5c 25 95 3f 2b b0 e4 3e 83 0d a1 3e 2d be f3 3c
       1.1652026 0.44665655 0.3145562 0.029753769
000110 4f 8b 1e 3e 75 93 04 3f e1 da 8a 3e d8 2b ca 3e
       0.1548283 0.517875 0.27120116 0.39486575
000120 38 8a 96 be 02 dc 05 3e 60 b1 76 bf 4c 65 0a bf
       -0.29402328 0.13072208 -0.963644 -0.54060817
000130 5e 9b 78 3d dc 5c 87 3f c0 b4 b2 3c 7a d0 ba 3e
       0.060695045 1.0575213 0.021814704 0.3648718
000140 47 8c 24 3e 78 7f 03 bc ee 0e e4 3e da 2c 6e be
       0.16069137 -0.008025996 0.4454264 -0.23259297
000150 b4 7b 81 3e 63 b5 50 3e cc 22 85 3c 3a 7b 24 3e
       0.2528969 0.20381694 0.016251944 0.16062632
000160 10 09 01 3e 86 94 99 3d da cd f4 be 72 eb b8 be
       0.12601113 0.07499032 -0.47813302 -0.3611713
000170 3e 7c eb bc e4 a4 a7 be 10 d0 99 3b 17 f0 30 3f
       -0.028745767 -0.3274299 0.0046939924 0.6911635
000180 d7 62 93 3e 35 56 42 bf 5b ab 21 be bc 1d 8f bc
       0.28786346 -0.7591279 -0.15788023 -0.017470233
000190 fb be cb 3d 22 1c ae 3e f0 a1 d4 3e 40 72 8c 3e
       0.09948536 0.3400584 0.41529799 0.27430916
0001a0 f8 6a 09 be 03 40 56 be 74 2a 17 3e f2 f3 88 be
       -0.13419712 -0.20922856 0.14762288 -0.26748616
0001b0 07 1a 6a 3e a8 8d 91 3e 9b 0a 5b 3f 7b 8f 04 3d
       0.22861491 0.28428388 0.8556306 0.032363396
0001c0 82 c4 b3 3d 70 2c b1 3e 0a 46 52 3e 10 25 05 bf
       0.08777715 0.34604216 0.2053453 -0.5200968
0001d0 39 46 8f 3e 32 24 0b 3f 3a ad 9e 3d 76 9a 02 3f
       0.27983263 0.54352105 0.07747884 0.5101694
0001e0 02 64 10 be d6 69 93 bf 6b 45 da 3e ac 09 f5 be
       -0.1410065 -1.1516674 0.42631087 -0.47858942
0001f0 95 84 85 be d9 44 ff 3e 2a 02 28 be 25 d4 9e be
       -0.26077715 0.49857214 -0.16407076 -0.31021228
000200 88 ea 01 bd 11 8d 02 3d 9b a0 a8 be dd cc c2 be
       -0.031717807 0.031872813 -0.32935032 -0.38046923
000210 b6 00 0c bf 8d 0c e3 3e 19 4a 29 bf ec 9e e3 3e
       -0.54688585 0.44345513 -0.6612869 0.44457185
000220 76 8b 23 bf d8 81 b3 be d4 2c 2e be 00 40 7f be
       -0.63884676 -0.3506 -0.17009288 -0.24926758
000230 f0 bb 20 3e 52 77 41 3e 5f 5d a3 3e d8 1c 97 3e
       0.15696692 0.18893173 0.31907174 0.29514194
000240 7b ab b2 3c 0e c6 cf 3e 98 b5 ac be f8 02 c2 be
       0.021810284 0.4058079 -0.33732295 -0.3789289
000250 32 06 4c 3d 41 a1 fc be 80 fa bb be 0f 8e f1 3d
       0.049810596 -0.49341777 -0.36714554 0.11794674
000260 3a 48 60 be 4d ca 8b 3e 5e b0 97 be 80 0a ca 3e
       -0.21902552 0.2730278 -0.29626745 0.39461136
000270 c3 6e 12 bf da a9 bd 3d 11 4f 37 bf 38 ff af 3c
       -0.5720026 0.09260912 -0.7160502 0.021484002
000280 3d 32 b0 be 16 31 78 bd fa 34 61 be 41 ab 2a 3e
       -0.3441333 -0.060593687 -0.21992865 0.1666689
000290 53 14 cf be f4 58 0c be 9c 15 18 3d 57 fa 98 3e
       -0.40445194 -0.13705808 0.037129983 0.29878494
0002a0 97 3b 24 bf 7a df 54 3f fb bd d6 3e b1 01 f0 3e
       -0.64153427 0.831535 0.4194182 0.4687629
0002b0 03 6b be be 49 c8 7d be 2f 77 1a 3f 06 7e 62 be
       -0.37191018 -0.24783434 0.6033811 -0.22118387
0002c0 3b bb 50 3e 92 ac b9 bd 4a fa 6c be 21 fd d3 be
       0.20383923 -0.09066118 -0.23142353 -0.4140406
0002d0 82 7e bc bd 08 99 46 3e 70 34 d1 be 17 fa 9a 3f
       -0.09203817 0.19394314 -0.4086032 1.2107571
0002e0 42 6a df be a0 11 b3 bb 00 82 6b be d2 2d b3 bd
       -0.43635756 -0.0054647475 -0.2299881 -0.08748974
0002f0 30 7e a0 3b 99 ee d6 3d 0f 6b 06 bd a4 81 c2 be
       0.004897855 0.10494728 -0.032816943 -0.37989533
000300 e9 70 b3 3e ea d4 1e 3f ab 16 0a 3f f1 78 76 3e
       0.3504708 0.6204363 0.5394084 0.24069573
000310 6b 92 03 3f 00 1d 31 3d 69 b3 31 3f c2 7e 16 bf
       0.5139529 0.043240547 0.69414383 -0.5878717
000320 32 0f e5 3d ce b9 ae be 94 b5 78 be 23 fc 61 be
       0.11184539 -0.34126133 -0.24288017 -0.22068839
000330 5a 48 fd be 68 67 63 3d fe 92 c7 bd 29 f5 2c be
       -0.49469262 0.055518538 -0.097448334 -0.16890396
000340 1c 8a 25 3e 8e 9c 83 be 9a e5 26 bf b2 45 35 be
       0.16165966 -0.2570538 -0.65194094 -0.17702368
000350 29 7f 4e be fd aa 09 3f 3f 86 a2 be b7 3a e2 3e
       -0.20165695 0.5377653 -0.31743047 0.4418542
000360 32 f8 0c be 56 eb 41 bf c2 ab 2d 3e 24 28 d0 3e
       -0.13766554 -0.7574972 0.16960052 0.40655625
000370 82 1c 1a 3f 0c ea c6 bc 75 78 45 be 28 71 22 3f
       0.6019975 -0.024281524 -0.19284232 0.6345391
000380 9f d9 dd bd da be 2b bd 94 11 56 3e 2e 65 26 bf
       -0.108325236 -0.041930057 0.20905143 -0.6499814
000390 66 d3 19 bf b0 97 11 3f 7f f2 36 3e 3d bd 16 bf
       -0.60088193 0.5687208 0.17865942 -0.58882505
0003a0 64 b8 47 be 24 ba b6 3e 72 54 cc 3e 5f cc f3 3c
       -0.19503933 0.3568889 0.39908177 0.029760538
0003b0 da 2f 85 3c 35 9f 25 bf b0 1a ab 3c c0 90 15 be
       0.016258169 -0.64696056 0.020886749 -0.14605999
0003c0 c7 54 f7 3d 26 b0 3c 3d 8c 40 22 bf 3c 55 0f bc
       0.12076717 0.046066426 -0.6337974 -0.008748349
0003d0 0c c4 e9 3e 4e e4 a1 be d7 8f 0b bf 7e f1 99 3e
       0.45657384 -0.31619495 -0.5451636 0.30067056
0003e0 03 13 2e 3f 09 3b df 3e de 56 c7 be 64 ec 81 3d
       0.6799776 0.43599728 -0.38933462 0.06343916
0003f0 ac d9 ac 3d f0 50 41 3f d0 a4 07 3e f6 9c 0b 3e
       0.08439955 0.75514126 0.13246465 0.13634095

fc.5.bias f4 [64]
000000 2e 26 5d 3e 8c 8f 6e bf 7c 7b e4 bd 5f 15 04 bd
       0.21596596 -0.93187785 -0.11156365 -0.032246944
000010 cf a7 74 be 1f 29 b0 be fa 2f 07 3f 59 54 b3 bd
       -0.23892139 -0.34406373 0.5280758 -0.087563224
000020 6c bc 41 3e 79 83 12 bf 17 31 3b 3e 3b 3f ba 3e
       0.18919533 -0.5723186 0.18280445 0.36376366
000030 f2 8d b5 3d dd 5d cd bd df 25 2a bf 8a b4 7f be
       0.088649645 -0.100276686 -0.66464037 -0.24971214
000040 f7 9a 75 bd 97 2b d8 be 7e 03 b5 3e 70 6a 55 bc
       -0.05996224 -0.42220756 0.35354227 -0.013025865
000050 40 d7 4f 3e fb 8c d2 3e 45 85 e5 3e 1c 08 c3 3e
       0.20296955 0.41123185 0.4482824 0.38092124
000060 81 ae af bd b1 c1 d2 be e1 0a ef 3e b5 4a 32 be
       -0.08578206 -0.411634 0.46687987 -0.17411311
000070 7e 1b 5d be d6 79 0c 3f a9 af 2c bf fc cc b5 bd
       -0.21592519 0.54873407 -0.67455536 -0.08876988
000080 f0 19 83 3c a0 b8 e1 3a 60 c7 c7 3d cb ee f5 be
       0.016003579 0.001722116 0.09754825 -0.48033747
000090 5e 84 7c 3d f0 a7 a3 be 17 4a 1a 3f af b7 0f 3e
       0.061649673 -0.31964064 0.602693 0.14034913
0000a0 8a a2 37 bf 62 49 88 be 43 7b b5 be 0e dd e8 bd
       -0.7173239 -0.26618487 -0.35445604 -0.11370288
0000b0 49 41 7f be 7c 50 0f 3e cc 61 03 3e 63 44 9f 3e
       -0.24927248 0.13995546 0.12830275 0.31106862
0000c0 ac 4b 8b be a9 3e 90 bf 05 89 90 be 61 d2 14 3f
       -0.2720617 -1.1269122 -0.28229538 0.5813351
0000d0 b4 bb 36 bf 8c aa c9 3e c7 80 71 3e 37 15 cf bd
       -0.7138016 0.3938793 0.23584281 -0.10111468
0000e0 a9 7d f2 bd 79 41 87 be b1 49 9c 3e 62 a4 cb be
       -0.11840374 -0.2641714 0.30524972 -0.39773852
0000f0 f0 0d 0b 3c b0 b0 59 bd b8 72 11 3f 0a 4d cc be
       0.00848721 -0.053147018 0.5681567 -0.39902526

fc.7.weight f4 [32, 64]
000000 a7 60 19 bf 05 74 0e be 06 33 41 3e 08 7f b2 be
       -0.59913105 -0.13911445 0.1886712 -0.34862542
000010 31 5c 9a be b3 39 a4 3e a0 35 a8 3e 1c 76 18 3f
       -0.3014846 0.3207527 0.32853413 0.5955522
000020 2e b5 8b bd 05 53 52 be 94 d8 ae be e6 98 b3 3e
       -0.06821667 -0.20539482 -0.3414961 0.3507759
000030 fb ed 2d bf 2b d6 18 bf 12 e1 a7 be 20 cd 96 bd
       -0.67941254 -0.59701794 -0.32788903 -0.07363343
000040 80 5b a3 be 9b a0 86 be 55 cf fc be e0 02 7a 3e
       -0.31905746 -0.26294407 -0.49376932 0.24415159
000050 74 fd e3 be 08 5e 8c bc b9 ba ef 3e 39 51 fc 3d
       -0.44529307 -0.017134681 0.46822146 0.123201795
000060 7a 13 0c 3f 5e 70 bb bd fe d3 34 be 19 93 43 3f
       0.5471722 -0.09152292 -0.17658994 0.7639633
000070 b4 c6 c6 3e 06 74 fa bd 2c d9 92 3e aa b2 67 be
       0.38823473 -0.12229161 0.28681314 -0.22626749
000080 20 c4 be 3c a5 ef 00 be 98 f0 c6 bd 0a ab 76 3e
       0.023286879 -0.12591417 -0.09713858 0.24088684
000090 ea 0a d7 bd 70 92 bb bc 9b c9 03 be 00 cb c7 b9
       -0.105001286 -0.022896975 -0.12869875 -0.00038107485
0000a0 84 4a 67 3e 72 de 24 3f 99 53 cd 3e 26 ab 84 3d
       0.22587019 0.64401925 0.40102842 0.064779565
0000b0 b7 74 4f be b8 88 17 3e 62 ad 2d bf 59 16 24 3f
       -0.20259367 0.14798248 -0.67842686 0.640966
0000c0 d8 ae 28 3e 4c b4 07 be 06 e7 ea 3e 67 ef 83 bd
       0.16472948 -0.13252372 0.45879382 -0.06442147
0000d0 be 44 37 bf f6 56 0c bf ca 59 aa 3d e2 bd 32 bd
       -0.7158927 -0.5482019 0.08317907 -0.043638118
0000e0 30 59 d4 be 76 fd 8e be ff d9 c0 bd 28 f4 2b 3e
       -0.41474295 -0.2792775 -0.094165795 0.16792357
0000f0 69 85 c9 be 2e f7 40 3d 36 24 9a bd 64 67 18 bc
       -0.39359596 0.04711073 -0.07526438 -0.009301994
000100 32 5e 70 be 11 93 58 3e 9e f1 fa be 30 d2 b3 3e
       -0.23473433 0.21149851 -0.49012464 0.35121298
000110 d4 c5 6f be f7 a2 03 be a2 14 37 3d ba 05 52 3e
       -0.23415309 -0.12855135 0.04469741 0.20509997
000120 ef 61 14 bf fe 62 c8 3d 19 b0 b0 3e 78 18 b9 3e
       -0.57961935 0.09784506 0.34509352 0.3615148
000130 56 17 c1 3e 3b b9 25 3f 00 f6 ad 3e 6f da 1e 3e
       0.37713116 0.64735764 0.33976746 0.15513013
000140 7e 9d fc bd fc fb 42 bf f6 21 d7 3e d1 6c ca 3e
       -0.12334727 -0.7616575 0.42018098 0.39536145
000150 2a b0 56 bd a2 78 87 3e 23 91 1d bf 9c 5e fb 3e
       -0.052414097 0.26459223 -0.61549586 0.4909562
000160 f0 d2 ae 3e a4 ad 10 bf 84 70 01 be ec 8a 6d 3d
       0.34145308 -0.56514955 -0.12640578 0.057993814
000170 e0 c8 b1 be ea 43 b9 3e 2d e0 30 bf 6e 28 f2 3d
       -0.34723568 0.36184627 -0.69092065 0.118241176
000180 2e ce 9d bd f7 44 20 bf 2f e2 d8 3e 11 1f 0f 3e
       -0.07705341 -0.6260523 0.42360064 0.13976695
000190 71 ba 51 3e 29 66 26 3e 0e a4 77 be 60 86 ab 3c
       0.20481278 0.16249909 -0.24183676 0.020938098
0001a0 5d 0d 37 be 36 fe ae bd e6 9a bd 3d f1 8f 91 bd
       -0.17876191 -0.08544581 0.0925806 -0.07107533
0001b0 26 7b 96 be ed 41 74 be ee a2 d6 3e 72 f4 22 3d
       -0.2939083 -0.23853274 0.4192118 0.039783902
0001c0 ca 13 d9 3e 6c 20 07 3f 34 9a 3b 3d 71 c7 a7 3e
       0.4239791 0.52783847 0.045801356 0.3276935
0001d0 c0 bf 4b be ba 37 03 3f b9 ef fc bd cc 34 b3 3e
       -0.19897366 0.51256907 -0.12350411 0.35001218
0001e0 48 67 d1 be 73 95 ea bd 00 76 a4 3d 8c 7f f9 3d
       -0.4089911 -0.114542864 0.08030319 0.12182531
0001f0 10 42 c5 be c5 12 2e 3e 0d 02 b2 3e f0 6a 65 bc
       -0.38526964 0.16999348 0.3476719 -0.014002547
000200 76 a2 b3 3e 60 9e 9c be 6e 9f e1 be 94 80 1a bd
       0.35084885 -0.3058958 -0.44066948 -0.037720278
000210 22 d2 d8 3d 62 69 09 3f 05 40 47 bf aa f6 0e 3e
       0.10586955 0.53676426 -0.7783206 0.13961282
000220 dc c6 d6 3e ca 20 48 be 9c 05 bc be fb 14 c5 3e
       0.41948593 -0.19543758 -0.3672303 0.3849257
000230 fc ff 38 3e 76 8e 63 3e 25 69 c8 be c1 01 d2 be
       0.180664 0.22222313 -0.3914272 -0.41016963
000240 20 9c 62 3b 19 2b 2f 3e ae a0 1a 3f cf 53 10 3e
       0.003457792 0.17106284 0.6040143 0.1409447
000250 6e de 37 be b2 2e 26 be 95 20 91 bd 11 c9 c0 be
       -0.17955944 -0.1622875 -0.07086293 -0.37653401
000260 10 6e 96 3e 79 b3 b6 3d ff af 1e 3f 1b 97 a1 be
       0.29380846 0.089209504 0.619873 -0.31560597
000270 58 2d 9e bd d4 2c 04 bf 46 6c 3a be 84 a0 34 3e
       -0.077234924 -0.516309 -0.18205366 0.17639357
000280 aa 59 69 be 4f 51 4a be e0 f1 28 bd 22 2a 10 be
       -0.2278811 -0.1975758 -0.041246295 -0.14078572
000290 22 7b 9e be c2 ed cd be 1d 00 58 3f 7e 27 3d be
       -0.30953318 -0.40220457 0.8437517 -0.18472096
0002a0 71 c0 fd be 37 3d 10 3e d1 94 2b be 22 ce 81 bd
       -0.49560884 0.14085852 -0.16755988 -0.06338145
0002b0 3f 2f 6c be 56 22 b4 be 23 32 e3 3d ca 3e 94 be
       -0.23064898 -0.35182446 0.11093547 -0.28954154
0002c0 65 fb 53 bd 57 4b 98 be 5c 02 27 3d a1 99 85 bd
       -0.05175342 -0.2974498 0.040773734 -0.06523443
0002d0 ff b3 07 be 08 05 4d 3d 30 05 73 3f aa 08 ff 3d
       -0.13252257 0.050053626 0.9492979 0.124528244
0002e0 86 00 9d 3e 7c 21 80 be c8 3c b1 bc 2d c9 be 3d
       0.30664462 -0.25025547 -0.021635428 0.09315715
0002f0 8a ef ab 3d f2 d2 36 3e 30 17 bd be 14 4d 92 be
       0.08395298 0.17853907 -0.36931753 -0.2857443
000300 54 ca d5 3e 21 77 e6 3e 9f ca c9 be 35 51 0c bf
       0.41755927 0.45012763 -0.394124 -0.5481141
000310 b5 34 fc 3d ea fb 05 be fb f4 9f be 68 40 03 3d
       0.123147406 -0.13084379 -0.31241593 0.032043844
000320 24 37 a3 be cc 7c 8f be 24 68 71 be 40 0e b5 be
       -0.31878006 -0.280249 -0.23574883 -0.35362434
000330 db 0b 16 be c6 47 aa be 0e 82 37 3d c2 e7 48 be
       -0.1465296 -0.33257884 0.044801764 -0.19619659
000340 f5 f0 bf 3d c8 24 de be 84 bf 93 be 7a 81 48 be
       0.09372131 -0.43387437 -0.28857052 -0.19580641
000350 56 0e 60 3e 6e 0f c2 be 6b 0c f0 3d d0 de 74 3d
       0.21880469 -0.37902397 0.117211185 0.059782803
000360 02 99 eb be 33 78 11 3e 94 d8 18 be 48 b2 f6 bd
       -0.46015173 0.14206009 -0.14926368 -0.12045723
000370 6d 1f 26 bf 92 78 6a 3e 7d e2 09 be 27 89 4b 3e
       -0.648917 0.22897556 -0.13465305 0.19876538
000380 2f 4b 98 bd f9 43 8a 3d e6 91 84 be d4 b3 b8 bc
       -0.07436215 0.06751246 -0.25892562 -0.022546686
000390 83 8b b7 be d5 e6 cd bd 4a b7 9a bd f0 0e 07 bd
       -0.35848626 -0.10053793 -0.07554491 -0.03297323
0003a0 32 75 df be 8a 95 80 be c7 e3 03 3e dd c5 ae be
       -0.436441 -0.2511409 0.12879859 -0.34135333
0003b0 6e 88 00 3f 84 34 41 bf b8 2a f0 be 84 ba 95 be
       0.50208175 -0.7547076 -0.46907592 -0.29243863
0003c0 f0 5b fb bd a2 8b f8 be f9 0c 1c be a0 07 c2 3e
       -0.12273395 -0.4854403 -0.15239324 0.37896442
0003d0 c6 9f aa 3e ee 5f 24 bf 4c 6b 51 3e aa 8b d2 3e
       0.33325022 -0.6420888 0.20451087 0.4112218
0003e0 72 43 dc 3e 9c f1 13 bd 8f 88 2d 3f 9c bb fa be
       0.43020207 -0.03611909 0.67786497 -0.4897126
0003f0 24 45 86 3e 4d c6 85 bd 98 5a e0 be b4 79 9e bd
       0.26224625 -0.065319635 -0.43819118 -0.07738057

fc.7.bias f4 [32]
000000 b5 1c 09 bd 90 ec 63 3e ed 28 8a bd a4 30 a0 3e
       -0.033474643 0.2225821 -0.06746087 0.3128711
000010 17 c6 2d bf b2 c7 28 bf b2 70 4a be 52 23 7d be
       -0.67880386 -0.6592971 -0.19769552 -0.24720505
000020 ed 22 db bd 4a d3 fc bd 2f 5b 6a 3f d8 6c 29 3f
       -0.10700021 -0.12344988 0.91545385 0.6618171
000030 bb 2b 31 3f 61 46 b1 3e 98 38 31 be 78 9e d6 bc
       0.6920735 0.34624007 -0.17306745 -0.02619861
000040 d4 78 f7 3d 75 b6 a7 be 8b 37 07 3e 25 63 09 3f
       0.12083593 -0.3275639 0.13204782 0.5366691
000050 2a 2e e4 3e 30 ee 90 be c3 36 8f 3e 82 d7 d3 3e
       0.4456647 -0.28306723 0.27971467 0.41375357
000060 7d 84 cc 3d ab 93 c8 3e fa 91 df 3e 54 ac ea be
       0.09986208 0.39175162 0.4366606 -0.458346
000070 5e d5 8e be d3 89 7c 3d ba bc 32 be c6 d5 ca be
       -0.2789716 0.061654877 -0.17454806 -0.3961622

fc.9.weight f4 [3, 32]
000000 72 8b b6 bd fe 0b 30 3f 0b fc 1f bf 35 ee 16 3f
       -0.08913316 0.687683 -0.6249396 0.58957225
000010 6a d8 b9 be 3f 9a 82 bc 9a 64 61 3e e0 b0 d4 3e
       -0.36297923 -0.01594269 0.22011033 0.41541195
000020 03 ec 4e 3e c9 bd a4 3e 83 69 74 3f e0 9b 18 bd
       0.20207219 0.32176045 0.954735 -0.03725803
000030 56 50 cc bd 87 d2 a8 3e 88 8f 2d 3f 62 3c bd 3e
       -0.0997626 0.3297312 0.67797136 0.3696013
000040 16 ef a9 3e 30 8c 34 3f 87 89 9d 3e 90 71 be 3e
       0.3319022 0.7052641 0.30768988 0.37196016
000050 48 0d 3f be bb 7e eb bd 89 71 ab be e8 f9 f6 3c
       -0.1865741 -0.11498781 -0.33485058 0.030148461
000060 10 80 33 3e 04 2c 11 3f 38 86 7c bd da 70 c0 be
       0.1752932 0.5670779 -0.06165144 -0.375861
000070 68 c7 31 3e 02 a7 d0 3e 20 b2 46 3d 84 df 88 3d
       0.17361224 0.40752417 0.048509717 0.06683257
000080 09 d6 18 be b6 8b 96 be 2a 87 bd 3c c5 07 b8 3e
       -0.14925398 -0.29403466 0.02313574 0.35943428
000090 12 ef 17 3d 8a 51 5d 3e 18 99 3e 3e 24 62 1a be
       0.03709323 0.21613136 0.18613088 -0.150765
0000a0 5a 26 27 bf 13 bb 20 bf 58 30 65 be 9c 99 33 be
       -0.65292895 -0.6278545 -0.22381723 -0.17539066
0000b0 9c 77 af bb 49 8c e7 be 19 2c 0b be 52 20 e2 be
       -0.0053548347 -0.45224217 -0.1359104 -0.44165283
0000c0 2d c5 e1 3d db 14 3e 3f ce 4e 4b 3d 9a 11 22 3e
       0.110239364 0.7425057 0.0496357 0.15827027
0000d0 ad 05 f3 3d c0 7d 5a be 9c 17 e1 be c8 31 50 3e
       0.11866317 -0.21337032 -0.43963325 0.2033149
0000e0 f8 4a b4 3c 70 40 cb bd ba d1 25 3e d9 d8 28 3d
       0.022008404 -0.099244 0.16193286 0.041222427
0000f0 48 8e b6 be a7 20 c9 be a5 28 06 bf a2 46 f4 be
       -0.35655427 -0.39282724 -0.5240577 -0.4771014
000100 d4 83 b5 bd d8 e0 15 be 14 28 0f be c3 6d 15 3f
       -0.08863035 -0.14636552 -0.13980132 0.5837061
000110 12 98 89 3e 79 33 c7 be fa 23 aa bd d9 1f 34 bf
       0.26873833 -0.38906458 -0.08307643 -0.70361096
000120 17 f2 23 3f aa ce 51 be e8 22 c1 3d 63 39 68 3e
       0.64041275 -0.20488992 0.09430486 0.22678141
000130 d7 5f 01 3f 5a 93 f2 3c 37 e3 f7 3d 42 88 32 bf
       0.50536865 0.029611278 0.12103885 -0.6973916
000140 32 f2 45 3e f6 d8 3b 3f b1 3d fc 3e 60 3e a3 3c
       0.19330671 0.7337793 0.49265817 0.019927204
000150 12 75 96 bc ad 5f 53 be 3b 7a 0b 3f 9c 62 cc bd
       -0.01836637 -0.20641966 0.54483384 -0.09979746
000160 65 6e 11 3f 70 57 ae be 1c 2e 91 3e e5 84 2c 3f
       0.56809074 -0.34051085 0.2835549 0.6739028
000170 3a fb 80 3e be b1 e5 3e de 88 3e 3f d2 b3 17 3d
       0.2519167 0.4486217 0.7442759 0.037036724

fc.9.bias f4 [3]
000000 7a 3d 52 3f bd e2 c4 3e 28 27 09 bf
       0.82125056 0.38454238 -0.5357537
