dino_genetic_model.pth (torch, 184402 bytes, 10 tensors)

fc.0.weight f4 [256, 6]
000000 6c 3f 3c 3e 20 a8 99 3b 6e 9f 1c be 44 f8 a0 be
       0.18383569 0.0046892315 -0.15295193 -0.31439412
000010 43 4f e6 be 5c 68 e3 3d 9b f1 64 be a3 97 36 3e
       -0.44982347 0.11103889 -0.2235779 0.17831282
000020 1b bc e6 be 72 00 a0 be 6c 25 4b bd c0 34 1a 3e
       -0.45065388 -0.3125034 -0.049596235 0.15059185
000030 2a 96 70 3e 28 d5 34 be 80 ec 7e bb 59 a0 87 bd
       0.23494783 -0.17659438 -0.003889829 -0.06622381
000040 00 7e 77 3e 5c 5d 02 3d c0 22 03 bf 9f 1d 25 bd
       0.24169159 0.031827316 -0.512249 -0.040311452
000050 76 61 87 be 18 15 ef be ac fe 5d be 36 cf 04 bd
       -0.26441544 -0.4669578 -0.21679181 -0.032424174
000060 e1 6d 37 3e c0 cf cb 3e 36 1c 70 3e 4c cb da bd
       0.17913009 0.39806938 0.23448262 -0.10683307
000070 a7 06 52 be 82 75 f1 3e 82 88 60 3d da 5b 55 bd
       -0.2051035 0.47159964 0.054817684 -0.05208955
000080 dd 3c 27 be 52 97 43 3f ec 92 62 3e 3a 1d f4 be
       -0.16331811 0.7640277 0.22126359 -0.47678548
000090 01 44 8d bd cd 72 00 bf de 12 9b 3e 99 c7 90 be
       -0.06897736 -0.5017517 0.30287832 -0.2827728
0000a0 84 27 da 3e 23 67 a8 be de 83 a4 3d 37 e8 8c 3e
       0.42608273 -0.32891187 0.08032964 0.27520916
0000b0 c0 7e e6 3e ee fd cc 3e 6b c1 82 bd 42 d3 45 be
       0.45018578 0.40037483 -0.06384548 -0.1931887
0000c0 d4 48 30 be e3 cd 2a 3f 99 41 b8 be 8a 68 e3 be
       -0.17215282 0.6672041 -0.35987547 -0.44415694
0000d0 4e b7 57 3e 98 0e a4 be d6 0b aa 3e 4b 7f c6 3e
       0.21066019 -0.32042384 0.33212155 0.38768992
0000e0 36 60 7f be c0 22 9e bd 86 3e 53 3e aa 05 d8 3d
       -0.24939045 -0.07721472 0.2062932 0.10547955
0000f0 25 65 9f bb 80 f2 b0 3e 00 91 7d be 7a 1a fa be
       -0.0048643523 0.34560013 -0.24762344 -0.48848325
000100 b2 cb 95 3e 66 cf f7 be 43 8a 0a 3e 2a 27 f6 3d
       0.2925697 -0.4840042 0.13529305 0.12019189
000110 d4 61 ba bc 02 97 48 bd f4 fe 9e 3e 57 58 a1 bc
       -0.022751726 -0.048972137 0.3105389 -0.019695444
000120 1c 3b 29 be 8b 77 b3 3e 0c 8e 65 3e 20 31 fc 3e
       -0.16526455 0.35052142 0.22417468 0.4925623
000130 7b bc 06 3f 73 b0 ed 3d 76 50 8a be d6 3e f1 bc
       0.5263135 0.11605921 -0.27014512 -0.029448908
000140 86 2d 2b be f8 52 74 be cf 76 bd 3e f2 97 a6 be
       -0.16716585 -0.23859775 0.37004706 -0.325378
000150 ea 4c c6 be 29 fe 53 be fb cb 02 bf 83 0a 0d bf
       -0.38730556 -0.20702423 -0.510925 -0.55094165
000160 30 88 35 3c 5b 6b d0 3e 38 cb 85 3e 0f 26 09 3f
       0.011079833 0.40706906 0.26131606 0.535737
000170 54 e6 47 3e 11 45 92 3e 20 61 30 bf fb 0f 0d bf
       0.19521457 0.28568318 -0.688982 -0.5510251
000180 74 57 10 bf 04 e2 4a 3f 80 f8 06 3f b9 dc 81 be
       -0.5638344 0.7925112 0.5272293 -0.2536371
000190 2a 62 66 3e 40 e8 37 bb 26 d2 00 3f cc 7d 4f 3e
       0.22498384 -0.0028062016 0.5032066 0.20262831
0001a0 e0 12 69 be 48 c6 26 be 97 2b 69 be 48 c4 2a 3d
       -0.22761106 -0.16286576 -0.22770534 0.041691095
0001b0 da 10 f1 be cf bd dc be b1 af 37 3d c3 e9 b0 bd
       -0.4708317 -0.43113562 0.044845287 -0.086383365
0001c0 f0 f7 6c 3e f9 b7 13 3f 40 2f a0 b9 a3 37 c7 be
       0.23141456 0.57702595 -0.00030552782 -0.38909635
0001d0 dd 12 ff bd 3a 86 bc 3e fc e7 da be 50 38 68 be
       -0.1245477 0.36821157 -0.42755115 -0.22677732
0001e0 76 6b 31 be 96 1d 0f bf f8 b9 d8 3d 8c 4e 13 be
       -0.1732615 -0.5590452 0.10582346 -0.14385432
0001f0 8e 6f 57 bc 67 be 8f 3e 5d 71 00 3f 26 db 3d bf
       -0.013149155 0.28074953 0.5017298 -0.7416252
000200 90 35 f9 3b dc e0 ec 3c 2d 5c fd be b0 4d c5 3e
       0.007605262 0.028915815 -0.49484387 0.38535833
000210 96 b8 5c be 5a 15 96 3e 24 cd cc 3c ea 83 81 bd
       -0.21554789 0.29313165 0.025000162 -0.06323989
000220 31 32 b2 be e9 83 a6 be 14 b8 5b be 2e 66 aa 3e
       -0.34803918 -0.32522514 -0.21456939 0.33281082
000230 fd 46 4e 3e 52 32 11 bf 10 f4 5b 3d c6 dd f7 bd
       0.20144267 -0.5671741 0.053699553 -0.12102847
000240 64 4e c3 be de 01 04 3e 03 cd a1 3e 14 90 c6 3e
       -0.38145745 0.12891337 0.31601724 0.38781798
000250 d0 20 e3 3e 2c e7 f7 3e 52 10 0f bf 16 63 5a 3e
       0.4436097 0.48418558 -0.5588428 0.21326861
000260 70 21 b2 bc 9a a4 ae 3e 14 62 cf 3d c7 26 b2 3e
       -0.02174446 0.34109956 0.10126129 0.3479521
000270 6e 8c 9a 3e 8c 6e 67 3d 7a a8 8b 3e f6 0b e5 3e
       0.30185264 0.05650191 0.27276975 0.44735688
000280 66 a6 9f 3e b0 4c 2e be fe 3d f6 3e 28 41 05 3c
       0.3118164 -0.17021441 0.4809417 0.00813321
000290 dc a5 cf bc 85 f0 ea 3e a8 05 2c 3c 73 b0 8c bd
       -0.025347643 0.45886627 0.010499395 -0.068695925
0002a0 4a 08 12 bf 6b c1 38 be f2 b5 ae 3e f0 4b e2 3b
       -0.570439 -0.18042533 0.34123188 0.006906025
0002b0 08 94 c4 bc fb 82 88 3e a3 95 4e bd e4 64 79 3e
       -0.023996368 0.2666243 -0.050435673 0.24354893
0002c0 fe fe 8c be f6 7c 59 3f d2 4f ba 3e ce 1d 22 3e
       -0.27538294 0.849563 0.36389023 0.15831682
0002d0 c1 ed 6e bf 0e 2c b4 bd a8 bf 41 be 2e 91 35 be
       -0.93331534 -0.08797465 -0.18920767 -0.17731163
0002e0 a8 30 2f be 0b 9f 4d 3e 9f 66 56 3e 50 41 a4 3e
       -0.17108405 0.20080201 0.20937584 0.3208108
0002f0 f3 7f 89 3e 9d a3 84 be 50 40 e0 3d 20 b4 24 3e
       0.2685543 -0.25906077 0.10949767 0.16084337
000300 1f 02 02 bd 4e ab dd bd a3 09 41 bd d0 8a 63 3e
       -0.031740304 -0.108236894 -0.04712833 0.22220922
000310 66 30 3c 3e 31 45 a2 be 89 5c 92 3e 64 03 5d bd
       0.18377838 -0.31693414 0.28586224 -0.05395831
000320 98 89 c1 3e 92 ba a1 be 1d 50 9b 3e c0 a1 8b 3e
       0.37800288 -0.31587654 0.3033456 0.27271843
000330 c2 6e a5 3e 48 f0 e2 3b a8 94 d4 bc 02 a5 a1 be
       0.32311064 0.0069256164 -0.025949791 -0.31571203
000340 2c fa ac 3e 86 b6 0d be 94 aa ad bc 6f aa 35 3e
       0.33784616 -0.13839158 -0.021199502 0.17740797
000350 f1 fc 3a bf 34 17 89 be 15 5a c7 3e b6 fa e1 bc
       -0.7304221 -0.26775515 0.38935915 -0.027585369
000360 21 ce 03 3f ad a0 06 3e 66 63 c0 be d5 11 a3 be
       0.514864 0.1314723 -0.37575835 -0.31849542
000370 0c a4 c1 3e 4e e7 f2 be 9e 95 14 3e 32 46 05 be
       0.3782047 -0.47442096 0.145102 -0.13015059
000380 2a c3 19 bf ab 71 01 be 05 d9 de 3e 35 e2 bb 3d
       -0.6006342 -0.12641017 0.43524948 0.09174005
000390 fe c1 0c bf 12 5d 86 3d ba 0b 7e be a6 8d 6c 3e
       -0.5498351 0.065607205 -0.24809161 0.2310091
0003a0 7e bc d4 3e 49 05 61 be d6 b5 fc 3e a2 c1 90 be
       0.41550058 -0.21974672 0.4935748 -0.2827273
0003b0 6c 33 34 be ba 44 98 bd ce 7c aa be 10 ae d4 3e
       -0.17597741 -0.074349836 -0.33298343 0.4153905
0003c0 7b 26 c0 3d ba 48 c5 bc 7c c0 b0 3e a0 f0 40 3e
       0.093823396 -0.02408253 0.34521854 0.18841791
0003d0 e8 23 88 be f6 99 de 3d cd cf 06 bf 3c 2d 20 bf
       -0.26589894 0.108692095 -0.5266083 -0.6256902
0003e0 2e 43 34 3f 23 ac 04 3f e7 cf 88 3e 40 9f 73 3e
       0.7041501 0.5182516 0.26721117 0.23791218
0003f0 80 65 c6 3d c1 3a 85 3e 29 eb 8d bd 5c 00 ea 3e
       0.09687328 0.26021388 -0.06929619 0.457034

fc.0.bias f4 [256]
000000 49 91 bd bd 80 98 67 ba 55 db fd 3d 1a 10 9b 3e
       -0.092562266 -0.0008834675 0.1239535 0.30285722
000010 80 08 0e be 11 01 ec 3d 02 05 86 be 78 8b de 3d
       -0.1387043 0.11523641 -0.26175696 0.10866445
000020 de 68 d0 3d 7a 06 7a 3e 2f e8 82 be 8c eb ce be
       0.10176252 0.24416533 -0.25567767 -0.40414083
000030 14 30 36 3d 6d 46 64 be 53 5c 0c 3e 34 2d f9 3d
       0.044479445 -0.2229249 0.13707094 0.12166825
000040 f0 fd 85 be 4a 2a f3 3e 4d a8 b6 3d b8 b9 61 bc
       -0.261703 0.47493201 0.089188196 -0.013777189
000050 26 9f c4 3d 02 87 43 bd 2c 2c c8 3c 73 52 42 3e
       0.09600668 -0.047736175 0.024435125 0.18976764
000060 18 05 a1 bd 45 21 73 be 93 8e 8e be 83 62 fa be
       -0.078623 -0.2374316 -0.2784315 -0.48903283
000070 1f 95 80 3e 62 9e b4 bd c0 9f 10 be fb 28 d3 3e
       0.2511377 -0.088192716 -0.1412344 0.41242203
000080 aa 1f 21 bd 59 69 cd be 77 6a 95 3e da dd 96 be
       -0.039336838 -0.40119436 0.2918279 -0.29466134
000090 92 db 96 3d 32 b6 af be e4 4a 24 be aa 7f 30 3e
       0.073660985 -0.34318691 -0.16044194 0.172362
0000a0 ea 43 1a be 40 45 3c 3e a0 b2 44 bd eb 7e 5d be
       -0.1506497 0.18385792 -0.048021913 -0.21630447
0000b0 c0 84 25 3f ae 67 81 3e 10 0b c0 be a3 d6 0a 3f
       0.64655685 0.25274414 -0.3750844 0.5423376
0000c0 84 84 fe bd 87 e9 06 3e 62 09 95 be 06 96 4f be
       -0.12427619 0.13175021 -0.2910872 -0.20272073
0000d0 e8 19 a8 bc da 3a ed bd 8e 48 65 3e da 9a cd be
       -0.020520166 -0.11583491 0.22390959 -0.40157205
0000e0 00 75 c2 be 3f 11 d2 be 07 01 34 3e 6c 85 47 be
       -0.3797989 -0.41028783 0.17578517 -0.1948449
0000f0 9e ef a4 be ea 97 95 3c cc ad 71 3e 14 eb 56 3e
       -0.32214063 0.018260915 0.23601454 0.20988113
000100 44 90 ec 3d 97 e8 0d 3f a2 5d 3f be 23 b1 95 3d
       0.11550954 0.5543303 -0.18688062 0.07309177
000110 63 5c 45 bd 82 81 80 be 9a 2d b4 3e 59 fe 97 3e
       -0.04818381 -0.25098807 0.3519104 0.2968624
000120 66 f3 8b be 1f 5c da be eb 0b de 3e 80 21 9b 3c
       -0.27334136 -0.42648408 0.43368468 0.018936872
000130 53 ae 99 bd d8 dd b6 3c df f9 0b 3e 7c 46 07 3f
       -0.07503953 0.02232258 0.13669537 0.52841926
000140 84 af 68 3e 2d 7b 8d 3e 38 55 54 3d e4 75 06 be
       0.22723204 0.27633038 0.051839083 -0.13130909
000150 58 62 af 3e f4 8c ee 3e bf 54 8b bd 85 b0 09 3d
       0.34254718 0.46591914 -0.068032734 0.033615608
000160 f4 ee 10 3f 6c 81 b6 3d c6 32 07 3f f8 b3 b5 3c
       0.56614614 0.08911404 0.5281185 0.022180542
000170 7e af 8b 3e a2 d5 7c 3e 29 6f cd 3d 68 03 0d bf
       0.27282327 0.2469087 0.10030968 -0.5508332
000180 1e 04 f0 3e 31 54 07 be 3f 64 29 bf 85 7e 89 be
       0.4687814 -0.1321571 -0.6616859 -0.2685434
000190 e3 0c 0a 3f 95 18 66 3d e9 92 97 be 68 43 65 be
       0.53925914 0.056175787 -0.2960427 -0.22388995
0001a0 dd 40 21 bf fe c8 82 3e be 3f 86 3e d0 a6 68 3e
       -0.629896 0.2554397 0.26220506 0.22719884
0001b0 aa 6b 81 bd c3 ba c8 be ae 2b 72 3e 05 5f 87 be
       -0.063193634 -0.39204988 0.23649475 -0.26439682
0001c0 36 49 56 be ae 82 ce bd ca 98 9f 3e 08 e9 28 3f
       -0.20926365 -0.10083519 0.31171256 0.6598058
0001d0 47 11 a0 be d2 3b 8f bd 69 88 c9 3e 33 d9 03 3f
       -0.31263182 -0.06993832 0.39361885 0.51503295
0001e0 b4 4f a6 bd 03 31 01 be ac 0d c8 3e 5e f6 06 bd
       -0.08120671 -0.12616353 0.3907293 -0.032949798
0001f0 fc 2d 4c 3d f4 4e 15 bd 38 6d 48 bc 83 1a 7a 3d
       0.04984854 -0.03645225 -0.012233071 0.06106044
000200 f0 ea 09 3d 1c ac de bd ec ea 0b bf 04 a5 d2 be
       0.03367132 -0.10872671 -0.5465534 -0.41141522
000210 c8 f4 35 3e ed 62 e1 3e 6e 2e b7 3e 4c aa e7 bd
       0.17769158 0.44020787 0.3577761 -0.113117784
000220 74 99 c5 bc 75 cf bf 3e 44 ac 47 3e af 39 c6 be
       -0.024121024 0.37462965 0.19499308 -0.38715884
000230 87 02 09 3e 05 0d 52 3e 68 17 de bc 80 d7 2b 3c
       0.1337987 0.20512779 -0.02711077 0.010488391
000240 2b a7 41 3e 83 b0 08 3f f6 cd 23 3f 00 41 9c bc
       0.18911426 0.53394336 0.63986146 -0.019073963
000250 3e 9e a6 3e 3f 25 a9 3e d7 18 60 3d d7 52 1d 3f
       0.32542604 0.3303623 0.05471119 0.6145453
000260 df 8d 87 3d 5e 35 51 3e 94 45 a1 3e 7a ff d3 bd
       0.06618857 0.20430514 0.31498396 -0.10351463
000270 88 ac b3 3d 0a ee fd bd bc ee a0 3e c1 0c 1e 3e
       0.08773142 -0.12398918 0.3143214 0.15434553
000280 44 c3 bc 3d be ea 86 3e 1a e0 66 3e ec 3d 45 be
       0.092169315 0.2635097 0.22546425 -0.19261903
000290 20 29 d4 3b 2d 6e c0 3e f3 29 da bd 28 e3 12 3f
       0.006474629 0.37584057 -0.106525324 0.5737786
0002a0 30 58 96 3e 10 8f 60 3e 44 3f 8d 3e 69 3a 81 3e
       0.29364157 0.21929574 0.2758733 0.25239876
0002b0 33 7a a8 3e 3e 83 86 3e c8 e2 5f 3d 78 8a fd 3d
       0.3290573 0.26272005 0.054659635 0.123799264
0002c0 6c 43 32 3d db f6 c2 bd 04 85 2f bf 82 9e 0e 3e
       0.04352133 -0.0951974 -0.6856234 0.13927653
0002d0 c2 6e fc bd 31 68 fa 3e b8 57 12 3f 7b 77 aa 3e
       -0.12325813 0.48907617 0.571651 0.3329428
0002e0 25 50 5d 3e ca ee 52 be c2 a6 b7 3e 35 ff 25 bf
       0.21612604 -0.20598903 0.35869414 -0.6484254
0002f0 30 1b 48 3e 18 0b 15 be b0 ec c0 be d0 4b 1a 3c
       0.19541621 -0.14555013 -0.37680578 0.009417489
000300 20 79 91 3e 53 7e ed 3e e6 d2 e1 3e 76 4e 1d 3f
       0.28412724 0.4638544 0.44106215 0.61447847
000310 43 1f 27 bf 3a e7 a4 be 7d 78 84 be 46 d1 a1 bd
       -0.65282077 -0.32207662 -0.25873175 -0.07901244
000320 da eb ad 3e 97 d3 97 be 26 6b 66 3e dc 04 a9 bd
       0.33969003 -0.29653618 0.22501811 -0.0825288
000330 96 6b b0 bd 78 06 8d 3e 26 88 a2 3e 56 59 ad be
       -0.086142704 0.27543998 0.31744498 -0.3385722
000340 ec b7 d9 be f9 2b c3 3e 51 3a ce 3e 04 95 8a 3e
       -0.42523134 0.38119486 0.40278867 0.27066815
000350 2c a9 95 be 2c f7 81 be 72 28 ef 3d 3c 21 0c 3e
       -0.2923063 -0.2538389 0.11677636 0.13684553
000360 c8 e7 fc be 78 cb 1e 3c 3e 29 ab 3e 88 a8 00 3c
       -0.49395585 0.009692065 0.33429903 0.007852681
000370 b4 db 4f 3e 47 35 ea 3e f4 8d 74 3e 9e 59 f8 be
       0.20298654 0.45743772 0.23882276 -0.48505872
000380 69 1d 76 be ba 55 1e bf 0c 3d 7a 3e fd 9d 50 3e
       -0.24034657 -0.6184956 0.2443735 0.20372768
000390 a0 d3 d4 bc 28 00 47 3f f2 10 f4 3d f4 ab 57 bd
       -0.025979817 0.77734613 0.119172946 -0.05265422
0003a0 80 60 02 bf 22 d1 11 be dd 82 23 be 96 a3 f2 3c
       -0.509285 -0.14239934 -0.15967889 0.02961902
0003b0 74 cf 81 be f6 75 c5 be 66 4f b4 be 6e 70 94 be
       -0.25353587 -0.3856656 -0.35216826 -0.28992027
0003c0 d0 05 68 be 72 d8 a9 3e b2 97 da 3e ba 0d 0d 3e
       -0.22658467 0.33172947 0.4269386 0.13774768
0003d0 0a 0a dc be 96 4a b9 be 6a c2 d4 be b0 e8 c9 be
       -0.4297641 -0.36189717 -0.41554576 -0.3943534
0003e0 81 47 aa 3e 0a 94 97 be ad e7 45 be ed 06 17 3e
       0.33257678 -0.29605132 -0.19326659 0.14748736
0003f0 2c b3 c2 3e cc ce 04 3f 13 ee a4 3e ad 76 84 be
       0.38027322 0.51878047 0.32212886 -0.25871792

fc.3.weight f4 [128, 256]
000000 9e 0f 20 3f 06 71 02 bd b4 ff 68 3e a5 97 0f 3e
       0.6252383 -0.03184607 0.22753793 0.14022692
000010 2c e2 f1 bc 58 0f 76 bd 58 96 13 3e b2 c0 c2 3c
       -0.029526792 -0.060073227 0.1441282 0.023773525
000020 c7 e5 92 3d a1 bc 1d bf 7d b3 43 be 4e 29 04 3e
       0.07172733 -0.6161595 -0.19111438 0.12906381
000030 96 b3 31 3e 04 62 e1 3e 48 18 c4 bd c6 a3 92 3c
       0.17353663 0.44020092 -0.09574944 0.017900359
000040 0a f4 cb be 39 3c 83 bd 2b 98 db be ba e8 0e 3e
       -0.39834625 -0.06407971 -0.42889532 0.13955966
000050 ae 3e 03 3f dc 34 cd be 5e 89 15 3d e8 25 aa 3e
       0.51267517 -0.4007939 0.036507957 0.33232045
000060 ec 55 1a 3d 88 b5 89 bd 9b bb 6d bd 9e 3e 0a 3e
       0.037679598 -0.067240775 -0.058040243 0.13500449
000070 ee 39 17 3e 6c f3 b0 3c 7a 11 33 3e d4 fe 26 3f
       0.14768192 0.021600448 0.17487136 0.65232587
000080 1e 91 f7 3c 20 b0 13 3e 78 c7 d3 3d 8e d3 3a be
       0.030220564 0.14422655 0.1034078 -0.18244764
000090 70 53 c2 bc fe 5e 0f be 2f 25 8d be 23 86 51 3e
       -0.023721427 -0.1400108 -0.2756743 0.20461325
0000a0 7e 04 6a 3e 8b 7f e1 3e 20 e5 1a 3d 8d d7 56 be
       0.22853276 0.4404262 0.037816167 -0.20980664
0000b0 82 43 76 be fa ff a6 bc 2d 77 91 3d 77 38 bd be
       -0.2404919 -0.020385731 0.07102809 -0.36957142
0000c0 12 ef 71 3e e8 7f 52 3d a0 b5 d3 be 4c b0 15 bd
       0.23626354 0.051391512 -0.41349506 -0.036545083
0000d0 75 de c2 bd 72 67 2b 3e 36 77 4b 3e c3 20 58 3d
       -0.095150866 0.1673868 0.19869694 0.05276562
0000e0 92 05 69 3d 07 67 0e 3e 5d 80 67 be aa cb 88 3e
       0.056890078 0.1390649 -0.2260756 0.26717883
0000f0 4f 1b 1e be 9e f8 af bc c1 af 9c be 9a 72 df 3e
       -0.15440105 -0.021480855 -0.3060284 0.43642122
000100 92 f3 dc bd fb 56 34 be 22 40 40 bf 20 ad 00 3b
       -0.10788645 -0.17611305 -0.7509786 0.001963444
000110 d0 04 0b 3e 4e 4c eb bd f8 c9 0d 3e 2e ab a4 3d
       0.13576055 -0.11489163 0.13846576 0.080404624
000120 98 4b 56 3c b4 5e 1a 3d 84 90 d3 3c 5b 45 8a 3c
       0.013079546 0.037687972 0.025825746 0.016878774
000130 07 ff 8d 3e f6 57 48 3e 90 00 80 be 6d e3 90 3e
       0.27733633 0.19564804 -0.2500043 0.28298512
000140 e6 7d 71 be f6 a5 22 3e 67 11 85 bd b5 5a 9b be
       -0.23583183 0.15883622 -0.0649746 -0.3034264
000150 34 ce c6 bd 3e 5b 02 be 43 8e d3 3e 80 66 55 bd
       -0.09707299 -0.12730119 0.41319475 -0.052099705
000160 fa bf b7 bd f8 7e 57 be 9e a9 be bd ce 7b 23 bf
       -0.089721635 -0.21044528 -0.09309696 -0.63860786
000170 a4 bc 09 3e 8c f3 8a be b0 c0 f7 bd b2 cd 51 be
       0.13450867 -0.27138937 -0.12097299 -0.20488623
000180 8b a3 58 be 39 a0 0e 3f c4 29 37 3e 02 76 c8 bd
       -0.21156137 0.5571323 0.17887026 -0.09788133
000190 95 53 34 3d 20 be 20 3f 15 e4 ef 3d 24 e6 76 bc
       0.044025023 0.6279011 0.11713425 -0.015069518
0001a0 ed b9 fe bd c1 66 b8 3d 70 cf 11 be 2c 44 bb be
       -0.12437806 0.09003974 -0.14239287 -0.3657545
0001b0 f6 be bd 3d 3c 89 02 3e 84 81 21 be 5c aa 21 be
       0.092649385 0.12747663 -0.15772063 -0.15787643
0001c0 dd 4d fa bd a0 d7 81 3e 70 51 c5 3c 70 61 4c 3d
       -0.122218825 0.2535982 0.024086684 0.04989761
0001d0 e3 9c 28 3d 3c a2 51 be 7e 69 80 be be 26 c7 3e
       0.041165244 -0.20472044 -0.25080484 0.38896745
0001e0 70 56 0d bf a8 2c c8 be 37 eb 27 be 99 3d bd 3e
       -0.5521002 -0.3909657 -0.16398321 0.36961058
0001f0 7a 85 9f 3d c0 a2 35 3b d2 34 47 3e be dd 16 be
       0.077891305 0.0027715415 0.19453743 -0.14733025
000200 d8 b4 df bc ee 41 01 bf 40 e5 05 bb bc 1d 92 be
       -0.027307913 -0.50491226 -0.0020430833 -0.2853831
000210 7a ae d1 3c 30 30 17 be 71 05 18 be 51 f5 1d 3e
       0.025595892 -0.14764476 -0.14845826 0.15425612
000220 95 f9 49 3d b8 7b df be 86 bd 99 3d 47 cc 02 3f
       0.049310286 -0.43649077 0.07506852 0.5109295
000230 79 29 83 3c 4d d1 7c be e6 bf 5c be df a6 fb bd
       0.016010987 -0.24689217 -0.21557578 -0.122876875
000240 39 b1 92 be 18 eb b6 bd 25 b2 9d 3e a7 88 4e 3c
       -0.28650835 -0.08931559 0.30799976 0.012605823
000250 d1 4a b2 bd 5b 5e 85 be 52 72 74 3d 16 ee af be
       -0.08705676 -0.2604855 0.059679337 -0.34361333
000260 94 01 b0 be d1 75 30 3e de c7 6d 3e 89 43 70 be
       -0.34376204 0.17232443 0.23220775 -0.23463263
000270 b2 0f 92 3c 40 ce 4a 3e 1e 93 94 bd 72 f1 a7 bc
       0.01782975 0.1980524 -0.07254623 -0.020500872
000280 2a 64 ee 3d b0 e1 d6 3d 81 3c 14 bc 5e 68 c6 bd
       0.116401985 0.10492265 -0.009047628 -0.09687875
000290 60 9c d0 be 0a dc 7d 3d 6f 4d 7c be 16 66 49 be
       -0.40744305 0.061977424 -0.24638914 -0.19667849
0002a0 ee f2 46 be c3 50 b8 3e be 2c f1 bd 2c fe cc be
       -0.19428608 0.35999116 -0.11776112 -0.40037668
0002b0 ec bd 83 be 23 75 d2 be 54 78 15 3d 54 5f 35 3e
       -0.25730836 -0.41104993 0.036491707 0.17712146
0002c0 40 a9 08 3e 4b 4b 90 be 6e 09 e3 bd 7e 94 99 bd
       0.13345814 -0.28182444 -0.11085783 -0.07499026
0002d0 78 59 08 3e 53 19 1d 3f b4 bf e2 3c a6 08 3a 3e
       0.1331538 0.61366767 0.027679302 0.18167362
0002e0 5c cd f7 bd cc 4a 42 be c4 59 df 3e 19 5d ac bd
       -0.12099716 -0.18973845 0.43623173 -0.084161945
0002f0 60 6d 35 be 68 bc 5a 3e c0 63 c6 3b 49 ed 01 be
       -0.17717505 0.21360934 0.0060543716 -0.12688173
000300 9c f5 a1 3d e9 20 cc bd 00 9a 14 bd cb 4b d9 3d
       0.079081744 -0.099672146 -0.03627968 0.106101595
000310 d1 40 d8 3d 91 18 dc 3e 14 40 1b bd 08 4c fd 3e
       0.10559238 0.42987493 -0.037902907 0.4947207
000320 dc a0 33 bc 00 1e b8 3e 5a 35 c8 3d 12 a0 55 be
       -0.010963645 0.35960388 0.09775801 -0.20861843
000330 ee b4 21 be 0a e6 83 bd a6 32 e0 3d da 3c fc bc
       -0.15791675 -0.06440361 0.109471604 -0.030790735
000340 74 7a 1c 3e 2c 84 f7 3c cc 49 01 3d f8 ca 22 3e
       0.15281087 0.030214392 0.03156452 0.15897739
000350 90 60 77 3d 0c 63 a5 be f8 8f 6c 3e f8 59 8c 3d
       0.060394824 -0.3230213 0.23101795 0.06853098
000360 70 c1 6e be 54 9f 06 3f ff 68 85 3d 26 5b e8 bd
       -0.23315978 0.52586865 0.06514167 -0.1134551
000370 4e 89 df 3e 80 33 7b 3a d3 81 9b bc b3 a0 0b 3e
       0.43659443 0.0009582564 -0.018982803 0.1363552
000380 8b f0 88 3e 8c 12 2a 3d 5f 1c 03 bf f4 d8 9b 3e
       0.2674602 0.041521594 -0.51215166 0.3043896
000390 48 04 a4 3e 4a 0c d8 3e 8f a0 39 bd f1 71 d8 be
       0.32034516 0.42196876 -0.045319136 -0.4227443
0003a0 5c bb 15 be a4 9a 1d 3e 54 fb cc 3c 71 f5 78 3d
       -0.14622253 0.15391022 0.025022186 0.060780946
0003b0 58 8f 58 3d 79 8d 43 bd d2 20 26 3e 9d ba 18 be
       0.05287108 -0.04774234 0.16223457 -0.14914937
0003c0 8e 0c cd 3c dc aa ab 3d cf f3 2d bd 98 9b 34 bd
       0.0250304 0.08382198 -0.042468842 -0.0440937
0003d0 ca de 82 3e da 43 e3 3d 0e d1 94 be 83 01 a5 bd
       0.255606 0.11096926 -0.29065746 -0.08056929
0003e0 80 d3 8b bd 39 2e bc 3e 80 ca d5 3d 6d 1e a6 be
       -0.0682745 0.36754015 0.104390144 -0.32445088
0003f0 74 57 18 3e 6f ba 27 be e0 9b 59 3e 5a 0f 23 be
       0.1487711 -0.16379713 0.21250868 -0.15923825

fc.3.bias f4 [128]
000000 4a 7c 0c be aa 3f d2 be 90 44 ac bc 18 2e 45 3e
       -0.13719288 -0.41064197 -0.021028787 0.19255865
000010 99 8b 9c be 5f ea 2d be 8b d0 85 bd 28 04 01 3f
       -0.30575255 -0.16983937 -0.06533917 0.50396967
000020 aa df 95 bd 0a d2 46 3d 92 03 fd bd a6 21 9a 3d
       -0.07318051 0.048540153 -0.123541966 0.07525949
000030 ac 5e 18 bc 6c ea 92 bd 26 73 cc be 87 07 74 be
       -0.009299915 -0.07173619 -0.399316 -0.23830996
000040 8b b6 2a 3d 2e e0 ed be ac 45 80 3c d8 6e a4 bd
       0.041677993 -0.46460098 0.015658222 -0.08028954
000050 fd 69 94 3d b9 70 96 3d fe 58 88 3d 1c ce 62 3d
       0.07246778 0.07345719 0.06657599 0.055372342
000060 34 27 83 be 10 12 3d bc 84 23 3b bd 56 c6 97 be
       -0.25615847 -0.011539951 -0.045688167 -0.29643506
000070 69 8e f5 3d 9a 1e 11 be 19 64 05 be 70 b3 eb 3c
       0.11990053 -0.1417183 -0.13026465 0.028772086
000080 26 7e 65 bd 45 88 27 3e 8a 1f 6f 3e 58 ea 57 3e
       -0.056028508 0.16360576 0.23351875 0.21085489
000090 a9 48 8d 3d 7a aa 2c be ac f9 61 3c 35 57 b4 3d
       0.068986244 -0.16861907 0.013792437 0.08805696
0000a0 d0 80 92 be 88 e0 07 3d b4 d0 98 3e fd be 0b 3f
       -0.286139 0.033173114 0.29846728 0.545883
0000b0 c0 23 9e 3e fb f2 12 bd e0 71 da bb 94 12 ca be
       0.3088665 -0.035876255 -0.006666407 -0.394673
0000c0 de 00 b7 3e 66 d4 94 be 8b 9c 86 3d a2 13 b2 3e
       0.3574285 -0.29068297 0.06572827 0.34780604
0000d0 58 c4 07 3e 12 df 72 3d 02 af 88 be 9b 3f 9e be
       0.13258493 0.059294768 -0.2669602 -0.30907902
0000e0 22 e6 af bd d2 be 30 bf 58 9e 62 be c9 46 54 bd
       -0.08588816 -0.6904117 -0.22130716 -0.05182532
0000f0 a3 4e fc 3c 23 3b e7 3d e8 e9 91 3d 05 57 7f be
       0.030799216 0.11290576 0.07124692 -0.24935539
000100 93 5a 35 3e 79 68 de 3e 40 f4 b7 ba 06 83 7e 3e
       0.17710333 0.4343908 -0.0014034584 0.24854669
000110 e1 1c c6 bd c5 03 d5 be 98 c2 9a 3e 6d f7 e3 3e
       -0.09673477 -0.41604438 0.30226588 0.44524708
000120 90 79 a0 be f6 89 9a 3d ba 23 29 3e 7a b9 05 be
       -0.31342745 0.07545845 0.16517535 -0.13059035
000130 0f b4 83 3e 3a c6 87 3d 84 10 09 be 64 51 c1 bc
       0.2572331 0.066296056 -0.13385206 -0.02359838
000140 84 42 c4 be 7e 56 90 be ae a0 73 be 74 8a 12 bd
       -0.38331997 -0.28190988 -0.23791763 -0.03577657
000150 9c 4f 8d be fe aa 0c 3f bf 56 9b 3e a4 30 99 3e
       -0.275998 0.54948413 0.3033962 0.29919922
000160 9b 9e 1c be c4 a8 8c bc b3 28 28 3d 4b 46 ba 3d
       -0.15294878 -0.017170317 0.04105444 0.090954386
000170 7a ca 96 3e d8 18 3a 3e d7 13 ed 3d a2 92 19 be
       0.29451352 0.1817354 0.1157605 -0.14997342
000180 d8 76 c1 bd 3e 4e 71 3d 0f 00 18 3e 1b 61 3d 3e
       -0.09446496 0.05891251 0.14843772 0.18494074
000190 4c 71 95 be 1c 64 8f 3e 9e fc 2c 3e f0 b2 15 3c
       -0.29188 0.28006065 0.16893241 0.0091369
0001a0 08 85 12 be f2 ca 81 3e 90 2e e3 3b d5 17 08 3d
       -0.1430856 0.25350147 0.006933041 0.033225853
0001b0 8c 0c 09 3e 84 de 17 3d 2f 3b 55 3e 72 38 01 3f
       0.13383693 0.03707744 0.20823358 0.50476754
0001c0 50 e0 58 be c9 14 3c bd bd 94 cf 3d ef 15 53 3e
       -0.21179318 -0.04591826 0.101357915 0.20613836
0001d0 58 02 d2 3d 5f b9 b7 be 40 42 a9 be c8 c2 17 3e
       0.10254353 -0.35883614 -0.33058357 0.14820397
0001e0 ae 18 c7 be 24 4e 1e 3e 13 0f 92 3d 79 6a d2 bd
       -0.38886017 0.15459496 0.071317814 -0.10274214
0001f0 d9 3b 38 3e 81 39 ce bd bf 17 f9 3d dc b2 24 be
       0.1799158 -0.10069562 0.12162732 -0.16083854

fc.5.weight f4 [64, 128]
000000 4c 2f 4d 3d 78 c0 44 be 7e 2c d4 3e 8a 11 8f be
       0.050093934 -0.19214046 0.41440195 -0.2794307
000010 9c 65 7e 3d c8 a9 f2 bc 74 16 83 3d 6d 3f eb 3d
       0.06210862 -0.029621974 0.06400767 0.11486707
000020 a5 3e 9d bd fe be d5 be 28 c2 35 3e 9a 59 0d 3e
       -0.07677964 -0.41747278 0.17749846 0.13803712
000030 7f 2f b0 3e 25 82 06 3e ae fc 5e 3c 59 0b 40 3e
       0.34411237 0.13135584 0.013610048 0.18754329
000040 34 fc c0 3d 59 ff 9e 3e e0 76 74 bc 3b cb b9 be
       0.09423104 0.3105419 -0.01492092 -0.36287865
000050 cc 3d 72 be 98 11 dd 3b 71 78 c3 3e 78 15 95 3e
       -0.23656386 0.006746482 0.38177827 0.29117942
000060 d8 d5 5e be 12 a2 fb 3d f2 46 c2 3d 54 1e 89 3e
       -0.21761262 0.12286772 0.09486188 0.2678095
000070 39 e1 f9 3e 1b 56 0a 3e 5c eb 6a bd 08 a3 9c be
       0.48804644 0.13509409 -0.057353362 -0.30593133
000080 1a 63 07 3e df 0b 53 3e 56 3e 11 3e e8 7d 70 be
       0.13221398 0.20609997 0.14183936 -0.2348553
000090 f2 fc 8a be 3a 11 73 3c 70 ee a5 3e 2b e3 f6 3e
       -0.27146107 0.01483565 0.32408476 0.4822019
0000a0 04 f9 38 3e 8c 54 0e 3e 2f a1 42 3e 40 b2 a6 3e
       0.18063742 0.1389944 0.19006799 0.3255787
0000b0 4c 10 bf 3e 6e 2e ee 3d 66 f7 1e 3f f5 92 00 bf
       0.3731712 0.116299495 0.6209625 -0.5022424
0000c0 14 6e 8e bd 1a 5e 99 bd 90 f0 2b bd 64 df 61 bd
       -0.069545895 -0.074886516 -0.041977465 -0.055144683
0000d0 2c 77 17 be 31 38 6c be 1f 1f 59 3e 7a 09 d7 be
       -0.14791554 -0.2306831 0.21203278 -0.41999418
0000e0 48 52 86 3b bc fa 69 3c 34 0a 3c 3e a5 48 27 be
       0.004099164 0.014280971 0.18363267 -0.16336305
0000f0 9a 5a 0c bf 10 b1 37 be ff 0f a2 bd b1 9e 64 bd
       -0.54825747 -0.17938638 -0.07913207 -0.055815402
000100 a0 14 1e 3e 7e 4b 3e be 27 e5 97 3e e0 a4 5b 3e
       0.15437555 -0.18583485 0.29667017 0.21449614
000110 5e fa ae 3e 7e 2e 13 be 06 d8 00 bf 40 f6 5f 3e
       0.3417539 -0.14373204 -0.50329626 0.2187128
000120 59 34 9c 3e df 59 13 be 87 fe 28 be a4 20 2c bd
       0.30508688 -0.14389752 -0.16503344 -0.042023316
000130 44 71 b3 3e ca df b3 bd 50 5d c6 3b 5c c2 c9 3c
       0.35047352 -0.08782919 0.006053604 0.02462881
000140 3d 27 18 be a4 e4 43 3e f4 87 86 bd 40 a7 61 3e
       -0.14858718 0.19130188 -0.065689 0.22036457
000150 e2 69 ae bd 43 2d 0a 3e e4 a9 c9 3d 5c a1 ac 3c
       -0.08516289 0.13493828 0.09846857 0.021073036
000160 2e 51 92 bd 4a 5b a7 3e 8f 64 bd 3e 4f 81 7f be
       -0.0714439 0.32686836 0.36990783 -0.24951671
000170 ac 90 c9 3d 50 1c ee 3b b0 aa 1e 3e 10 fb a9 bc
       0.09842047 0.0072665587 0.154948 -0.020749599
000180 d8 e0 b1 bd 04 31 8b bd 30 90 88 bb c5 a7 e5 3e
       -0.08685464 -0.06796458 -0.004167579 0.4485456
000190 d1 5d 1f bf e6 85 13 bf 90 d4 49 3c 63 a8 9c be
       -0.6225253 -0.5762619 0.012318745 -0.3059722
0001a0 b8 94 f8 3e bc 08 56 be 8b f6 16 be 30 6b 81 be
       0.48550963 -0.2090177 -0.14742486 -0.2527709
0001b0 c0 a4 36 3e cc 9d 43 bd 2b b4 b4 be b4 72 41 be
       0.17836285 -0.04775791 -0.35293707 -0.18891412
0001c0 4e b9 98 3c 80 93 c0 3b 80 c4 64 3b 92 3b 20 3e
       0.018643048 0.0058769584 0.0034907162 0.15647724
0001d0 9c af d7 3e 24 ac 8f 3d dc cd b7 bd 80 d2 35 3a
       0.42126167 0.07015255 -0.089748114 0.0006935969
0001e0 ef 01 2f bf c4 a8 42 3e ae e5 06 be cb 3f 97 bd
       -0.68362325 0.19009691 -0.13173553 -0.073852144
0001f0 52 20 78 3e 5f f0 80 3e 34 8b f2 bc 6a 22 eb 3c
       0.24231079 0.2518339 -0.029607393 0.028702933
000200 98 57 3a be c1 27 1f be a3 c7 6a be 69 9d 10 be
       -0.18197477 -0.15542509 -0.22927718 -0.14122547
000210 a8 3f a8 3d b9 b2 87 3d 59 e3 31 be 5c 75 b3 be
       0.082152665 0.066258855 -0.17371882 -0.35050476
000220 96 69 d9 3d 34 d1 64 bd 28 f4 bf 3e da 28 38 be
       0.10615842 -0.055863574 0.37490964 -0.17984334
000230 26 f7 7d 3e 56 42 f6 bd 7c 34 08 3d 18 8e b8 3e
       0.24801311 -0.12024371 0.033253178 0.3604591
000240 c3 c8 84 3d cd 8d 73 3e 18 6e 99 3e 54 d1 e7 bc
       0.06483605 0.23784561 0.29966807 -0.028298058
000250 02 cc db bc 60 6b 67 be 30 f5 62 3e b4 f3 32 3d
       -0.026830677 -0.22599554 0.22163844 0.043689445
000260 35 1c 72 3e 77 8b 14 3e bb a4 fd 3d 56 c8 e8 bd
       0.23643573 0.14506327 0.123849355 -0.11366336
000270 88 b0 9a bd 9c 25 8e 3e 99 e0 09 3e e8 7e d7 3d
       -0.07553202 0.2776307 0.13464583 0.10522252
000280 5a 56 5a be 5c 75 38 3e c8 15 65 3e 7c 21 71 be
       -0.21322003 0.18013519 0.2237159 -0.2354793
000290 92 eb f0 3d 96 e6 86 3d d5 67 a8 bd 88 b1 d2 3c
       0.117636815 0.065869495 -0.082229294 0.02571942
0002a0 e4 fc 8b 3c 22 ef 78 3d ce bc 2c 3e d4 9b 7e 3c
       0.017088361 0.06077493 0.16868898 0.015540082
0002b0 e2 bc 23 be 62 41 6f be 7c 4c 8e 3d 3b ff 52 be
       -0.15990022 -0.23364785 0.06948182 -0.20605175
0002c0 07 d2 3d be 4a 41 5c 3d 95 68 c0 bd ba cb 97 3c
       -0.1853715 0.053773202 -0.093949474 0.018529762
0002d0 3b d8 ff 3d 72 49 9f 3d ee d3 79 3e d1 7d 38 bd
       0.124924146 0.077776805 0.24397251 -0.045041863
0002e0 22 68 36 3e 7c 07 75 3e 0e 80 cd bd 9e 7c 37 3e
       0.17813161 0.23928636 -0.1003419 0.17918631
0002f0 8c ca 7d bd 00 6c 7e ba ca 80 11 bf 87 af 60 be
       -0.061960742 -0.00097054243 -0.5683714 -0.21941958
000300 44 60 19 be 54 94 5b 3c 9f af a6 be 45 ee 1c 3e
       -0.14978129 0.013402063 -0.32555863 0.15325268
000310 21 b3 08 3d ac 02 26 3e ce 49 07 3e 7e 73 a5 bc
       0.033373956 0.16211957 0.13211748 -0.020196673
000320 2c fa 91 3d 3a 75 7b 3e 80 d2 ab bb 6a 00 a1 bc
       0.071277946 0.24556437 -0.0052435994 -0.019653518
000330 84 e3 5d 3e de 66 28 3e ce 34 bf 3e 0d e0 6d bd
       0.21668822 0.1644549 0.37344974 -0.058075
000340 f6 e8 98 3e ca 7d 84 be f0 b4 61 3e 56 99 6a 3e
       0.29865235 -0.2587722 0.22041678 0.22910056
000350 03 36 7c 3d ae a9 ca bc 98 62 cc 3c a0 f9 c0 3d
       0.061574947 -0.024739113 0.024949357 0.09422612
000360 70 9d 20 3c b0 7c 2c 3e 2e d0 56 3d 3c a6 44 3c
       0.009803161 0.1684444 0.05244463 0.012002524
000370 a9 62 d3 3e f5 94 1a bc fe 5b 7d be 74 ef c6 be
       0.4128621 -0.009434928 -0.24742123 -0.38854563
000380 92 ce d9 bc bb b2 f3 3d 4d be 08 3e c6 75 01 be
       -0.026587758 0.118993245 0.13353844 -0.12642583
000390 e4 41 01 be b6 9f 8e 3e 70 b1 13 3d 9d d4 00 3d
       -0.12622792 0.27856225 0.03605789 0.031452764
0003a0 88 9f 03 be e2 e2 12 3d 6f cc ba be 58 06 4c bd
       -0.12853825 0.035860904 -0.36484095 -0.049810737
0003b0 d2 ed c9 3e a6 d6 62 3e 66 6b 55 be 05 02 32 3e
       0.39439255 0.22152194 -0.2084175 0.17383583
0003c0 a4 be a8 be 68 94 c7 be 55 4c f6 bd c2 8d 11 3e
       -0.32957947 -0.38980412 -0.12026278 0.14214233
0003d0 5a d4 13 3e e8 14 ff 3e ef 03 29 be f5 d6 ce be
       0.14436474 0.49820638 -0.16505407 -0.40398374
0003e0 2a a4 89 3e a4 62 7b bc 7a 14 5f bd 80 2c 5a bc
       0.2688306 -0.015343342 -0.054462887 -0.013316274
0003f0 15 79 f2 bd e6 a1 74 bd 1f 91 18 bd 6b c5 5b 3e
       -0.11839501 -0.05972471 -0.037247773 0.21462028

fc.5.bias f4 [64]
000000 52 d1 5e bc 14 af f7 3c 3f 40 cb be f2 90 b8 3d
       -0.013599711 0.030234851 -0.39697453 0.09012021
000010 a4 a2 e7 3d 91 2c e4 3d 8d fa f5 3e bc 34 5e 3e
       0.11310318 0.11141313 0.48042718 0.21699804
000020 3d 9a 6f be c8 d8 58 3d 50 9d 1a bc 1e 19 ff bc
       -0.23398681 0.052941114 -0.00943692 -0.031139906
000030 aa 28 c7 3c 49 a6 1d 3d ac 68 87 3c c8 78 91 3e
       0.024311382 0.03848866 0.016529404 0.2841246
000040 51 a1 12 3f d8 28 3d 3e b7 4b 5c 3e 7f 6d 8f 3e
       0.572774 0.18472612 0.21513258 0.28013226
000050 fe 71 a8 3d f0 ee 56 3c a4 19 1e 3c 66 0c 22 3f
       0.08224867 0.013118491 0.009649668 0.6330017
000060 20 73 41 3e 7f 52 e2 be 32 fc 3a be d8 4a 88 bc
       0.18891573 -0.44203565 -0.18260267 -0.01663725
000070 34 30 ef 3d d8 1c 0e 3e 56 46 29 bf 57 6a 04 be
       0.11679116 0.1387819 -0.6612295 -0.1293119
000080 3c 18 e3 be de d5 0b 3e 14 e5 88 be 91 4e f4 3d
       -0.44354427 0.13655803 -0.26737273 0.11929048
000090 32 c1 49 be 8b 10 26 be 3e 14 a4 3d 91 64 66 be
       -0.19702604 -0.16217248 0.080116734 -0.224993
0000a0 9f 2b 8a be a2 85 b5 3e 59 b0 ff 3d da 71 eb 3e
       -0.26986405 0.35453516 0.124848075 0.459853
0000b0 3e 91 7f 3e 48 dd 4d 3e fa c9 df 3d 4f 9c fe 3d
       0.24957749 0.20103943 0.10927196 0.12432157
0000c0 74 2b 07 bd 84 97 a6 3c 0e 59 fd bd b6 10 57 be
       -0.033000425 0.02033592 -0.123705015 -0.21002468
0000d0 43 44 4d be 0e 25 98 3e b9 de df bd 08 f8 7d 3d
       -0.20045571 0.2971577 -0.10931153 0.06200412
0000e0 68 86 9e bd 15 9a 06 3f 2c e6 c1 bd b3 98 7b 3e
       -0.0774048 0.5257886 -0.0946773 0.24569969
0000f0 42 c1 01 bf 20 7c e5 bd 49 d1 64 3d 17 55 65 3e
       -0.50685513 -0.112053156 0.055863652 0.2239574

fc.7.weight f4 [32, 64]
000000 06 9a 9a be ac 09 ee 3d 5a 93 88 3e 18 c4 90 3d
       -0.30195636 0.116229385 0.2667492 0.07068652
000010 64 55 7a be 61 e7 a8 3d 10 60 47 3e 44 87 dd 3c
       -0.24446636 0.08247257 0.19470239 0.027042039
000020 3e 2a 13 3e e8 ea 7f 3e 62 1c 1b 3e 8c 56 2f bd
       0.14371583 0.24991953 0.15147546 -0.042807147
000030 00 05 85 bd 10 d8 f5 bd 3a f7 97 be b4 f7 97 be
       -0.06495094 -0.12004101 -0.29680806 -0.2968117
000040 5e 9e cc 3e 60 79 df 3e f6 30 06 3f 51 3e 7f be
       0.39964575 0.4364729 0.5241846 -0.24926116
000050 c2 06 93 bd 19 db c0 3e cd eb 90 be 0c fd 31 bc
       -0.07179023 0.37667158 -0.28304902 -0.010863554
000060 7b b6 a4 3e 5c f6 4e 3e ba fe f6 3e 33 b0 d7 3e
       0.32170472 0.20211166 0.48241216 0.42126617
000070 18 1c 3a bd c7 d9 e8 be 46 22 c4 3e 88 eb ee bc
       -0.04543695 -0.4547865 0.383074 -0.029165044
000080 5e 3e 70 be 27 c4 01 3d 7b 12 d6 bd 54 4a 71 be
       -0.23461291 0.031681206 -0.104527436 -0.2356351
000090 d2 15 09 3d 6e b3 da 3d 74 d5 6c 3e 7b 86 b3 3d
       0.033468075 0.10678755 0.23128301 0.087658845
0000a0 87 b8 7e 3e b6 6b f2 3e af b7 ad be a6 07 89 3d
       0.24875079 0.47347802 -0.33929202 0.06690912
0000b0 f8 1f f7 be 52 d8 99 3d c0 0a cc 3d 20 71 c0 be
       -0.48266578 0.07511963 0.09962988 -0.37586308
0000c0 cf d2 30 be 6a bb 51 3e 4a a3 6e 3e 5a 4b 50 bd
       -0.17267917 0.20481649 0.23304477 -0.05085311
0000d0 a8 cd 48 be 50 35 30 be 19 9b 84 be db 93 c7 3d
       -0.19609702 -0.17207837 -0.2589958 0.09744998
0000e0 43 b1 03 3e c1 e7 75 be 8a 24 85 be 7d 00 12 be
       0.12860589 -0.24014188 -0.2600444 -0.14257999
0000f0 5e 57 74 3e bc 83 41 3e 78 bd 72 bd 44 ac 01 3e
       0.23861453 0.18897909 -0.059262723 0.1266337
000100 aa ee 33 3c 1e ed a5 3c 00 aa 8b 3e 32 85 a8 be
       0.010982195 0.020254668 0.27278137 -0.3291412
000110 9a 5c da bd eb cd 39 bd 30 32 ff bd f6 34 68 be
       -0.106621936 -0.045362394 -0.124607444 -0.22676453
000120 47 58 ef bd 3c 9f ae 3d b2 7f b5 3c 07 9f cb 3d
       -0.116867594 0.08526465 0.022155616 0.099424414
000130 e4 13 54 3e c6 82 3c be a8 42 c8 bd b8 cf 54 bd
       0.20710713 -0.18409261 -0.09778339 -0.05195591
000140 61 91 38 be e0 8a d8 be 53 99 10 3e 88 e1 37 bb
       -0.18024208 -0.42293453 0.14120989 -0.002805801
000150 c8 13 de bb a5 50 88 be 6b 39 3c be d4 90 e2 3d
       -0.0067772605 -0.26624027 -0.18381278 0.1106278
000160 39 8e 33 be 60 78 a0 3b 1c e8 e7 bd 25 66 7d bd
       -0.17534722 0.0048971623 -0.11323568 -0.06186499
000170 f6 83 1b 3e 7d 28 c7 3e 6d e7 ab 3d 38 20 1c bc
       0.15187058 0.38898078 0.0839375 -0.009529166
000180 53 0f 47 be a0 60 fe 3c e8 18 00 3f 04 43 43 3e
       -0.1943944 0.031051934 0.50038004 0.19068533
000190 6b 97 c6 3d 97 02 f3 3d 04 0f 1a 3e c9 e9 77 be
       0.096968494 0.11865728 0.1504479 -0.24210276
0001a0 b5 c7 ce 3d b8 f9 1d 3e 02 7d 1a 3d 80 7e 57 bc
       0.10096685 0.15427291 0.037716873 -0.013152719
0001b0 d0 98 1a 3d 88 bc 41 3e 57 4d ae 3e 80 71 f5 bc
       0.03774339 0.18919575 0.3404338 -0.029961348
0001c0 ca a6 e0 bd c0 04 6f bb 18 25 a0 3e cc 1e cb 3c
       -0.109693125 -0.0036471337 0.312783 0.024794959
0001d0 d8 31 5f be d3 ed 9e bd 50 bc a1 bb 75 67 d3 be
       -0.21796358 -0.07760205 -0.0049357787 -0.4128987
0001e0 ea 7d e0 be 94 9f 64 3d 4e 1d 4c be c4 2c 73 be
       -0.43846065 0.055816248 -0.19933054 -0.23747545
0001f0 70 11 e7 be 3d 80 5a be 4d d1 33 3e 36 8f 00 be
       -0.4513049 -0.21337982 0.1756031 -0.1255463
000200 7a ef cd 3d 6d 4f 41 be b8 de 6e be b6 32 fa 3e
       0.10055442 -0.18877955 -0.23327148 0.48866814
000210 5a a7 e8 3e 82 60 6c bc c4 6f d3 be 96 5f f8 be
       0.4544018 -0.014427306 -0.41296208 -0.48510426
000220 34 6b 10 bd e8 5d 8b be 1a 4e 23 bd 7c 9f d4 3c
       -0.035258487 -0.27220082 -0.039869405 0.025954954
000230 93 6c 6f be c0 9e a8 3e fe 00 b6 be 03 8f a7 3d
       -0.23381262 0.32933617 -0.35547632 0.08181574
000240 26 c5 a2 3e c2 8a e0 be 69 65 b9 3e ed d8 23 be
       0.31791037 -0.43855864 0.36210182 -0.1600072
000250 b8 d9 b9 3e 13 f1 b0 bd c8 a4 30 bd 59 e1 26 bf
       0.3629892 -0.08639731 -0.043125898 -0.65187603
000260 10 6a 00 3c c1 de 83 3d de 25 0e 3f 06 9c c2 bc
       0.007837787 0.06438971 0.5552653 -0.023756038
000270 7a ed e9 bd 54 54 88 be d5 8f d3 3d 98 f5 9a be
       -0.11422248 -0.26626837 0.10330168 -0.30265498
000280 50 93 b6 bd a3 16 06 3e 46 2a 9e 3e 0e 03 85 be
       -0.089148164 0.13094573 0.30891627 -0.25978893
000290 7a f5 85 3e 68 96 da 3c 84 2d c4 bd c3 45 a1 3e
       0.26163846 0.026683047 -0.09578994 0.31498536
0002a0 d7 e1 ee bd 85 1c 0f be f1 2e da bd de d1 29 3e
       -0.11664169 -0.13975723 -0.106534846 0.16583964
0002b0 11 94 91 be 6f 60 66 be 51 0b 2a 3c 94 60 8a be
       -0.28433278 -0.22497724 0.010378675 -0.27026808
0002c0 4a c3 6e be a1 0d 03 3e b7 d2 f4 bd 57 2d 97 3e
       -0.23316684 0.12798168 -0.11954253 0.2952678
0002d0 5c 60 30 3e b9 8a 82 bd 9b 42 b5 bd 40 25 de 3e
       0.17224258 -0.063741155 -0.088505946 0.43387794
0002e0 0c 4b 4b be bd 5c 25 3f c1 81 ba 3e f5 81 d9 3e
       -0.19852847 0.6459463 0.3642712 0.42481962
0002f0 4d 8c 1e be 20 04 84 bd 9f e6 33 bd d5 89 83 3e
       -0.15483208 -0.06446099 -0.04392111 0.25691095
000300 a9 36 18 3e c5 48 3a 3e 8e bb 93 be 82 b0 cd 3d
       0.14864601 0.18191822 -0.2885403 0.10043432
000310 a5 f1 03 bf 80 55 72 bb 6f 60 00 3d e0 8d d6 be
       -0.51540595 -0.0036977232 0.031341966 -0.41905117
000320 fc fa d3 3d cc 02 b5 3e 29 b9 5b be 90 c2 6d bc
       0.10350606 0.35353696 -0.21457352 -0.014511719
000330 1c d3 be 3c 08 14 ea 3d 99 1a 37 3d 8c 57 66 bc
       0.023294024 0.11429602 0.0447031 -0.014058959
000340 a4 f7 26 3d 08 01 4d be 60 ff 02 3e 28 f6 b8 3d
       0.040763512 -0.20019925 0.1279273 0.090313256
000350 23 03 db bd a6 0d fc be 5e 53 8f be 3d 81 a9 be
       -0.10693958 -0.49229163 -0.27993292 -0.33106413
000360 14 a1 92 bd 12 89 de 3d 8b 53 1f 3f f0 e3 59 3d
       -0.071596295 0.10865988 0.6223685 0.053195894
000370 7b a9 02 be 7c ff 73 be 0a 0b de bd 0e a0 68 bd
       -0.12759964 -0.23827928 -0.10841949 -0.056793265
000380 1a 38 a6 bd 2e 73 8f 3d a5 c7 34 3d 6e cf 3e bd
       -0.08116169 0.07004391 0.04413571 -0.04658454
000390 54 af 22 3e f7 94 a6 be 1c fd 8f 3d 2a 7e df 3d
       0.15887195 -0.32535526 0.07030699 0.10912736
0003a0 0c 65 59 be 38 b2 be 3c 2b b4 82 be a5 7f 3a 3d
       -0.21229953 0.02327834 -0.25528082 0.045531888
0003b0 c0 12 a1 3e a8 88 32 bc a6 9a a8 be a3 e3 dc bd
       0.31459618 -0.010896839 -0.32930487 -0.10785606
0003c0 91 4a 37 3e 50 4d 01 3e 40 cf 8b 3d 96 bf 9a 3e
       0.17899539 0.12627149 0.06826639 0.30224293
0003d0 d0 60 b9 3e c8 7f 0c be c6 b0 fc bd 98 37 c4 3e
       0.36206675 -0.1372062 -0.12338404 0.38323665
0003e0 0a e6 a5 bd 19 ca 68 3d 24 04 50 be 90 9f 56 3e
       -0.08100517 0.05683336 -0.2031408 0.20959306
0003f0 b4 9d db be 2f 43 a2 3e 4d 7c 95 bd 80 6f 24 be
       -0.42893755 0.31691882 -0.07299099 -0.16058159

fc.7.bias f4 [32]
000000 bb e5 f3 3d 08 02 cb 3d 06 98 7b 3e 39 35 30 bd
       0.11909052 0.09912497 0.24569711 -0.043019507
000010 32 ca 14 3f a4 45 01 3e c3 66 8c be 6f e3 75 bf
       0.58121026 0.12624222 -0.2742215 -0.9605016
000020 84 b1 30 bd 62 09 36 be 74 98 ec 3d db 8f 2b bf
       -0.043138042 -0.17777017 0.115525156 -0.6701638
000030 fd c0 8a 3d 40 89 cb be 53 e5 21 3e e7 c0 2d be
       0.06775091 -0.3975315 0.15810136 -0.16968118
000040 5c 5c 23 be 78 9e 0d 3d ed 75 74 bd 16 ba 9f bc
       -0.15953201 0.034574956 -0.059682775 -0.019497912
000050 a4 7d 82 be 75 12 01 bd 12 4b 9b be be 4d 12 3e
       -0.2548648 -0.031511743 -0.30330712 0.14287469
000060 c5 e6 48 bd be ca 9c bc 68 c9 9c be 63 cd e6 bd
       -0.049048204 -0.019139644 -0.3062241 -0.11269643
000070 9b 63 b6 bd c4 c7 82 bd 90 95 77 bd ce 3e a3 3d
       -0.08905717 -0.063857585 -0.06044537 0.079709634

fc.9.weight f4 [3, 32]
000000 06 df d7 bd 07 e4 1d bd 62 4e 52 3e 4c 6e ca be
       -0.10540585 -0.038547542 0.20537713 -0.39537275
000010 5b 5c 46 3e f2 d9 06 bf ae d5 ab 3d bf 4e c4 3e
       0.19371168 -0.5267631 0.083903655 0.38341329
000020 64 84 f5 bd aa 76 a5 3d ea 3d 08 be 00 e8 6d 3a
       -0.11988142 0.08079274 -0.13304868 0.0009075403
000030 3b e7 22 be 12 cd 3d be c4 22 0a bd 84 18 9b 3e
       -0.1590852 -0.1853526 -0.03372456 0.3029214
000040 fe ae a9 bd 4e be ba 3d 86 18 97 3d 60 5c 85 be
       -0.0828533 0.09118329 0.07377724 -0.2604704
000050 9f 19 a8 3e dc b8 96 be 65 a3 1d be bc c0 b3 bd
       0.32832047 -0.29437912 -0.15394361 -0.087769955
000060 a4 89 65 3e fa a0 50 3e 71 79 92 bc 9c d5 f6 3e
       0.22415787 0.20373908 -0.017880173 0.48209846
000070 98 2c 9c 3e 6d 1d 29 3e 19 8a 68 bd 88 f3 53 bc
       0.30502772 0.16515131 -0.056772325 -0.01293648
000080 ae 47 9c be f9 e2 04 be 24 1d 65 be 78 aa e0 be
       -0.30523437 -0.12977208 -0.22374398 -0.43880057
000090 a7 fc 99 be ef d6 5c 3e a5 39 d8 3d ed 4f 81 bd
       -0.3007557 0.21566366 0.1055787 -0.06314073
0000a0 1d b6 9b be 61 b5 8b 3e 87 0d 9b 3e 98 29 28 3d
       -0.3041238 0.2728682 0.30283758 0.041055292
0000b0 c9 6d ec 3e bf 59 1c 3d 13 bc 88 bd 0e d4 32 3e
       0.4617751 0.038171526 -0.06676497 0.17463705
0000c0 ae 64 8d bd 7e a2 59 3e ae cd e1 3e d2 1d 54 be
       -0.06903969 0.21253392 0.44102234 -0.207145
0000d0 47 0c 39 3e 8e 16 02 3e 03 54 eb 3e ac 6c 28 3f
       0.1807109 0.12703916 0.45962533 0.6579082
0000e0 a5 67 17 bd a4 af 16 bd e4 cd 05 3e 96 d5 82 3e
       -0.036964078 -0.036788598 0.13066822 0.25553578
0000f0 f9 c4 07 3e 7f e9 c6 3e 85 92 d0 3e c1 75 d0 3e
       0.13258733 0.38850018 0.40736786 0.4071484
000100 04 1b 55 3e 5b 84 37 be 7a a4 5b bd fa f7 b7 3c
       0.20811087 -0.17921583 -0.053623654 0.022457112
000110 52 12 b8 3e b7 ae e2 be 42 51 55 be 94 eb c7 bd
       0.35951477 -0.44273922 -0.20831779 -0.0976173
000120 1c 0d 8e bd 06 14 15 3e c3 4c 4f be 4f 4a 83 3d
       -0.06936094 0.1455842 -0.20244126 0.064106576
000130 b2 a0 07 3e d6 5e a2 3e 10 8e a9 3e 70 0b 58 3d
       0.13244894 0.3171298 0.33116198 0.052745283
000140 94 f1 26 3e f4 68 8a 3e 24 62 66 3e 95 0a 40 be
       0.16303092 0.27033198 0.22498375 -0.18754037
000150 48 9b a7 be c1 59 db 3d a8 6c f4 bd 6e a7 e8 3e
       -0.32735658 0.107104786 -0.11934787 0.4544024
000160 d2 9c 75 bd 4a b3 89 bd 60 70 87 3d 93 df ab 3c
       -0.05996401 -0.0672365 0.06613231 0.020980632
000170 a7 9c 9c be 66 35 2e 3e 34 b1 dc 3e 89 3a 76 be
       -0.30588266 0.17012557 0.43103945 -0.24045767

fc.9.bias f4 [3]
000000 82 b5 45 3e c3 a6 ac be 4e 32 e7 be
       0.19307521 -0.3372098 -0.45155567
