model_binary.pth (torch, 184254 bytes, 10 tensors)

fc.0.weight f4 [256, 6]
00000000: 231d 85be d043 f2bd 09c5 c5be 88b7 453d
00000010: 56b0 57be d4d0 2ebe 1183 e33e d6b1 15be
00000020: 0f6c 40be bf7c 9ebd 98cb 813f d59c d5bd
00000030: b276 943e 1d72 a73e 2b6e d3be af65 a33e
00000040: d50d a43f 4422 aebf 32c3 a5bd 5ab8 2fbd
00000050: 9096 ef3d bf8e b03e 10ad 90bf a437 913f
00000060: 9d86 97be 9ec6 1e3e f2f9 f1be 5c40 203e
00000070: 9c7d 88bf 3352 993f e03c aebe c698 8d3e
00000080: 8958 ae3d 53ca c23d 7097 fa3f dac5 1a3e
00000090: 315a bdbe 0097 71bb 9cbd bfbd 10d5 73bd
000000a0: 083a 873e 8cc9 8fbe d458 b2be c3d2 ce3d
000000b0: 77eb fc3e 8869 543c 20f5 783f e96c e03e
000000c0: 03ac edbc 7369 aabc 4498 b33e e959 3a3d
000000d0: bd70 a2bf 9958 a13f dc29 643e 1c88 0cbd
000000e0: 852b 543e 4bc6 4b3e 41a5 d9bf 59cf aa3f
000000f0: e2d6 8d3e 1bb8 943e 7e75 95be a214 77be
00000100: 1f75 a43f 6062 9fbf e1f0 a0be a907 52bd
00000110: f432 01bf 2a2d 833e bd55 2fbf 3797 203f
00000120: dfca 6ebe da32 17be 94e2 843e fb24 c3be
00000130: e239 813e b472 9fbd f3b2 cfbe d080 99be
00000140: dc34 0f3e 9475 87be 28c0 7a3e a0bb 5f3c
00000150: fc54 9ebe 5023 94bd 08d1 6d3e 96f2 c0be
00000160: b4a2 8c3e 9a6f b43e ea63 0ebe a27b f7bd
00000170: da1e b4bd 2ce2 233d ecde 343e 4fca a9bd
00000180: b77c 61be a9db 53be d0db c8bc 4d0e 72be
00000190: 8030 9fbe b8ac 7e3e 8d08 c83e c62d 0fbd
000001a0: 7395 483e 1757 b9be aa4c 7fbe c09f 91be
000001b0: 8474 b03d e23e cfbe 5c3a 903e d055 e0bd
000001c0: d8a5 5abd a802 843e d7ef 6dbe 8c92 e0bd
000001d0: 4adf 8abe fb78 ac3e fa42 bfbf fc20 9c3f
000001e0: 5938 85be 2a28 ab3e a6d7 adbe fb74 9cbe
000001f0: 5eb7 763e c85e acbe c46c d3be 79ff 593e
00000200: 96d6 af3e 9219 5b3d 77ad b9bf c60d ce3f
00000210: 438d f2bd ebc1 243e 815c 5f3e 92af 12bd
00000220: b253 813e 4848 6c3f e655 92be 57f3 523d
00000230: 03bb 0b3e 0a83 2a3e fea9 cd3f 9fd8 2ebe
00000240: 8ab6 d23e f8ae 8fbe 8dc1 c03e b048 30bc
00000250: b94a 38bf 64c0 fd3e 40b4 f5bc 4aee afbe
00000260: 78db 263e aac6 c6be adde 36be e062 37bc
00000270: e36d e4be 3449 bc3e 1551 623e 90b6 82be
00000280: dd7c 87bf 716e 483f 2237 683e abdd a3be
00000290: 9c8a 383e 1502 3dbe 800d a5bd 6cb0 13be
000002a0: 2e25 ab3d a4ec dc3d 5c61 bdbe 83be 2d3e
000002b0: 6c70 c5bf 8ab5 da3e 4d01 323e 315b 88be
000002c0: 8630 3bbe 1bf8 9cbd 1dcb 49bd 2b55 c0be
000002d0: 008f d8be bbb6 433d a869 643e 9baa 703e
000002e0: bbe8 ea3f 81bd e9bf 4995 8bbe 5ea5 3fbe
000002f0: 006d ffbd 9045 b5bc 9a66 c7be 5cb8 9c3e
00000300: fcce 91be fc15 5a3e 3c4f 25be 1c3e b9be
00000310: 30ec c5bd ffe5 44be 3072 dc3d 32ac d0be
00000320: 1028 16bd 1e35 94be 044e 2e3e 62fe bd3e
00000330: f1c1 5bbe 326d 2b3d 2340 283e 19d1 9f3e
00000340: 43d0 cbbf 7363 823f 4024 2ebc 409a c53c
00000350: f8f1 b53e bf2a 8fbe c6cb ac3e 5ceb ce3e
00000360: d319 5c3e 4065 9fbe 0d6b 0e3e adcc 33be
00000370: e3df c8be 65af b53d 8e75 1dbe 4059 863b
00000380: e296 aabe e004 35bc 80ca 6c3b 002d e2bb
00000390: cedc a6be 1254 abbd 4e58 933e cca8 0f3e
000003a0: 9e3e c3be f23f 0240 883d d2bd 87a8 a43e
000003b0: 30ca 5ebe 1472 863e 1f8c 47bf 5424 c93f
000003c0: 6386 15be 274a 733e dba5 38be 2818 763e
000003d0: d54c d93f cffd 7fbf f8d4 8e3e 4e5c 793e
000003e0: 882a c03e 86aa 283e 921c a8bf b1d9 893f
000003f0: f02e 37bc 8b63 053e 0cf4 60ba fccf 8f3e
-0.25998792 -0.118293405 -0.38626888 0.048270732 -0.2106336 -0.17071849 0.44435933 -0.1461862
-0.18791221 -0.07738637 1.0140257 -0.10430304 0.28996807 0.3270425 -0.4129499 0.31913516
1.2816721 -1.3604207 -0.08093871 -0.04290042 0.116986394 0.34483907 -1.1302814 1.1345105
-0.2959489 0.15505454 -0.47261006 0.15649551 -1.0663333 1.197821 -0.3403082 0.2765562
0.085129805 0.095112465 1.9577465 0.15114537 -0.36982873 -0.0036863685 -0.09362337 -0.059529364
0.26411462 -0.28083456 -0.34833395 0.10098793 0.49398395 0.012964614 0.9724903 0.43833092
-0.029012686 -0.020802235 0.35077107 0.0454959 -1.2690655 1.2605163 0.22281593 -0.03430949
0.20719726 0.19899862 -1.7003556 1.3344527 0.27703005 0.2904671 -0.29191202 -0.24128965
1.2848243 -1.2451897 -0.31433776 -0.051276837 -0.50468373 0.25620395 -0.684902 0.62730736
-0.23319577 -0.14765492 0.25954115 -0.3811415 0.25239474 -0.0778555 -0.40566215 -0.2998109
0.13985008 -0.26456892 0.24487364 0.013655573 -0.30924213 -0.07233298 0.2322427 -0.37685078
0.27467883 0.35241395 -0.13905302 -0.12084128 -0.08794947 0.040010616 0.17663163 -0.082905404
-0.22020231 -0.20689262 -0.024518877 -0.23638268 -0.3109169 0.24870574 0.39069024 -0.034955762
0.1958826 -0.36199257 -0.24931589 -0.28442192 0.086159736 -0.40477663 0.28169525 -0.109538674
-0.053380817 0.25783277 -0.23236023 -0.109654516 -0.2712348 0.3368605 -1.4942315 1.2197566
-0.26019552 0.3342908 -0.3395359 -0.30558 0.24093387 -0.33666062 -0.4129392 0.21288861
0.34343404 0.053491183 -1.4506062 1.6097953 -0.1184335 0.16089599 0.21812631 -0.03581197
0.25259167 0.9229779 -0.2858116 0.0515016 0.13645558 0.1665155 1.6067502 -0.17074822
0.4115489 -0.28063178 0.37647668 -0.010759518 -0.7198902 0.49560845 -0.029993176 -0.34361488
0.16294658 -0.38823444 -0.17858382 -0.011193007 -0.44615087 0.367746 0.22101243 -0.2552991
-1.058498 0.7829352 0.22677281 -0.32005057 0.18021625 -0.18457825 -0.080592155 -0.14422768
0.08356701 0.10787323 -0.36988342 0.16967206 -1.5424933 0.42716628 0.17383309 -0.26632074
-0.18280229 -0.0766451 -0.04926597 -0.37564978 -0.422966 0.047781687 0.2230593 0.23502581
1.8352274 -1.8260957 -0.27262333 -0.18715426 -0.12471962 -0.022127897 -0.38945466 0.30609405
-0.2847823 0.21297449 -0.16143507 -0.36180198 -0.0966419 -0.19228362 0.10763967 -0.40756375
-0.0366593 -0.28946775 0.17021948 0.3710814 -0.21460702 0.041852184 0.16430716 0.31214216
-1.5922931 1.01866 -0.01062876 0.024121404 0.3553617 -0.279623 0.33749217 0.4041394
0.21494226 -0.31131935 0.13908024 -0.17558546 -0.39233312 0.088713445 -0.15376875 0.004099995
-0.3331824 -0.011048526 0.0036131442 -0.006902337 -0.32590336 -0.083656445 0.2877831 0.14029235
-0.3813371 2.035153 -0.102656424 0.32159826 -0.21756816 0.2625891 -0.7794818 1.5714211
-0.14602046 0.23758756 -0.18032019 0.24032652 1.6976572 -0.99996656 0.27896857 0.24351618
0.3753245 0.164713 -1.3133719 1.0769559 -0.011180624 0.13026254 -0.00085812877 0.28088367

fc.0.bias f4 [256]
00000000: e485 293e 8943 63bd 3c6e f93d a746 973e
00000010: fa39 87bd d25c 40be 6445 553e e1b7 55be
00000020: fa19 633d 43dc 963b 2eb8 bdbd 4059 ac3c
00000030: 0291 863e 800c a33b baa4 993e 59c2 37be
00000040: c0b0 80bb b0f9 cdbd 0a09 bb3e b3eb 9a3e
00000050: 581c be3e 9e71 85bd 7e24 82bd bdbe b4be
00000060: 2060 1fbc bea3 c23e aa29 b0be 8e8b 5c3d
00000070: b6d7 21be 7036 babd 6c4f c6be 58a9 87be
00000080: 0844 bf3e 7a3f 42be 3f8a 103e 28f7 c4be
00000090: 9b6a 033e 781d ea3d f0b8 72bd 2441 103e
000000a0: 2356 dcbe 868b a73d c156 48be 9fdd 9a3e
000000b0: 726b 353e 5f01 b9bd f65a a33e 3888 513e
000000c0: e4c9 69be f4c0 87bd 321a 4ebe 74da 933d
000000d0: 3c30 fbbd 60ac 2e3e d882 883e fff5 8f3d
000000e0: 6c15 b33d 0efc 6d3e 711b 92be 2558 d53e
000000f0: 4774 4dbe 9cea af3e f3f3 6bbd 939a 563e
00000100: 7c82 f6bd 5e76 dd3d 0ce7 1a3e 63d2 ce3e
00000110: fa01 c8bd 0eb4 0dbe 1cff ad3e 9e18 bb3e
00000120: a700 213e 7a34 38be d8ec a3be 52c0 73be
00000130: d67e debe 1bf6 9abe 6c3f 893d c4b8 8b3d
00000140: 1aa9 e83e e2b8 e53e 1d0e 75be 9591 963e
00000150: a59d 693e 3198 313e ed8a 36be 988c 863e
00000160: 10e0 063d 06f3 973e b869 803e ab8f 41bd
00000170: a00b 733e 4bca c93e a62a 87be 7a5e 663e
00000180: 1982 c53d 5d41 57be 8888 ad3e c819 f3bd
00000190: 10dc 503d 327e 363e 8022 f73d 4ea4 c7be
000001a0: 86c6 303e 0003 29be c006 e4be 9eb9 cfbd
000001b0: 7aa0 a1be e321 edbe cf34 9cbe 4b1d ea3d
000001c0: 08d6 9bbe 8f97 98be 256c 803d 8e56 283e
000001d0: e74b d8be 311d 16be 20cb e63d 6d4e c0be
000001e0: 4ce4 d03d 8c2d cebe f37c fc3d 9624 a9be
000001f0: e7c8 a9be 4cd7 67be b91a c2be fcc5 073e
00000200: 224e 95be 108b 7fbe bc74 a93e a49f d03c
00000210: 303e 88bc 25f4 3d3e 81d5 9d3e db9b 953e
00000220: e38b c9be ba29 1cbd 942f 83be b8f8 493e
00000230: bbf5 af3e 227d c23d 6fc3 65be 0bd4 85bd
00000240: 0e24 383d bf03 a7bd c657 d83e 0da0 a13e
00000250: 6b90 833e 2bc2 99bd 2615 bbbe db4e 4b3e
00000260: bd72 99bd 50f9 82be 993c 54bd 306b d5bd
00000270: 3f85 d2be 1047 bfbc 8b7e 673e bc01 8c3e
00000280: ef62 913e 5939 893e c8c6 373e 0447 333e
00000290: 17b7 35be 611b bb3e ee9b 9abe 6708 27be
000002a0: 9163 82be ca02 5ebe 5c90 843e d962 8fbe
000002b0: cfd1 53bc 4209 9f3e 368c 263e 302f 84be
000002c0: 438f cb3c 1f55 58be 1cc2 683c c088 403e
000002d0: 94e4 42be fd92 5ebe d681 a33e 989f 29bd
000002e0: cf9c dcbc 7868 72be 880c cf3e fd01 01be
000002f0: 67c1 a8be a540 97be 0141 bfbe 5c0c 79be
00000300: 082a 40bd 38df 373d e251 17be 6e90 e93d
00000310: dc05 af3e 684d a6be 63e2 7abe 56d0 723d
00000320: b607 4c3e fc30 7b3e f5fd b23e 5ead cfbe
00000330: 7aa1 c63e 4c5e 55bd 732c bc3d 7f81 cbbd
00000340: 3bed b8be 288a 253d 2095 0abc b00a d5bd
00000350: 0143 cc3d e20d abbe 8f70 81be eb7b 763e
00000360: 086b a33e 318e 493d 70d1 2dbd aa3b 20be
00000370: 3ee8 e93d ed53 84be 5c3a 853e 9274 cb3e
00000380: a880 b8be 0696 9fbc 1274 683d d138 4a3e
00000390: 47c2 03bb dd1e 9cbe 749f 77bd caaa e73d
000003a0: 47f2 53be 2cae 2dbe 3a35 b23a b074 02bd
000003b0: 6772 3c3e 5af2 47be 923d c73e c5af c6bd
000003c0: d8a9 fabd 254f a4be d204 af3e 0341 4f3b
000003d0: 6e1d cebe 62d8 983e 1511 8d3e 4571 a03e
000003e0: a2a4 573e 28c4 183e d047 8e3c 0967 103e
000003f0: 34f6 883d c076 003d 69ef 42be 4e3b b0bc
0.16554981 -0.05548433 0.12179229 0.2954609 -0.06602855 -0.18785408 0.20827252 -0.20870925
0.055444695 0.004603894 -0.09263645 0.021038651 0.26282507 0.0049758554 0.3000849 -0.17945231
-0.0039273202 -0.1005739 0.36530334 0.3025795 0.37131 -0.065158114 -0.063546166 -0.35301772
-0.009727508 0.3801555 -0.34406787 0.053844027 -0.15804943 -0.090924144 -0.3873247 -0.26496387
0.3735659 -0.18969527 0.14115237 -0.38469815 0.12833636 0.11431402 -0.0592584 0.14087349
-0.43034467 0.08180909 -0.19564344 0.30247208 0.17716768 -0.09033465 0.31905335 0.2046212
-0.22830921 -0.066286 -0.2012718 0.07219401 -0.12265059 0.17057943 0.26662326 0.07029342
0.0874432 0.23240682 -0.2853656 0.4166881 -0.20063888 0.3435868 -0.057605695 0.20957403
-0.12036607 0.108135924 0.151272 0.40394887 -0.09766002 -0.13838217 0.33983696 0.3654222
0.15722905 -0.17988768 -0.32016635 -0.23803833 -0.43456143 -0.3026589 0.0670155 0.068223506
0.45441514 0.44867617 -0.23931165 0.29407945 0.22814043 0.17343213 -0.17826433 0.2627914
0.032928526 0.296776 0.25080657 -0.047256153 0.23734903 0.3941215 -0.26399726 0.22496977
0.09643955 -0.21021028 0.33893228 -0.11870152 0.050991118 0.17821577 0.12067127 -0.38992542
0.1726323 -0.1650505 -0.445364 -0.101428255 -0.31567746 -0.46314916 -0.3050904 0.114313684
-0.3043673 -0.2980313 0.06270627 0.16439268 -0.4224541 -0.14659573 0.11269212 -0.37559834
0.10199794 -0.40269125 0.1232852 -0.33035725 -0.3316109 -0.22640723 -0.37911013 0.13259119
-0.29161173 -0.24955392 0.33096874 0.025466748 -0.016631216 0.18550165 0.30826953 0.2922047
-0.39364538 -0.03812573 -0.25622237 0.19723785 0.34367165 0.094965234 -0.22437833 -0.065345846
0.04495626 -0.081550114 0.42254466 0.31567422 0.2569612 -0.07507738 -0.36539572 0.198543
-0.07492588 -0.25580835 -0.051815603 -0.10420835 -0.41117284 -0.023349315 0.22606866 0.27345073
0.28395793 0.26801565 0.17946923 0.17507559 -0.17745624 0.36544326 -0.3019709 -0.16311799
-0.25466588 -0.21680751 0.25891387 -0.28005102 -0.01292844 0.3106175 0.16264424 -0.2581725
0.024848586 -0.21126221 0.0142064355 0.18802166 -0.19032508 -0.21735759 0.31934994 -0.041411966
-0.02693024 -0.23672664 0.40439248 -0.12598415 -0.32960054 -0.29541507 -0.37354282 -0.24321121
-0.046915084 0.044890612 -0.1477733 0.11404501 0.34184158 -0.3248093 -0.24500422 0.059280716
0.19924816 0.24530405 0.3495938 -0.40561956 0.38795072 -0.05209188 0.091881655 -0.09936809
-0.36118492 0.04041496 -0.008458406 -0.10402429 0.099737175 -0.3340903 -0.25281188 0.24070708
0.31917596 0.04920787 -0.042436063 -0.1564776 0.1142125 -0.2584528 0.26021087 0.39737374
-0.36035657 -0.019480716 0.05675132 0.19748236 -0.0020104812 -0.30492297 -0.0604548 0.11311872
-0.2069789 -0.16960973 0.0013596185 -0.031849563 0.18403016 -0.19526044 0.38914162 -0.09701494
-0.122394264 -0.32091632 0.34183365 0.0031624443 -0.40256828 0.29852587 0.27552095 0.31336418
0.21058896 0.14918578 0.017368227 0.14101805 0.066875845 0.03136325 -0.1903664 -0.021512654

fc.2.weight f4 [128, 256]
00000000: 70b7 503d 1570 0abd 9c05 743d cd43 fa3b
00000010: 19a4 85bd 534c a1bd e80f 65bc 04f6 1ebe
00000020: 02fb c8bb 10da f2bc 16ac 293e 0f8c 17bd
00000030: 58ba b2bc 0c75 b43c 7816 40bd a100 8cbb
00000040: 98bb 303c bc4e 6c3d 047c 9c3c 4626 96bd
00000050: 762a 43bd 1bb1 b6bc f7ce c5bc 9ccf 95bc
00000060: 7add abbd 4026 82bb e3a9 303e a445 523d
00000070: dd33 413d bc32 5ebc 3657 0d3c 7cf8 0abd
00000080: 987e d83c 0495 8ebc 5630 4abd c24f 0ebd
00000090: f90f 5fbd e449 863c 003d 9abd cc65 75bd
000000a0: 5286 85bd 59a8 7e3d 6e91 af3c c939 9b3d
000000b0: 0f60 3abd 3cbe a7bc e076 abbb 0153 abbd
000000c0: 6b0f 243d 6a1f 013c 4189 5e3c a081 073d
000000d0: c329 833d 7c70 1f3d a23c 2f3d 1fba 44bd
000000e0: 4a0e 41bd e926 123d abcf 733e f26a 6f3e
000000f0: dcc3 b23d 2544 973e 1908 1f3d a306 7f3d
00000100: fc88 d53c 922b 8dbd 72f0 023d ba73 57bc
00000110: 9545 63bd 304f d4bc ef04 db3e c8bc 4cbc
00000120: de9c 31bd b5ce 71bc c420 943b bab3 2fbd
00000130: 3139 923e f12a 44bd 8864 42bc 21ac 043d
00000140: 7caa 723d 4429 cfbd 59c5 223d 0b0b d2bc
00000150: 5e17 b4be 4c96 9abd 2e45 3a3c 1016 72bc
00000160: 8038 6f3c b742 3d3d e98a 0bbd 4d63 1abd
00000170: 08ed af3c a095 733d d214 543d a08d 43bd
00000180: b44d d5bd 4207 95bb 48ac 8b3c 9ab5 4dbd
00000190: 4cb3 babc 23e3 a83d b01b 7bbd 488c 8dbc
000001a0: 09cc 85bd 2f31 35be 8461 f9bc 712f 233d
000001b0: 7869 9cbc 00e9 aa3c fef1 543d fa1f 34bd
000001c0: 1485 7fbd 715a 8a3c ae07 e9bc e6da 00be
000001d0: 51e2 923c 214a fd3c a816 5c3c 9376 c83d
000001e0: 2746 003f 8bcb d0bb 54f3 42bd 950f 15bf
000001f0: 0083 93b9 383f 79bf e05f ef3c d01a 77bd
00000200: 30fe 943c f026 5b3c bccd ecbd a42b 3dbe
00000210: 60fd d8bb f623 09bc 8256 4d3d 3441 783d
00000220: ab03 0bbc 2e2b b9bb caa8 2d3c 2a2d 793b
00000230: 9ca7 eebd 5719 123d ee51 1cbd 38ec 7dbd
00000240: 009c 3dbd 6c6b 8dbc a14d f23d 707d 253c
00000250: e173 f33c 59ef 9d3c ba4d 99bd 816d 953c
00000260: 36a6 31bd e225 7dbd 12f0 b5bc 4c9f 453d
00000270: 3760 7c3c 9801 303d 472b 2cbd d9c1 a83c
00000280: bf96 813d ad3c 903e 5cc2 7b3d 0020 863c
00000290: af4e 2d3d 5cab 1bbc 06a4 e53c 453a f6bb
000002a0: c58b edbd 4769 5fbd 5afe 173d 63ea 893d
000002b0: e4bc 84bd 8924 703d 007f 9a3d 7013 c93c
000002c0: 388f 66bb 488b 9cbc 29c0 273b 5aba 55bd
000002d0: ca7e 78bd a2c5 713d e631 5fbd 5ac3 4e3d
000002e0: 1e5b 3b3d 96d5 f83d 5372 453e 8479 143f
000002f0: 9013 723c 2b67 6a3c 3165 6cbd 6b9a 3e3d
00000300: c25c 8bbd 2eaa 523d 5af2 e7bb 719d 79bc
00000310: dc42 5ebd 6f1a 263d b8ae 0dbd 8df0 c4bc
00000320: 1763 f7bd 5ca6 ffbc cfb1 84bc 8300 8d3c
00000330: ab89 f4bf 61dc 8abc 106c f93d 1a52 f0be
00000340: c805 4bbd 2dd3 f23c 2ec1 7dbd 6cc8 383d
00000350: 57ab 0cbf 5b67 a1bd fde6 12be d9f0 c0bc
00000360: f4d0 04bf daf5 833d 722e 3e3d 1423 1c3d
00000370: 3089 aabd de17 61bd b157 203d 4c61 a3bd
00000380: fa09 7b3d 16be 93bc 35c1 263e 69bb 383d
00000390: 0242 0b3e ee8f c83b 2b32 05bc ae0d 71bd
000003a0: 7e6c f93c 1e8b 60bd 60aa cb3d ac4e 9f3c
000003b0: 1b6b 6bbd c0a3 8cba 700c 8dbd 33c3 123c
000003c0: 60a8 2dbd 7190 153d 40e9 de3c 9d48 08bd
000003d0: 541b 333e e497 30bc 0239 19bd 1e30 f7bc
000003e0: c8dd 55bb 108d 3c3c 0dbc 16bc 5b65 d23c
000003f0: 9e33 f73c ce0e 343f 8b87 3a3d 35a8 c3bc
0.05095619 -0.033798296 0.059575662 0.007637477 -0.0652544 -0.07875886 -0.013980843 -0.15523535
-0.006133438 -0.029644996 0.16569552 -0.036998805 -0.021817371 0.022028469 -0.046896428 -0.004272536
0.010786913 0.057692274 0.019102104 -0.07331519 -0.047647916 -0.022301247 -0.02414654 -0.018287472
-0.08391853 -0.003971845 0.17252307 0.051335946 0.0471686 -0.013561901 0.00862675 -0.03392838
0.026427552 -0.01740504 -0.049362503 -0.03474403 -0.054458592 0.016392656 -0.07531166 -0.059911534
-0.0651976 0.062172268 0.021431651 0.07579381 -0.045501765 -0.020476453 -0.005232677 -0.08365441
0.040053766 0.007881025 0.013582529 0.033082604 0.0640445 0.038925633 0.042782433 -0.04802906
-0.047132768 0.03568164 0.23809688 0.2338064 0.087287635 0.29544178 0.038826082 0.06226219
0.026066296 -0.06893076 0.031967588 -0.01315015 -0.05548628 -0.025916666 0.42777202 -0.012496181
-0.04336249 -0.014758755 0.0045205075 -0.04289601 0.2855926 -0.047892515 -0.011864789 0.032390717
0.059244618 -0.10115293 0.039738987 -0.025640031 -0.35174078 -0.07548198 0.011369033 -0.014775768
0.014600873 0.046206202 -0.034068022 -0.037692357 0.02147533 0.059468865 0.05177767 -0.047742486
-0.10415211 -0.0045479843 0.017049924 -0.050222017 -0.022790574 0.08246448 -0.0613057 -0.017278805
-0.06533057 -0.17694543 -0.030442007 0.039840166 -0.01909326 0.020863056 0.051988594 -0.043975808
-0.062382773 0.016888829 -0.028446045 -0.12583503 0.017930182 0.030919136 0.013433136 0.09788241
0.50107044 -0.0063719205 -0.047595337 -0.582269 -0.00028135628 -0.9736209 0.029220521 -0.060328305
0.018187612 0.013375983 -0.11562678 -0.18473679 -0.0066220015 -0.00837039 0.05013133 0.060609058
-0.008484761 -0.0056508994 0.0105993245 0.0038021305 -0.11653063 0.035668697 -0.03816407 -0.061992854
-0.04629135 -0.017263137 0.11831213 0.010100707 0.029718341 0.019279169 -0.07485528 0.018240692
-0.0433714 -0.061803706 -0.022209201 0.04824762 0.015403799 0.04297027 -0.04203346 0.020600246
0.06327581 0.28171292 0.061464652 0.01637268 0.042311367 -0.0095013045 0.028032314 -0.0075142705
-0.115989245 -0.05454376 0.037107803 0.06734159 -0.064813405 0.058628593 0.075437546 0.024545401
-0.003518058 -0.019109383 0.0025596714 -0.05217967 -0.06066779 0.059026368 -0.054490946 0.05047927
0.045741193 0.12150113 0.19281892 0.5799792 0.014775172 0.014306824 -0.05771369 0.046533983
-0.068048015 0.051431827 -0.007078451 -0.015235291 -0.05426298 0.040552553 -0.034590453 -0.024040485
-0.12079447 -0.031207256 -0.016198067 0.017212158 -1.9104513 -0.016950788 0.121788144 -0.4693764
-0.04956606 0.029641712 -0.06195181 0.045113012 -0.54948944 -0.078810416 -0.14345928 -0.023552345
-0.5188134 0.06443377 0.046431012 0.03811939 -0.08326948 -0.054954402 0.03914613 -0.07977542
0.06128881 -0.018034976 0.1628464 0.045100603 0.13599399 0.0061206734 -0.008129637 -0.058850937
0.03044724 -0.054820172 0.09944606 0.019446693 -0.05747519 -0.0010729954 -0.06887138 0.008957672
-0.042396903 0.036514703 0.027210832 -0.033272374 0.17490894 -0.010778401 -0.037407883 -0.030174311
-0.0032633413 0.011508241 -0.009200108 0.025683096 0.03017598 0.7033509 0.04553942 -0.023883918

fc.2.bias f4 [128]
00000000: aaf9 c6bd 5a88 ba3c 406d d4bc 00e6 2e3d
00000010: 559a 583c fe21 5dbd 25c9 fcbc 75db 61bd
00000020: 8074 cc3b 3078 823c 8643 68bd 6b8a a4bd
00000030: b144 043c 8d4f 103d 770d b6bd 1e23 7e3c
00000040: 492e 8d3c 24d4 90bd 8c61 5ebd c9cc 0c3e
00000050: 725f 403b ab72 b5bd 69ad 62bb 69a7 1f3d
00000060: cd2c 93ba 35f8 d43d f50f e1bc 1641 74bd
00000070: f6b1 90bb 56c6 66ba bdc2 043e 51ff b1bd
00000080: 481b 1d3b cff1 bbbc dd38 22bd 4e6b b4bc
00000090: c936 eb3a b304 ed3c 72c8 ffbc 8785 d3bc
000000a0: 4851 263c edae 4b3c 0339 8dbc c6ac f43c
000000b0: 5b91 773c 9a81 8bbd 7af5 323d 201d 763b
000000c0: ce61 24bc 53ac 30bd 567c 19bd 8cd2 b7bb
000000d0: faa4 083d 6ad4 183d a6d1 69bc 560e 7cbc
000000e0: 472c 093c 7a4c 59bd 6227 7b3d 44a5 a0bd
000000f0: 52f7 e23b d489 ecbd 5c06 09bd c51c 8dbb
00000100: be92 a7bd 1669 803c 88d8 71bd f0c6 7cbd
00000110: ed08 9ebd e90e 613c 05bb fabc 17c9 12bd
00000120: 806a a3bd 1b2e 883d 790d b4bc daba 85bd
00000130: b8f9 c3bd 45ab 76bd e175 32bd 6e9d 103c
00000140: 3bdf 6a3d c920 043d 9c7b 313c 0360 fe3d
00000150: 6627 33bd b756 7cbd 7a48 c03d 6ead b33c
00000160: c186 373d f3d7 073b af08 a23c 3f39 9cbd
00000170: 85cf 9ebb 79c4 b13d c7d6 da3c 5c6d 58bc
00000180: 5e21 98bd b385 363d 3356 903c a006 6e3c
00000190: 6ac8 b2ba 2de5 a7bc 6096 aabc c482 af3c
000001a0: ae6a f1bb 7a94 8e3c c8e0 70bd 2759 babd
000001b0: 2997 0b3d 4583 b7bb 307c 04bc 5064 27bd
000001c0: 6ce7 3a3d cdd6 0d3d 73c6 1d3d f013 503c
000001d0: 45c8 ffbc 3856 893b 9ee2 9fbd f886 09bd
000001e0: 5c14 8a3c b09f 31bd 5be0 073d 4047 16bd
000001f0: d5dd d6bc 44ed 07bc 9ce6 ae3c 59a8 2abd
-0.097155884 0.022770096 -0.025931 0.042699814 0.013220389 -0.053987496 -0.030857632 -0.05514093
0.006239474 0.01592645 -0.05670502 -0.08034214 0.008073018 0.035232116 -0.08889287 0.015511302
0.017233985 -0.070717126 -0.054292247 0.13749994 0.0029353765 -0.08859762 -0.0034588224 0.038978014
-0.0011228562 0.10398904 -0.02747343 -0.059632383 -0.004415746 -0.0008803358 0.12964912 -0.08691276
0.002397256 -0.022942452 -0.03960501 -0.022023823 0.0017945404 0.028932905 -0.03122351 -0.025820507
0.010151215 0.012431842 -0.0172391 0.029867541 0.015110339 -0.06811829 0.043691136 0.003755398
-0.010033084 -0.04313309 -0.03747209 -0.005609816 0.03336046 0.03731195 -0.0142711755 -0.015384277
0.008372373 -0.05305145 0.061316855 -0.07844022 0.0069264555 -0.11549726 -0.03345333 -0.004306408
-0.08182286 0.015675109 -0.05904439 -0.06171316 -0.07716546 0.013736465 -0.030606756 -0.035836305
-0.07979298 0.06649419 -0.02197908 -0.0652978 -0.095691144 -0.06022193 -0.04356945 0.008826597
0.057341795 0.03225783 0.010832693 0.124206565 -0.043738745 -0.061606135 0.09388824 0.021933284
0.044806246 0.002072808 0.019779531 -0.07628106 -0.0048465156 0.08680052 0.026713742 -0.013209667
-0.07428239 0.0445611 0.017619228 0.014527947 -0.001364005 -0.020495022 -0.020823658 0.021424659
-0.0073674535 0.017404784 -0.058808118 -0.09099036 0.034079704 -0.0056003653 -0.008086249 -0.04086715
0.045630857 0.034628678 0.038519334 0.012700066 -0.031223426 0.0041911863 -0.07806896 -0.03357598
0.016855411 -0.04336518 0.033172946 -0.036689043 -0.026228825 -0.008296315 0.021350197 -0.041664455

fc.4.weight f4 [64, 128]
00000000: 0b52 95bc 2ae8 a33d 5a18 a8be f06b 96bd
00000010: e65d d5bc 1de9 803b 2759 d83d 9f11 54bd
00000020: bc28 813c 3d03 6e3b ab64 27bc 407d 573d
00000030: 1664 c63c d922 553c dbe3 953c 67cc 10bd
00000040: 8920 4abc e2d3 31bc fb88 f0bc e58a 283d
00000050: cc9f 3ebd 64f5 65bd c953 2bbd 5df9 0bbd
00000060: 13cb 733d 4940 813d 23da a53b ab56 3dbd
00000070: 2b7f e1bd a04e 5ebc 9ad6 8c3e 21c4 d0bc
00000080: c75e 203d 2873 8dbc 12cb ad3d 6239 6dbb
00000090: 2dd2 e7bb 4efb c2bd a835 f9bc 3b03 39bc
000000a0: 5cbb 163c 2fad acbd 0598 d2bd 2d9c d23d
000000b0: c09a 15bd dafb bcbd d103 82bd f5b7 4c3a
000000c0: 4b72 a1bd 014e 02bb ba10 523d e8c4 83bd
000000d0: 4b54 59bd 28ce 64bd a5f5 d2bc af04 9ebd
000000e0: 2ed9 943d 9693 a83d 3031 803e feee 123e
000000f0: 10a3 b03c 18e6 7cbd bbf3 93bd 57bd 95ba
00000100: f54d 05bd 92b6 5c3d 46ff 64bd 2325 f3bc
00000110: f5c3 56bd 451d 56bd 04cc 9abd 4586 4abc
00000120: 4f97 a9be 000b 34bb 5b33 e5bd aecf 66bc
00000130: e7fa c3ba 9506 14bd 9b7e 073d 2560 88bd
00000140: b774 933d 5be7 bf3d 6eed 78bd 1ee3 843e
00000150: 08bc 51bd c939 cfbc a958 923d b0d7 95bd
00000160: 986d e2bc 628d bb3c b048 123c 65c2 1bbc
00000170: 935b 44bc 81d7 563d e450 493d ebab c33c
00000180: 0324 1a3b ea53 26bd 853c 80bb caca 783d
00000190: 9545 bb3d a5c3 1f3d b6ea b5bc b115 06bd
000001a0: f2f7 0fbe 6216 09bd 0d3b 453d 685d b6bb
000001b0: ebcf a93c 3e00 8fbd 6753 9abc bc7d 403d
000001c0: 4720 683d bbc0 e6bc 14aa a0bc 8689 e2bd
000001d0: a328 0f3d 9850 073d 35c0 2b3d 8ffc 91bc
000001e0: eb80 03bd 98f9 b6bd 2c27 b2bc ccfd 403d
000001f0: 4f0b 7fbd d971 873d feb1 b5bd 3a10 5dbd
00000200: 3ac0 4d3e 587a 6cbd e2ac 4b3e c9fa 443e
00000210: 1fb3 023e 64be 973d 3b86 9a3a 7a2c e43d
00000220: 1b2c b7bc 2c50 9bbc 1adb bb3d 87ba 393d
00000230: 4fbf 443d 2da1 693d 87a3 67bc fa57 5b3d
00000240: b7f9 b2bc dc51 7abd 9964 863d 33e6 0ebe
00000250: cd4c 303d 4f9d b4bc 3522 0f3c 84a2 bebd
00000260: bed1 dabc b977 24be 1ac2 ac3c 3e04 97bb
00000270: 7cc8 8dbd 0f39 0bbc 46e3 cb3a 54a7 20bd
00000280: 376d 8dbc 519c 083e 0703 56bd 81b1 ef3d
00000290: 784c 4b3d c61b 1cbd 25df b53c 5025 6f3d
000002a0: 581a 1a3c f099 df3d f4cf dd3d 7872 dd3c
000002b0: 45d0 b23d b037 a63d 158e 0bbd e9ba b73d
000002c0: 0643 2fbd 3dfc 673d ed18 ac3b 937b 383e
000002d0: 8bb2 95bc 49d9 40bd f1bf ce3d cd5d 9f3d
000002e0: 92e8 903c 3557 4aba 968a bdbd 6f09 dd3e
000002f0: d116 2d3d 9add 4cbd b0b0 3dbb eeec c2bd
00000300: c5f2 ac3d 69c3 893d aab0 6e3c 51cc b9bd
00000310: 3103 d63d c4b0 323d 6005 c9bd 5835 4abb
00000320: 6c61 8b3d 7d80 acbd 9119 a43d 03a0 51bc
00000330: 6c6a 99bb 95d0 7c3c 43f6 d03d 275c 6abd
00000340: a23f 8fbd 9edb 5a3d 56ba 273d c5b5 91bd
00000350: c327 563e 1f1f ccbb 53b6 83bd 4c23 843b
00000360: a4e5 20bd bb2c c0ba cd48 4b3e 9c55 dd3d
00000370: 2c3e 1f3d a0a3 46be 2b09 f03c 13b1 a63c
00000380: ef3a aa3d d5d5 f2bd 0092 acbd 2c53 933d
00000390: d016 ecbb 4033 dfbc 9bdc 803d ed4f 423d
000003a0: 9369 42be 1ca5 15bd 2f9f 553d e302 58bc
000003b0: 0df7 6a3b f11d fa3c 9b94 ef3b 531f bf3d
000003c0: cfd2 54bd 7daf bdbd bc21 adbc 1a7b 773d
000003d0: f49c 5bbc 9d57 673d 5666 5c3d a2cc f53d
000003e0: 7a28 0cbd abe4 da3b 4979 c3bc fe98 1bbd
000003f0: a963 90bd 9502 943d 8f68 9dbd 3c53 2e3a
-0.018227598 0.08003266 -0.3283108 -0.07344806 -0.02604575 0.0039340393 0.105638795 -0.051774617
0.015766494 0.0036317848 -0.010216872 0.052609682 0.024217647 0.013008797 0.018297127 -0.035351183
-0.012336859 -0.010853739 -0.029362192 0.041148085 -0.046539113 -0.056142226 -0.04182795 -0.03417336
0.05951984 0.063110895 0.0050614043 -0.04622523 -0.110105835 -0.01356855 0.27507478 -0.025484147
0.039152887 -0.017266825 0.08485998 -0.0036197533 -0.0070746155 -0.09520589 -0.030421093 -0.011292274
0.009199943 -0.0843147 -0.10282902 0.102836944 -0.036524534 -0.092277244 -0.06348384 0.0007809394
-0.07883128 -0.001988292 0.051285483 -0.06434041 -0.053058904 -0.05586067 -0.025751898 -0.07715737
0.07267986 0.08231275 0.25037527 0.14348981 0.02156213 -0.061742872 -0.07224222 -0.0011424226
-0.03254505 0.05388505 -0.05590751 -0.029680794 -0.052432973 -0.052274007 -0.07558444 -0.012361114
-0.33123252 -0.0027472377 -0.11191436 -0.014087601 -0.0014952094 -0.03613909 0.033079725 -0.06658963
0.07199996 0.093702994 -0.060773306 0.25954527 -0.05120471 -0.025296109 0.07145817 -0.0731653
-0.027640149 0.022894565 0.008928463 -0.0095067965 -0.011984724 0.052451614 0.04914941 0.023885688
0.002352 -0.04060737 -0.0039134645 0.06074027 0.09144131 0.03900494 -0.022206645 -0.03273553
-0.14059427 -0.03346861 0.04815202 -0.005565334 0.020729026 -0.06982468 -0.018838597 0.04699491
0.056671407 -0.028168073 -0.01961235 -0.11061387 0.034950864 0.033035845 0.04193135 -0.017820625
-0.032105368 -0.08934325 -0.021747194 0.04711704 -0.062266644 0.066135116 -0.0887184 -0.053970553
0.2009286 -0.057733864 0.19890168 0.19236292 0.12763642 0.07409361 0.0011789271 0.11141296
-0.022359898 -0.018959127 0.0917265 0.045343902 0.04803401 0.057038475 -0.014138109 0.053550698
-0.021847589 -0.061113223 0.06562156 -0.13955002 0.043041993 -0.022047667 0.008736183 -0.09308341
-0.026711341 -0.16061296 0.021088649 -0.00460866 -0.06923005 -0.008497491 0.0015555404 -0.039222077
-0.017263992 0.1334088 -0.05224898 0.11703778 0.049633473 -0.038112424 0.02220113 0.058385193
0.009405695 0.10918033 0.108306795 0.027032122 0.087311305 0.0811609 -0.034071047 0.08971197
-0.042788528 0.056637038 0.005251995 0.1801589 -0.018273612 -0.04708222 0.10095204 0.07781563
0.017689023 -0.00077186833 -0.09254949 0.4317126 0.042258088 -0.050016023 -0.0028944425 -0.09517847
0.08444742 0.06726725 0.014568487 -0.090721734 0.104498275 0.043625608 -0.09815478 -0.003085455
0.06805691 -0.08422945 0.08012689 -0.012794497 -0.004681876 0.015430589 0.10203221 -0.05721679
-0.06994559 0.0534321 0.04094919 -0.07114748 0.20913605 -0.006229296 -0.0643126 0.004032528
-0.039281502 -0.0014661768 0.1985199 0.10807344 0.03887765 -0.19398355 0.029301247 0.020348107
0.08312022 -0.118571915 -0.08426285 0.07193598 -0.007204868 -0.027246118 0.06292077 0.047439504
-0.18985586 -0.036534414 0.052153762 -0.013184282 0.003585282 0.030531855 0.0073114163 0.093321465
-0.051958855 -0.09261987 -0.02113425 0.060420133 -0.01340412 0.05648004 0.053808533 0.12001921
-0.03421829 0.0066800914 -0.023861544 -0.0379877 -0.07050259 0.07227055 -0.076859586 0.0006649976

fc.4.bias f4 [64]
00000000: 05a6 123e eeed 9ebd c872 9bbd 2ec2 88bc
00000010: 7952 a73c 0748 c2bc 887a 373d 0ae1 3ebd
00000020: 1f5c 97bd d9c3 993c b58d 26bd 4af5 023e
00000030: 4e46 92bd 9462 4f3b 6645 70bd 176b aebd
00000040: be22 793d 4eaf 793d 139f 92bc aef2 103d
00000050: 686a 0f3d bc70 a43d 812f b2bd 762e 583d
00000060: 07b6 d6bd 2f81 b03d 5bd4 0cbe 981b 73bd
00000070: 4715 623d 7503 c13d b390 a3bd 9aa3 09bd
00000080: 0472 56bb 850e babd e24f a43d 78ae febd
00000090: 990d 09be ba76 4dbd 42d9 19bc 350b ad3d
000000a0: bab9 9c3d 5ea0 f7bc 0ad5 bcbc 7d3f 27bd
000000b0: 1481 1bbc 4e23 5ebd 7e9b 383d ff34 823d
000000c0: 4e2b e6bd 25f9 a73d c64e a73d 2c12 953b
000000d0: 0569 c23d d8e9 983d fbb1 84bc 9bc1 2e3d
000000e0: 6336 92bc 9cb5 aabc 676c 7dbd 6bae b3bd
000000f0: 81c4 c73d 7bd8 733c 11f5 03be 5aaa 573d
0.14321144 -0.07760225 -0.07590252 -0.016694155 0.020425068 -0.023715986 0.04479459 -0.046601333
-0.073906176 0.018770145 -0.040662486 0.12788883 -0.07142316 0.003164445 -0.058659934 -0.085165195
0.06082415 0.0609582 -0.017898118 0.035387687 0.035013586 0.08029315 -0.08700467 0.052778684
-0.10483938 0.0861839 -0.13752882 -0.059352487 0.055196073 0.094244875 -0.079865836 -0.03360329
-0.0032721767 -0.09084801 0.08023049 -0.12435621 -0.13384093 -0.050162055 -0.009390177 0.08449403
0.07652612 -0.030227836 -0.023050804 -0.04083203 -0.009491224 -0.054232888 0.045070164 0.063577645
-0.112387285 0.082018174 0.08169322 0.0045492854 0.09492687 0.07466477 -0.016198149 0.042665105
-0.0178482 -0.020838551 -0.06187096 -0.08773502 0.09754277 0.014883156 -0.12886454 0.052652694

fc.6.weight f4 [32, 64]
00000000: ebd5 c03d 6014 ccbd 4b5a c53d 59f8 ed3d
00000010: c05a 6bbd cc16 6cbd c524 db3d 35e0 943d
00000020: 920d 383d d4ef b93c 6b7e ad3c f5aa d33d
00000030: 73ba 1b3d 24f1 d6bd f675 a239 15e6 c4bc
00000040: 5b45 ea3c 6ba3 d6bd 2d0f 7bbd d4bd bf3c
00000050: 91ab 443c 7dbc b83d 16b7 d2bd 6597 0bbe
00000060: 46da 8ebd 0c40 b6bd 3e19 25bd b7e7 a6bd
00000070: 1a88 82bd d153 e23b fb63 5f3d f423 0ebd
00000080: 6d9d 923c dfbc 81bd a1c9 2c3d c43d 2c3b
00000090: 2135 eb3d 2a5b c63b 2540 f53c 262a 333d
000000a0: 66f7 9a3d 7440 75bc e41d fc3d 5503 cbbd
000000b0: 0926 80bd cb1a 043d 7447 1fbd 3f33 8b3d
000000c0: b90a 65bd 4427 9d3d d48c c9bd d449 87bd
000000d0: af0d dbbd 7c22 ddbd 8ab2 b5bc 5193 483d
000000e0: 52b9 63bd 42f8 663b 4809 283d 075e 963c
000000f0: 210f dfbc f1f4 e03d 95b4 a03d ab38 423d
00000100: 7130 4dbe 58ad 3e3e 9055 05be 6146 c83d
00000110: ca18 d33d 6d0f eebd b68e 013e f176 36bc
00000120: 24bd 463b b120 613c 82ef 133f 4409 36ba
00000130: 2e4b d83b 80a3 4cbd 7216 90bd 4e57 30be
00000140: f6ed 2e3d 27b9 c4bd 763e 963d 6d6d a7bd
00000150: ed0c 9abe 5773 5d3d 7884 0e3d 7675 77be
00000160: 1760 0c3e 1f6a 2e3d e908 3d3e e474 1abd
00000170: fe69 ddbd d7ee ac3d e1e7 cabb 389f eb3d
00000180: a35d f13d 762e 103b 0490 1abf 7694 533e
00000190: a481 e93d 313e 3d3d 852d 8dbd 619d c2bd
000001a0: 0f60 8ebd cffe ea3d 53c4 543e 21f4 aa3e
000001b0: d038 8bbd 12be 8a3d 237a b3bd eff5 65bd
000001c0: bde4 2e3e 5eb1 f6bc 7214 c7bd 3a9a 6b3d
000001d0: cc55 8fbd 9aad 28bd fa83 b8bd 9193 63be
000001e0: 6ef3 983d f4a4 05bd 2bdd aabd 16f2 663c
000001f0: 5e17 f03d 8681 d5bd da27 ffbd 879d 84bd
00000200: c233 19be dd3e 1dbf f988 ff3d b569 45bd
00000210: c06a 5abd c74d c83c 091d 2ebd 4813 7d3c
00000220: 5b10 80bd 5177 013c 03cf 0ebf 8b52 3d3e
00000230: ff26 923c 316c 5b3e 1700 09be 6cf9 f63e
00000240: f280 fdbe b3f5 d33c 3fac 44bd b43c c3bd
00000250: a5c0 bbbe 1f35 6abd b5d8 9fbd 7110 8f3e
00000260: fcf1 8ebc 3974 af3d 1ad3 623b 67d2 073e
00000270: e03d 9c3d 5f51 c0bd acc9 c83d e833 763e
00000280: 2670 8cbd 528b da3d d48d 393e cd50 84be
00000290: 9b4e d73d d26a 8dbd 3483 81bc 01d2 a0bd
000002a0: 4cce c43e 6384 423c bfa4 173e 18b8 673d
000002b0: b19e 113e 5c7a ee3c 8532 433d f55c c23d
000002c0: 4a6e b6bd 7a40 37be 9faf 9b3e e0c2 81bc
000002d0: a86b 343e 30bc 0a3e 790a bebd 4598 963e
000002e0: 8ec5 76be 521c dabd 4f53 da3b c6dc df3d
000002f0: c265 5bbe cd66 443e fda8 37ba 5ebd b23d
00000300: d885 333d cbc1 19be 75c3 b93d 9f5a d93d
00000310: 9fb6 e73d 0df9 f33d e041 46bb 8806 13bd
00000320: d80c 1bbd 8d4d eebd 5777 abbe b077 bd3d
00000330: d3e0 d53d 3862 413e 4235 e2bd 45ff b9be
00000340: 4dfd 333d 4718 f9bc 9fc3 383d d2c4 313d
00000350: cdff 8e3e 909c cc3d 7e64 a9bd e2c7 453e
00000360: 4aaf 8a3c aeea 9b3d c006 57bd 1644 fdbd
00000370: 9737 d83d a144 903d c8e3 1bbe ff82 a83d
00000380: 1eb6 1c3d e6cb c33c 441f b33e f994 8cbc
00000390: 2adf 07be 6c91 11be 9be0 bd3d d799 f73d
000003a0: e89d a53d 95ee a9bd 3015 f8bd 9dda 98bd
000003b0: a3b8 97bc 496b f7bd 8a57 913c a339 67bd
000003c0: 2779 e1bd 2715 a53d fc5c 7bbd 4710 e63d
000003d0: b6ae f43d f44b 9f3d 52e4 f7bc 43c3 4abd
000003e0: 307c ae3d e3c2 cb3c cf72 c5bc 5d92 963d
000003f0: e21d 513d 5652 133e 059e 4e3d 721c 6e3d
0.094158016 -0.09964824 0.09636363 0.11619634 -0.057459593 -0.05763893 0.107003726 0.072693266
0.044934817 0.022697367 0.021178445 0.10335342 0.03801961 -0.10495213 0.00030986936 -0.024035493
0.028597524 -0.10480388 -0.06129377 0.023405947 0.012003795 0.09020326 -0.10288827 -0.13631971
-0.06975226 -0.08898935 -0.040307276 -0.08149665 -0.063736156 0.0069069644 0.05453871 -0.034702256
0.017897332 -0.063348524 0.042184476 0.0026281932 0.11484743 0.006053348 0.029937813 0.043741368
0.07566719 -0.01496898 0.12310389 -0.09912745 -0.06257255 0.032252114 -0.038886502 0.06796884
-0.05591843 0.07673505 -0.09841314 -0.066058785 -0.10695969 -0.10797593 -0.02217986 0.048968617
-0.055596657 0.0035243188 0.041024476 0.018355383 -0.027228894 0.10984219 0.07846943 0.047417324
-0.2003801 0.18620813 -0.13020921 0.09779049 0.103074625 -0.11624036 0.12652096 -0.011136756
0.003032514 0.013740704 0.57787335 -0.000694413 0.006600759 -0.049960613 -0.07035531 -0.17220804
0.042707406 -0.096056275 0.07336132 -0.08175168 -0.30087987 0.054065075 0.0347943 -0.24165902
0.1370853 0.042581674 0.1846043 -0.03770913 -0.10811232 0.084439926 -0.006192193 0.11504978
0.11785438 0.002200035 -0.60376 0.20662102 0.1140168 0.04620189 -0.06893448 -0.09502674
-0.069519155 0.11474382 0.20778017 0.3338938 -0.067979455 0.06774534 -0.0876353 -0.056142744
0.17079444 -0.030113872 -0.097206965 0.05752013 -0.06998786 -0.041181184 -0.090095475 -0.22224261
0.074683055 -0.032628015 -0.08342966 0.014095804 0.11723207 -0.10425095 -0.12458773 -0.064753585
-0.1496115 -0.61424047 0.12477297 -0.048196513 -0.05332446 0.02445115 -0.04250816 0.015446492
-0.062531196 0.007901982 -0.55784625 0.18488519 0.01784086 0.2142799 -0.1337894 0.4823717
-0.4951244 0.025873994 -0.04801583 -0.095330626 -0.36670414 -0.057179566 -0.078050055 0.2794223
-0.017449372 0.085670896 0.003461069 0.13263856 0.07628989 -0.0939052 0.09804091 0.24043238
-0.06857328 0.106711045 0.1812051 -0.25842896 0.1051304 -0.0690514 -0.015809633 -0.07852555
0.38438642 0.011872384 0.1480894 0.05657205 0.14220692 0.02911108 0.0476556 0.094903864
-0.08907755 -0.1789569 0.30407426 -0.015839994 0.17619193 0.1354835 -0.09279341 0.29413047
-0.24098799 -0.10649933 0.006662763 0.10930781 -0.21425536 0.1917984 -0.0007006077 0.08727525
0.043828815 -0.15015332 0.090704836 0.10612988 0.11314129 0.11912737 -0.0030251667 -0.0358949
-0.037854046 -0.116358854 -0.33489487 0.09251344 0.104432724 0.18885124 -0.11045314 -0.36327568
0.04394274 -0.030407084 0.045108434 0.043400593 0.27929536 0.099907994 -0.082711205 0.1931453
0.016929287 0.07613121 -0.05249667 -0.12366502 0.10557478 0.0704434 -0.1522361 0.082281105
0.038259618 0.023900937 0.3498479 -0.01716088 -0.13268724 -0.1421563 0.09271356 0.120898895
0.08086759 -0.08297459 -0.12113416 -0.07463572 -0.018520659 -0.1208101 0.017741937 -0.05645145
-0.11009436 0.08060675 -0.061367974 0.112335734 0.11947386 0.07778159 -0.030260239 -0.049502622
0.08519781 0.024873203 -0.024102597 0.07352135 0.05105389 0.14386877 0.050443668 0.058132596

fc.6.bias f4 [32]
00000000: 10f8 02bd df78 e7bd 16a2 96bd 750c 1b3e
00000010: 5996 05bd 194c 34bd 9bae 153e c383 86bd
00000020: dfd8 bd3c 37cb 9e3d 7b97 40bd bd0c 01be
00000030: dcdd 3b3c bc2f a7bd 9dcb fa3b a2ce 20bd
00000040: 7ae9 1b3d fc82 e03d 2098 9bbc ccbc 27bd
00000050: a66f 083b 7f3f 963d 1644 0d3e f446 abbd
00000060: afd7 b6bd 9cfd 78bd 57be cdbd a97e 1d3e
00000070: 2a91 eebc e91c 8b3d 11b6 0dbd 8591 e6bc
-0.031974852 -0.11302351 -0.07355134 0.1514147 -0.032614086 -0.044017885 0.14617388 -0.065681
0.023174701 0.07753604 -0.047019463 -0.12602516 0.01146647 -0.081634015 0.007653667 -0.03925956
0.038064457 0.10962483 -0.018993437 -0.040951535 0.00208185 0.0733633 0.13795504 -0.083631426
-0.08927857 -0.060788736 -0.1004607 0.15380348 -0.029121954 0.067926235 -0.03459746 -0.028145561

fc.8.weight f4 [2, 32]
00000000: 3e58 0a3e 620c 3f3e 2d14 90bd 98f7 90bd
00000010: 9bf0 a73d 3171 bfbc 4e95 57be 850c f3bd
00000020: 6694 89be 955d 41bd f77a d33d 1e2c cf39
00000030: 73d2 d53c 7dce 01be 4c46 d0bd e9f2 b9bd
00000040: b9cb bf3d 41eb 2abe f1b1 323d 1e1b 2cbe
00000050: fa46 c4be ffeb 3fbe 6b9c 22be c194 38bd
00000060: 8347 7cbd 0e58 8abd a1a5 31bd 5a3d 2abe
00000070: eac4 22bf b2e8 8dbe 5711 d3be ed2b f6be
00000080: e7d9 10be 05c1 053d 98fe 133e 8553 1a3e
00000090: 5bf1 123e a1f5 9c3e 360d 983b 55ca 6c3d
000000a0: 6e31 803e 13df cc3d d917 02bd 8bdc e5bd
000000b0: 12d9 32be 127c f83c c6a6 47be 9d92 213e
000000c0: b608 7dbb 19d9 dc3d 5198 593e a005 223e
000000d0: b6dc d33e a292 ec3d a21b 823e 6174 06bd
000000e0: 7c30 73be f51f 893e fc13 3ebe 8c55 dd3d
000000f0: e36b 1a3f 0f31 8a3e f918 f33e 3952 123f
0.13510224 0.18657067 -0.07035098 -0.07078475 0.08200189 -0.023369404 -0.21053049 -0.11867622
-0.26871032 -0.047208387 0.10326188 0.00039514987 0.026101327 -0.12676425 -0.10169658 -0.090795346
0.09365029 -0.16691305 0.04362673 -0.1680722 -0.383354 -0.18742369 -0.15879981 -0.045063738
-0.061591636 -0.06755076 -0.043370847 -0.16624966 -0.63581717 -0.27716595 -0.41224167 -0.48080388
-0.14145623 0.03265478 0.14452589 0.15070923 0.14349882 0.3065615 0.0046402467 0.057810146
0.25037712 0.100034855 -0.031761024 -0.11223706 -0.17465618 0.030332599 -0.19497213 0.15778585
-0.0038609928 0.107835956 0.2124951 0.15822458 0.41379327 0.115514055 0.25411707 -0.03282583
-0.23748964 0.26782194 -0.18562311 0.108073324 0.6032087 0.26990554 0.4747999 0.5715671

fc.8.bias f4 [2]
00000000: 8419 953d 01ec b93d
0.07280257 0.09078217
