model.pth (torch, 48040 bytes, 8 tensors)

fc.0.weight f4 [128, 6]
00000000: 1abd e7bc de8c 963e 7528 9a3e 6285 49be
00000010: 4c0d b83e 8745 3e3e 95dc 4abd 8036 113e
00000020: 5935 803e 67bb c33e e21e c73e 40bb 0d3e
00000030: 6c0d ab3d 103d f4bc dc1a a3be 2526 90be
00000040: 3c83 7f3e 6a5c c3be 410c 4a3e 78f3 ad3e
00000050: 4ab8 bfbe 7d9b ca3e 1f31 1cbe 745d b7bd
00000060: 1c18 1b3e 7e8a 89be 99a3 a03e 89d4 9c3e
00000070: a2bb c23d b0a2 1a3e 7eb9 0fbd 426c a43e
00000080: 7537 b23d 20e1 f9bd 8a50 793e 4530 92be
00000090: fdf5 783d ee46 6a3e 2877 c53e dc6f e3bd
000000a0: 1ebd ac3e d054 8d3a 3ed2 183e 0960 653e
000000b0: 4697 a0be d939 cf3e 214a 3fbe f492 c23d
000000c0: 6695 31be e367 7ebd 42bc f9bd 2d33 ab3e
000000d0: e4b0 b53d 7cb2 c53d 8134 8abc b39f a0be
000000e0: 4f6b 23be 9325 823e 7c8b 8bbe 327b b13e
000000f0: 1f2f 293e 565b 6b3e c747 0d3c f21f 82be
00000100: 7cb8 98bd 7487 a5be c4e7 ae3e af75 053c
00000110: 0587 a13e 627a a13e c3dd 90be 1f8e a0bb
00000120: 162c 81be 2556 843d 5c73 7dbe 9276 ab3e
00000130: 179c e8bd 878f 093e a041 3f3c 48ef 733d
00000140: 601a 2dbc 3e6b 60be 98d5 283e 403a fa3b
00000150: 5287 223e fde3 8e3e faa4 cabd 1a07 a8be
00000160: cc8c aebe bcf1 51be c1bb 043e abca 4d3e
00000170: 952d bf3e 64eb bc3e 0fcf dfbe cf2e ae3e
00000180: 8a59 513e abd2 fc3d dcf3 b1bd 6d08 3dbd
00000190: 501a 9bbe 633a 0c3e e027 813d bf85 89be
000001a0: 301c 3b3e 9b10 4abe 6005 cabd b8d3 2a3e
000001b0: dc2a bbbe 08f1 2d3e 9fd2 9abe b2c6 9cbe
000001c0: 5001 a13d 8a1a 843e 6943 323e 7b2d 543e
000001d0: c4a0 aa3b 93bf be3e d320 53be 7809 0e3d
000001e0: 08f2 45be 951b 7f3e 4ea2 98be 055a 5c3e
000001f0: 3c3c d73d 4fd7 ee3d 9ce0 2abe 4a51 b13e
00000200: e010 d63c b6fe bcbe c91f 7dbe da47 bc3e
00000210: 1276 56be 06b0 9b3e 7931 b73e 8ba4 cdbd
00000220: f692 903e fa85 c1bd 6cef babe 092c f73d
00000230: a1bf bf3e 42ff 393e b7f9 88be fdfb ebbd
00000240: d551 b5be d0c2 90bd 5407 5dbe 5cd8 e8bd
00000250: e030 b13d e079 15bc 93e2 46be c1b9 273e
00000260: 0c21 3dbe 6873 80bd af0d dabe 6fcc af3e
00000270: 3e6c a3be a8b1 523d fd07 94be 842e 933d
00000280: 4987 cfbe 3402 cdbc 30b3 2cbd cecd 1e3a
00000290: 4483 a23e c4b4 153e 507d 843e c267 87be
000002a0: a472 b23d 8a81 bebe f6eb 0f3e ecff 083e
000002b0: 4fea 34be d11a cc3c a39a ba3e 557e b3be
000002c0: a8c0 4a3e 1db1 bb3d 7a27 adbe 57b5 a13c
000002d0: 4755 57be 4233 683e 19e6 95be 3f10 6b3e
000002e0: e020 a53e b682 043e 972f 663e 09f6 303b
000002f0: f6d5 97be 31e9 a03e 871b 6a3e 026a e03d
00000300: e01f 56bc 887d 67bd 38ff 493e 336e 97be
00000310: 84ad 13be 00fb dd3a 8053 b33c 913e 76be
00000320: 2044 49be b043 f13c dada 30be 9cb5 aa3d
00000330: 54b4 943e 1c37 8ebd f481 ad3c 040e 9bbe
00000340: f1aa c3be 6b21 3fbd eb30 ae3e 680b 8c3e
00000350: c828 113e 2aa7 b23e 4d64 c7be b226 993e
00000360: 317b 25be 94c9 8d3e 3c48 223e acf7 43be
00000370: ac7b 9cbc 5c48 c0bc eb7c 4a3e 80ff 733e
00000380: 1e72 2cbe 9edd 2dbe b87f aabe 8ba7 1c3e
00000390: 1970 333e 63cd 37be 18a6 56be 25e2 933e
000003a0: 930d 8c3d 1358 d2bc 500b 1c3d 8666 1c3d
000003b0: d4a7 24bd 6ddc 993e 1bef e33d 61ee e8be
000003c0: 18e6 8c3e 50a7 bc3e fa37 9b3e 5de0 0ebd
000003d0: 96a6 76be 44d0 e9bc 4efe 853e 4e73 893e
000003e0: 5931 923e e977 96bd f3d4 15bd 93c4 b0be
000003f0: 918d aebe ec98 da3d 2baf cebe dfd9 b43e
-0.028288413 0.29404348 0.3010899 -0.19679788 0.35947645 0.1858121 -0.04952677 0.14180946
0.250407 0.38228914 0.3889075 0.13840961 0.083521694 -0.029814273 -0.3185643 -0.28154102
0.24952406 -0.38156444 0.19731237 0.33974814 -0.3744529 0.39571753 -0.15253113 -0.08953372
0.15145916 -0.26863474 0.31374815 0.306309 0.09508444 0.15101123 -0.03508901 0.32113844
0.08701984 -0.12201142 0.2434713 -0.28552452 0.060781468 0.2287862 0.38567472 -0.1110532
0.33738035 0.0010782722 0.14923951 0.22399916 -0.31365412 0.40473822 -0.18680622 0.09500685
-0.17342147 -0.062110793 -0.121941105 0.33437482 0.0887163 0.09653184 -0.016870739 -0.3137184
-0.15958904 0.25419292 -0.27254856 0.34664303 0.16521882 0.2298406 0.00862307 -0.25414997
-0.074570626 -0.32329905 0.34161198 0.008145734 0.31548324 0.31538683 -0.2829419 -0.0048997547
-0.25228947 0.06461743 -0.24751037 0.334889 -0.11357897 0.13433658 0.011673361 0.05955437
-0.01056537 -0.2191591 0.1648773 0.0076363385 0.15871933 0.27908316 -0.09894748 -0.32817918
-0.34091794 -0.2050237 0.12962247 0.20096843 0.37339464 0.3689834 -0.4371266 0.34020087
0.20444313 0.12344869 -0.086890906 -0.046150614 -0.30293512 0.13694148 0.06306434 -0.26859853
0.18272471 -0.19732897 -0.098643064 0.16682327 -0.36556137 0.16986477 -0.30238816 -0.30620342
0.078615785 0.25801498 0.17408527 0.20720474 0.005207153 0.37255535 -0.2061799 0.034677
-0.19330609 0.24912865 -0.2981133 0.21518715 0.10509536 0.116621606 -0.16687244 0.3463233
0.026131094 -0.3691308 -0.24719156 0.36773568 -0.20943478 0.30407733 0.35779932 -0.1004115
0.28237122 -0.09449382 -0.3651079 0.12068946 0.3745089 0.1816378 -0.26753017 -0.11522672
-0.35413995 -0.070684075 -0.21584827 -0.11369392 0.086519 -0.009123296 -0.19422369 0.16379453
-0.18469638 -0.06272012 -0.42588565 0.34335658 -0.3191852 0.051438957 -0.28912345 0.071866065
-0.40532902 -0.025025465 -0.042163074 0.0006057889 0.31740773 0.14619738 0.25876856 -0.26446348
0.08713272 -0.37208205 0.14054856 0.13378876 -0.17667507 0.02491513 0.36446103 -0.3505732
0.19800055 0.09164641 -0.3381918 0.01973979 -0.21028624 0.22675803 -0.29277113 0.22955416
0.32251644 0.12940487 0.22479092 0.0027002117 -0.29655427 0.3142791 0.22862063 0.109577194
-0.013069123 -0.0565162 0.19726264 -0.29576263 -0.1442166 0.0016935766 0.021890402 -0.24047305
-0.19654894 0.029451221 -0.17270985 0.083354205 0.2904383 -0.06944105 0.02118013 -0.3028413
-0.38216355 -0.04666273 0.34021696 0.27352452 0.14175713 0.3489316 -0.3894371 0.29912335
-0.16160275 0.27692854 0.15847868 -0.19137448 -0.01910194 -0.023472004 0.19774215 0.23827934
-0.16840407 -0.16979071 -0.33300567 0.15298288 0.1752323 -0.17949443 -0.20961797 0.28883472
0.068385266 -0.025676763 0.038096726 0.03818371 -0.040199116 0.30050984 0.1112959 -0.4549437
0.27519298 0.368464 0.30316144 -0.03488194 -0.24086985 -0.028541692 0.26170582 0.26845783
0.28553274 -0.0734709 -0.036580037 -0.34524974 -0.34092382 0.10673699 -0.40368018 0.35322472

fc.0.bias f4 [128]
00000000: ed04 ecbd 5b78 313e 8656 963e 9f1b 8f3e
00000010: fb4d b7be 81c3 d2be dc17 bbbe 40c1 a63e
00000020: dc9b 6bbe c677 86be 1851 bcbe ebeb 7f3d
00000030: ec77 64be 1b2e 29be b5f8 93be 1225 993e
00000040: c6a1 c73e 1893 5a3e cc73 563e d5c0 9b3e
00000050: 514b 4abc 7816 643e f3aa 883e bc42 563e
00000060: d0b6 ccbd a93a adbe 9aa6 ac3d 05b1 963e
00000070: 5090 c63e fd13 0fbe cdd6 9e3e 502c 913e
00000080: 1e40 25be 89b0 c9be 8cea 813e ea87 223e
00000090: 7d3e b1bd 356c c73e 55ad a23c a9fd 4f3d
000000a0: 3c1a ba3e 5df7 58be b677 9d3e 41ee c63e
000000b0: 8159 8abe 62ab 88be 5aba f5bd 9bd7 193d
000000c0: fba8 0f3e 002d 45bc 8fb7 91be 28fd 7dbd
000000d0: c43e c8be 7a27 143e 2848 bc3e aaac 40bd
000000e0: 4403 86be d0b0 2a3e 515f c5be d54b c43e
000000f0: 3a3b 4ebd 6113 a03e b80f 8d3e a41e 9bbd
00000100: 20dc 453d 4851 c43d 0a68 7b3d 21d1 4bbe
00000110: 3c05 a53a a76d 4abe 6d45 ba3b 1dd1 92bd
00000120: 0040 16b9 d0e5 ccbd db0f ce3d 909c cb3e
00000130: 4595 d1be 52e2 b3be 2069 043d 97a3 8e3d
00000140: 775b 9cbe 87ce 54be 3e22 4ebe 4d57 83be
00000150: 0a88 91be a7c6 003e 2ef1 b03e 31fc c03c
00000160: 44a4 603e bcf3 553e b718 56be f6c4 993e
00000170: 17f1 e73d e236 81be d45c 403e 677f b53e
00000180: 8235 be3e 5d7b 1c3e 0bb2 a33e 9ec2 26be
00000190: 2a1b 803e deaa d1be 2fc4 25be d62c 9c3e
000001a0: 9caf 8d3d d5ae d5bd e080 6a3d 4f2b 053e
000001b0: 4e27 c4be 4b82 853e f6ec c1be 582a 213d
000001c0: 7870 dfbd ddfa 5ebd 2b04 aabd 5c4c 98be
000001d0: 7b36 35be b1c8 2abd 3bdc 37be 701a e83d
000001e0: 4c11 873d a548 3ebc 6999 473d 039d 57bd
000001f0: f132 bbbd befb 69be 2c86 2fbe b3b4 29be
-0.11524377 0.17331068 0.29362887 0.2795076 -0.35801682 -0.41164783 -0.3654164 0.32569313
-0.23008674 -0.26263255 -0.3678062 0.06248085 -0.22311372 -0.16521494 -0.28900686 0.29911095
0.3899061 0.21345174 0.2094261 0.30420557 -0.012347058 0.22274196 0.26692924 0.20923895
-0.09995806 -0.33833817 0.08430214 0.2943193 0.38781977 -0.13972469 0.31023255 0.2835412
-0.1613774 -0.39392498 0.25374258 0.1587216 -0.08654497 0.38949743 0.019858042 0.05077902
0.3634814 -0.21188112 0.30755395 0.38853648 -0.2702141 -0.26693255 -0.11998434 0.037559133
0.14029305 -0.012034655 -0.28460357 -0.062009007 -0.39110386 0.14468184 0.367738 -0.047039665
-0.26174366 0.16669011 -0.38549283 0.38339105 -0.05034945 0.31264785 0.27551055 -0.075742036
0.04830563 0.09585816 0.061378516 -0.19903995 0.0012590061 -0.19768392 0.0056845457 -0.071687914
-0.00014328957 -0.10004771 0.10061618 0.39767885 -0.40934196 -0.35133606 0.032326818 0.06964796
-0.30538532 -0.20781909 -0.2013025 -0.25652543 -0.28424102 0.1257578 0.34559005 0.023557754
0.21937662 0.20893759 -0.20907865 0.30033082 0.11325281 -0.25237185 0.18785411 0.35448763
0.37150198 0.15281434 0.31971774 -0.16285178 0.25020725 -0.40950674 -0.1618812 0.30502957
0.069182605 -0.10433737 0.05725181 0.13004802 -0.38311237 0.26075968 -0.378761 0.039347023
-0.109101236 -0.05443846 -0.08301576 -0.29745758 -0.17696564 -0.0416953 -0.17955105 0.113331676
0.06595096 -0.0116139995 0.048730288 -0.052639972 -0.09140576 -0.22849938 -0.17141026 -0.16572838

fc.2.weight f4 [64, 128]
00000000: 80d5 d1ba a3c5 3fbd c02d a3bc c3b8 3abd
00000010: b1ba 9ebd 82db 213d 8621 253d c69f 433d
00000020: 939f 8f3d cc89 39bd 9ce4 91bc efdd 0fbd
00000030: 6a73 293d 82bb 703d 72cb 373d 1342 45bd
00000040: 7245 47bd 4468 a23c b685 e3bc ea17 a8bd
00000050: 10b4 85bd d0b2 83bc 1092 57bc 808c 6e3a
00000060: e8ef aabc d02d bc3c 28b0 943c 6a7b 9dbd
00000070: 3cb2 c73c 7f9f 6ebd c016 913b 340c f73c
00000080: 3a76 293d 645f cfbc da1b a3bd 8e02 223d
00000090: 4944 4bbd e0ef f93c abc9 a2bd 7077 74bd
000000a0: 31f3 3fbd 644d f23c 444b 97bd 1db1 3cbd
000000b0: 50c3 f1bb b0ec d23b 8999 aa3d 4830 4ebc
000000c0: a235 593d 6f41 963d a1bf a43d a0bc 1ebc
000000d0: d0a8 f6bb d012 c9bc 44ae 8dbc 9b16 923d
000000e0: 22c3 7d3d be2e a5bd 4d1b 31bd ecc2 67bd
000000f0: 8940 a03d 3204 2b3d d596 95bd 2989 8bbd
00000100: ac98 a0bc 7f5a 8a3d d1a6 90bd 105c b53c
00000110: 4055 cd3b 441e c7bc 9759 1cbd ec47 f93c
00000120: f4c3 ae3c 8a70 83bd d808 0c3d 6dba 0ebd
00000130: 68ba 15bc 7920 b23d fe91 84bd a4b6 b43c
00000140: 00d2 46bd 31e8 53bd a04d fe3b f0e1 98bc
00000150: 9076 1dbc 78b2 54bd 1a4d 9bbd a645 683d
00000160: 2a93 74bd dc3e a1bc ca66 6e3d c225 203d
00000170: 82e5 2bbd c2d0 573d 1ec5 7c3d 264f f5bc
00000180: 1635 263d d46e 96bd b00e aabd 91a5 49bd
00000190: a059 c33b 0e0a 1f3d d963 08bd 4459 9e3c
000001a0: 27de 923d fe29 68bd 73d7 85bd 30d4 9ebc
000001b0: 2370 813d b187 8abd ac7d 51bd 7f37 8abd
000001c0: 3c14 87bd 402c 8f3a 9568 8b3d 318e a43d
000001d0: 584d 383c 07c1 31bd cd12 36bd 40d3 cc3a
000001e0: 8df5 b2bd 871d 47bd 78da 97bd b85d 54bc
000001f0: 3653 223d 9870 afbd 4e4d 033d bba1 a83d
00000200: f8c8 373c ec68 a43c 2fbc 1dbd 57cf 8c3d
00000210: 1031 9abc 4002 973a 2521 923d 580b ab3c
00000220: 5788 903d 83f9 1bbd d1b1 9f3d 008b 8dbc
00000230: 09f9 a9bd b6f3 71bd 9c5e ba3c d0ea 31bc
00000240: 8a00 033d f53e 9cbd c09f 12bb 941e abbd
00000250: 3047 523c 609b 1b3c 1ebd 773d 93de 83bd
00000260: 908c 26bc 7892 3ebd 6c0d afbd 8020 9aba
00000270: ed70 813d e0ee 71bc f284 90bd 6370 00bd
00000280: eca8 f73c 3081 96bd f215 663d 1600 57bd
00000290: 819e 1bbd 82e1 593d 8695 533d a3c8 60bd
000002a0: e78f 8d3d 33f4 b23d 8ab1 423d 5e17 1b3d
000002b0: a548 63bd 1809 13bc 08a2 19bd 7f0c 923d
000002c0: e45f bbbc 4882 2abc d42c 06bd ab1a 3abd
000002d0: e0d0 a43b 0464 e33c 6082 673b 6142 20bd
000002e0: e558 a1bd d07a 1ebc 12e4 263d 03f7 1cbd
000002f0: d8a2 7bbc 1000 bb3c 3323 8dbd fae5 a0bd
00000300: 469d 4a3d 5a1c 02bd 18b6 08bd b1b2 04bd
00000310: 4cb0 0ebd 0f54 9e3d 6893 7d3c 144f 45bd
00000320: 23ef 98bd d0e5 863c cfd0 843d 0416 933c
00000330: 2cdc 82bd 01cf a13d 6cd5 59bd ecbe b13c
00000340: 1ef9 503d 425d 33bd 1cb7 74bd d75b 30bd
00000350: b4ab b43c 803c c2bc 3bc0 9a3d 3d20 98bd
00000360: 53cb 53bd 3ade dfbc f00a 9f3b 204b 253c
00000370: 094a 42bd f725 02bd 62f1 2f3d 919e acbd
00000380: d090 0dbd e43c c03c 1158 8a3d 24d1 15bd
00000390: 5a89 e4bc 03d4 54bd d0b8 983c d590 4dbd
000003a0: 6ec7 7cbd 4a3e 1d3d a00b e83c 49a7 873d
000003b0: 24b6 80bc 97cb aa3d 1a20 1fbd 7461 8f3c
000003c0: 600b f6bb 79ab 8e3d 04b2 973c 8b77 a13d
000003d0: a74d a83d 2d90 aebd a858 b8bc 3826 773c
000003e0: 84cd 963c 6026 cabc 4ab6 6d3d f6b9 513d
000003f0: a8e5 8ebd 7cf6 afbc 65d9 36bd 9202 6ebd
-0.0016009063 -0.04681934 -0.019919276 -0.04558636 -0.07750452 0.03951598 0.040315174 0.047759794
0.07012858 -0.04529743 -0.017809205 -0.03512376 0.041369833 0.05877257 0.044871755 -0.048158716
-0.048650213 0.019825108 -0.02777372 -0.08207686 -0.06528485 -0.016076475 -0.013157383 0.00090999156
-0.02086635 0.022971064 0.018150404 -0.07689555 0.024376981 -0.058257576 0.004427761 0.030157186
0.041372515 -0.02531404 -0.07964297 0.039553218 -0.04962567 0.03050989 -0.07948621 -0.059684217
-0.046862785 0.029577918 -0.07387403 -0.046067346 -0.0073780194 0.0064369068 0.08330066 -0.012584753
0.053029664 0.07336699 0.08044363 -0.009688526 -0.0075274482 -0.024545103 -0.01729501 0.07133218
0.06195367 -0.08065556 -0.043238927 -0.056582376 0.07824809 0.041752048 -0.073041596 -0.068132706
-0.01960405 0.06755542 -0.07063068 0.022138625 0.006266266 -0.024306424 -0.038171377 0.030429803
0.021333672 -0.064179495 0.03418812 -0.03484576 -0.009138681 0.086976 -0.06473158 0.022059746
-0.048540115 -0.051735107 0.0077607185 -0.018662423 -0.009610787 -0.051928014 -0.07583065 0.056707047
-0.05971066 -0.019683294 0.058203496 0.03909851 -0.041966923 0.05268932 0.061711423 -0.029944967
0.04057797 -0.073453575 -0.08303583 -0.049230162 0.005961612 0.03882795 -0.033298347 0.019329675
0.071712784 -0.056680672 -0.06535234 -0.019388288 0.063202165 -0.06764162 -0.05114524 -0.06748866
-0.06595656 0.0010923222 0.06807057 0.08034933 0.011248909 -0.043396976 -0.044451524 0.0015626922
-0.08738241 -0.048612144 -0.074147165 -0.012961797 0.039630137 -0.085663974 0.032056145 0.08233973
0.011217348 0.020069562 -0.038509544 0.068754844 -0.018822223 0.0011521056 0.07135228 0.020879433
0.07057255 -0.03807975 0.07797588 -0.017278194 -0.08299453 -0.05907031 0.022750191 -0.010859206
0.031982936 -0.076291956 -0.002237305 -0.08355442 0.012834355 0.0094974935 0.06048309 -0.06438937
-0.010165349 -0.046526402 -0.08547482 -0.0011758953 0.06320367 -0.014766425 -0.07056607 -0.03135718
0.030231915 -0.07348859 0.056173272 -0.052490316 -0.037992958 0.053193577 0.05165627 -0.054878842
0.06912213 0.087379836 0.047532596 0.03786408 -0.0554892 -0.008974336 -0.03750804 0.0713129
-0.022872873 -0.010407038 -0.032757595 -0.04543559 0.0050297827 0.027757652 0.0035325512 -0.039125804
-0.078782834 -0.0096728355 0.04074485 -0.038321506 -0.015358649 0.022827178 -0.06891479 -0.078563645
0.049466394 -0.03176532 -0.033376783 -0.032396976 -0.0348361 0.07730877 0.015477039 -0.048171118
-0.07467487 0.016467005 0.064851396 0.017954834 -0.06389651 0.07900811 -0.05318205 0.021697484
0.051018827 -0.04379011 -0.05974494 -0.043056335 0.02205453 -0.02371049 0.07556196 -0.07428024
-0.051707577 -0.027327646 0.004853599 0.010088712 -0.047433887 -0.031774487 0.04295481 -0.08428682
-0.034561932 0.023466535 0.067550786 -0.036576405 -0.027897526 -0.051960003 0.018642813 -0.05018695
-0.06171363 0.03838948 0.028325856 0.06623704 -0.015711851 0.08339613 -0.038848974 0.017502524
-0.00750868 0.069662996 0.018517502 0.07884129 0.08217936 -0.08523593 -0.022503212 0.015084796
0.018408544 -0.024676502 0.058035173 0.051202737 -0.06977397 -0.021479838 -0.044640917 -0.05810792

fc.2.bias f4 [64]
00000000: 86be 493d 739b 7dbd 0443 c23c c4b6 a03d
00000010: 2773 8fbc a5e3 913d f710 a63d b318 8f3d
00000020: 5542 fcbc ee3c 36bd 0008 d6ba ad86 85bd
00000030: 9eab 3bbd 345e a9bd b2c1 08bd a406 673d
00000040: a873 7ebc 68a0 d13c ba77 b8bd d888 f93b
00000050: 5e51 23bd 17e3 56bd e0b6 acbc 235c 0abd
00000060: 5746 3ebd 3be8 8ebd 00da 363d 3c18 4bbd
00000070: d239 0c3d 55bd 283d fd68 d2bc a3e0 a1bd
00000080: c094 a8ba 427f 35bd 5074 c83c be1b 2c3d
00000090: 0431 9ebd e0c5 7bbc 80af 623d 0f21 7b3d
000000a0: 7ab2 2a3d 6c63 abbd 6be4 ad3c 117a 9f3d
000000b0: 041f 943d 1058 0cbc c1a8 24bd 46c5 4abd
000000c0: 3ee3 b73d 8d5d 2dbc fd2e e1bc a53d 973d
000000d0: abf6 89bd 050f e7bb 89f1 263d e98f 013d
000000e0: 797a 61bc 145e 013d bef1 723d 5741 683d
000000f0: 8750 893d 6703 bb3c d2d9 4b3d b818 b1bd
0.049253963 -0.061915826 0.023713596 0.0784736 -0.017510964 0.07123498 0.081087045 0.06987133
-0.030793348 -0.0444917 -0.0016329288 -0.06519828 -0.045817964 -0.08269921 -0.033387847 0.056402817
-0.015530504 0.025589183 -0.09007211 0.00761519 -0.03987252 -0.052462664 -0.021083295 -0.033779275
-0.0464538 -0.06977888 0.044641495 -0.04958366 0.03423483 0.041196186 -0.025684828 -0.07904174
-0.0012861714 -0.044310816 0.024469525 0.042018645 -0.07724193 -0.015367001 0.05534315 0.061310824
0.041674115 -0.083685726 0.021227082 0.07786954 0.07232478 -0.008565918 -0.0402 -0.04950454
0.0897889 -0.010581386 -0.027488226 0.07384805 -0.06736501 -0.007051351 0.04075769 0.031631384
-0.01376211 0.03158386 0.059312575 0.056702938 0.067048125 0.02282877 0.049768277 -0.08647293

fc.4.weight f4 [32, 64]
00000000: 88a5 8abd b4cb e9bd 8497 b5bd d69b e93d
00000010: 8cea fa3d 6046 1abd 7219 eb3d eebf c0bd
00000020: d0c7 793c c447 e4bd e0d9 243c 16f4 c9bd
00000030: 04cd c9bd 9a79 d8bd 449b c5bd 948b e9bd
00000040: 121b e1bd a8a1 0bbd a076 843c 6095 5a3c
00000050: 809f e13a ec5d 403d 6042 493d d059 57bc
00000060: 0054 c2bd 2688 e7bd 06cf dcbd 907d cdbd
00000070: e018 9a3c 1e54 90bd fc02 cdbd 7494 76bd
00000080: a824 fabd 4403 9cbd 705f e13d 9a62 cebd
00000090: 80db 7c3c ae13 b13d c82b 79bd e0cb ecbc
000000a0: d2df acbd 30bd 57bd 4070 3a3b 0007 033c
000000b0: ccfc 42bd 0046 9ab9 fc79 39bd da25 b43d
000000c0: 30be 3dbc 18bd 82bc e83a c4bd 602c 9bbc
000000d0: 7827 b4bd f22d a7bd 6891 42bd 5c5b 93bd
000000e0: 8031 1cbc 8697 85bd 606f ad3d 10cb aabd
000000f0: bc3f 48bd f435 8e3d 7016 4bbc 243b a5bd
00000100: cc32 a93d 8c34 0abd 38a7 10bd 3679 acbd
00000110: 062d e9bd 4ec2 8f3d 1077 103c f0bf 65bc
00000120: f221 f1bd 5829 debc a6f9 803d 7c88 38bd
00000130: 9c30 dcbd 6408 943d 1c5d 1a3d 34b5 d7bd
00000140: e060 80bb 963d f03d f00f 783c c85e d23c
00000150: f24a b93d 4e67 92bd 306b 82bd ca54 c93d
00000160: a866 bdbc 1a09 cdbd c08d a33b 745a 6f3d
00000170: b8d2 aebc f085 c0bc 6e17 b8bd d046 2b3d
00000180: 4216 ef3d 52b9 bd3d 161a d1bd f25e a33d
00000190: 3e54 e0bd bcfe 77bd 403e cbbb c8b6 463d
000001a0: 30d2 3d3d ac54 c4bd 5041 4abd 708d acbc
000001b0: 200f dc3c 8212 fcbd b644 9cbd aa4d dd3d
000001c0: 1401 adbd 4045 dfbc 307d afbd 209f 7c3c
000001d0: 9ed4 b53d 6407 7abd 48b7 ce3c 50c5 cd3c
000001e0: 644b 37bd 4216 8c3d 409d 443c dc11 35bd
000001f0: eab4 863d 020b bf3d 78a3 9d3c f2f9 a7bd
00000200: d4dd 813d 2034 38bc 342d 7bbd 7064 7fbd
00000210: 68e4 9dbd 4818 f7bd 186b c7bc 70d8 153c
00000220: 5ec7 813d 4ed0 a2bd 260f f5bd a48b bbbd
00000230: 60aa a8bc c813 68bd f89b 5dbd c206 83bd
00000240: e09f a9bb 009b fcbc f655 8f3d 62cf af3d
00000250: 105d e93c 087f ef3d 80a4 473b f038 063d
00000260: 54a3 45bd 2e2a aabd e85b cd3d b8ec 71bd
00000270: 3072 b1bc 68b8 d63c c0e7 133d 5833 383d
00000280: c278 c7bd c08d c2bb 44f2 823d 245a f4bd
00000290: 5633 d0bd 4c49 a5bd e4fa b7bd 2637 f43d
000002a0: 3c50 5cbd d6a8 93bd 68c9 f33c 5410 69bd
000002b0: 34b2 ad3d 38d5 4fbd 6048 04bc a05c 15bd
000002c0: ea07 b4bd 06ad 84bd 80e5 153c 786a 3e3d
000002d0: b482 693d 889a 0e3d 0ee1 ecbd ec94 f63d
000002e0: 404f bf3b 3812 97bd 40be 533b 6ce2 9a3d
000002f0: 74f6 34bd 8864 e53c 2c06 60bd b4bc 7d3d
00000300: 402a 84bd 0866 b0bd 4c3d 18bd a36b f93d
00000310: b972 bf3d b068 4fbc 146c 913d daad d3bd
00000320: 4654 a63d 48f9 d2bd 087a 65bd 2f3f 473c
00000330: b87a e0bd 4aab b2bd 7ad4 cebd 5070 68bc
00000340: b05e d1bd 8820 6d3d 388b 053e 7d65 cf3d
00000350: b4ab 903d e2af c2bb 0065 ac3b 4867 c7bd
00000360: cea9 15bd febb a7bd 202c 7abd e020 483c
00000370: 89ce 7d3d 0497 81ba 4fbc 7d3c 31f1 1c3d
00000380: 107b 853c 3c20 553d 107c 333c 961e a0bd
00000390: a295 adbd c06a 23bb 4145 a83d 2761 3ebd
000003a0: 88e8 b1bc 465a e13d bbb5 b73c 807a 57bb
000003b0: f049 f13d a637 adbd 610f 3c3c 5a0b 9f3c
000003c0: 44db 87bd 7dd1 8fbd 7fac 94bd 2009 cabb
000003d0: 643c d4bd 9850 b43d f42b c13d 2c32 31bc
000003e0: b4b5 bf3d d89c 87bd 55a6 b7bc 9273 2fbd
000003f0: 7303 76bc fd45 f1bd 3a6c af3d 2766 3c3d
-0.06769854 -0.114158064 -0.0886679 0.114066765 0.122517675 -0.03766477 0.11479463 -0.09411608
0.015245393 -0.11146501 0.010061711 -0.09861009 -0.09853557 -0.10570069 -0.09648755 -0.114035755
-0.109914914 -0.034089714 0.016169846 0.013341278 0.0017213672 0.04696457 0.049135566 -0.013143972
-0.09488678 -0.11305265 -0.10781674 -0.10033715 0.01881069 -0.07047294 -0.10010335 -0.06020017
-0.12214023 -0.0761781 0.110045314 -0.100774005 0.015433192 0.08646332 -0.06083277 -0.028905809
-0.08441128 -0.052670658 0.0028448254 0.007997274 -0.047604367 -0.00029425323 -0.04528235 0.08796282
-0.011580989 -0.015959308 -0.09581548 -0.018942058 -0.087965906 -0.0816306 -0.04750195 -0.0719516
-0.009533286 -0.065230414 0.08468509 -0.08339512 -0.048888907 0.069438845 -0.012395486 -0.08067921
0.08261642 -0.03374152 -0.035315722 -0.08421557 -0.11385541 0.070194826 0.008817449 -0.014022812
-0.11774053 -0.027119324 0.06297617 -0.045052037 -0.10751459 0.07228163 0.037686452 -0.10532609
-0.0039177984 0.117304966 0.015140519 0.02567996 0.09047498 -0.0714861 -0.06368101 0.09830625
-0.02312024 -0.100115016 0.004991263 0.058435872 -0.021340713 -0.023501366 -0.08988844 0.04181558
0.11674167 0.09263863 -0.102100536 0.07977094 -0.10953568 -0.060545668 -0.006202489 0.048514158
0.04634303 -0.095864624 -0.049378693 -0.021063536 0.02686268 -0.123082176 -0.07630293 0.10805829
-0.08447471 -0.0272547 -0.085687995 0.015418798 0.08878444 -0.061042204 0.02523388 0.0251185
-0.044749632 0.06840183 0.012000382 -0.044206485 0.06577475 0.093282714 0.019242987 -0.0820197
0.063411385 -0.011242896 -0.061322406 -0.062351644 -0.07709581 -0.12065178 -0.024343058 0.009145841
0.063368544 -0.07949887 -0.1196578 -0.09157494 -0.020589054 -0.05665949 -0.05410382 -0.06397773
-0.0051765293 -0.030835629 0.069988176 0.08584477 0.028486758 0.11694151 0.003046304 0.032769144
-0.048251465 -0.083088264 0.10027295 -0.059063643 -0.021660894 0.026210979 0.036109686 0.04497084
-0.097398296 -0.005937308 0.06393865 -0.119312555 -0.101660416 -0.08070621 -0.089834005 0.11924581
-0.053787455 -0.07209937 0.029759124 -0.056900337 0.08481255 -0.05074045 -0.008073896 -0.036465287
-0.08790572 -0.06478314 0.009148955 0.046488255 0.057009414 0.03481534 -0.11566363 0.12040123
0.0058383048 -0.07376522 0.0032309443 0.07562718 -0.04418035 0.028002039 -0.054693386 0.06194754
-0.06453371 -0.08613211 -0.037167832 0.12178733 0.093480535 -0.012659237 0.071006924 -0.10335894
0.08121543 -0.10301453 -0.05602458 0.01216106 -0.10960907 -0.08724077 -0.100991204 -0.014186934
-0.10223138 0.057892352 0.13041389 0.10126779 0.07064 -0.005941377 0.0052610636 -0.09736496
-0.03653889 -0.081901535 -0.061077237 0.012214869 0.061964545 -0.0009886925 0.015486791 0.038315956
0.016294032 0.052032694 0.010954872 -0.07818334 -0.08475806 -0.0024935454 0.08216334 -0.04647937
-0.021717325 0.110035464 0.022425523 -0.0032879412 0.117816806 -0.0845788 0.011478276 0.019414593
-0.066336185 -0.070223786 -0.072594635 -0.0061656386 -0.10363081 0.088044345 0.094322115 -0.010815185
0.09360829 -0.066217124 -0.02241818 -0.042834826 -0.015015471 -0.11780927 0.085655645 0.045995858

fc.4.bias f4 [32]
00000000: c6d5 eb3d 304f bbbc fca0 763d 2161 a0bd
00000010: 1b07 6d3d d3d7 af3b 185d 67bd f3eb 4fbc
00000020: a335 b9bd 3f07 15bd efa3 a6bd 40c6 133d
00000030: e513 d43c 309b 30bc 4252 a43d 260f b23d
00000040: 3b9c 8fbd 39c0 b2bd 8115 133d 98dc fdbd
00000050: bd5b 273d 48bf e03d 2583 35bd ca0f cd3a
00000060: 6efc de3b dd9a 963d afcd f4bd 8f86 dabd
00000070: f908 c93d 1722 18bd d381 c8bc 2a85 af3d
0.115153834 -0.022864908 0.06021212 -0.07831026 0.057868104 0.0053663044 -0.056485265 -0.012690532
-0.090434335 -0.036383864 -0.081367366 0.036077738 0.025888393 -0.010779187 0.08023502 0.086942956
-0.070122205 -0.0872807 0.03590918 -0.123955905 0.040858973 0.10973984 -0.044314522 0.0015644964
0.0068049943 0.073537566 -0.119532935 -0.10670196 0.098161645 -0.037141886 -0.024475968 0.08570321

fc.6.weight f4 [3, 32]
00000000: 774c 223e 8222 80bd efe7 d8bd 930e bdbd
00000010: e196 adbd 79bf dd3d 83da dabd 5b94 babd
00000020: cb42 7f3d 3af9 84bb 0976 9b3d a036 683c
00000030: 0524 e53c 6f91 1abe 8fc1 e43d 55f8 2a3e
00000040: 9e6b 753d ec19 2dbe 92bc d63d 8f19 0f3e
00000050: 02f6 eb3c 50f1 9ebc c2f1 53bd cca7 a33c
00000060: 6d97 46bd 8891 6abd c462 a4bd 8f1a 25be
00000070: 8564 b0bd 08b9 6e3d aace 1a3c 9c00 b63d
00000080: 68ed ffbc 907d f9bc d849 37bd 8344 f63d
00000090: 74b0 cabd 23f0 23bd bcb9 2f3d 3025 5abc
000000a0: 63df 033e 8d17 ddbd 9a52 213e e6ef f8bd
000000b0: 1d53 ec3c f4db 2cbd 05f4 29bd 8deb 0b3e
000000c0: 6b4e d3bc eb0e 96bd fea3 18be e6a3 03be
000000d0: 25e9 efbd b847 22bd 7e47 403d 2942 dfbd
000000e0: 482f b1bd 85d2 f5bd 1b0e 2d3e ea69 9a3d
000000f0: b211 77bd 49fd 213e 8695 af3d b782 e0bd
00000100: 67ec 0b3e 51a3 17be c005 1ebe ba7a 26be
00000110: 5005 ce3d c3ce d8bd 85ac a9bd ac0a a23c
00000120: 3da0 0c3e 6ce6 26be c061 8abd edce b0bd
00000130: e3b0 f2bd 3227 79bd 7e49 b03d 6a37 bcbd
00000140: 4fc0 01bd f8b7 213e 6711 1dbe 18d5 debc
00000150: c404 f0bd 8603 fe3d 63df a13d d9fa eabd
00000160: 8e84 cdbd 5de3 143e bec8 0c3e 3565 363d
00000170: c7ba d43d 99cb 1d3e 6eda 053e 93c9 c93c
0.15849482 -0.06256582 -0.10591113 -0.092312954 -0.084760435 0.10827536 -0.10686209 -0.09110328
0.062319558 -0.0040580304 0.07590873 0.01417318 0.027971277 -0.15094541 0.11169731 0.16696294
0.059917085 -0.1690442 0.10485186 0.13974594 0.02880383 -0.019402176 -0.05174423 0.019977473
-0.048484255 -0.057267696 -0.080266505 -0.16123413 -0.086129226 0.05828193 0.009448687 0.08886835
-0.031241134 -0.03045538 -0.044748157 0.12024786 -0.09896937 -0.040023934 0.04290174 -0.01331453
0.12878184 -0.107955076 0.15754166 -0.12155132 0.028848225 -0.04220195 -0.04149248 0.13664074
-0.025794229 -0.07327064 -0.14906308 -0.12855491 -0.11714391 -0.039619178 0.04694318 -0.10901291
-0.08651596 -0.12003044 0.16899912 0.07539733 -0.06031961 0.15819277 0.08573441 -0.10962432
0.13664399 -0.14808394 -0.15431881 -0.16257754 0.10059607 -0.10586312 -0.082848586 0.01978048
0.13733001 -0.16298836 -0.067569256 -0.08633218 -0.11850145 -0.060828395 0.086077675 -0.09190257
-0.03167754 0.15792835 -0.1533867 -0.02720122 -0.11719659 0.12403016 0.07903936 -0.11473627
-0.100350484 0.14539857 0.13748452 0.044530112 0.103871875 0.15409698 0.13071606 0.02463225

fc.6.bias f4 [3]
00000000: 112c 043d ee50 843b a95d 08be
0.032268587 0.004037968 -0.13316979
