Comeon/model_binary.pth (torch, 184190 bytes, 10 tensors)

fc.0.weight f4 [256, 6]
-0.24256976 -0.13353924 -0.3990493 0.09399748 -0.1877525 -0.17005809 0.40721488 -0.1268608
-0.22120033 -0.07189514 0.99364054 -0.09687708 0.3371363 0.34804547 -0.4092189 0.31456167
1.2352569 -1.3888103 -0.07269727 -0.04977197 0.14144623 0.3347729 -1.118003 1.1821426
-0.2905862 0.14955367 -0.4844823 0.14890239 -1.06475 1.197304 -0.29136124 0.29052076
0.08504286 0.1232752 1.9284465 0.17567779 -0.3563929 -0.014676278 -0.11520302 -0.020646667
0.2259814 -0.25517312 -0.36778173 0.110880464 0.5042405 0.025324235 0.99383014 0.42058724
-0.046855643 -0.034185823 0.35313353 0.03251986 -1.2509682 1.2540822 0.204173 -0.06917771
0.17327118 0.20184916 -1.728553 1.3392471 0.2861082 0.29040238 -0.28442773 -0.25911698
1.3048035 -1.2224905 -0.31307074 -0.10587282 -0.48658243 0.241401 -0.69417506 0.6118037
-0.24357387 -0.13115624 0.27113396 -0.32149687 0.26021296 -0.07711619 -0.4059912 -0.29292852
0.12862837 -0.26022884 0.2369027 0.064843625 -0.32614365 -0.07903498 0.23246075 -0.3681034
0.29394025 0.28390804 -0.14749187 -0.06604061 -0.042034682 0.03292902 0.17189951 -0.100951955
-0.22020231 -0.21670674 -0.0014451547 -0.20236978 -0.3306191 0.26634556 0.38518417 -0.045180626
0.1894864 -0.3719698 -0.25728288 -0.2710794 0.045464516 -0.41783145 0.27101862 -0.125402
-0.06385928 0.27128506 -0.20247996 -0.105809204 -0.25475946 0.31418642 -1.5302835 1.2330928
-0.2743888 0.32934707 -0.30317494 -0.29603258 0.21126351 -0.31848985 -0.4267434 0.1851088
0.35334125 0.04121419 -1.4396923 1.600589 -0.13804805 0.1483925 0.22114609 -0.08909765
0.24689135 0.93167794 -0.3143937 0.04865319 0.15112092 0.20359845 1.6021451 -0.19992763
0.41911206 -0.27183095 0.40632886 -0.029628057 -0.72863954 0.5247605 -0.022527602 -0.34875125
0.13006854 -0.37927434 -0.16095297 0.004489574 -0.44933128 0.37370735 0.24473152 -0.23270158
-1.054767 0.78861433 0.22675677 -0.31086335 0.1964811 -0.1727014 -0.042328946 -0.13478518
0.085883856 0.087042116 -0.35691577 0.13412891 -1.4915223 0.43270147 0.151582 -0.29955685
-0.17649823 -0.099082015 -0.043591484 -0.34859377 -0.4281023 0.050494254 0.24309202 0.22044234
1.832406 -1.8564924 -0.23974507 -0.1714079 -0.11853198 -0.038272325 -0.4241125 0.31295568
-0.3045435 0.20905851 -0.17121044 -0.35083628 -0.05872319 -0.21408878 0.1162916 -0.46523082
-0.048468735 -0.2806497 0.17966501 0.38020137 -0.18217292 0.009246049 0.16127282 0.3137148
-1.582704 0.98929244 -0.035808697 0.01693829 0.3829766 -0.28477886 0.35126415 0.3842334
0.20508079 -0.31408536 0.11297952 -0.15420751 -0.3826963 0.073939905 -0.11939246 0.028236974
-0.3147579 -0.035885416 -0.03153588 0.03470608 -0.3045828 -0.11311106 0.2421924 0.13841225
-0.35047036 2.064903 -0.06587674 0.32687387 -0.21469204 0.2842054 -0.7937762 1.5589768
-0.15663628 0.20946594 -0.21451159 0.19816655 1.7259384 -1.0326678 0.29022563 0.2491219
0.36821097 0.17161937 -1.3787261 1.0779362 -0.0054777307 0.12692326 -0.008282648 0.3312606
00000000: 3564 78be 83be 08be 3150 ccbe c081 c03d
00000010: 3142 40be b523 2ebe 787e d03e cce7 01be
00000020: 5782 62be c23d 93bd 3a5f 7e3f 7e67 c6bd
00000030: 219d ac3e 0433 b23e 2485 d1be 3a0e a13e
00000040: e61c 9e3f 89c4 b1bf 4ee2 94bd b1dd 4bbd
00000050: 48d7 103e 5b67 ab3e b91a 8fbf 7350 973f
00000060: b7c7 94be 9924 193e 100e f8be de79 183e
00000070: ba49 88bf 4241 993f 4d2d 95be 23bf 943e
00000080: f32a ae3d b577 fc3d 56d7 f63f e1e4 333e
00000090: 2179 b6be c674 70bc 90ef ebbd 3323 a9bc
000000a0: ab67 673e 0da6 82be e34d bcbe 4c15 e33d
000000b0: e815 013f c574 cf3c a76b 7e3f 3657 d73e
000000c0: b4eb 3fbd 6f06 0cbd ebcd b43e 8b33 053d
000000d0: ba1f a0bf c485 a03f ba12 513e 0bad 8dbd
000000e0: 006e 313e 8cb1 4e3e 3a41 ddbf 736c ab3f
000000f0: c67c 923e 9faf 943e 83a0 91be fbaa 84be
00000100: cd03 a73f 927a 9cbf cf4a a0be d9d3 d8bd
00000110: 5521 f9be d331 773e 75b5 31bf 2b9f 1c3f
00000120: 6e6b 79be d24d 06be 12d2 8a3e 3d9b a4be
00000130: a23a 853e 18ef 9dbd 14de cfbe bafa 95be
00000140: 28b7 033e b73c 85be 9f96 723e bccc 843d
00000150: 4dfc a6be 17dd a1bd 310a 6e3e 0d78 bcbe
00000160: 567f 963e 655c 913e 1c08 17be 4d40 87bd
00000170: 8f2c 2cbd 94e0 063d 6d06 303e e6bf cebd
00000180: b77c 61be 5fe8 5dbe 586b bdba 063a 4fbe
00000190: e846 a9be 725e 883e dc36 c53e 520f 39bd
000001a0: b908 423e d372 bebe 95ba 83be ebca 8abe
000001b0: 0039 3a3d 01ee d5be f4c2 8a3e 6269 00be
000001c0: a7c8 82bd e0e5 8a3e e856 4fbe 7fb2 d8bd
000001d0: d56f 82be 0bdd a03e 54e0 c3bf fcd5 9d3f
000001e0: b07c 8cbe 2ea0 a83e bf39 9bbe 9591 97be
000001f0: 7655 583e 1a11 a3be 1c7e dabe 298d 3d3e
00000200: 25e9 b43e 36d0 283d d647 b8bf 1ae0 cc3f
00000210: 785c 0dbe 34f4 173e 1f74 623e d478 b6bd
00000220: 16d1 7c3e 7282 6e3f 36f8 a0be 9148 473d
00000230: 71bf 1a3e 1d7c 503e 1713 cd3f d4b9 4cbe
00000240: db95 d63e 6d2d 8bbe 560a d03e 8ab6 f2bc
00000250: 1f88 3abf b456 063f ce8b b8bc 868f b2be
00000260: b030 053e 3f30 c2be dbd0 24be 471d 933b
00000270: c00e e6be 9256 bf3e e69a 7a3e 5349 6ebe
00000280: 9b02 87bf a1e2 493f ed32 683e 7b29 9fbe
00000290: 5732 493e a3d8 30be 1e61 2dbd 2005 0abe
000002a0: e0e3 af3d 2343 b23d aabd b6be 1759 093e
000002b0: 34ea bebf 0c8b dd3e 5038 1b3e 845f 99be
000002c0: f4bb 34be 83eb cabd fc8c 32bd e27a b2be
000002d0: 3a30 dbbe 10d3 4e3d 1ded 783e a3bb 613e
000002e0: 488c ea3f 8ba1 edbf bb7f 75be 8d85 2fbe
000002f0: e5c0 f2bd 71c3 1cbd 4625 d9be ba3b a03e
00000300: 20ed 9bbe 6f13 563e ca51 2fbe d0a0 b3be
00000310: ba87 70bd 173a 5bbe 4a2a ee3d bc32 eebe
00000320: 2787 46bd 51b1 8fbe 1bfa 373e c1a9 c23e
00000330: 8a8b 3abe be7c 173c b424 253e 3a9f a03e
00000340: 0b96 cabf 4542 7d3f 24ac 12bd 2bc2 8a3c
00000350: 8215 c43e 89ce 91be e5d8 b33e 3dba c43e
00000360: b300 523e cccf a0be ce61 e73d 93e8 1dbe
00000370: c5f0 c3be ce6d 973d 0984 f4bd 3a51 e73c
00000380: f327 a1be 96fc 12bd c42b 01bd f627 0e3d
00000390: 47f2 9bbe c5a6 e7bd 4901 783e f1bb 0d3e
000003a0: da70 b3be 5f27 0440 62ea 86bd 035c a73e
000003b0: 3bd8 5bbe 5f83 913e eb34 4bbf 8d8c c73f
000003c0: 4365 20be 3d7e 563e eda8 5bbe 2cec 4a3e
000003d0: 8deb dc3f 752e 84bf 7498 943e d019 7f3e
000003e0: 2686 bc3e fdbc 2f3e 197a b0bf d0f9 893f
000003f0: 897e b3bb 2cf8 013e f2b3 07bc fd9a a93e

fc.0.bias f4 [256]
0.1630696 -0.05279783 0.12641843 0.2757264 -0.021239983 -0.21289328 0.2517708 -0.23489986
0.048396517 -0.011471841 -0.10591939 0.018539105 0.2302419 0.03374057 0.3065787 -0.1831161
0.025189279 -0.095531456 0.37540135 0.29991466 0.33677813 -0.09924124 -0.026583843 -0.35181323
-0.026197862 0.3901779 -0.3518294 0.05966626 -0.17220935 -0.094230436 -0.4309898 -0.22495411
0.36147085 -0.17585902 0.083919406 -0.37214568 0.13205545 0.08253962 -0.047827236 0.13926964
-0.42006135 0.09648062 -0.16760299 0.33751193 0.2006412 -0.08872328 0.32937214 0.20547223
-0.2615469 -0.06934296 -0.22126684 0.049856223 -0.10834588 0.17475335 0.2541235 0.052386694
0.049338285 0.26182038 -0.27424055 0.4258628 -0.21196325 0.36192083 -0.06844369 0.206007
-0.11623936 0.10111415 0.15947115 0.41833267 -0.09340534 -0.16755886 0.34817955 0.3679081
0.14919527 -0.15533741 -0.32836485 -0.18898642 -0.450057 -0.287514 0.07403855 0.06505487
0.4328748 0.42004013 -0.24177757 0.28489554 0.20412287 0.16674232 -0.17154671 0.28253406
0.043317813 0.27670285 0.21475449 -0.046791762 0.23103541 0.41735095 -0.2195552 0.23861898
0.03407269 -0.21943767 0.37767294 -0.120112926 0.07669468 0.14714335 0.1373932 -0.34583816
0.18681902 -0.20992818 -0.50237834 -0.12022521 -0.32192057 -0.46434045 -0.31564507 0.14307155
-0.26515192 -0.33633482 0.088937044 0.18246716 -0.4097431 -0.20581523 0.10262578 -0.43846118
0.115143344 -0.37915024 0.1725207 -0.33813086 -0.31887522 -0.22548427 -0.32366413 0.12863638
-0.2901412 -0.2583557 0.3081583 0.052901633 -0.016631216 0.16315809 0.30388793 0.2640596
-0.42880568 -0.048519224 -0.22840372 0.18612549 0.32050622 0.11328184 -0.22921617 -0.086646765
0.012660603 -0.11229051 0.4435836 0.3298526 0.18566309 -0.068658784 -0.3638731 0.23648174
-0.08204576 -0.28301677 -0.05692274 -0.11005942 -0.41227782 -0.01246518 0.2273662 0.29354542
0.26002392 0.25730947 0.1802074 0.15747455 -0.17682426 0.34806535 -0.31876796 -0.20896746
-0.21815741 -0.1969345 0.30954397 -0.2876001 -0.04062512 0.31549865 0.179881 -0.22501859
-0.0007050615 -0.21516505 0.033130642 0.18806186 -0.16122684 -0.20740019 0.3325335 -0.06937319
-0.03999144 -0.24703428 0.3668517 -0.10741493 -0.33351564 -0.26373154 -0.39508772 -0.25371304
-0.014151201 0.06236586 -0.121037744 0.12641652 0.31263846 -0.31791893 -0.24557857 0.065815926
0.23971215 0.2371056 0.36024398 -0.3967008 0.3778621 -0.046569377 0.08991689 -0.08770136
-0.3954095 0.035445005 -0.007670588 -0.07494594 0.07390997 -0.37586197 -0.23814055 0.2369188
0.301965 0.010023194 -0.0655829 -0.15753129 0.14056589 -0.28569746 0.2529467 0.39496866
-0.35779136 -0.07428389 0.031753253 0.20520754 -0.009031315 -0.28908074 -0.07249925 0.104168914
-0.20250857 -0.15840241 -0.015873425 -0.03406976 0.19121106 -0.17733598 0.42301908 -0.06856394
-0.15191984 -0.32903215 0.31315503 0.050713688 -0.4165872 0.3157712 0.32684422 0.29476127
0.19878608 0.10766541 -0.01032649 0.116258614 0.010229826 0.01779447 -0.19021846 -0.034834847
00000000: b8fb 263e 8a42 58bd d573 013e 032c 8d3e
00000010: 79ff adbc b200 5abe 1ae8 803e 9789 70be
00000020: 6d3b 463d 63f4 3bbc 44ec d8bd 52df 973c
00000030: 88c4 6b3e 8d33 0a3d e2f7 9c3e c982 3bbe
00000040: bf59 ce3c ffa5 c3bd 9b34 c03e 6a8e 993e
00000050: 2f6e ac3e fe3e cbbd 5cc6 d9bc dd20 b4be
00000060: e69c d6bc 66c5 c73e fc22 b4be 9c64 743d
00000070: a657 30be e3fb c0bd b2aa dcbe 5f5a 66be
00000080: b512 b93e 6314 34be f0dd ab3d e189 bebe
00000090: 8b39 073e 880a a93d 7ee6 43bd b39c 0e3e
000000a0: 4812 d7be a297 c53d 1ea0 2bbe 5dce ac3e
000000b0: e374 4d3e 8db4 b5bd 77a3 a83e 5067 523e
000000c0: 7ae9 85be af03 8ebd c693 62be 0a36 4c3d
000000d0: 72e4 ddbd 8bf2 323e 7a1c 823e 6e93 563d
000000e0: f116 4a3d 520d 863e 4269 8cbe b00a da3e
000000f0: e50c 59be b04d b93e 352c 8cbd 80f3 523e
00000100: e70e eebd ef14 cf3d 684c 233e b32f d63e
00000110: 4d4b bfbd 8d94 2bbe 9744 b23e 735e bc3e
00000120: a5c6 183e c510 1fbe 701f a8be a885 41be
00000130: df6d e6be 0935 93be 86a1 973d 7d3b 853d
00000140: c4a1 dd3e 800f d73e 8a94 77be d4dd 913e
00000150: 9605 513e 80be 2a3e f1a9 2fbe 4ea8 903e
00000160: 056e 313d ffab 8d3e 9ae8 5b3e b8a8 3fbd
00000170: 8c94 6c3e 06af d53e 14d3 60be 8958 743e
00000180: ce8f 0b3d 45b4 60be 595e c13e c4fd f5bd
00000190: 1a12 9d3d bfac 163e ceb0 0c3e b311 b1be
000001a0: 7c4d 3f3e 6af7 56be de9b 00bf a338 f6bd
000001b0: c6d2 a4be 08be edbe 3b9c a1be 5981 123e
000001c0: fec1 87be 1434 acbe a024 b63d acd8 3a3e
000001d0: d9c9 d1be 3ac1 52be 772d d23d fc7d e0be
000001e0: 46d0 eb3d fb1f c2be 44a9 303e 7d1f adbe
000001f0: 9d43 a3be 59e5 66be 4eb7 a5be 41b9 033e
00000200: 638d 94be 3347 84be edc6 9d3e 62af 583d
00000210: 303e 88bc ea12 273e 3397 9b3e d232 873e
00000220: 6b8c dbbe 18bc 46bd aae2 69be ae97 3e3e
00000230: 6419 a43e 4f00 e83d a5b7 6abe dc73 b1bd
00000240: 6b6e 4f3c 91f8 e5bd 641d e33e 71e2 a83e
00000250: 771e 3e3e fa9c 8cbd 934d babe 4528 723e
00000260: 9b07 a8bd 93e7 90be d227 69bd d566 e1bd
00000270: 1416 d3be c13a 4cbc afd2 683e 964b 963e
00000280: db21 853e 11be 833e 4a88 383e 0241 213e
00000290: 6b11 35be 9f35 b23e 8e35 a3be 91fb 55be
000002a0: a864 5fbe 33a9 49be 8c7c 9e3e 5240 93be
000002b0: 8766 26bd 0a89 a13e ba32 383e 466b 66be
000002c0: e0d3 38ba 3a54 5cbe ffb3 073d 4a93 403e
000002d0: a618 25be b760 54be d541 aa3e 8813 8ebd
000002e0: 10ce 23bd 8ef6 7cbe fcd3 bb3e 5cfc dbbd
000002f0: 90c2 aabe d207 87be f048 cabe ade6 81be
00000300: 70da 67bc 5873 7f3d a3e2 f7bd 5573 013e
00000310: 2612 a03e 45c6 a2be f378 7bbe 80ca 863d
00000320: 1a77 753e cfcb 723e e671 b83e 5e1c cbbe
00000330: 2477 c13e 88bf 3ebd 5926 b83d c59c b3bd
00000340: 1d73 cabe c82e 113d 8e59 fbbb 427d 99bd
00000350: 1c5e 973d fb70 c0be 1edb 73be d89a 723e
00000360: 289b 9a3e 5338 243c 5450 86bd e24f 21be
00000370: 81f0 0f3e f046 92be 3b82 813e 5539 ca3e
00000380: 6e30 b7be 2722 98bd b30f 023d ed21 523e
00000390: 15f8 13bc 6402 94be 7d7a 94bd 8356 d53d
000003a0: 685e 4fbe 3e34 22be fc08 82bc bc8c 0bbd
000003b0: d5cc 433e 9097 35be f595 d83e 406b 8cbd
000003c0: e090 1bbe e776 a8be db55 a03e 28b9 4f3d
000003d0: eb4a d5be c3ac a13e 2058 a73e f3ea 963e
000003e0: 948e 4b3e af7f dc3d 7030 29bc ff18 ee3d
000003f0: 009b 273c b5c5 913c a1c8 42be fcae 0ebd

fc.2.weight f4 [128, 256]
0.034330714 -0.046388384 0.06269313 0.030370153 -0.06982595 -0.08434041 -0.014773075 -0.106507495
0.008240892 -0.038515344 0.14332311 -0.0045323954 -0.02187309 0.039694354 -0.030888278 0.02021565
-0.008064278 0.06899304 -0.0065937056 -0.08677481 -0.017958347 -0.032591175 -0.04694208 -0.017594881
-0.10326394 0.056133445 0.20150352 0.052230943 0.018011741 -0.06455898 0.044996157 -0.054361586
0.031051083 -0.011697987 -0.03177426 -0.052291244 -0.06201661 0.07157943 -0.043701746 -0.048575506
-0.057366356 0.071806006 0.024329223 0.063797794 -0.040065385 0.004887895 -0.020266626 -0.062115405
0.033631977 0.0076540676 0.01824671 -0.0033547403 0.07453013 0.043697856 0.025591478 -0.04571029
-0.034171894 0.05934469 0.23509502 0.2322027 0.0696068 0.28427604 0.05248687 0.07831713
-0.027940772 -0.07666487 0.05436694 -0.006611322 -0.04612013 -0.017667098 0.44480073 0.005782119
-0.048261 0.00569872 0.0010352195 -0.03199466 0.272455 -0.035687428 -0.028958986 0.032474145
0.079189286 -0.13698147 0.06351704 -0.04359465 -0.335459 -0.057650216 -0.04247019 -0.042257544
0.08814931 0.022979911 -0.10036869 -0.015639085 0.039197773 0.059468865 0.01463783 -0.072560094
-0.07897865 -0.008729335 0.006788689 -0.06863137 -0.013992093 0.06120244 -0.046666063 -0.01954225
-0.07181521 -0.11987293 -0.05074081 0.05461098 -0.011913023 0.016048525 0.041889597 -0.0050125066
-0.018663773 0.0051534222 -0.006911214 -0.10115094 0.025069278 0.033765707 -0.027271137 0.10190687
0.5001223 0.0066193156 -0.06325722 -0.6057418 -0.013728097 -0.9610777 0.03378621 -0.065090045
0.03449309 0.0078056147 -0.09361158 -0.17507161 -0.027826589 -0.009737902 0.061876364 0.072301574
-0.034420617 -0.0071938243 0.039841022 -0.001302802 -0.12496398 0.0139066605 -0.028179014 -0.05102048
-0.027497467 -0.017053863 0.10200999 0.019589277 0.00443606 0.029987942 -0.054640185 0.03713599
-0.040270194 -0.06565638 -0.024320288 0.055926044 -0.0021602656 0.06231893 -0.029722493 -0.022660362
0.06425956 0.24744967 0.093918525 -0.0009942283 0.078121156 0.00530341 0.025142021 0.07188348
-0.11699626 -0.06421745 0.037428193 0.07722876 -0.07451279 0.029290231 0.072531946 0.014353728
0.036190826 -0.03803466 0.03187855 -0.023196084 -0.062492512 0.07984929 -0.004903581 0.052662782
0.029590122 0.1331187 0.22644337 0.5824543 0.017489463 -0.0024169278 -0.050228663 0.03086663
-0.108621344 0.039416365 -0.008718029 -0.016153576 -0.039665073 0.009651361 -0.029633068 -0.0463551
-0.08487463 -0.084586054 -0.01205382 0.0004246058 -1.9060369 -0.0042934287 0.11699011 -0.4690109
-0.07852848 0.01590097 -0.058453124 0.06591842 -0.54943985 -0.09097582 -0.14271772 -0.032053832
-0.54704905 0.07932884 0.047403224 0.04631997 -0.07325996 -0.01860401 0.082669735 -0.10558662
0.057888594 -0.0055151926 0.1053408 0.06367442 0.14635079 0.013978993 -0.013475186 -0.060486976
0.0071486705 -0.012253333 0.1098964 0.004379067 -0.066157386 0.017550915 -0.053635716 0.010477235
-0.020244077 0.036514703 0.045957476 -0.063128494 0.16995466 -0.01858788 -0.025624871 -0.02923204
0.054691926 -0.029646778 -0.011793839 0.023520967 0.029356213 0.68576133 0.027571524 0.012778795
00000000: 5d9e 0c3d bf01 3ebd 4165 803d d4ca f83c
00000010: e800 8fbd aaba acbd c40a 72bc 9a20 dabd
00000020: ce04 073c 44c2 1dbd 4bc3 123e 7d84 94bb
00000030: 322f b3bc 8c96 223d 6a09 fdbc 4a9b a53c
00000040: 0920 04bc 394c 8d3d 0310 d8bb feb6 b1bd
00000050: 621d 93bc 537e 05bd 5746 40bd 2423 90bc
00000060: 0b7c d3bd 2fec 653d f056 4e3e 1df0 553d
00000070: 5c8d 933c 8037 84bd e44d 383d 41aa 5ebd
00000080: d75e fe3c eaa8 3fbc ba25 02bd 582f 56bd
00000090: 2105 7ebd 3c98 923d 9a00 33bd 1cf7 46bd
000000a0: fcf8 6abd 070f 933d 144e c73c 6ba8 823d
000000b0: 9a1b 24bd a32a a03b 3206 a6bc b96c 7ebd
000000c0: afc1 093d f9ce fa3b 207a 953c 34db 5bbb
000000d0: 41a3 983d 86fc 323d 38a5 d13c b73a 3bbd
000000e0: d4f7 0bbd 6b13 733d c0bc 703e 8bc6 6d3e
000000f0: 038e 8e3d a18c 913e 79fc 563d bb64 a03d
00000100: 0ce4 e4bc 7902 9dbd deaf 5e3d caa3 d8bb
00000110: 76e8 3cbd 97ba 90bc ecbc e33e ee77 bd3b
00000120: 54ad 45bd 54bc ba3b 34b0 873a d50c 03bd
00000130: 397f 8b3e fb2c 12bd 653b edbc 9c03 053d
00000140: fe2d a23d df44 0cbe 3915 823d 4e90 32bd
00000150: 48c1 abbe a222 6cbd 39f5 2dbd 3f16 2dbd
00000160: a087 b43d 5e40 bc3c 1a8e cdbd 8a1d 80bc
00000170: d88d 203d a095 733d 82d3 6f3c 639a 94bd
00000180: 8fbf a1bd 7c05 0fbc a773 de3b 9b8e 8cbd
00000190: 173f 65bc 69af 7a3d ea24 3fbd 1217 a0bc
000001a0: da13 93bd f07f f5bd 98d5 4fbd c3af 5f3d
000001b0: d72e 43bc 3278 833c 6d94 2b3d f43f a4bb
000001c0: c5e4 98bc 0ade a83b 7777 e2bb 3928 cfbd
000001d0: 165e cd3c e94d 0a3d b867 dfbc 8db4 d03d
000001e0: 0408 003f d8e6 d83b 008d 81bd e511 1bbf
000001f0: d0eb 60bc 3009 76bf 6963 0a3d ee4d 85bd
00000200: a048 0d3d 3ec6 ff3b 6eb7 bfbd f945 33be
00000210: 96f4 e3bc b98b 1fbc 1272 7d3d d912 943d
00000220: a2fc 0cbd 2cba ebbb 5730 233d c8c2 aaba
00000230: 1ded ffbd c3d8 633c add7 e6bc dafa 50bd
00000240: 5e42 e1bc 8bb4 8bbc 9dea d03d b179 a03c
00000250: 5e5c 913b 46a9 f53c 63ce 5fbd e81b 183d
00000260: 5cf2 24bd da76 86bd 573b c7bc b512 653d
00000270: 3e93 0dbb 2242 7f3d 967c f3bc 39a2 b9bc
00000280: 849a 833d 7263 7d3e 5b58 c03d c450 82ba
00000290: fcfd 9f3d 3ac8 ad3b a4f6 cd3c a537 933d
000002a0: bc9b efbd 7084 83bd 4e4e 193d 1d2a 9e3d
000002b0: 299a 98bd 11f2 ef3c a18b 943d e62b 6b3c
000002c0: d53c 143d 3bca 1bbd 1593 023d b705 bebc
000002d0: 26f8 7fbd 0688 a33d 38ae a0bb eeb4 573d
000002e0: fc66 f23c 4550 083e c5e0 673e ba1b 153f
000002f0: 1046 8f3c 5265 1ebb 92bc 4dbd 04dc fc3c
00000300: de74 debd 0e73 213d 10d6 0ebc 8154 84bc
00000310: d877 22bd be20 1e3c 0cc1 f2bc d8de 3dbd
00000320: c0d2 adbd 743b adbd 637d 45bc a09d de39
00000330: 04f9 f3bf e4af 8cbb 8398 ef3d 3222 f0be
00000340: 8ad3 a0bd c042 823c 8b6c 6fbd 3d00 873d
00000350: 17a8 0cbf 8851 babd 9824 12be e14a 03bd
00000360: 680b 0cbf 2977 a23d e229 423d 02ba 3d3d
00000370: 5109 96bd 7067 98bc c04e a93d cc3d d8bd
00000380: 971c 6d3d cab8 b4bb ebbc d73d bc67 823d
00000390: fbdc 153e 2508 653c 07c7 5cbc 31c1 77bd
000003a0: 653f ea3b 34c2 48bc 5d11 e13d 477e 8f3b
000003b0: 867d 87bd f0c6 8f3c 20b1 5bbd b5a8 2b3c
000003c0: e8d6 a5bc 7190 153d e83d 3c3d 8349 81bd
000003d0: 9808 2e3e 9c45 98bc 40eb d1bc 0878 efbc
000003e0: a404 603d cddd f2bc f23a 41bc 0baf c03c
000003f0: 717c f03c 0e8e 2f3f addd e13c 275e 513c

fc.2.bias f4 [128]
-0.110248394 0.038557835 -0.025658635 0.056253146 0.029807368 -0.053987496 -0.030698001 -0.0500898
0.008234588 0.011626173 -0.07272946 -0.056677993 0.020149373 0.07302589 -0.07833885 0.011584455
0.014850225 -0.06511711 -0.010963318 0.17153537 -0.049291406 -0.093879856 -0.011570413 0.032659452
0.0016642902 0.12176155 -0.049863573 -0.030798249 -0.008281327 0.05998569 0.13940616 -0.084589735
-0.004013375 0.00488343 -0.04512483 -0.021916078 0.0034688842 0.013001974 -0.03435812 -0.025159933
0.009794153 0.006770403 -0.0129998475 0.036750607 0.0014408552 -0.07052289 0.049191564 -0.0149694355
0.0023260769 -0.012894827 -0.033829965 -0.032181382 0.020331051 0.066298775 -0.008672005 -0.060043596
0.020530036 -0.07054695 0.058066837 -0.09700085 -0.010502193 -0.15808775 -0.03446783 0.011416319
-0.059801735 0.018623896 -0.0480736 -0.06827357 -0.074918404 0.038618185 -0.044253312 -0.014132285
-0.06967203 0.054650113 -0.06344721 -0.042570338 -0.16336562 -0.04347601 -0.025955766 0.029434994
0.054798175 0.056454483 -0.011928044 0.11366215 -0.023999322 -0.08820197 0.12257231 0.05115013
0.016155247 0.024412544 0.025650635 -0.06980313 -0.019353949 0.08455258 0.054183315 -0.0022542274
-0.044588145 0.026246324 0.05846457 0.016177068 -0.0109308055 -0.030572806 -0.014915197 0.0615716
-0.010845765 0.045245707 -0.08090425 -0.085786335 0.042579852 -0.013464884 -0.0059197843 -0.03326327
0.052057765 0.008897826 0.04455675 0.045476332 -0.03870143 0.009539647 -0.07479897 -0.01634337
0.045856636 -0.048025932 -0.010182428 -0.03307505 -0.021584388 -0.023181932 -0.020450216 -0.06289868
00000000: e9c9 e1bd d2ee 1d3d 0f32 d2bc b369 663d
00000010: 952e f43c fe21 5dbd 607a fbbc f62a 4dbd
00000020: 5eea 063c b47b 3e3c 2ff3 94bd 2f27 68bd
00000030: 4c10 a53c 998e 953d 1e70 a0bd bacc 3d3c
00000040: 5c4e 733c 1f5c 85bd 7d9f 33bc f8a6 2f3e
00000050: c9e5 49bd 1544 c0bd d491 3dbc ebc5 053d
00000060: 5024 da3a 1f5e f93d bf3d 4cbd 9c4c fcbc
00000070: 67ae 07bc 8eb3 753d 7dc0 0e3e 623d adbd
00000080: a182 83bb 2e05 a03b d0d4 38bd 5989 b3bc
00000090: 3856 633b 3b06 553c 1abb 0cbd 341c cebc
000000a0: a877 203c 42da dd3b 50fd 54bc ce87 163d
000000b0: 14db bc3a 4e6e 90bd 187d 493d 5d42 75bc
000000c0: 1871 183b d344 53bc 4a91 0abd a0d0 03bd
000000d0: 4e8d a63c a7c7 873d 0615 0ebc 46f0 75bd
000000e0: 9b2e a83c eb7a 90bd 7ed7 6d3d 62a8 c6bd
000000f0: 6411 2cbc c1e1 21be 242e 0dbd 830b 3b3c
00000100: aaf2 74bd 2491 983c d3e8 44bd 03d3 8bbd
00000110: d26e 99bd 1a2e 1e3d f642 35bd 198b 67bc
00000120: 36b0 8ebd ccd8 5f3d 9cf0 81bd 3c5e 2ebd
00000130: 5149 27be e713 32bd 30a1 d4bc a821 f13c
00000140: 0d74 603d d13c 673d d86d 43bc b4c7 e83d
00000150: 3a9a c4bc 3ca3 b4bd 3107 fb3d cc82 513d
00000160: 0258 843c d1fc c73c 4821 d23c f2f4 8ebd
00000170: 2c8c 9ebc e729 ad3d 53ef 5d3d a9bb 13bb
00000180: 0fa2 36bd 8802 d73c 8c78 6f3d c585 843c
00000190: 1f17 33bc d273 fabc df5e 74bc 8132 7c3d
000001a0: 6fb2 31bc 9053 393d 21b1 a5bd bfb0 afbd
000001b0: 3668 2e3d d19b 5cbc c0fa c1bb 113f 08bd
000001c0: 863a 553d 30c8 113c 2481 363d 6445 3a3d
000001d0: 6485 1ebd 2e4c 1c3c 3430 99bd 88e2 85bc
000001e0: 2bd4 3b3d d7b6 44bd 33d4 26bc b479 07bd
000001f0: bed1 b0bc 09e8 bdbc 3687 a7bc 06d1 80bd

fc.4.weight f4 [64, 128]
-0.027758945 0.096497744 -0.33894712 -0.053824753 -0.017117841 -0.0420175 0.11681389 -0.043732505
0.0069335946 -0.015394975 -0.012034981 0.062149808 0.017865146 0.016391642 0.019146634 0.0018422473
-0.021484312 0.012395063 -0.009235522 0.049445957 -0.079586215 -0.07996375 -0.03695558 -0.027302116
0.06966592 -0.015381895 0.00593754 -0.07671379 -0.1274949 0.019310933 0.27845806 -0.038999587
0.046440203 -0.022856275 0.0726586 0.01576076 0.03632062 -0.06739383 -0.049393408 0.0018817803
0.02208729 -0.08516039 -0.049336456 0.047952846 -0.017981056 -0.10823241 -0.06617434 0.001524752
-0.07760711 0.0027759694 0.05454893 -0.04079664 -0.03041707 -0.05679821 -0.031690806 -0.0856966
0.03826883 0.065803975 0.23916641 0.13350879 0.02509879 -0.0698202 -0.102186345 -0.0036024768
-0.02832091 0.04592642 -0.03400147 -0.024164367 -0.07028107 -0.067153476 -0.07232067 0.0044090953
-0.34936866 0.0305124 -0.11709358 -0.032390207 0.029940054 -0.042305395 0.057548158 -0.0889046
0.07247493 0.066812776 -0.057389904 0.2736986 -0.120796025 -0.053059112 0.13018395 -0.07167972
0.004269424 0.04021744 0.030312877 -0.012167653 -0.00967121 0.049512226 0.029970555 0.040709853
-0.023503073 -0.01901373 0.021194335 0.07107893 0.09367887 -0.029509662 0.016688507 -0.026213044
-0.1259534 -0.05504738 0.018136738 -0.026071083 0.045458924 -0.06156238 0.00016621687 0.052657187
0.06339687 -0.021114144 -0.030825429 -0.11258672 0.009183455 0.052439526 -0.004299688 -0.044514116
-0.03956411 -0.07657881 -0.01999184 0.10198871 -0.07617365 0.051227234 -0.08156514 -0.02373681
0.19167116 -0.05794067 0.18135409 0.19727594 0.13480482 0.09490251 -0.009513579 0.10757135
-0.016343728 -0.00643776 0.11992673 0.023547512 0.05830603 0.07596116 -0.018315654 0.040235393
-0.0055140257 -0.053275883 0.061663546 -0.14568797 0.04279568 0.0020605838 0.00060197804 -0.06078841
0.006266728 -0.19772403 0.0010079034 -0.0132627655 -0.083814085 -0.013603149 0.01470139 -0.06146882
-0.042721353 0.14211826 -0.07641056 0.10668716 0.0010841256 -0.02114508 0.056743186 0.06006671
0.0005712202 0.06454377 0.11899084 0.060711484 0.11625997 0.061307397 -0.03052985 0.0855626
-0.0066890474 0.035286307 0.041926906 0.15424058 0.017527627 -0.06114361 0.10451003 0.06554011
-0.006696533 -0.0016665477 -0.080959104 0.42697936 0.048840836 -0.009642286 0.016379993 -0.08434532
0.074423805 0.06546541 0.009050801 -0.05087488 0.117673814 0.047518086 -0.115944065 0.015173805
0.08273375 -0.087879345 0.07067365 -0.0038856706 -0.0010206022 0.013148445 0.13548756 -0.051981818
-0.057834525 0.06332983 0.035700116 -0.13064528 0.24082723 0.067968376 -0.07987314 0.015235077
-0.034906235 0.024720522 0.18746828 0.116999455 0.02736369 -0.17302129 0.0057063033 -0.021290062
0.050983973 -0.14001046 -0.08858809 0.058255047 0.013342662 -0.019360181 0.08358427 0.07902928
-0.17593849 0.016753975 0.06594684 -0.038760863 0.01540464 0.052071434 -0.00853105 0.081776954
-0.059680868 -0.09013454 -0.015338136 0.05845711 -0.026321258 0.067850515 0.0780824 0.1498222
-0.0016327822 -0.02578707 -0.034684345 -0.034454606 -0.054218747 0.06534027 -0.0841625 -0.0024204445
00000000: ba66 e3bc 9ca0 c53d 7a8a adbe 5877 5cbd
00000010: b73a 8cbc 8b1a 2cbd 1f3c ef3d db20 33bd
00000020: 3533 e33b 353b 7cbc 5e2e 45bc cc90 7e3d
00000030: ed59 923c c447 863c 67d9 9c3c 9077 f13a
00000040: deff afbc aa14 4b3c 9650 17bc d887 4a3d
00000050: 19fe a2bd 09c4 a3bd bc5e 17bd b0a8 dfbc
00000060: 02ad 8e3d 5804 7cbc b28f c23b 1f1c 9dbd
00000070: 068e 02be f631 9e3c 0e92 8e3e 08be 1fbd
00000080: 1538 3e3d 153d bbbc 08ce 943d b61c 813c
00000090: eec4 143d c705 8abd be50 4abd 12a6 f63a
000000a0: 68f0 b43c 9268 aebd 0615 4abd 346a 443d
000000b0: 024d 93bc f4a8 ddbd 6a86 87bd 30da c73a
000000c0: 7af0 9ebd 0aed 353b b36e 5f3d 611a 27bd
000000d0: 382d f9bc 3da5 68bd 38ce 01bd b381 afbd
000000e0: c7bf 1c3d 3cc4 863d 0ae8 743e 87b6 083e
000000f0: fa9b cd3c e5fd 8ebd 1347 d1bd 8817 6cbb
00000100: 4101 e8bc 571d 3c3d 2045 0bbd 5af4 c5bc
00000110: 86ef 8fbd c387 89bd dc1c 94bd 2c7a 903b
00000120: 73e0 b2be 24f5 f93c c2ce efbd 98ab 04bd
00000130: d844 f53c 6c48 2dbd 9eb7 6b3d 9d13 b6bd
00000140: bc6d 943d 23d5 883d ad11 6bbd 3922 8c3e
00000150: e863 f7bd 8354 59bd f14e 053e d1cc 92bd
00000160: 86e6 8b3b 0bbb 243d b652 f83c d65a 47bc
00000170: ff73 1ebc 55cd 4a3d cf84 f53c 60bf 263d
00000180: 8489 c0bc afc2 9bbc be9f ad3c d491 913d
00000190: b5da bf3d 3fbe f1bc 56b6 883c bdbc d6bc
000001a0: eef9 00be 5d79 61bd 7f93 943c 0693 d5bc
000001b0: 2333 3a3d d628 7cbd 804a 2e39 10af 573d
000001c0: 38d6 813d 92f7 acbc 9c85 fcbc de93 e6bd
000001d0: 3476 163c d4ca 563d 66e4 8cbb 6f54 36bd
000001e0: fa0d 22bd 5ad5 9cbd edc5 a3bc 75df d03d
000001f0: ee00 9cbd a6d3 513d a00b a7bd b373 c2bc
00000200: 7245 443e 3253 6dbd e3b4 393e b402 4a3e
00000210: 460a 0a3e 3f5c c23d d8de 1bbc 5e4e dc3d
00000220: 48e3 85bc d8f3 d2bb 259c f53d b6e6 c03c
00000230: 4ed2 6e3d 8691 9b3d b60a 96bc decd 243d
00000240: 00af b4bb d037 5abd ea92 7c3d 3a2f 15be
00000250: 864a 2f3d dc0a 073b 10ce 1d3a 45fd 78bd
00000260: 2059 cd3b 2b78 4abe a01b 843a 124c 59bc
00000270: b8a6 abbd bedf 5ebc 19de 703c bbc6 7bbd
00000280: 96fc 2ebd 7387 113e 247d 9cbd cc7e da3d
00000290: 3819 8e3a 7238 adbc 8b6b 683d 8308 763d
000002a0: f0bd 153a 862f 843d 78b1 f33d 9bac 783d
000002b0: b519 ee3d 771d 7b3d bc19 fabc 723b af3d
000002c0: cc2f dbbb 6088 103d 8cbb 2b3d 3ef1 1d3e
000002d0: 1996 8f3c b971 7abd 5b09 d63d e539 863d
000002e0: 976e dbbb 1070 daba e3cd a5bd 0a9d da3e
000002f0: 540d 483d aefa 1dbc 562f 863c 3dbd acbd
00000300: 826b 983d bb12 863d d049 143c 2e62 50bd
00000310: f8fe f03d 53a2 423d 1574 edbd 8d9b 783c
00000320: 5070 a93d 16fa b3bd 59bd 903d bca6 7ebb
00000330: bac5 85ba 936c 573c 40bd 0a3e e3ea 54bd
00000340: e5e3 6cbd 12b3 813d 493a 123d e0c7 05be
00000350: 6a9b 763e 0133 8b3d 8794 a3bd 8b9c 793c
00000360: d7f9 0ebd b182 ca3c aff7 3f3e 699d ef3d
00000370: d129 e03c 7e2c 31be f1fb ba3b 7f68 aebc
00000380: 92d4 503d e75e 0fbe ac6d b5bd d89c 6e3d
00000390: 2e9b 5a3c 3e99 9ebc 3b2e ab3d 1ada a13d
000003a0: 3829 34be a23f 893c 230f 873d b6c3 1ebd
000003b0: be63 7c3c db48 553d d1c5 0bbc ad7a a73d
000003c0: ed73 74bd 7598 b8bd ce4c 7bbc b970 6f3d
000003d0: ae9f d7bc 36f5 8a3d aae9 9f3d fe6a 193e
000003e0: 1403 d6ba 683f d3bc 2c11 0ebd 4620 0dbd
000003f0: 7a14 5ebd 1fd1 853d 645d acbd 52a0 1ebb

fc.4.bias f4 [64]
0.13039535 -0.085823715 -0.08893988 -0.02911544 0.034254424 -0.017204713 0.06634223 -0.07549426
-0.06469767 0.050517727 -0.058435924 0.14581947 -0.08433091 -0.004164263 -0.046736497 -0.06979409
0.08814404 0.036143016 -0.031481832 0.03315103 0.05483187 0.084451936 -0.0705329 0.041574173
-0.09529014 0.0883859 -0.107610315 -0.06013483 0.06937086 0.12007858 -0.08738668 -0.04042222
0.004937731 -0.1042863 0.13765669 -0.11578011 -0.08312617 -0.056490835 -0.022932762 0.08187358
0.11884485 -0.011226369 0.013465894 -0.02335332 -0.038716502 -0.045982532 0.051049206 0.09728187
-0.12076758 0.07982632 0.07678578 0.025054004 0.10475879 0.046283476 -0.012394203 0.013091087
-0.048888814 -1.0895543e-05 -0.059780236 -0.08795494 0.08965627 0.021699756 -0.14959502 0.087705314
00000000: 5c86 053e 58c4 afbd 1d26 b6bd 8183 eebc
00000010: 5e4e 0c3d e6f0 8cbc 6fde 873d bc9c 9abd
00000020: 3680 84bd adeb 4e3d 825a 6fbd b351 153e
00000030: afb5 acbd 5f74 88bb c56e 3fbd 34f0 8ebd
00000040: dd84 b43d b30a 143d 18f3 00bd 60c9 073d
00000050: 6297 603d 23f5 ac3d 8e73 90bd ae49 2a3d
00000060: 7a27 c3bd ab03 b53d cc62 dcbd f14f 76bd
00000070: 4f12 8e3d c2eb f53d caf7 b2bd c591 25bd
00000080: b1cc a13b 0e94 d5bd e0f5 0c3e 1f1e edbd
00000090: 0e3e aabd ef62 67bd 7ddd bbbc 56ad a73d
000000a0: ee64 f33d ceee 37bc 0ea0 5c3c 764f bfbc
000000b0: 3295 1ebd 2e58 3cbd f918 513d b83b c73d
000000c0: fe54 f7bd fb7b a33d dd41 9d3d 0e3e cd3c
000000d0: c78b d63d be93 3d3d 0e11 4bbc 007c 563c
000000e0: a33f 48bd 00cc 36b7 1fdc 74bd b821 b4bd
000000f0: b59d b73d b0c3 b13c 702f 19be d89e b33d

fc.6.weight f4 [32, 64]
0.08805791 -0.094995186 0.089695245 0.13555852 -0.07817008 -0.04488429 0.10046996 0.08326601
0.036190324 0.025569754 0.0029490446 0.13595538 0.060244326 -0.083234966 -0.017751891 -0.043870617
0.04914204 -0.098838046 -0.07520418 0.03167333 -0.0029048268 0.09770276 -0.13650164 -0.1405536
-0.07327233 -0.069948 -0.016044503 -0.063698895 -0.09467266 -0.010110237 0.05458079 -0.0018743984
0.009942021 -0.055110365 0.039672352 -0.012788195 0.09853759 0.037402783 0.051558472 0.042920962
0.10095358 -0.031702973 0.10061241 -0.10275576 -0.08030513 0.044657256 -0.055125397 0.069528304
-0.0766244 0.08630603 -0.1303766 -0.11950698 -0.10966543 -0.13085769 -0.007407193 0.053190585
-0.07935674 0.023093907 0.07371248 0.018022824 -0.033472534 0.119094335 0.09295314 0.03957189
-0.17016466 0.160181 -0.14524266 0.088462256 0.093314484 -0.14433849 0.09407526 -0.009365624
-0.03834617 0.016687438 0.5542412 -0.0076472983 -0.035301916 -0.03131654 -0.1477181 -0.17318137
0.06965163 -0.09344001 0.112664565 -0.08107612 -0.31409392 0.052585665 0.056026064 -0.2130504
0.14226583 0.07504665 0.18450111 -0.05528396 -0.097367354 0.09852817 0.00065487763 0.09773887
0.1217415 0.03712128 -0.6270111 0.20728832 0.09347641 0.00883879 -0.052801937 -0.113891214
-0.026625497 0.120347604 0.2368764 0.31983027 -0.10881678 0.1012785 -0.10198349 -0.06408712
0.18030141 -0.037003737 -0.11353781 0.043512836 -0.083276 -0.084571205 -0.10286296 -0.24949272
0.056635737 -0.07105387 -0.08316062 0.027807914 0.11502211 -0.1113605 -0.12481367 -0.051716022
-0.1670478 -0.61005163 0.16171293 -0.037207246 -0.045495942 -0.00947416 -0.046092227 -5.6451187e-05
-0.09937649 0.0054262048 -0.5636863 0.15257189 0.009748094 0.21534804 -0.12722187 0.44958764
-0.54927844 0.016668452 0.010875195 -0.12781319 -0.3534439 -0.043472107 -0.05858241 0.29445675
0.011772197 0.07253245 0.03293699 0.11800603 0.084612794 -0.10983367 0.09642622 0.2581541
-0.080579 0.11833587 0.19380933 -0.24162643 0.12481721 -0.06858748 0.004796195 -0.068842396
0.38071284 0.008804161 0.122989155 0.08334527 0.14436132 0.07010491 0.06375278 0.10999521
-0.08761473 -0.13938934 0.2587634 -0.042545054 0.16480298 0.17278467 -0.123295024 0.31730545
-0.2317197 -0.13767928 0.014607426 0.068974644 -0.20131686 0.13606197 -0.018510614 0.073284715
0.054016136 -0.15580505 0.10859194 0.10296687 0.114374086 0.11350983 -0.02006923 -0.035169892
-0.021178668 -0.12835576 -0.29378134 0.060842823 0.10644617 0.20337251 -0.12675469 -0.3689469
0.0521774 -0.005503689 0.049337335 0.04054587 0.27611816 0.10756482 -0.06891845 0.1717652
0.011630907 0.07487013 -0.051650453 -0.10659742 0.105917454 0.03396146 -0.1358279 0.04236907
0.04778165 0.014595421 0.36543423 -0.02353332 -0.13385642 -0.1400705 0.07714592 0.094625294
0.0612606 -0.069231965 -0.14354981 -0.08966346 -0.02189907 -0.12155085 0.009382362 -0.026116023
-0.11572592 0.06854682 -0.07462675 0.10136664 0.16220242 0.05541528 -0.05421458 -0.012082254
0.06692419 0.047399953 -0.046491705 0.08561816 0.01951518 0.12925027 0.075433396 0.06657114
00000000: b557 b43d d68c c2bd 24b2 b73d dacf 0a3e
00000010: a317 a0bd 97d8 37bd 32c3 cd3d 5f87 aa3d
00000020: 4e3c 143d a977 d13c c244 413b e337 0b3e
00000030: c1c2 763d 1877 aabd 6a6c 91bc adb1 33bd
00000040: 2a49 493d 9a6b cabd a604 9abd e5bb 013d
00000050: e85e 3ebb 6218 c83d 16c7 0bbe 48ed 0fbe
00000060: ce0f 96bd e640 8fbd c36f 83bc 9174 82bd
00000070: bde3 c1bd 68a5 25bc 1b90 5f3d 60ae f5ba
00000080: dce3 223c 68bb 61bd 7a7f 223d 9485 51bc
00000090: 13ce c93d a933 193d fa2e 533d e4cd 2f3d
000000a0: c0c0 ce3d fada 01bd e10d ce3d 9d71 d2bd
000000b0: 0477 a4bd 87ea 363d 2bcb 61bd db64 8e3d
000000c0: 41ed 9cbd 37c1 b03d 7281 05be 13c0 f4bd
000000d0: 4598 e0bd 8fff 05be 0ab8 f2bb 5fde 593d
000000e0: c985 a2bd 6f2f bd3c 92f6 963d 9aa4 933c
000000f0: 7f1a 09bd bbe7 f33d 375e be3d 2216 223d
00000100: a53f 2ebe 7d06 243e 7eba 14be b32b b53d
00000110: aa1b bf3d 78cd 13be 88aa c03d 4672 19bc
00000120: e010 1dbd 18b4 883c c0e2 0d3f 3096 fabb
00000130: be98 10bd c645 00bd 6a43 17be 7556 31be
00000140: 84a5 8e3d 7a5d bfbd aebc e63d 3d0b a6bd
00000150: ebd0 a0be 1164 573d 967b 653d e229 5abe
00000160: 22ae 113e 0fb2 993d dced 3c3e 6f71 62bd
00000170: 8968 c7bd 23c9 c93d 18ac 2b3a 512b c83d
00000180: 9c53 f93d 7c0c 183d cd83 20bf 6443 543e
00000190: 8f70 bf3d 92d0 103c d846 58bd cc3f e9bd
000001a0: b71d dabc ce78 f63d ba8f 723e cbc0 a33e
000001b0: 55db debd 1a6b cf3d b8dc d0bd 1c40 83bd
000001c0: efa0 383e 3b91 17bd 8386 e8bd 843a 323d
000001d0: 9c8c aabd ab33 adbd d1a9 d2bd 057b 7fbe
000001e0: e0fa 673d b184 91bd 1d50 aabd 6ccd e33c
000001f0: b690 eb3d f910 e4bd 4f9e ffbd 2ed4 53bd
00000200: 940e 2bbe 582c 1cbf 1398 253e a066 18bd
00000210: f459 3abd 8239 1bbc 34cb 3cbd 00c6 6cb8
00000220: e785 cbbd 4ece b13b bf4d 10bf ce3b 1c3e
00000230: 78b6 1f3c 3284 5c3e 7346 02be 5a30 e63e
00000240: 839d 0cbf 478c 883c e02d 323c 76e1 02be
00000250: 99f6 b4be cf0f 32bd 1cf4 6fbd 09c3 963e
00000260: 2ce0 403c e58b 943d f0e8 063d 25ad f13d
00000270: 7949 ad3d 7af0 e0bd 1c7b c53d c62c 843e
00000280: 9a06 a5bd 145a f23d f475 463e eb6c 77be
00000290: 2aa0 ff3d 9877 8cbd 6629 9d3b 3efd 8cbd
000002a0: cbec c23e 543f 103c bde1 fb3d edb0 aa3d
000002b0: 74d3 133e 2a93 8f3d d190 823d 2b45 e13d
000002c0: 5a6f b3bd 14bc 0ebe a37c 843e b943 2ebd
000002d0: 1dc2 283e 77ee 303e 1a82 fcbd dc75 a23e
000002e0: ee47 6dbe ccfb 0cbe fc53 6f3c 9442 8d3d
000002f0: 0226 4ebe d453 0b3e 92a3 97bc 4c16 963d
00000300: 0640 5d3d 5c8b 1fbe 7365 de3d 4be0 d23d
00000310: f63c ea3d d777 e83d 3a68 a4bc 4e0e 10bd
00000320: e37e adbc b16f 03be 826a 96be 5336 793d
00000330: 7300 da3d e240 503e fbcb 01be 9ce6 bcbe
00000340: f8b7 553d 4a58 b4bb f215 4a3d 6d13 263d
00000350: 5c5f 8d3e f24a dc3d 1e25 8dbd 37e3 2f3e
00000360: 8f8f 3e3c 8355 993d 6d8f 53bd c04f dabd
00000370: 40eb d83d 2c1b 0b3d 7816 0bbe 318b 2d3d
00000380: b1b6 433d a221 6f3c 321a bb3e f3c8 c0bc
00000390: a811 09be a46e 0fbe aefe 9d3d e8ca c13d
000003a0: 65ec 7a3d 7dc9 8dbd b9fe 12be 7aa1 b7bd
000003b0: ae65 b3bc a7ef f8bd 7ab8 193c 45f1 d5bc
000003c0: b601 edbd 4662 8c3d e9d5 98bd 5099 cf3d
000003d0: 6418 263e 22fb 623d 1c10 5ebd a5f4 45bc
000003e0: 8d0f 893d 7426 423d 166e 3ebd 9358 af3d
000003f0: 4cde 9f3c 2f5a 043e d37c 9a3d 7356 883d

fc.6.bias f4 [32]
-0.0035238843 -0.12460332 -0.058558963 0.16050588 -0.022183068 -0.064508304 0.14958763 -0.08317288
-0.0062656375 0.07091965 -0.03767898 -0.14193112 0.0202914 -0.110312305 -0.0040169717 -0.050704356
0.07161066 0.14251307 -0.028248953 -0.10802957 0.024991583 0.06739908 0.1710307 -0.06763524
-0.0813156 -0.09541649 -0.09506264 0.16173154 -0.0011888556 0.10495238 -0.03837212 -0.036525335
00000000: f8f0 66bb 0730 ffbd 86db 6fbd a75b 243e
00000010: 44b9 b5bc ee1c 84bd 802d 193e 8b56 aabd
00000020: fa4f cdbb 523e 913d 4655 1abd 6456 11be
00000030: 263a a63c 6beb e1bd cda0 83bb 5faf 4fbd
00000040: 9ca8 923d f2ee 113e 596a e7bc 9b3e ddbd
00000050: 26bb cc3c 8708 8a3d ac22 2f3e 5884 8abd
00000060: cb88 a6bd b969 c3bd 34b0 c2bd f49c 253e
00000070: 60d3 9bba 46f1 d63d 162c 1dbd 979b 15bd

fc.8.weight f4 [2, 32]
0.15482645 0.18614204 -0.07403927 -0.0823866 0.062319078 0.006725465 -0.19992276 -0.12485322
-0.25730145 -0.09381984 0.13755648 -0.0074209278 0.01982882 -0.07290026 -0.08570838 -0.0864938
0.07649601 -0.18228194 0.038820907 -0.1588077 -0.39486384 -0.1919047 -0.17295672 -0.11191262
-0.052657783 -0.082267694 -0.023661781 -0.15542875 -0.61156106 -0.2596853 -0.41824237 -0.46842918
-0.12778437 0.02635381 0.17448004 0.13336961 0.15420642 0.26322454 0.015916683 0.07846877
0.25946257 0.10057763 -0.037107665 -0.1141738 -0.16356848 0.014772757 -0.21469265 0.14196147
0.013948543 0.10936666 0.19056067 0.15334153 0.41973138 0.10170473 0.25254408 -0.023802008
-0.24441184 0.25665075 -0.18816838 0.121472344 0.5850423 0.26472872 0.4765969 0.5499587
00000000: d38a 1e3e 059c 3e3e e7a1 97bd 4eba a8bd
00000010: 4a42 7f3d 4a61 dc3b 8db8 4cbe 0cb3 ffbd
00000020: 04bd 83be 9e24 c0bd 9bdb 0c3e 412b f3bb
00000030: 0d70 a23c bb4c 95bd e087 afbd a923 b1bd
00000040: f1a9 9c3d 1ea8 3abe ac02 1f3d 7c9e 22be
00000050: 982b cabe aa82 44be 911b 31be 7232 e5bd
00000060: b0af 57bd f77b a8bd 5ad6 c1bc b728 1fbe
00000070: 448f 1cbf 79f5 84be dd23 d6be f3d5 efbe
00000080: e8d9 02be f2e3 d73c e5aa 323e 0b92 083e
00000090: 4ae8 1d3e 5ec5 863e b463 823c 3cb4 a03d
000000a0: 47d8 843e a5fb cd3d 35fe 17bd f4d3 e9bd
000000b0: 7f7e 27be 6f09 723c 64d8 5bbe 595e 113e
000000c0: 6e88 643c a1fb df3d 5622 433e 9005 1d3e
000000d0: 08e7 d63e 924a d03d 754d 813e 6efc c2bc
000000e0: 1947 7abe ba67 833e 36af 40be 7ec6 f83d
000000f0: 55c5 153f 868a 873e 8204 f43e 18ca 0c3f

fc.8.bias f4 [2]
0.06029463 0.0855917
00000000: 80f7 763d b44a af3d
