Genetic_Models/dino_genetic_model73.pth (torch, 48732 bytes, 8 tensors)

fc.0.weight f4 [128, 6]
000000 07 5b 1c 3d 52 d8 59 3e 88 2e 9b be 4e 6c 89 3e
       0.038172748 0.21273926 -0.30308938 0.26840442
000010 02 99 f6 bf 03 6d a9 bf 00 1c 81 be d6 8a 89 3d
       -1.9265444 -1.3236393 -0.25216675 0.06715934
000020 32 ab 54 3e 71 81 79 be c6 81 99 3e cd d6 3f 3e
       0.20768431 -0.24365784 0.29981822 0.18734284
000030 6b 9f d6 bc ff 63 65 be 31 5f a0 be ed eb 5a 3e
       -0.026199063 -0.22401427 -0.31322625 0.21379061
000040 c0 0d 32 c0 8e 06 34 c0 26 cc 6a bb 67 30 bc 3d
       -2.7820892 -2.8129 -0.0035827248 0.091889195
000050 fb e5 50 be bf 68 39 3e 9f 5b ed 3f f2 16 0f 40
       -0.2040023 0.18106364 1.8543586 2.2357755
000060 dd 78 b0 be 00 f7 57 be 29 77 4e bd 38 ba 22 be
       -0.3446721 -0.21090317 -0.05040661 -0.1589135
000070 ba 8a b3 3e 66 be 3a be 99 ba 93 3e f4 24 3b be
       0.35066777 -0.18236694 0.288533 -0.18275815
000080 4e 87 a7 bd 70 3f 55 3e 3b 85 f7 bf cc f9 03 c0
       -0.08180104 0.2082498 -1.9337534 -2.0621214
000090 33 d2 df 3e c2 80 af bc 37 e7 0f 3e 78 b0 b8 bd
       0.43715057 -0.021423701 0.14053045 -0.09018034
0000a0 36 f3 2f c0 db 2d 3d c0 40 99 d0 3d a9 fa ac 3e
       -2.7492194 -2.9559238 0.1018548 0.3378499
0000b0 8d 96 52 be 3b 8b 5e be df 5e 3e bf 64 6f 03 c0
       -0.20565243 -0.217328 -0.7436351 -2.0536737
0000c0 cb ee e9 bd 06 e3 b2 be 59 b4 93 bd 38 61 a3 3d
       -0.11422499 -0.3493883 -0.07212133 0.079775274
0000d0 2e 99 6c be 51 53 f4 bd 1c e8 1c be eb 93 26 3e
       -0.23105308 -0.11929954 -0.15322918 0.16267364
0000e0 db bc 89 3c ca 2b ac be 8d 0e c0 3c e1 0c 9c 3d
       0.016813686 -0.33627158 0.023444438 0.07619644
0000f0 dd c6 4e 3e ea 5b 79 be 3e 24 75 3e f0 85 9d be
       0.20193048 -0.24351469 0.23939607 -0.3076625
000100 7a bb 08 3e 66 bd b5 bd 42 d1 de bd 33 6e 82 3e
       0.13352767 -0.088740155 -0.108797565 0.254747
000110 20 5c 32 be ee 5d 2e 3e ef c8 e7 3f f2 9d 55 bf
       -0.17417955 0.17028019 1.8108195 -0.8344413
000120 c2 64 03 3e 12 24 9a be fc 18 83 3e eb 86 31 be
       0.12831405 -0.30105644 0.25605 -0.17336623
000130 05 2d d0 3d eb 15 c5 3e dd 58 08 be dc 01 ca 3b
       0.10164837 0.38493285 -0.13315149 0.0061647724
000140 e3 6d 48 3e a8 05 41 be b3 9b a3 bd ae db ce 3d
       0.19573168 -0.18849814 -0.07988682 0.10100494
000150 24 cb 88 3e bb 59 d0 3d 82 99 fb bd d7 7e ba be
       0.26717484 0.10173365 -0.12285139 -0.36424896
000160 48 68 68 c0 bd ac 66 c0 fe 2c 8d bb ef e6 43 3e
       -3.6313648 -3.604293 -0.004308342 0.19131063
000170 25 17 7b bd cb f4 c6 be 81 6c c5 3d 7b dc 8f be
       -0.06130137 -0.38858637 0.09639836 -0.280979
000180 34 b3 41 3c 4f 70 6e be ff 7b c8 3d d4 b4 5c 3e
       0.0118225105 -0.2328503 0.097892754 0.21553355
000190 e3 5d 09 40 52 9b ec be 4a 70 d4 3e 3f 7e ac be
       2.1463554 -0.4621225 0.4149192 -0.33690068
0001a0 78 08 0c bb 9b bc bb bd 38 36 f4 3f 86 04 4e 3f
       -0.0021367352 -0.09166833 1.9079046 0.8047565
0001b0 e2 fc cf bc c5 ff 22 be 2b c8 18 be df c4 68 3e
       -0.025389139 -0.15917881 -0.14920108 0.2273135
0001c0 1a fa 0d 40 1a e1 6c 3f cc 4a e1 bd b7 76 a6 3e
       2.21839 0.9253098 -0.110005945 0.32512447
0001d0 e0 6b 9a 3d f4 1e 06 be ac 3e 17 c0 04 80 29 c0
       0.07540107 -0.13097745 -2.3632002 -2.6484385
0001e0 06 2c e1 3e f7 20 9a 3e 76 ac 1f 3d ee 1f 9a 3e
       0.439789 0.30103275 0.03898283 0.30102485
0001f0 55 1f 67 bf db 0f c1 3f ed c1 09 be 1b 52 da be
       -0.90282184 1.5082964 -0.13452883 -0.42640767
000200 68 f4 88 3e 73 3d a5 3d 5a f8 8a 3e ff 34 5e be
       0.26748967 0.08068361 0.27142602 -0.21699904
000210 a5 4d c0 3e 25 96 2f be d4 ae 02 3f 2e a5 c4 be
       0.37559238 -0.1714712 0.51048017 -0.38407272
000220 f4 da ad 3f 85 4f ad 3f c0 f1 28 3e e4 9c 13 3e
       1.3582444 1.3539892 0.1649847 0.14415318
000230 6d ae c9 3e 32 4d 31 be c6 10 1c c0 96 4c 29 c0
       0.3939089 -0.17314604 -2.4385238 -2.6452994
000240 a6 60 86 3e 01 a5 88 3d 71 57 ba bd b1 a5 83 3e
       0.26245612 0.06672097 -0.090987094 0.2571235
000250 69 58 e2 bf ba 3e 23 bd 9e 6e 94 be d5 0d 83 3e
       -1.7683231 -0.039854743 -0.28990644 0.2559649
000260 bc 22 c3 be 1b 3c c2 3d 63 ea cf 3f e4 c6 f3 3f
       -0.38112438 0.094841205 1.6243404 1.9045072
000270 1c df 3b 3e cf 03 f1 bd 1a eb 47 be c7 95 f4 3d
       0.18346828 -0.117683046 -0.19523278 0.1194263
000280 8f 9b 30 c0 40 69 15 c0 55 be 7f 3d 02 db da 3e
       -2.7594945 -2.334549 0.062437374 0.42745215
000290 67 ec 22 be c3 1b e0 be 31 5e 10 bf cc 5e c1 3f
       -0.15910493 -0.4377118 -0.56393725 1.5107055
0002a0 5a 56 bf bd e5 c4 8a 3e 46 f9 b0 bd d8 73 22 bc
       -0.09342642 0.27103344 -0.08641295 -0.009915315
0002b0 bb b3 08 40 14 dc ae 3f eb b8 9f be 99 e5 2e be
       2.1359699 1.3660913 -0.3119577 -0.17079772
0002c0 19 17 5f 3e ff 03 82 3d 11 66 b0 3d f7 c2 f1 bd
       0.21786155 0.063484184 0.086132176 -0.11804765
0002d0 23 d2 90 be 5e a5 08 bd 2f a6 b3 3e 53 48 a7 be
       -0.28285322 -0.03336083 0.35087726 -0.32672366
0002e0 ab f0 97 3e d0 35 bf 3d a1 2d c5 bd c1 12 a1 3d
       0.29675803 0.09336436 -0.09627844 0.07864905
0002f0 5c 8a ed 3d 32 ac 57 3d 11 c8 db 3f fc 9b fd bf
       0.115986556 0.052654453 1.717043 -1.9813228
000300 cd 3c 98 bd 91 29 51 3e 81 6c 93 3e e2 8e 10 be
       -0.07433472 0.20426013 0.2879372 -0.14117005
000310 94 db 27 40 a0 62 a8 3e 73 62 15 be 12 d0 8e 3e
       2.622777 0.32887745 -0.14588337 0.2789312
000320 8c 92 74 be ed 5b 26 3e bd c4 40 be 47 7d 19 c0
       -0.23884028 0.16246004 -0.1882505 -2.3982713
000330 bf 8c 1b be f2 1e 4c be 81 47 bc bd 5b ad 05 3e
       -0.15190409 -0.1993368 -0.09193326 0.13054411
000340 32 cf 08 c0 2b 12 25 40 d3 8b 88 be b5 d8 7f be
       -2.1376462 2.579234 -0.26669177 -0.24985011
000350 2d 3d 8f 3e d1 43 e3 3e 26 2e f9 3f 85 45 c7 bf
       0.2797636 0.44387677 1.9467208 -1.5568091
000360 09 fd 43 bf 3c 77 52 be 45 55 a6 3d ea f9 4f 3e
       -0.76557976 -0.20553297 0.081217326 0.20310178
000370 95 41 70 c0 76 99 fc bf f0 25 10 3e 5d e7 d1 3d
       -3.7540028 -1.9734333 0.14076972 0.10249207
000380 0e 91 bf be ad 70 72 3e e4 67 84 3f 89 9b d9 3f
       -0.37415355 0.23675795 1.0344205 1.700059
000390 0f ac ed 3e 0d 95 9b 3d 06 61 6b bf b7 0f d3 be
       0.46420333 0.075967886 -0.9194492 -0.41222927
0003a0 20 99 8a 3f 7e 5e e6 3f cc 60 e8 3c 67 37 6c be
       1.082798 1.7997587 0.028366469 -0.2306801
0003b0 44 de 9f be 18 47 ec 3d 42 04 ba 3f 83 e1 f9 bf
       -0.31224263 0.115369976 1.4532549 -1.9521946
0003c0 70 2e 8c 3e 78 76 a2 3d 22 c2 69 bd ea f3 95 3d
       0.2737918 0.07932752 -0.057069905 0.073219135
0003d0 50 44 e7 3e 9d 22 18 c0 26 96 8f be 15 6f ec 3d
       0.45169306 -2.3771126 -0.28044242 0.11544625
0003e0 06 0a 11 be f6 ae a3 3d 72 90 20 c0 ec c7 d2 bf
       -0.1416398 0.079923555 -2.5088162 -1.6467261
0003f0 5d 6c 87 3e e6 af d3 3d 74 52 c6 be e6 c3 23 3e
       0.26449862 0.10336284 -0.38734782 0.15992698

fc.0.bias f4 [128]
000000 af 36 42 3e 5b 64 2b be b1 10 83 3e c7 e0 db 3d
       0.18966173 -0.16737501 0.25598672 0.10736232
000010 91 15 ba 3e de cf 0a 3e 3f df 21 bf 2f 05 2b bf
       0.3634458 0.13555858 -0.6323127 -0.66804785
000020 35 7a a7 be bc 4b 56 3e 54 3b 99 3d a3 a3 e1 be
       -0.32710424 0.20927328 0.07482019 -0.44070157
000030 a2 ef b6 bd 0a 65 76 3e 7c d5 07 3f 73 02 9d 3e
       -0.08932425 0.24061981 0.53060126 0.3066593
000040 21 6c d7 be 8d 56 7c be 12 f7 0e 3d 10 8d 91 bd
       -0.42074683 -0.24642392 0.034903593 -0.07106984
000050 af d7 02 bd 9b f1 22 be e3 dc d4 bc de c6 4f be
       -0.031943973 -0.15912478 -0.025984233 -0.20290706
000060 8d 39 28 3e 28 ba bd be 24 d4 4a 3d 48 d3 88 bd
       0.16428204 -0.37056088 0.04951872 -0.06680924
000070 76 0a a5 3c c8 ae 61 bd 35 5f a0 bd 7a f6 a3 be
       0.02014659 -0.055098325 -0.07830659 -0.32023984
000080 bc 0f d3 3d 9a 20 d7 be 69 c9 69 3e 22 1d 98 bc
       0.103057355 -0.4201706 0.22830738 -0.01856858
000090 e4 4d 2c 3f a6 c2 be be c4 a5 15 bf 28 b1 c0 be
       0.6730635 -0.3725788 -0.58456063 -0.3763516
0000a0 85 24 0e bf 8c 6a 33 3d 88 5e e8 3d 84 f1 b1 3e
       -0.55524474 0.043802783 0.113461554 0.34754574
0000b0 0f d6 6c be c3 24 b7 bd 6f 39 22 3e 17 68 95 3e
       -0.23128532 -0.089425586 0.15842222 0.29180977
0000c0 07 71 5b be f2 66 01 be eb e8 b3 3d 4c fb 0e 3e
       -0.21429835 -0.12636927 0.0878466 0.1396305
0000d0 b3 2b 9e 3e 67 f6 4b be ab d4 ca bd ce 17 ae be
       0.30892715 -0.19918214 -0.099038444 -0.34002537
0000e0 b8 f1 6c be b8 6f 1a bf b1 06 d8 3d 87 4e 16 3e
       -0.23139083 -0.6032672 0.10548151 0.14678393
0000f0 c4 16 2a bd a6 b3 1a 3c 2c 8a 81 3d d0 ea 99 3e
       -0.041525617 0.009442246 0.06325182 0.3006196
000100 5e 34 d8 3d 01 6a d6 be 75 61 26 3e ca ae 92 be
       0.10556863 -0.4187775 0.16248114 -0.28648978
000110 5e c3 fb 3e 76 2c ac 3e 37 64 0f bf d4 36 a6 3e
       0.4917249 0.3362767 -0.5601229 0.32463706
000120 b5 41 0a bd ae bf fc bc eb 60 50 3e 1a 32 1b bf
       -0.03375407 -0.030853119 0.20349471 -0.60623324
000130 a7 ec d3 be 26 3f da be 37 54 c0 be 40 9e 9e 3e
       -0.4139149 -0.42626303 -0.3756425 0.3098011
000140 c4 b1 77 3e 41 94 c8 bd 3e df a9 be b7 96 88 be
       0.24188906 -0.09793902 -0.33178133 -0.26677486
000150 46 e2 ed bd bd 3b f8 3e 6a a9 6c be 51 40 16 bd
       -0.11615424 0.48483077 -0.23111501 -0.03668243
000160 b1 30 f9 be d5 0c 8e 3e 24 c9 ac 3e 84 54 8d be
       -0.4866996 0.27744165 0.33747208 -0.27603543
000170 90 6d bd 3d bc 51 26 3c d6 57 8a 3e 7c 42 0c bf
       0.09249413 0.010151323 0.27020139 -0.5478895
000180 af 82 e8 3b a3 9b b3 bd b9 fd 6c be ec a5 25 bf
       0.007095657 -0.0876992 -0.23143663 -0.647063
000190 12 42 11 3f 7b ca b9 3e 72 a4 30 bc e2 95 28 be
       0.5674144 0.36287293 -0.010781394 -0.16463426
0001a0 17 2e c8 3d a2 9a 0d 3d db c8 a9 be bd a9 25 bd
       0.09774416 0.034571297 -0.33161053 -0.04044508
0001b0 7c e8 26 3e 63 76 24 be f3 4d 48 3e 31 26 99 bd
       0.16299623 -0.16060786 0.19560985 -0.074779876
0001c0 f8 29 c6 bd dc a5 e6 bd 64 8c e4 3c e5 c8 2b 3e
       -0.09675974 -0.11262104 0.027898975 0.16775854
0001d0 ea 95 52 be f8 2a 95 be 12 6a 28 3e f7 5c 26 bd
       -0.20565 -0.29134345 0.16446713 -0.040616002
0001e0 e4 07 83 be e8 8a bf 3e 8b 1e b9 be 53 28 15 3e
       -0.25591958 0.37410665 -0.36156115 0.14566164
0001f0 14 42 32 3e 5f 0c 10 3f 29 8b c6 be 34 68 b4 3e
       0.1740802 0.56268877 -0.38778046 0.3523575

fc.2.weight f4 [64, 128]
000000 a0 0c 17 bc 8b 95 87 3d 56 f7 10 be 5a ca fb 3c
       -0.009219319 0.0662032 -0.14156851 0.030736137
000010 31 1c c1 bc 6b 87 f9 bd 40 7d 15 3e 9e 67 79 3d
       -0.023573013 -0.12184032 0.1459856 0.060889833
000020 5f 0f 03 3d 1f 86 c8 3d b8 9d af 3a fa 12 d1 3d
       0.03199708 0.097912066 0.0013398444 0.102086976
000030 c6 e1 d6 3d 72 43 95 bd 87 52 2d bf 41 a4 27 bd
       0.104922816 -0.07288255 -0.6770405 -0.04092813
000040 68 e6 eb 3d 7d 8c 98 be ec 7a b3 3d b8 29 0f 3b
       0.11518556 -0.29794684 0.0876368 0.0021844935
000050 27 7f 98 bd 8a b9 3a bd 12 ea 22 40 6a a1 0e be
       -0.074461274 -0.0455871 2.5455365 -0.13928762
000060 f2 46 8f bd a0 fa 54 b9 d8 f8 25 bd 83 90 3b be
       -0.069959536 -0.0002031126 -0.04052052 -0.18316846
000070 5f 17 38 3d 02 bf 07 bd b5 99 ca 3d 1f 87 0e 3e
       0.044944163 -0.033141144 0.098925985 0.13918732
000080 ae a5 af 3d d3 2c 18 3d 24 95 d5 be 8e 51 02 bd
       0.08576523 0.037152123 -0.41715348 -0.031816058
000090 54 5f 97 3e a9 9c c8 3b 82 03 2e 3d 9b c0 b9 bd
       0.29564917 0.006122191 0.042483814 -0.0906994
0000a0 91 9d c1 3d 66 a0 b2 bd 4b 27 5d bd 24 97 96 3b
       0.094538815 -0.08722 -0.05399255 0.004595654
0000b0 ca 0d 3f bd c7 5a 91 3c b3 2c 16 3d 7a 5f 8e bd
       -0.04664401 0.017743481 0.036663722 -0.069518045
0000c0 a5 04 a4 bf 7b 42 9b 3d 5e 1d 17 be b6 f7 45 bd
       -1.2813917 0.075810395 -0.14757296 -0.04833194
0000d0 4d cf 48 3c cf 33 2b bc 0c f6 c5 3d 3e 35 bd 3d
       0.012256456 -0.010449364 0.0966607 0.09238671
0000e0 94 3a b3 bc 27 a7 47 3d 44 3f 2b bd 04 13 9f 3d
       -0.021878518 0.048743393 -0.04180838 0.07767299
0000f0 7e 70 50 3d 58 87 53 bd 7b ee a6 bd 29 75 02 bd
       0.05088853 -0.051642746 -0.08150955 -0.031850014
000100 44 a9 33 3d e0 10 d2 3c 88 82 c3 3c ba 9c cc bc
       0.043862596 0.025642812 0.023865953 -0.024977077
000110 07 12 6e bd 6d b8 39 bc 51 05 6a 3e 1b b7 86 bd
       -0.05812266 -0.011335474 0.2285359 -0.06577893
000120 a6 38 f9 bb b3 64 6b bd e2 23 a9 be a2 44 1f 3d
       -0.00760563 -0.05746908 -0.3303519 0.038883813
000130 98 92 23 3c 1c 86 05 3e ab 25 1d 3d 2c f4 86 be
       0.009983681 0.1303944 0.038366 -0.26358163
000140 47 b5 3a bd 50 a5 46 3d cf 96 42 3e 72 c1 44 bd
       -0.045583036 0.048497498 0.19002841 -0.048036046
000150 7b 6b d1 bc 60 84 9b bd 56 c3 88 bd 50 82 01 3d
       -0.025563946 -0.07593608 -0.066778824 0.031618416
000160 4e f2 d2 3c 78 f1 e6 bc 44 22 82 3d be e4 f1 3c
       0.025750306 -0.028191313 0.06354192 0.029528018
000170 c7 e7 95 bd 1a 16 90 3e 0b 9d 1a 3d e8 49 84 3d
       -0.07319599 0.28141862 0.037747424 0.06459409
000180 3a cb 3b bc a1 73 32 be a9 24 4c bc c9 71 ca 3d
       -0.011462027 -0.17426921 -0.012459912 0.09884984
000190 67 5a a3 3e 02 4b 80 3c 74 1f b2 bc fc 9d 60 bd
       0.3190491 0.015660767 -0.021743514 -0.054838166
0001a0 e3 23 eb 3e bd b4 44 3d 00 43 cd b7 c7 59 89 be
       0.45925817 0.048023928 -2.4469104e-05 -0.26826307
0001b0 d4 d8 1a 3d 99 63 a2 3c fc 77 b4 3c c5 cb 8e 3e
       0.03780444 0.019822882 0.02202987 0.2788984
0001c0 e0 5c 80 3d 48 95 03 be 12 b8 c8 3c d4 4b c1 bc
       0.062677145 -0.12849915 0.024501834 -0.023595728
0001d0 a4 f9 7b 3b 9b 62 03 be 17 17 f1 3d 18 05 1e be
       0.0038448358 -0.12830584 0.11771982 -0.1543163
0001e0 b8 ad ac bc ca 5e 1f bd 40 78 ac b9 d9 41 0a 3e
       -0.02107893 -0.038908757 -0.0003289599 0.13501681
0001f0 ec 04 1a 3d 6b cb 62 3d c3 3a a1 3d 3d 6b 03 3d
       0.03760235 0.055369776 0.07872536 0.032084692
000200 80 2a cb 3d 10 24 a8 bc f0 53 15 bd 78 be 0c be
       0.099202156 -0.020525008 -0.036457002 -0.13744533
000210 6c a2 b4 bd bc 50 f4 3c 01 10 ec bd 9a e7 91 bc
       -0.08820042 0.029823653 -0.1152649 -0.017810632
000220 60 bc 66 3b 50 87 50 bc ee 73 d2 3d b8 84 fe bd
       0.0035207495 -0.0127275735 0.10276018 -0.12427658
000230 ec 2e 1c bc 60 07 4e bd a1 cd f9 3d 70 07 b7 3d
       -0.009532671 -0.050300002 0.12197424 0.089369655
000240 8e 14 6b bd 72 ae bc 3d 36 f2 fc bd 1c 28 32 3c
       -0.05739265 0.0921296 -0.123508856 0.010873821
000250 49 be 40 3d 08 9d 97 3d 76 76 86 bd da ee 37 bb
       0.04705647 0.07402998 -0.065655634 -0.002806595
000260 ab 65 70 bd 1a 5c a2 bd 78 9a ee ba 72 93 b1 bb
       -0.058690708 -0.07927723 -0.0018203994 -0.005419188
000270 98 f9 77 bd e0 74 a2 b9 9b 11 8a 3d b8 ed d8 3d
       -0.060540766 -0.00030986127 0.06741639 0.10592216
000280 60 69 f3 bd 8a 78 f4 bd cd 0f a0 bd c4 bb 9a bb
       -0.11885333 -0.119370535 -0.07815514 -0.0047220904
000290 76 46 80 3d d7 65 53 3d df e7 31 3d 94 ae 67 bc
       0.06263439 0.051610794 0.04343402 -0.014140744
0002a0 2d 4e e6 3c dc 15 f1 3b 5e 61 60 3c 9f 49 38 bd
       0.028113449 0.007357342 0.013695089 -0.044992086
0002b0 7c d4 fb bc 38 d9 05 bd 4d 7c 02 3e f5 3d 72 3d
       -0.030740969 -0.03267786 0.1274273 0.059141118
0002c0 28 07 30 3d 68 6b 98 bd 02 fb 7c bd 60 6c 5b bd
       0.042975575 -0.07442361 -0.061762817 -0.05357015
0002d0 62 45 58 bb ed 53 04 bd b1 a6 a9 bd aa 61 8c bd
       -0.003300034 -0.0323066 -0.08283747 -0.068545654
0002e0 8e 3c c5 3d 26 fe c3 bc 72 12 b5 bd 6c 60 10 3c
       0.096306905 -0.023924898 -0.08841409 0.008812051
0002f0 b8 91 8a 3d be 0e d0 3d 1a 53 84 3d 56 dc 56 3d
       0.06766075 0.10159062 0.06461163 0.052456222
000300 36 65 c6 3d e7 0f 82 bd c0 8c 5c 3b 9d 0b 16 bd
       0.09687273 -0.063506894 0.003365323 -0.03663217
000310 90 33 f4 bc a1 5b 59 bd 4b f6 13 bd b4 0a 83 3d
       -0.029809743 -0.0530659 -0.036123555 0.06398526
000320 b8 0a cf bc 40 9d 08 ba 82 d3 d4 3d 64 2d 50 3d
       -0.025273666 -0.00052114204 0.103919044 0.050824538
000330 f7 ed 1a 3c 13 96 9e bd 40 49 49 3c 72 34 9b bd
       0.009456149 -0.07743468 0.012285531 -0.075783625
000340 52 38 d3 3c 0f 30 2d bd 6e ce 4a 3d 56 f8 12 bd
       0.025783692 -0.04228216 0.049513273 -0.035881363
000350 d3 93 90 3c 1e 28 b2 3d 72 b7 88 3c 77 52 86 bd
       0.017648613 0.08699058 0.016689036 -0.06558698
000360 de cc 47 3d c7 5c 77 3d b6 60 86 bc 75 0d c2 bd
       0.04877936 0.060391214 -0.016403537 -0.09475223
000370 98 f5 69 bd 4c 57 48 3d c8 8a f6 3c 6c a4 b1 bc
       -0.057118982 0.048911378 0.030095473 -0.021684848
000380 01 62 b1 bd 1c 62 f1 bc d1 c0 b3 bd 63 09 c7 bd
       -0.08661271 -0.029465728 -0.08777011 -0.09718587
000390 a9 bf 1f 3d 06 86 06 3d 86 3f 6b 3d c8 91 35 bd
       0.03900114 0.03284266 0.057433628 -0.04432848
0003a0 c9 1b 80 bd 31 de 5f bd 57 45 8b bd bd 14 0a bd
       -0.062552996 -0.054655258 -0.06800335 -0.033711184
0003b0 40 fa 8e ba 0c 70 a5 3d c2 47 c2 bd af c2 4f bd
       -0.001090832 0.08078012 -0.09486343 -0.050722774
0003c0 5c a8 87 3d 21 50 33 bd 61 5d 0c bd f8 6a 35 3d
       0.06623909 -0.04377759 -0.03426874 0.044291466
0003d0 c0 d0 85 3d c3 74 db 3d 33 23 b5 bd 16 6a 86 3d
       0.065339565 0.1071563 -0.08844604 0.06563203
0003e0 33 7a 34 3d 54 9f bf bc 24 ea 1d 3d 07 4d 0e 3c
       0.04406185 -0.023391403 0.038553372 0.008685357
0003f0 d9 b2 c1 bb c4 87 ee 3d 2c 2d a3 bd 90 ab ed 3c
       -0.005911213 0.11646989 -0.079676 0.029012471

fc.2.bias f4 [64]
000000 5b 71 5d be 70 b2 85 bb 6d 10 3c bc 88 77 21 bc
       -0.21625273 -0.0040801093 -0.011478526 -0.009855159
000010 0b 1f 94 bc 7f 4e ee 3c cc 7a df bc d5 53 b0 be
       -0.018081209 0.029090164 -0.027280234 -0.3443896
000020 0f b7 5e 3d 85 f9 e5 bc c3 9b 54 3c 0f 7c ab 3d
       0.054373797 -0.028073082 0.01297659 0.08373272
000030 b6 ee a1 be 3d 98 92 3c 49 c4 d4 bd 64 3b 9f bc
       -0.31627434 0.017894858 -0.10389001 -0.0194375
000040 d7 e8 9f bd 75 9b 3d 3d 7b 33 7b bc 73 2a 92 bd
       -0.078080826 0.046290834 -0.015332098 -0.07137003
000050 29 8b 2a 3e 41 58 8f 3e 2b 0d 62 bd 34 28 41 3d
       0.16654648 0.2799702 -0.05518834 0.04715748
000060 76 f0 a4 3d 74 2e d7 bd 9c b2 ff bc ae 41 8f bc
       0.08053677 -0.10506907 -0.031213097 -0.017487373
000070 c0 ec c0 3d 5c 5a af 3d e5 a6 00 be 9d 2b c0 bd
       0.094201565 0.085621566 -0.12563665 -0.093833186
000080 c9 7d b8 3c bc 11 8c be be 95 9b 3c 57 5c 11 3c
       0.022520917 -0.2735728 0.018992301 0.008872113
000090 57 d6 f8 3c c4 10 36 be ac e7 f6 3c da b8 a0 3d
       0.030375643 -0.17779833 0.030139767 0.07847758
0000a0 2b 63 2e 3e 65 bd c9 bc 1c b6 dc 3c a6 2f ac bd
       0.17030017 -0.024626443 0.026942305 -0.08407526
0000b0 04 bc af 3c 52 d6 4f 3d bc 72 21 be 30 2b 36 be
       0.021451958 0.0507415 -0.15766424 -0.17789912
0000c0 8c 76 cf bc 4a 12 f7 3b 89 db a4 3d f0 7f 77 3c
       -0.025325082 0.007540022 0.080496855 0.015106186
0000d0 73 46 c2 3c 0f 91 af 3e 2a 02 8a 3d 52 40 67 3d
       0.023715233 0.34290358 0.06738694 0.056457825
0000e0 84 47 4a 3c ce b8 65 3d 99 d1 b2 be 1e e3 0a bc
       0.012346152 0.056084447 -0.34925535 -0.0084770005
0000f0 89 44 80 3c fc 9a 31 3e 74 3b 43 3d b7 75 13 be
       0.01565768 0.17344278 0.04766412 -0.14400373

fc.4.weight f4 [32, 64]
000000 04 d7 92 bb d2 8c 7f bd 92 23 a0 bd 66 94 f6 3d
       -0.0044811983 -0.062390156 -0.078192845 0.120400235
000010 3d a6 06 3c e3 0a 2a bd 40 f3 69 b9 b0 cd 73 bd
       0.008218345 -0.04151429 -0.00022311229 -0.05952233
000020 35 14 67 3d d6 cd a2 bd c7 84 bf 3e ac de 71 3b
       0.056415755 -0.07949416 0.3740599 0.0036906404
000030 07 b5 50 bd e2 e8 08 bd fe ee 1d bf 2c 7b 83 3d
       -0.05095389 -0.03342522 -0.616928 0.064199775
000040 cf 57 90 3c 15 b2 d2 bd e0 9d 43 bd 76 53 05 be
       0.017619995 -0.10287873 -0.047757983 -0.13020119
000050 a1 e9 4c bd 94 c1 6f 3c 8c 90 a7 3d 2d 63 b3 3d
       -0.050027493 0.014633555 0.08181867 0.08759151
000060 3b 0b 95 bc 7e 08 68 3c 22 c2 af bb 95 62 81 bd
       -0.018193832 0.014162181 -0.0053637186 -0.06317631
000070 2a 53 d0 bc 1a 84 25 3e b2 4b 8e bd e4 07 f7 39
       -0.02543028 0.16163674 -0.069480315 0.0004711739
000080 0a e4 22 bd 17 4a 2e bd c9 89 0e 3e 66 48 9d bc
       -0.039768256 -0.042551126 0.13919748 -0.019199561
000090 24 7f 97 bc 62 5a b9 3c 9d a9 fb bc b7 6f 1e 3e
       -0.018493243 0.022626106 -0.030720526 0.15472303
0000a0 d9 08 73 bd 40 79 f9 3d b6 c6 d0 3c 9c d5 37 bc
       -0.05933461 0.1218133 0.025485378 -0.011220362
0000b0 24 44 e9 bd a7 2a 0a 3d 49 f0 99 bd 15 5e ce bd
       -0.1138995 0.033732083 -0.07516534 -0.100765385
0000c0 c6 04 d0 bc 8a 54 a7 bd 02 7e 1c bd 42 ff 61 3d
       -0.025392901 -0.081704214 -0.038206108 0.055175073
0000d0 86 8d 01 be de a3 b1 bd f6 81 8d 3d 2d 83 d9 bd
       -0.12651643 -0.08673833 0.06909554 -0.10620723
0000e0 74 0b 85 3d 35 49 40 bc 16 35 47 be e2 49 db 3d
       0.06496325 -0.011736204 -0.19453844 0.107074514
0000f0 3a ea f7 bd ae bb 2e 3e d0 2c db 3d 6e 9c c7 bd
       -0.12105222 0.17063782 0.10701907 -0.097466335
000100 d5 fa 65 3d f9 25 bb bd 78 23 96 3d 28 a9 78 bd
       0.056147415 -0.09138102 0.07330984 -0.060708195
000110 6c df 4b 3d 65 09 af 3d b8 46 2c bd 53 e1 43 3d
       0.04977362 0.08546714 -0.04205963 0.047822308
000120 23 18 1b 3d 91 14 b1 3d 14 2f 36 3d a9 09 f6 bd
       0.037864815 0.08646501 0.04447849 -0.12013561
000130 9e 14 26 bd dd 8c 62 bd ef 95 19 bd 6d 98 bd bd
       -0.040547006 -0.05531012 -0.037496503 -0.092575885
000140 df 5e d8 3d 68 88 ae bc b3 71 f9 bd 6f 76 fc 3d
       0.1056497 -0.021305278 -0.121798895 0.12327277
000150 0f 7b 8c 3d e3 4f f4 bd a9 25 9f bd 24 a4 0c 3d
       0.06859409 -0.119293 -0.07770855 0.034336224
000160 72 fa 36 3b dc d9 88 3d c6 e6 d4 bd 8a 76 a3 bd
       0.0027920273 0.066821784 -0.10395579 -0.07981594
000170 8a 57 74 bd a5 51 bc 3d 9c d7 c1 bd e7 5b d2 bd
       -0.059653796 0.0919526 -0.09464952 -0.10271435
000180 97 b8 03 be 8e a3 a8 3d 09 3f 94 bd 24 5e 8b 3d
       -0.12863384 0.082343206 -0.072385855 0.06805065
000190 d2 f8 a4 bd c8 d6 25 bc 44 5e 17 3e 2f a2 80 3d
       -0.08055271 -0.010122009 0.14782053 0.06280934
0001a0 70 43 a2 bd 43 c2 7b 3d e1 4c c8 3d 9f a3 46 bd
       -0.07923019 0.06146456 0.097802885 -0.048495885
0001b0 47 eb b9 3c 1f 5b e5 3d dc ea bf 3c ce c2 29 bc
       0.022695197 0.111990206 0.02342742 -0.010361386
0001c0 a0 7b 60 bd af 06 b4 3c 63 92 67 bd b6 1f d8 3c
       -0.054805398 0.021975843 -0.05653609 0.026382308
0001d0 3a 1d fd bc 50 2c be bd 73 07 60 bd f0 7b 09 be
       -0.030897725 -0.09285796 -0.054694604 -0.13426185
0001e0 d2 16 0c 3e 1d 68 32 3c 88 4f 7c 3d eb 28 09 be
       0.1368058 0.01088908 0.061599284 -0.13394515
0001f0 98 94 8c 3d 68 d5 1c be e2 e9 c2 bb 39 49 ce 3d
       0.068642795 -0.15315783 -0.005948291 0.1007256
000200 ee f0 c3 bd 0d 31 ec bd da 13 47 3d 26 24 02 bd
       -0.09567438 -0.11532793 0.048602916 -0.031772755
000210 6c d6 61 bd 3f 22 e6 bc 03 69 0d 3d 48 6b 15 be
       -0.05513613 -0.028092502 0.034523975 -0.14591706
000220 ec d5 07 be d7 d5 83 3d 71 be 14 bc d6 75 55 3d
       -0.13265198 0.06437271 -0.009078608 0.05211433
000230 5e 80 60 bd 90 be f7 bc 94 f4 96 bd 6b 74 e6 bd
       -0.05480992 -0.030242234 -0.07370868 -0.11252674
000240 71 0a c5 bd 34 6c e7 bc 64 34 98 3d 85 b6 a0 bd
       -0.09621132 -0.028249837 0.07431868 -0.07847313
000250 8c 33 06 be a0 3f bb ba e5 c7 2b be 84 4d 00 bc
       -0.13105601 -0.001428593 -0.16775472 -0.007830981
000260 46 e2 cd 3d 0e a6 91 bd af 28 19 3d 9d 9e bd 3c
       0.10052924 -0.071117505 0.037392315 0.023146922
000270 54 17 ef 3d a1 dd 0e be ca b6 49 bd 5f a5 a8 bd
       0.11674371 -0.13951732 -0.049246587 -0.08234667
000280 06 d3 3f bd c6 5b a4 3c 46 db a7 3d 35 0f 15 be
       -0.046832107 0.020063292 0.0819612 -0.14556582
000290 34 38 d2 bd cc 22 05 be a8 b7 e8 3d 73 9e 0a bd
       -0.10264626 -0.13001555 0.11363155 -0.033842515
0002a0 c1 ab 4e 3c c7 ca bc bc ea 76 d1 3d be 43 d6 3c
       0.0126141915 -0.02304591 0.10227759 0.026155349
0002b0 f3 c0 a2 3d 60 8c e9 39 c6 44 13 bd 1f c0 e0 bd
       0.079469584 0.0004454581 -0.03595426 -0.10974144
0002c0 5e 53 34 bc 27 aa 22 bd 55 6c 19 be 47 b8 9d 3d
       -0.011006204 -0.03971305 -0.14982732 0.07701164
0002d0 04 a6 ca 3d aa ff b6 3d f1 6b 21 be 32 8f ab 3d
       0.09894946 0.08935483 -0.15763833 0.08376922
0002e0 26 34 b3 bd 3b 01 6b 3d fb 82 85 3d 00 73 d5 bd
       -0.08750181 0.05737422 0.06519123 -0.10422325
0002f0 ec 6d 53 bd 21 6e 1c bd 5d 7a e2 3d c2 fc a6 bd
       -0.0516185 -0.038190965 0.11058495 -0.081536785
000300 45 4c 26 be 13 23 7c bd 02 1e 2d 3c 8c 12 4c be
       -0.16240032 -0.061556887 0.010566236 -0.1992895
000310 b2 7a 5d bc a7 ee 32 3d e0 5b 02 be 92 3f 66 3e
       -0.013518022 0.043684628 -0.1273036 0.22485188
000320 f8 98 40 3c ad e4 08 be 24 d0 e2 bc 7e a0 b1 3d
       0.011755221 -0.13368483 -0.02768714 0.086731896
000330 bb 9d 02 3e 9d cf 53 3d 7a e4 82 3e b6 ff 4b 3d
       0.12755482 0.051711667 0.2556494 0.04980441
000340 20 02 09 3a 66 3e dc bc 97 28 ef bd 98 56 c8 3d
       0.0005226452 -0.026885223 -0.11677664 0.097821414
000350 3e 05 08 3b 75 9b 24 be 03 95 12 bd bf be d8 3c
       0.0020755078 -0.16074927 -0.03578664 0.026458142
000360 4f 53 15 bd 58 25 3f bd da a5 1a bd 81 51 b3 bc
       -0.036456402 -0.046666473 -0.037755825 -0.02188945
000370 de 1d f3 3d d4 9e 1a 3e c2 b9 52 3d 1d 4a a3 bc
       0.11870931 0.1509965 0.051446684 -0.0199328
000380 38 cd c1 bd f7 ef c5 3c cd 5b 01 3d d7 44 e8 bd
       -0.094629705 0.024162276 0.03158169 -0.11341255
000390 66 67 43 3d ec 65 31 be 08 92 28 bd 3e 9f 79 3d
       0.04770603 -0.17324036 -0.04115489 0.06094288
0003a0 54 06 dc 3d e6 e7 6f bd 49 8f 65 3c e3 27 e3 bd
       0.107433945 -0.058570765 0.014011213 -0.11091592
0003b0 b6 52 f2 3d c6 5d 4c 3d 75 bd 3a bd 55 11 fc bd
       0.11832182 0.049894117 -0.045590837 -0.12307993
0003c0 95 4a db 3b 14 cf e6 bd 43 3d d1 3d 14 28 7e 3c
       0.0066922405 -0.11269966 0.10216763 0.015512485
0003d0 b3 c4 bf 3d 6b af b7 3d b7 25 d1 bd 0d 3f 82 3d
       0.09363689 0.08969005 -0.10212272 0.06359682
0003e0 80 28 d2 3b 9d b2 dc bd 1f 71 4b 3e 5a 07 d8 3d
       0.0064135194 -0.10776255 0.19867371 0.10548277
0003f0 40 3c 59 3d 18 d1 7f 3e 74 ab 5f 3e 09 41 2c 3e
       0.053035975 0.24982107 0.21842748 0.16821684

fc.4.bias f4 [32]
000000 e3 0a d7 3c d8 e0 95 3c 1b b5 e1 bc fd e1 90 3d
       0.026250308 0.01829569 -0.027552178 0.07074354
000010 d0 d8 e3 bb a8 86 2e be 4f b0 2a 3e 0b 87 af bd
       -0.0069533363 -0.17043555 0.16668819 -0.08570679
000020 5a 5b a0 bd 76 db b5 3b d4 6e da 3d 86 56 f3 3d
       -0.07829924 0.0055498434 0.1066567 0.118817374
000030 b1 bf ac 3d ea d2 ce 3c 56 ef d8 bc a4 7d ba bd
       0.08435 0.025247056 -0.026481312 -0.09105995
000040 b2 40 f0 3d ae 51 c4 3c f4 5a 4e be d2 5e b4 bc
       0.1173109 0.02396473 -0.20151883 -0.02201787
000050 27 32 ee 3d 6e 0c 83 bd 3e d5 0e 3e 9b 47 b2 3e
       0.116306596 -0.06398855 0.13948533 0.34820256
000060 d4 61 4b bd ce 58 04 be 8f f1 1b be d3 ff ae bd
       -0.049653843 -0.12924501 -0.15228866 -0.08544888
000070 b3 31 06 be fe 04 87 bd 55 0e de 3d 56 9d 71 3e
       -0.13104896 -0.06592749 0.10842577 0.23595175

fc.6.weight f4 [3, 32]
000000 ef 44 3c be a4 3e 83 bd 81 9a 2a be 74 8b 51 3d
       -0.18385671 -0.06408432 -0.16660501 0.051158383
000010 0d 73 ce bd b2 b1 54 3d af 53 98 bd 49 29 f0 bd
       -0.10080538 0.051927276 -0.074378364 -0.117266245
000020 61 b4 d2 bd 7c 57 11 be 84 cb 10 3e 10 52 ef bd
       -0.10288311 -0.14193529 0.14140135 -0.11685574
000030 45 31 39 be db ab 5e bd 70 41 fe ba ae fd ff 3d
       -0.18085201 -0.054363113 -0.0019398164 0.124995574
000040 d6 8f 9c 3b 00 fc 4c bd 66 eb ff bd e3 19 00 be
       0.004777889 -0.050045013 -0.124960706 -0.12509875
000050 30 26 17 be 7b 75 10 3e 47 44 b9 bd 6e 43 98 be
       -0.14760661 0.14107315 -0.09046226 -0.29738945
000060 f3 6c 3f 3d 3e d6 cf bb 9e 09 92 3d 8f 1b c1 3d
       0.04673476 -0.0063426783 0.071307406 0.094290845
000070 97 b0 43 bd 9f 66 05 be 54 3f 7c bd 06 15 9d be
       -0.04777583 -0.13027428 -0.061583832 -0.30680102
000080 cf db 83 3d 30 63 e6 bd c9 22 05 3d ab 39 04 be
       0.064384095 -0.11249387 0.032503877 -0.12912624
000090 ad b1 6f 3d c9 be 16 3d 2f 14 47 3e db 4c 04 be
       0.058519054 0.03680304 0.19441293 -0.12919943
0000a0 04 47 ed bd 54 3a b8 bc 44 00 c7 3d f6 ee 77 3e
       -0.11585811 -0.02248875 0.097168475 0.2421225
0000b0 51 eb 40 3e 0c a0 0f 3e e3 70 39 3e 85 80 02 be
       0.18839766 0.14025897 0.18109469 -0.12744339
0000c0 f3 4b 53 3e 84 67 16 3d 56 28 11 be a8 3d 86 bd
       0.20634441 0.036719814 -0.14175543 -0.06554729
0000d0 1a 55 42 bc 93 36 cb 3b 38 31 d1 3d af 21 34 3e
       -0.01186111 0.006201574 0.10214466 0.17590974
0000e0 0e a3 07 c0 bf ca 01 bf 8c 66 92 be ab f4 19 3e
       -2.119327 -0.5069999 -0.28593862 0.1503474
0000f0 11 c4 1c be a0 be 38 3d f1 0f 0e 3e 97 f1 84 3d
       -0.15309168 0.04510367 0.13873269 0.06491392
000100 1b 9e b4 bc 38 1e 4d 3c 95 76 3f bd f2 50 6b 3e
       -0.022048047 0.012519412 -0.046743948 0.22980097
000110 54 4c 32 be 37 95 9b bd bc 7b 53 3e d8 1a 3c 3e
       -0.1741193 -0.0759682 0.2065267 0.18369615
000120 dc be d3 3d 9c b7 69 3e 5a a5 f1 3c 45 7f 16 3e
       0.10339138 0.22823948 0.029497791 0.14696987
000130 46 36 06 be d1 29 22 be b7 f3 c5 bd ae b6 a3 bd
       -0.13106641 -0.15836264 -0.096656255 -0.07993828
000140 69 49 ee 3d b1 66 2a 3e 9c 2a f8 3d a5 8d 08 3d
       0.116350956 0.16640736 0.12117502 0.033338208
000150 88 b8 55 bd 4c df ec bc 86 a1 a9 3c 89 72 88 bd
       -0.052177936 -0.02891507 0.020706903 -0.06662471
000160 01 dd 92 3e 9b 36 f9 bd d7 91 19 3e 58 94 1c be
       0.28684238 -0.12168618 0.1499704 -0.15290964
000170 2f 47 05 be 50 f7 9e 3d 67 aa 16 bd b6 5d 3e 3e
       -0.13015436 0.07762015 -0.036783602 0.18590435

fc.6.bias f4 [3]
000000 dc 1e dd bd fc 20 8d 3e 2f 91 c9 3d
       -0.107969016 0.27564228 0.09842145
