Genetic_Models/dino_genetic_model57.pth (torch, 48732 bytes, 8 tensors)

fc.0.weight f4 [128, 6]
00000000: 075b 1c3d bcdd 6a3e 882e 9bbe 797e 893e
00000010: 0299 f6bf ab14 a8bf c19f 75be 8376 943d
00000020: 8bc5 463e 9851 5abe 82a1 9f3e a7dc 383e
00000030: 608f e1bc 928b 76be 8102 a0be 627c 623e
00000040: c4fb 31c0 74e1 33c0 45b2 043c 6730 bc3d
00000050: af17 59be 0f5c 2c3e bdb3 f03f e4ba 0e40
00000060: cc0e b5be 77fb 4cbe 2977 4ebd a030 2dbe
00000070: 4b59 b33e a3ab 43be 99ba 933e bf24 32be
00000080: 58f6 dfbd df2a 563e 6a8d f6bf dc2e 04c0
00000090: 33d2 df3e 5006 8cbc 1def 043e 78b0 b8bd
000000a0: 0528 30c0 77d3 3cc0 93d5 9a3d 1592 a43e
000000b0: f6d7 6dbe d3d9 74be 3a21 3fbf 580a 04c0
000000c0: 5ec8 c9bd ff66 9fbe b3ff a5bd 5f8f b53d
000000d0: 6806 63be 06c4 bfbd 1ce8 1cbe f2be 433e
000000e0: e0ef b23c a095 a3be 8d0e c03c b085 963d
000000f0: ddc6 4e3e 8526 65be 267c 743e e007 9dbe
00000100: a7d9 e03d c6bb e4bd 42d1 debd 8e2e 883e
00000110: 2c63 33be 7155 283e 0457 e83f 8e25 4fbf
00000120: 5c29 323e b71f 8abe 6a42 843e eb86 31be
00000130: 052d d03d eb15 c53e 56cf 03be 2e2d aa3c
00000140: 3aba 513e 7a54 47be efec 94bd 27ff bf3d
00000150: 519b a93e 1635 d13d 2fe3 fabd 79d9 bfbe
00000160: 5537 68c0 0513 66c0 fe2c 8dbb 3fbc 473e
00000170: afd6 79bd a5ba cbbe 3801 ec3d 24bb 98be
00000180: 2488 70bb 9eb8 6fbe f895 b43d f89f 513e
00000190: 4b2d 0940 5d8f f4be 689d cc3e 1ade afbe
000001a0: 110a 1abd 66ad e5bd 22c9 f43f e88c 4b3f
000001b0: e2fc cfbc a0c0 0bbe 2bc8 18be 5909 6b3e
000001c0: 42be 0e40 6076 6f3f 132e fbbd 7021 a63e
000001d0: 423a 613d 35f7 ebbd 1726 18c0 1e6d 29c0
000001e0: 7465 e23e cb2f 9b3e 08c0 fe3c 32cd a23e
000001f0: bb4c 66bf db0f c13f 71fe 02be 8641 cbbe
00000200: 672e 873e 956c 7f3d f77e 893e 5f05 5cbe
00000210: 99a0 be3e b29c 43be 5a8b 033f e1b5 c6be
00000220: f4da ad3f 232e ab3f 08bc 263e d0b3 0e3e
00000230: 1e76 c93e 43b1 3abe 8af5 1cc0 a018 2ac0
00000240: 0edc 913e 824e 813d e6ed f1bd f5a4 763e
00000250: bf8e e0bf 5352 5dbd 9e6e 94be d50d 833e
00000260: bc22 c3be 8eeb 1d3e 63ea cf3f fcf6 f33f
00000270: 9030 373e 8af6 06be c599 2bbe c795 f43d
00000280: f6bf 31c0 8f3c 15c0 1aa5 853d 3a6f d23e
00000290: 2409 32be 59e7 e2be 315e 10bf ec28 c23f
000002a0: 5a56 bfbd 3c94 8c3e 034a bbbd 3a60 aabb
000002b0: 6c95 0840 f2a3 af3f 8cca 9ebe 99e5 2ebe
000002c0: 559a 473e 4606 583d 2a09 d33d 0023 fdbd
000002d0: 4615 92be acac 17bd 5dc5 be3e 8a31 a6be
000002e0: 5bb7 9c3e 7e05 e23d 2ce0 c0bd 11fe b53d
000002f0: 5c8a ed3d cc26 003d 5958 dd3f a6b5 febf
00000300: 348e 8dbd 11c2 553e 4d1c 973e 3355 e3bd
00000310: 62dd 2740 0a69 c13e 7362 15be f1f9 933e
00000320: 8c92 74be ed5b 263e c7f5 36be c5fb 19c0
00000330: bf8c 1bbe 87ad 5abe 5569 b0bd 4c1d 0a3e
00000340: 0211 0ac0 c7e9 2540 3b5c 8fbe b5d8 7fbe
00000350: cf53 913e 0b35 e63e 8d37 fa3f bb6e c7bf
00000360: 85b4 42bf 8228 63be 2cff ae3d 6e09 343e
00000370: 0ae6 70c0 c7aa fbbf c142 093e 5de7 d13d
00000380: 5de2 c9be 591c 7a3e e467 843f a030 db3f
00000390: 2e6e f03e 0d95 9b3d 1e77 6bbf b70f d3be
000003a0: a517 893f 16be e43f f2ae 7d3c 01e6 82be
000003b0: 4145 a5be 8207 db3d 6f3a b93f 34f7 fbbf
000003c0: 9c52 8f3e 0d15 b63d 7e2b 5bbd 9a50 933d
000003d0: 5e15 e43e 9d22 18c0 6d05 8fbe 7c34 c43d
000003e0: 060a 11be f6ae a33d 38e1 20c0 d499 d5bf
000003f0: e97f 933e ff7f a53d 1d2a c3be ee68 2a3e
0.038172748 0.22936147 -0.30308938 0.26854303 -1.9265444 -1.3131307 -0.23986723 0.07249167
0.19411294 -0.21320188 0.31177908 0.18052922 -0.027534187 -0.2407668 -0.3125191 0.22117761
-2.7809916 -2.8106356 0.008099143 0.091889195 -0.21200441 0.16831993 1.8804852 2.230157
-0.35362852 -0.20017801 -0.05040661 -0.1691308 0.35029063 -0.19108443 0.288533 -0.1739683
-0.10935658 0.20914792 -1.9261906 -2.06536 0.43715057 -0.017092854 0.1298184 -0.09018034
-2.7524426 -2.9504068 0.07560267 0.32142702 -0.23226914 -0.23911218 -0.74660075 -2.0631313
-0.0985267 -0.31133267 -0.081054114 0.088652365 -0.22170413 -0.093635604 -0.15322918 0.19115809
0.021842897 -0.31950092 0.023444438 0.073497176 0.20193048 -0.22377975 0.23875484 -0.3067007
0.10979014 -0.111686274 -0.108797565 0.26598018 -0.175183 0.16438843 1.8151555 -0.8091668
0.1739859 -0.26977322 0.2583192 -0.17336623 0.10164837 0.38493285 -0.12872061 0.020773496
0.20481196 -0.19465819 -0.07271754 0.09374838 0.3312631 0.102152035 -0.12250363 -0.37470606
-3.6283772 -3.5949109 -0.004308342 0.19505404 -0.060995754 -0.39790836 0.1152367 -0.29830277
-0.003670224 -0.2341027 0.08817667 0.2047118 2.1433895 -0.47765628 0.3996384 -0.34349138
-0.037607256 -0.11214714 1.9123881 0.7951188 -0.025389139 -0.136477 -0.14920108 0.22952785
2.2303624 0.9354 -0.12264647 0.32447386 0.0549872 -0.115217604 -2.3773248 -2.647285
0.44218028 0.303099 0.031097427 0.31797177 -0.8996083 1.5082964 -0.12792374 -0.39698428
0.2640259 0.06235941 0.2685468 -0.21486424 0.372319 -0.19102743 0.5138451 -0.38810638
1.3582444 1.3373455 0.16282666 0.1393578 0.3934793 -0.18231682 -2.4524865 -2.657753
0.284882 0.06313802 -0.11812954 0.24086364 -1.7543563 -0.05403359 -0.28990644 0.2559649
-0.38112438 0.15421888 1.6243404 1.9059749 0.17889619 -0.13179985 -0.16757877 0.1194263
-2.7773414 -2.3318212 0.06525631 0.41100484 -0.173863 -0.4431713 -0.56393725 1.5168738
-0.09342642 0.27456844 -0.09144976 -0.0051994594 2.13412 1.3721907 -0.31013906 -0.17079772
0.19492467 0.052740358 0.10304482 -0.12360191 -0.28531855 -0.037029907 0.3725995 -0.3245967
0.3060864 0.11036204 -0.094177574 0.0888635 0.115986556 0.031287 1.7292587 -1.9899185
-0.06911889 0.20874812 0.2951378 -0.11100235 2.6228871 0.3777545 -0.14588337 0.28901628
-0.23884028 0.16246004 -0.17867194 -2.4059918 -0.15190409 -0.21355258 -0.086138405 0.13487738
-2.157288 2.5923936 -0.28000054 -0.24985011 0.28384253 0.44962344 1.9548203 -1.5580667
-0.760567 -0.22183421 0.08544764 0.17581722 -3.7640405 -1.9661492 0.13404371 0.10249207
-0.39430514 0.24424876 1.0344205 1.7124214 0.4695906 0.075967886 -0.91978633 -0.41222927
1.0710341 1.787051 0.015483605 -0.25566104 -0.322794 0.106947914 1.4470958 -1.9684815
0.27992713 0.08890734 -0.053508274 0.07193108 0.44547552 -2.3771126 -0.27933827 0.09580323
-0.1416398 0.079923555 -2.5137463 -1.668757 0.28808525 0.08081054 -0.38118067 0.1664159

fc.0.bias f4 [128]
00000000: 2b54 2a3e 9c4d 06be 0938 793e 4c59 d03d
00000010: 3aba ac3e 1725 053e 4c43 20bf 56dd 28bf
00000020: 4fe3 aebe 45fe 383e ef79 6d3d 8ca1 d8be
00000030: d0ca 75bd baff 733e d6bf 053f 3fe5 a13e
00000040: 4368 cfbe 2e1b 85be d9a2 1b3d a3c4 83bd
00000050: 42ba aabc 7a53 1cbe b98e a4bc 7535 43be
00000060: 6c0c 153e 6b12 b0be 22a3 483d 345d 2cbd
00000070: aa05 603c 26e2 6ebd 529f d8bd 0a34 9dbe
00000080: bce7 e73d b747 d4be 14be 7a3e 8bc2 c2bc
00000090: e390 333f 9f46 c5be 51a5 18bf 18cc bdbe
000000a0: c68b 0ebf ec47 483d b845 eb3d b021 ac3e
000000b0: ea51 84be 8b85 d7bd 5c4c 283e a568 943e
000000c0: 0771 5bbe 1001 f4bd 7609 893d ffb2 0c3e
000000d0: fae5 9b3e 67f6 4bbe 6894 b0bd 37e8 a5be
000000e0: 52ef 5dbe b86f 1abf 53ce 933d 874e 163e
000000f0: c416 2abd cba6 21bc 8486 8a3d 89c4 933e
00000100: 31fb b53d fc62 e7be 379f 093e 2cfd 92be
00000110: adec fa3e d04d a43e 300e 19bf d436 a63e
00000120: baa7 00bd a6ae 10bd 2335 5a3e 56af 18bf
00000130: ae54 dcbe b553 d5be 87d4 b9be 6919 9f3e
00000140: 264d 783e a012 f2bd 7eb8 a7be 6d67 74be
00000150: 7008 f8bd f3ed fa3e 1a6a 89be 7e99 07bd
00000160: 2878 eebe 7654 953e 54ca b13e 185a 90be
00000170: 9585 bc3d c1e4 ff3c 9758 9b3e 44ec 0abf
00000180: ca62 06bc 5b76 dabd d816 65be 64f0 1fbf
00000190: fc8f 0f3f 90f4 ae3e 72a4 30bc 1637 2cbe
000001a0: 826f d93d e9b5 9a3c 8e2a abbe 4572 52bc
000001b0: 2f7c 203e e27f 1fbe 72ef 4d3e 5cc1 bfbd
000001c0: 2133 c6bd 6ea9 debd e3b4 833c e5c8 2b3e
000001d0: f3fe 52be 4b30 93be 126a 283e a162 3ebd
000001e0: e407 83be c6ca d23e 8c12 babe fcf6 0d3e
000001f0: 091f 233e 2568 133f 03f7 c7be 9c54 ae3e
0.1663367 -0.13115543 0.24337782 0.10173282 0.3373583 0.1300243 -0.62602687 -0.6596273
-0.34157798 0.18065746 0.057977613 -0.4231075 -0.06000787 0.2382802 0.52245843 0.31620213
-0.40509233 -0.259973 0.0379971 -0.0643399 -0.020840768 -0.15266219 -0.020087587 -0.19063361
0.1455552 -0.34389052 0.0489837 -0.042081073 0.013673225 -0.05832114 -0.10577263 -0.30703765
0.11323497 -0.41460964 0.24486572 -0.023774406 0.70142955 -0.38530442 -0.5962725 -0.37069774
-0.5568203 0.048896715 0.11487907 0.33619452 -0.25843745 -0.10523518 0.16435379 0.28986087
-0.21429835 -0.11914265 0.06691258 0.13740157 0.30448896 -0.19918214 -0.08622056 -0.32403728
-0.21673325 -0.6032672 0.072170876 0.14678393 -0.041525617 -0.009866427 0.06763938 0.28860882
0.088858016 -0.45192707 0.13439642 -0.2870878 0.49008694 0.32090616 -0.59787273 0.32463706
-0.031409957 -0.035322808 0.21309333 -0.5964254 -0.43033355 -0.41665426 -0.36294958 0.31074074
0.2424818 -0.11819959 -0.32757944 -0.23867579 -0.12110984 0.49009666 -0.26838762 -0.033105366
-0.46576047 0.29166 0.34724677 -0.28193736 0.09205166 0.031237008 0.30341026 -0.5426676
-0.008202264 -0.10667106 -0.22371995 -0.6247618 0.5607908 0.3417096 -0.010781394 -0.16817889
0.106169716 0.01888557 -0.33430904 -0.012844627 0.15672372 -0.15576127 0.20110872 -0.09363052
-0.09677721 -0.1087216 0.016077464 0.16775854 -0.20605068 -0.28747782 0.16446713 -0.04648078
-0.25591958 0.4117033 -0.36342275 0.13863748 0.15929808 0.57580787 -0.39055642 0.34048927

fc.2.weight f4 [64, 128]
00000000: 3e83 b5bc fd2d 6f3d ff83 1bbe 644b ea3c
00000010: cad1 dbbc 9bf1 bcbd 32ac 0e3e 840c 8d3d
00000020: 7641 e03c e352 033e b89d af3a b05f cc3d
00000030: f3b9 c83d c02f 55bd 5ff7 2ebf 1437 2abd
00000040: 68e6 eb3d 977d 95be 13cb 7c3d a488 3f3c
00000050: cb5d 87bd 03f4 35bd 2921 2240 6649 02be
00000060: 84d3 9cbd 5ad9 91bc 0a99 9abc 7586 37be
00000070: 5f17 383d 2b5b 48bd c026 ae3d d2df 0c3e
00000080: 1085 863d 5448 483d d90e d3be b5f1 2bbd
00000090: 28b4 9a3e 76c8 873b 13c4 393d f104 b3bd
000000a0: 08f0 b03d 0a79 a6bd ce60 9fbd 542d 4bbb
000000b0: 0271 fcbc b26b 803c e69e 983c e20d 34bd
000000c0: 0a65 a2bf c857 853d d2b5 febd 3c0a e4bc
000000d0: 439c 8a3c 11c3 91bc db90 b83d d18c c93d
000000e0: 9e5d bdbc 27a7 473d 76a5 25bd f4c0 6c3d
000000f0: b1cd ba3c bc6b 82bd 7bee a6bd 973f b7bc
00000100: e8bd 8b3d 5e85 0d3d 9854 93bb 4483 bebc
00000110: 4621 22bd 8f2c 06bd 5105 6a3e 1bb7 86bd
00000120: 1a44 1cbc c417 62bd 5672 a8be b884 df3c
00000130: a895 31bc 9c6b 0e3e e82b 2d3d b817 92be
00000140: 24e4 31bd 50a5 463d 3493 473e a119 2dbd
00000150: 52e0 abbc 455f 63bd 6e9a 4fbd b328 373c
00000160: 4ef2 d23c 78f1 e6bc 0b6d 9b3d ba68 8f3c
00000170: c7e7 95bd 4744 893e 14ea 1d3d f4dd 7f3d
00000180: 4096 86bc a794 20be a924 4cbc 79b9 d73d
00000190: b81b a13e c0ac 123d 6fdf 80bc 26b9 b2bc
000001a0: b848 e53e bdb4 443d 1dda 453c d41c 65be
000001b0: bc65 4d3c 3a33 753c 90cb 393d 239e 8f3e
000001c0: 6221 5d3d 6149 dbbd b915 aa3c 28e7 89bd
000001d0: 97a8 97bc 2f80 05be 6801 cb3d 283d 0dbe
000001e0: 748b 57bc fea9 b3bc 16aa a7bc 9c6b 1c3e
000001f0: afa0 d83c a6dc 643d f0b1 903d 3d6b 033d
00000200: 6e02 ba3d a0b8 5339 34fe a3bc ff72 08be
00000210: 1a2f 8ebd 91ad c83c d3c8 d0bd 44aa 0abc
00000220: 8b88 d33c 6bf7 8fbb 70a2 c63d 04d9 06be
00000230: 6ffd 303c 6007 4ebd a1cd f93d dda1 aa3d
00000240: 46b1 9bbd 2882 c63d 922b e1bd 8cb3 143d
00000250: 1fb9 e23c 8a55 a83d 6d17 76bd 5d78 383c
00000260: 39b6 57bd 1a5c a2bd 8be6 3bbc 6e05 60bc
00000270: e48c 87bd e074 a2b9 1018 7a3d c145 c33d
00000280: ef1d d9bd 879f 12be 76af 9cbd d28d 29bc
00000290: 550b 543d 80ec 663d 35fb 3d3d f2fc e3bc
000002a0: 050b ed3c 601f 2c3b 3a58 013d 6493 23bd
000002b0: 0eef 44bd 8777 19bd b9a1 ce3d 17ea 2c3d
000002c0: c665 323d 5d2a 87bd 6a09 18bd f4ef 5fbd
000002d0: 6245 58bb ed53 04bd 2a7f a1bd 1a32 88bd
000002e0: 8e3c c53d a728 e8bc a0eb 9cbd 8495 3a3c
000002f0: 7513 9e3d 2dec 923d 1a53 843d aa39 de3c
00000300: 4265 ae3d c99b 2ebd a41f c2ba 8f95 4dbd
00000310: bc77 49bc dab7 0bbd e8fb 2dbd ba41 403d
00000320: bc57 b6bc 0ab7 6b3b ebfc b13d 1bff 5a3d
00000330: cb8c ed3b 7298 bbbd ba23 723c 2f2b 74bd
00000340: b7aa e53c e8fc 17bd 6f93 963c f29d a7bc
00000350: 72e1 233d 8c69 b83d 45a3 e23c 0d55 75bd
00000360: 70bb 153d 2c85 953d 664f 32bc cf85 b3bd
00000370: 3dfa 84bd e2a9 473d 2e10 0b3d 1a1a 57bc
00000380: c994 9abd 0d55 31bd 9e7c babd 1819 c4bd
00000390: 0e61 223d 0a46 283d 3f28 833d 38c7 17bd
000003a0: d5b6 9dbd bd79 6bbd 5745 8bbd bd14 0abd
000003b0: 7362 923c 88d6 cc3d 0f34 d4bd 4dbb 86bd
000003c0: 58f6 823d 52ee 0dbd 615d 0cbd 6e00 523d
000003d0: e8b1 7c3d 743a 9c3d 9e54 b4bd 81fe 813d
000003e0: f8f8 183d f0fb bebc 7832 773b 0221 183c
000003f0: 0db7 e83b 5999 d73d 8032 8cbd ed3b a33c
-0.022157308 0.058393467 -0.15187071 0.028600402 -0.026833434 -0.0922577 0.13932875 0.06887153
0.027374964 0.12824588 0.0013398444 0.099791884 0.09801092 -0.05204749 -0.6834621 -0.041556433
0.11518556 -0.2919738 0.061717104 0.0116902925 -0.066096865 -0.04442216 2.533274 -0.12723312
-0.07657531 -0.017803837 -0.018871803 -0.17922385 0.044944163 -0.04891507 0.08503485 0.13757256
0.065683484 0.048897102 -0.41222265 -0.041978557 0.30215573 0.00414377 0.045353007 -0.08741177
0.08639532 -0.08128555 -0.07782136 -0.003100236 -0.030815605 0.015676353 0.018630456 -0.043958552
-1.2687085 0.065108836 -0.12437023 -0.027836911 0.016920215 -0.01779321 0.09012004 0.09841312
-0.02311593 0.048743393 -0.040441 0.057801202 0.02280316 -0.06368205 -0.08150955 -0.02236919
0.06823331 0.034551017 -0.0044961683 -0.023255952 -0.039582513 -0.032757338 0.2285359 -0.06577893
-0.009537721 -0.055198446 -0.3289973 0.027284965 -0.0108389035 0.13908237 0.0422782 -0.2853372
-0.043430462 0.048497498 0.19489747 -0.04226077 -0.020980988 -0.055510778 -0.050684385 0.011179137
0.025750306 -0.028191313 0.07589158 0.017505992 -0.07319599 0.26809904 0.038553312 0.06246753
-0.016429067 -0.15681706 -0.012459912 0.10533423 0.3146646 0.03580928 -0.015731541 -0.021816801
0.44782043 0.048023928 0.012075928 -0.22374278 0.012536462 0.014965827 0.045360148 0.28050336
0.053986914 -0.10707355 0.020762311 -0.06733543 -0.018513007 -0.1303718 0.099123776 -0.1379286
-0.013155807 -0.021931645 -0.020466845 0.15275425 0.026443807 0.05587449 0.07065189 0.032084692
0.09082495 0.00020191306 -0.020018674 -0.13325118 -0.06942578 0.024496825 -0.10194554 -0.008463446
0.025821945 -0.004393508 0.09698951 -0.13168722 0.010802611 -0.050300002 0.12197424 0.08331654
-0.076021716 0.09692794 -0.109946385 0.03630404 0.027676163 0.0821944 -0.060080934 0.011259166
-0.052664015 -0.07927723 -0.01146854 -0.01367317 -0.0661867 -0.00030986127 0.061058104 0.09534789
-0.106014125 -0.14318667 -0.07650654 -0.010348754 0.05176862 0.056377888 0.046382148 -0.027830575
0.028935919 0.0026263818 0.03157828 -0.039935485 -0.048079543 -0.037467506 0.1008944 0.042215433
0.04355409 -0.06599877 -0.037118353 -0.054672197 -0.003300034 -0.0323066 -0.07885583 -0.06650181
0.096306905 -0.028339697 -0.076621294 0.011388186 0.07718555 0.07173953 0.06461163 0.027127106
0.08515407 -0.042629037 -0.0014810455 -0.05019146 -0.012296613 -0.03411088 -0.042476565 0.04693768
-0.022258632 0.0035967254 0.086908184 0.053465944 0.00724945 -0.09159936 0.014779026 -0.059611496
0.028035505 -0.037106425 0.018380849 -0.020461056 0.040009923 0.090045065 0.027665744 -0.059895564
0.036555707 0.07300791 -0.010883188 -0.08765756 -0.06493042 0.048745997 0.033950977 -0.013128782
-0.0754791 -0.043294 -0.091058 -0.09575099 0.03964334 0.04108242 0.06404161 -0.037055224
-0.07700888 -0.057489146 -0.06800335 -0.033711184 0.01786921 0.10001856 -0.10361492 -0.065786935
0.063946426 -0.034651108 -0.03426874 0.05126994 0.061693102 0.076283365 -0.08805202 0.06347371
0.03734681 -0.023313493 0.003771929 0.009285213 0.0071018995 0.105272956 -0.068455696 0.019926036

fc.2.bias f4 [64]
00000000: 8919 5ebe de39 aabb bede 31bc 5067 80bb
00000010: 0b1f 94bc b3e6 9d3c 9dff 8ebc ed15 b1be
00000020: 4526 213d fe7d eebc 301f 403c 92d5 973d
00000030: 46dc a6be a6fe 793c 67b2 cdbd 4094 72bc
00000040: d7e8 9fbd ebc3 593d 5958 c3bc e585 6fbd
00000050: 2c0f 243e 7dbf 8a3e 02fc 9cbd 86ae 403d
00000060: 76f0 a43d 742e d7bd bbdd 04bd ebae 35bc
00000070: 7604 cd3d 48c9 c53d 32ab c5bd 9d2b c0bd
00000080: ec7d 853c 39f4 83be be95 9b3c d83e 003c
00000090: f2eb 243c c410 36be a200 b43c ed6e 9d3d
000000a0: c494 303e 89de 82bc 99e3 0f3d 12fa 93bd
000000b0: f336 803c 49f4 243d 7ba9 22be 3993 30be
000000c0: 588d 07bd 4a12 f73b 44c1 853d f0d3 5f3d
000000d0: 4a32 f33c 0f91 af3e 8910 8f3d b7d1 2f3d
000000e0: 2cd5 b23c c239 4c3d f151 a9be 1ee3 0abc
000000f0: 7b84 b33c fdfd 2e3e fad9 8c3c ef50 14be
-0.21689428 -0.0051948866 -0.0108563285 -0.003918566 -0.018081209 0.019275045 -0.01745587 -0.3458704
0.039343137 -0.029112812 0.011726186 0.07413782 -0.3258993 0.015258467 -0.10043793 -0.014805853
-0.078080826 0.053165358 -0.023845838 -0.0584773 0.16021413 0.2709922 -0.07665254 0.04704144
0.08053677 -0.10506907 -0.03243802 -0.011089067 0.100106165 0.09657532 -0.096517935 -0.093833186
0.016295396 -0.25772265 0.018992301 0.007827483 0.010066019 -0.17779833 0.021972958 0.07687173
0.1724425 -0.015975254 0.035129163 -0.072254315 0.015651202 0.04027203 -0.15884964 -0.17243661
-0.03309378 0.007540022 0.06531003 0.05464548 0.029687066 0.34290358 0.06985576 0.04292461
0.021830164 0.04985977 -0.3307033 -0.0084770005 0.021913758 0.17089076 0.017193783 -0.14483999

fc.4.weight f4 [32, 64]
00000000: 9399 cebc 5ebd 94bd 2910 78bd ad62 e33d
00000010: 1ed2 ddbc 6e3e 36bd d892 cebb 33f0 88bd
00000020: cdfe 6f3d ad8b b6bd 3f05 c03e 30db 523c
00000030: a2d3 39bd 0f83 67bd 04dd 19bf 6bf1 9e3d
00000040: 62c7 993c 294d e2bd d941 ecbc 7653 05be
00000050: fa35 33bd 60f7 303b 817b d83d 06ca a93d
00000060: 10ef 72bc e8b7 553c 22c2 afbb 30bd 8ebd
00000070: f998 8dbc 7846 153e 2279 63bd 3411 7bbb
00000080: 27a7 49bd 174a 2ebd 9925 113e a171 0a3c
00000090: eac4 ffbc e671 113d 75d5 4dbd b76f 1e3e
000000a0: f044 0ebd ce88 083e 009b 613c 8c89 28bd
000000b0: 5a19 efbd 66b6 2e3c 49f0 99bd 64f5 c7bd
000000c0: 2e21 40bc 16a8 a4bd cc3e 29bd 42ff 613d
000000d0: 1797 e5bd 45be babd f79d a73d 28ed e3bd
000000e0: 3c2b 813d 2ce0 2f3b 67b8 47be 4811 d43d
000000f0: eaea e5bd 51cc 053e 8ef4 ef3d 6e9c c7bd
00000100: d76a 863d 98fb bfbd b1c7 943d b83e 65bd
00000110: 9a46 573c 7ae2 9e3d 0231 34bd 7c10 6b3d
00000120: 3262 003d c61c cf3d 0b5b 653d f1af e5bd
00000130: 1329 e2bc dd8c 62bd 8041 dfbc 1149 b4bd
00000140: 71d2 f93d 4611 04bc 700c eabd 56ca 073e
00000150: 8e9f a73d cb8e b1bd d552 3bbd 739f 1c3d
00000160: e770 193c 295b b43d d826 ccbd 8a76 a3bd
00000170: dd52 99bd 202f 9d3d a9ea b1bd ea69 c4bd
00000180: 914d e6bd 8ea3 a83d 3f94 86bd 65d3 213d
00000190: 6cf5 cbbd 4e4c 98bc a907 f83d 9ccc a83d
000001a0: b63e 9abd a910 4d3d ef20 fc3d c402 79bd
000001b0: c873 d53c 160f c33d 7c2b 043c e8a4 b73b
000001c0: ddcd 5bbd af06 b43c d979 6fbd bab7 873c
000001d0: cc16 4ebc 49b4 c6bd c420 5ebd 06e5 d1bd
000001e0: bace 163e f507 2f3d c1b3 3d3d 1a40 04be
000001f0: 9894 8c3d 2b84 08be 18fe a63a 3949 ce3d
00000200: e3b6 93bd 6d52 00be d079 a83d 2575 99bc
00000210: dbfe 97bd 2c46 b6bc bff9 003d 59c9 02be
00000220: 41e5 0abe d7d5 833d 64d4 40bc 06dd a33d
00000230: 0e6d 47bd 7634 5cbd 03f1 61bd 6b74 e6bd
00000240: 3415 d2bd b793 fbbc ad3c 833d d744 6fbd
00000250: 8c33 06be a03f bbba c974 0fbe 6262 21bc
00000260: d7dc e43d 0ea6 91bd af28 193d 101a 71bb
00000270: f09f f73d 7586 08be 9155 35bd 3600 64bd
00000280: b2e6 a5bd 00b2 1d39 ae42 503d 2916 10be
00000290: 5ad0 d4bd 3926 d7bd 3580 e53d 6bfc 32bd
000002a0: 435d 5c3c 00fd b9b8 2929 bd3d 0f2a 873c
000002b0: 9a87 923d 9a87 743c 8540 efbc 32a4 f2bd
000002c0: 5e53 34bc 879b f5bc 9db7 17be 1cab 543d
000002d0: 1b0c bc3d 0755 b03d f16b 21be 53e0 a93d
000002e0: 60bd b8bd 27bc 423d 3cd1 0e3d 7fec eebd
000002f0: 815a 71bd 2c15 cabc 3479 cd3d 4bfa b4bd
00000300: 7fb1 1fbe 1323 7cbd a6c9 3ebd 83f2 62be
00000310: 51c2 913c ff12 743d c8ae 08be 58eb 553e
00000320: 00b2 8f3a ca58 e7bd d0e4 47bd 0492 833d
00000330: b8dd ed3d 1a12 3c3d 032d 883e 7f67 283d
00000340: ac55 c4bc 0d70 02bd 1ba4 00be a762 b93d
00000350: 7e78 a0bc 0321 26be 1df7 f2bc bfbe d83c
00000360: 4f53 15bd 307a 23bd 5f82 f0bc 8151 b3bc
00000370: d77d d83d 1f6f 2f3e fa6a 2f3d 6c6e 16bc
00000380: a05b d5bd 096a 183c b155 8d3c 5e07 dfbd
00000390: 6667 433d 345c 5fbe 68c2 46bd 009e 9c3d
000003a0: 14ae c93d eb1b 4fbd a69d e03b 456c e8bd
000003b0: 04ea 033e a0cb 413d dc1a 01bd 5511 fcbd
000003c0: d6e0 093c dcb3 e8bd 37bc fd3d 58a7 db3a
000003d0: c331 b93d 6baf b73d 91b2 cbbd 0d3f 823d
000003e0: 0166 473c 736e d4bd 35e9 413e 56ef ac3d
000003f0: 5dd6 633d 5035 743e d505 4c3e 0529 233e
-0.025219714 -0.072626814 -0.060562287 0.11102805 -0.02707773 -0.04449313 -0.0063041262 -0.06686439
0.058592606 -0.0891336 0.37504002 0.012869641 -0.045367844 -0.05652147 -0.6010287 0.077608906
0.018771831 -0.110498734 -0.028839992 -0.13020119 -0.043752648 0.0027002916 0.105704315 0.08290486
-0.014827505 0.013044335 -0.0053637186 -0.069696784 -0.017284857 0.14577663 -0.055535443 -0.0038309814
-0.049231675 -0.042551126 0.14174499 0.008449943 -0.031221826 0.035509013 -0.050252397 0.15472303
-0.034733713 0.13333437 0.013769865 -0.0411468 -0.11674757 0.010663604 -0.07516534 -0.097636014
-0.011726661 -0.08039872 -0.041319653 0.055175073 -0.11210459 -0.09118322 0.08184426 -0.11129218
0.063070744 0.0026836498 -0.19503938 0.10354859 -0.11226447 0.13066222 0.11716567 -0.097466335
0.06563347 -0.093741596 0.072646506 -0.055968016 0.013139391 0.07758041 -0.04399205 0.057388768
0.031343646 0.1011291 0.05599503 -0.11215199 -0.027607476 -0.05531012 -0.027252913 -0.08802999
0.12198342 -0.008060759 -0.114281535 0.13260779 0.081847295 -0.08669814 -0.04573329 0.038238
0.009365297 0.0880645 -0.09968346 -0.07981594 -0.07486508 0.07675004 -0.08687336 -0.09590514
-0.11245263 0.082343206 -0.065712444 0.039508242 -0.0995892 -0.018591072 0.12110836 0.08242151
-0.075314924 0.050064716 0.12310969 -0.060793653 0.026056185 0.09524362 0.008067008 0.005604375
-0.053663123 0.021975843 -0.058465812 0.0165671 -0.012578677 -0.097023554 -0.054230466 -0.10248761
0.14727297 0.042732198 0.046314005 -0.12915078 0.068642795 -0.13331668 0.0012740521 0.1007256
-0.07212617 -0.12531443 0.08226359 -0.018732617 -0.07421657 -0.022250257 0.031488176 -0.1277212
-0.13564016 0.06437271 -0.011769388 0.08001141 -0.048687987 -0.05376097 -0.055161487 -0.11252674
-0.102579504 -0.030710084 0.06408057 -0.05841526 -0.13105601 -0.001428593 -0.14009394 -0.009850116
0.11174934 -0.071117505 0.037392315 -0.0036789216 0.120910525 -0.13332541 -0.044271056 -0.055664264
-0.08100642 0.00015038997 0.05084484 -0.14070953 -0.103913024 -0.10505337 0.11206094 -0.043697756
0.01344997 -8.868612e-05 0.09236366 0.016499547 0.0715477 0.014924908 -0.02920557 -0.11847724
-0.011006204 -0.029981388 -0.14816137 0.051920995 0.091819964 0.08609968 -0.15763833 0.082947396
-0.090204954 0.047542717 0.03486751 -0.11666202 -0.058924202 -0.024668299 0.10032883 -0.08836802
-0.15595053 -0.061556887 -0.046579026 -0.22162823 0.017792853 0.05958843 -0.13347924 0.20890558
0.0010963082 -0.11296232 -0.048802197 0.06424335 0.11614555 0.0459157 0.2659684 0.041114327
-0.023966633 -0.03184514 -0.12562601 0.090520196 -0.019588705 -0.1622353 -0.029658848 0.026458142
-0.036456402 -0.03991145 -0.02935904 -0.02188945 0.10570877 0.17132233 0.04282663 -0.0091816
-0.10417867 0.0093026245 0.017252775 -0.10890077 0.04770603 -0.21812516 -0.048525244 0.076473236
0.09847656 -0.050563734 0.0068547307 -0.11348776 0.12882239 0.047313333 -0.031519756 -0.12307993
0.0084154215 -0.113624305 0.12389415 0.0016758246 0.090426944 0.08969005 -0.09946168 0.06359682
0.012170316 -0.10372629 0.18936618 0.08444087 0.055624355 0.23848462 0.199241 0.15933616

fc.4.bias f4 [32]
00000000: d0c0 2d3d 1419 193c 5212 dbbc 0583 c83d
00000010: 7c66 2cbc 90a8 2bbe cc28 313e 2fec b5bd
00000020: 9f0e 87bd b23e aa3c 411e d83d 35d2 f73d
00000030: b1bf ac3d 3087 003d 49e4 41bd 7167 9fbd
00000040: 701d eb3d 9ede 473d 3942 31be f9ae 01bd
00000050: 2732 ee3d 29cd 95bd 8035 de3d 4ade c13e
00000060: 337e 55bd 55a1 10be b4c5 27be d3ff aebd
00000070: 8df2 19be a609 83bd b04d ea3d 569d 713e
0.04242021 0.009344358 -0.026742134 0.09790615 -0.010522481 -0.1676352 0.17300719 -0.08882939
-0.065945856 0.020781849 0.105526455 0.12100641 0.08435 0.031378925 -0.04733685 -0.07783402
0.11480224 0.04879629 -0.17310418 -0.031661008 0.116306596 -0.07314522 0.10850048 0.37864906
-0.052122306 -0.14124043 -0.16384012 -0.08544888 -0.15033932 -0.06398325 0.11440599 0.23595175

fc.6.weight f4 [3, 32]
00000000: 64ff 32be a2c7 59bd a3a4 2abe 748b 513d
00000010: 2623 bebd 9c0f 233d 7ef7 b2bd 4d81 f4bd
00000020: 93e1 bbbd 7c57 11be 38e0 073e ecf7 fcbd
00000030: 9be4 40be 87a7 0ebd cb1a 873c 7d16 023e
00000040: a395 2bbc 00fc 4cbd 2829 e0bd 565e fdbd
00000050: 98ef 12be 5c3c 033e b3b4 adbd 2dce 96be
00000060: f36c 3f3d 0c34 07bc 9e09 923d 4f25 af3d
00000070: ad17 35bd f2a3 f7bd 9c53 2bbd e12c a2be
00000080: b395 823d 24a4 e2bd e06d 6a3a fcc0 29be
00000090: 5abf 4f3d b40e 533c ee02 493e 1f9a e3bd
000000a0: c534 f3bd 1e1f 88bd 30ee ce3d f6ee 773e
000000b0: 56af 483e 3381 023e ce04 283e 5e68 fabd
000000c0: d0d1 4f3e 63aa e83c 5628 11be 1c83 95bd
000000d0: 1a55 42bc 1567 b83b 1bb7 c53d 5a9b 353e
000000e0: 6df1 05c0 d01c 09bf b2dc 8dbe ee04 0d3e
000000f0: fb69 e1bd c8b4 9b3d 14c4 133e 91e9 893d
00000100: 1b9e b4bc f8d1 cb3c 3c55 3cbd 7182 6e3e
00000110: c2dd 3abe 3795 9bbd f77c 4e3e d81a 3c3e
00000120: 749f e23d 1a41 623e 0cbc 5a3d 23d4 0f3e
00000130: 742e febd 7110 2fbe f680 b2bd aeb6 a3bd
00000140: dbfc c33d 4199 2c3e ae5e d63d dd3b dc3c
00000150: 0ef8 15bd 4cdf ecbc ee86 2d3d 5622 a8bd
00000160: fba4 953e 9b36 f9bd 8f65 123e 234b 24be
00000170: 7b36 f9bd 10eb 993d 921d 39bd 1883 453e
-0.17480236 -0.0531689 -0.16664366 0.051158383 -0.09284048 0.039809808 -0.08738612 -0.11938725
-0.09173884 -0.14193529 0.13269126 -0.12351975 -0.18837206 -0.034827735 0.016492268 0.12703891
-0.010472688 -0.050045013 -0.1094535 -0.12371509 -0.1434921 0.12815994 -0.08481731 -0.29454175
0.04673476 -0.008252155 0.071307406 0.08552038 -0.044212032 -0.12091817 -0.041827783 -0.31674865
0.06376209 -0.110664636 0.0008942764 -0.16577524 0.050719596 0.0128819235 0.19630024 -0.11113381
-0.11875299 -0.0664656 0.101040244 0.2421225 0.19598135 0.12744598 0.16408083 -0.12226938
0.20294881 0.02840156 -0.14175543 -0.07300398 -0.01186111 0.0056275227 0.09654065 0.17735043
-2.0928605 -0.5355959 -0.2770744 0.13771412 -0.11006542 0.07602841 0.14430267 0.067340024
-0.022048047 0.024880394 -0.045979723 0.23291947 -0.18248656 -0.0759682 0.20164858 0.18369615
0.110655695 0.22095147 0.05340199 0.14045767 -0.12411204 -0.17096116 -0.087160036 -0.07993828
0.09569713 0.16855337 0.104672775 0.026884014 -0.036613517 -0.02891507 0.042365007 -0.08209674
0.29227433 -0.12168618 0.14296554 -0.16044287 -0.121685944 0.07515538 -0.045194216 0.1928829

fc.6.bias f4 [3]
00000000: dc1e ddbd 872c 8d3e 8c6f a63d
-0.107969016 0.27573034 0.08126745
