Genetic_Models/dino_genetic_model44.pth (torch, 48732 bytes, 8 tensors)

fc.0.weight f4 [128, 6]
00000000: 5197 563d 218c 733e 6686 99be 685d 793e
00000010: 075e f8bf 497f a7bf 64bc 6abe 4b8a 873d
00000020: ab95 413e b73c 68be 7008 ac3e df0d 323e
00000030: 0836 0ebd 4936 5cbe 2772 94be 9c5a 673e
00000040: 24de 31c0 8266 34c0 45b2 043c 0574 e43d
00000050: 2873 59be e111 3f3e c0e0 f33f 0e69 1040
00000060: cc0e b5be 0f69 60be 2a8b 14bd a030 2dbe
00000070: 336f ba3e b144 0fbe 99ba 933e bf24 32be
00000080: 4552 e3bd 0057 483e b2f5 f5bf 4903 04c0
00000090: 5d6e dc3e 8fc9 23bd 2c12 063e ee4e eabd
000000a0: 0528 30c0 3c48 3dc0 2ef4 c53d 36e7 9e3e
000000b0: 7e02 69be abc5 72be 3945 42bf 0265 03c0
000000c0: fe06 01be 8c8d 9bbe b3ff a5bd a815 bd3d
000000d0: e09e 4cbe 06c4 bfbd c4ac 28be 0a1b 523e
000000e0: 5079 363c 574f b2be 4413 a93c be9b 733d
000000f0: 0efb 403e 8526 65be 0ece 753e 4bbb a1be
00000100: cf8e e83d 9020 dabd 42d1 debd da08 7d3e
00000110: 2c63 33be f48d 1b3e 0457 e83f cbe7 56bf
00000120: 55f3 163e ec4a 86be 302c 803e eb86 31be
00000130: 1112 e83d bfe2 c03e 87a5 01be 5f23 853c
00000140: ef51 5d3e 7a54 47be 95bd 85bd 7203 f83d
00000150: 3a73 9e3e 06ad c03d a298 0bbe cc93 cbbe
00000160: f1f2 67c0 2ce5 65c0 88b8 a03b b9b7 4b3e
00000170: 966a a9bd a5ba cbbe 7803 c43d b794 9bbe
00000180: 2488 70bb 9eb8 6fbe 06c0 bd3d dfc2 493e
00000190: 4b2d 0940 5d8f f4be 75f5 d13e d389 a7be
000001a0: 110a 1abd 1588 08be 22c9 f43f fef5 4c3f
000001b0: 4be7 c8bc 1f87 24be d10e 3ebe 5909 6b3e
000001c0: 418a 0e40 3b66 7c3f 8423 0bbe 411f a43e
000001d0: 423a 613d 7892 dcbd 8ff8 17c0 3cc4 26c0
000001e0: 084b d33e a3d6 a33e 272c 153d 32cd a23e
000001f0: 6501 64bf 6499 c03f 089b e8bd e08b cebe
00000200: f0dd 923e 87b9 823d 3de2 933e 6421 69be
00000210: 52ab c03e 19a9 31be 5a8b 033f f661 bebe
00000220: c859 b03f 5866 ab3f 08bc 263e 443d e53d
00000230: 1e76 c93e 2813 3cbe 7304 1ec0 6133 2bc0
00000240: 7f55 843e 6c4e 533d d278 d9bd f5a4 763e
00000250: 0df0 e0bf 4c3b 49bd 5bf3 91be 752b 8d3e
00000260: 4e56 c6be f174 0b3e 3472 d13f e7f2 f33f
00000270: 9030 373e 3c5b f9bd 95bb 30be c795 f43d
00000280: 4400 31c0 7e29 15c0 5989 893d 5282 cc3e
00000290: 80be 34be 1f2c e8be 90a1 0fbf 49a4 c33f
000002a0: f037 9abd e46b 903e 034a bbbd 9ccd c43b
000002b0: 6c95 0840 b4f3 ad3f a77a a6be 8568 4fbe
000002c0: 2a51 343e e4d0 623d f233 c23d 6c33 05be
000002d0: a102 93be acac 17bd e481 b03e e20c aebe
000002e0: 5b4b a33e 1fa0 b93d 1693 e4bd 11fe b53d
000002f0: 5e00 f53d fdeb a6bb 48b4 dd3f a6b5 febf
00000300: 2307 71bd 2b5c 4b3e 97ed 983e 8f82 f6bd
00000310: b07c 2740 0a69 c13e 7463 12be fc46 8c3e
00000320: ddde 6ebe b80f 2e3e 0e30 43be 32d5 19c0
00000330: bf8c 1bbe 7e48 55be 5e2f b2bd 349f 143e
00000340: 92f1 09c0 66d2 2740 d1e7 8cbe 8c5f 84be
00000350: ab35 983e 19ff e43e a18d f73f 42be c4bf
00000360: 21d1 3cbf 954c 80be 2cff ae3d e6a2 3a3e
00000370: 360a 71c0 4c38 fcbf deda 033e 5de7 d13d
00000380: 5de2 c9be 591c 7a3e e467 843f 756e db3f
00000390: 2e6e f03e 9058 8c3d c06d 6bbf 977b c9be
000003a0: a517 893f 16be e43f 034e 863c 9143 61be
000003b0: a8a3 a3be 2776 e33d 6f3a b93f a72b fbbf
000003c0: 3d96 923e 26c4 be3d b796 29bd cb73 943d
000003d0: 5e15 e43e fea2 18c0 7812 9bbe 6d78 dc3d
000003e0: ae94 b4bd ba14 b03d 4f62 20c0 cf74 d4bf
000003f0: 314f 8c3e 3a8f cd3d aa1a c0be a157 2f3e
0.0523904 0.23783924 -0.2998535 0.24352038 -1.9403695 -1.3085719 -0.22923428 0.06618174
0.1890475 -0.22679411 0.33600187 0.17388104 -0.034719497 -0.21505083 -0.2899334 0.22593158
-2.7791834 -2.8187566 0.008099143 0.111549415 -0.21235335 0.18659164 1.9052963 2.256412
-0.35362852 -0.21915077 -0.03626553 -0.1691308 0.36412963 -0.13991047 0.288533 -0.1739683
-0.11099676 0.19564438 -1.9215605 -2.0627005 0.4305295 -0.039987143 0.1309287 -0.11440836
-2.7524426 -2.9575338 0.09665714 0.31035775 -0.22754857 -0.23708217 -0.75886875 -2.05304
-0.12600324 -0.3038143 -0.081054114 0.09232646 -0.19982481 -0.093635604 -0.16472155 0.20518127
0.011137322 -0.34826156 0.02063907 0.0594747 0.1884577 -0.22377975 0.24004385 -0.31588206
0.113553636 -0.10650742 -0.108797565 0.24710408 -0.175183 0.1519087 1.8151555 -0.8394744
0.14741261 -0.26229036 0.25033712 -0.17336623 0.11331571 0.37672994 -0.126608 0.016252218
0.21613286 -0.19465819 -0.065303005 0.12110032 0.30947286 0.094080016 -0.13632444 -0.39761198
-3.624203 -3.5921125 0.0049048103 0.19894303 -0.08272283 -0.39790836 0.09570974 -0.30386898
-0.003670224 -0.2341027 0.09265141 0.19703244 2.1433895 -0.47765628 0.4100758 -0.3272234
-0.037607256 -0.13333161 1.9123881 0.80062854 -0.024524352 -0.1606717 -0.1856034 0.22952785
2.2271883 0.9859349 -0.13587767 0.32055095 0.0549872 -0.10770124 -2.3745458 -2.6057272
0.41268182 0.31999692 0.03641906 0.31797177 -0.8906463 1.5046811 -0.11357695 -0.4034109
0.2868495 0.06383043 0.28883544 -0.22766644 0.37630707 -0.17349662 0.5138451 -0.37184113
1.3777399 1.3390608 0.16282666 0.11193326 0.3934793 -0.18366683 -2.4690216 -2.675011
0.25846478 0.05158846 -0.10618748 0.24086364 -1.7573258 -0.049128816 -0.28505978 0.27572218
-0.3873772 0.13618828 1.6362977 1.9058503 0.17889619 -0.12175605 -0.17259057 0.1194263
-2.7656412 -2.3306575 0.0671565 0.39943177 -0.17650795 -0.45346162 -0.561059 1.5284511
-0.075302005 0.28207314 -0.09144976 0.006005956 2.13412 1.3589997 -0.3251545 -0.20254715
0.17609087 0.055374995 0.09482564 -0.13007897 -0.28712943 -0.037029907 0.344741 -0.33994204
0.3189343 0.09063744 -0.11160867 0.0888635 0.11962961 -0.00509405 1.7320642 -1.9899185
-0.058844697 0.19859378 0.29868767 -0.12036621 2.6169853 0.3777545 -0.14295751 0.27397907
-0.23327203 0.16998184 -0.190613 -2.4036374 -0.15190409 -0.20828435 -0.08700441 0.14513856
-2.1553693 2.6222167 -0.27520612 -0.25854146 0.29728445 0.44725874 1.9340097 -1.5370562
-0.73756605 -0.25058427 0.08544764 0.18226203 -3.7662482 -1.970468 0.1287646 0.10249207
-0.39430514 0.24424876 1.0344205 1.7143084 0.4695906 0.068528295 -0.9196434 -0.39352104
1.0710341 1.787051 0.01639462 -0.21998431 -0.31960797 0.1110652 1.4470958 -1.9622697
0.28630248 0.09314756 -0.0414035 0.07248648 0.44547552 -2.3849483 -0.30287528 0.10765157
-0.08817421 0.08597703 -2.5060003 -1.6598147 0.27404168 0.10037084 -0.37520343 0.17123272

fc.0.bias f4 [128]
00000000: 2c76 1e3e 1c3c 41be 377a 823e 60dc a13d
00000010: 97c6 aa3e 07e5 0f3e f4a8 1fbf d139 2bbf
00000020: ca77 b2be 45fe 383e 9429 9c3d 4818 e2be
00000030: b2ad 86bd 33df 613e 0db5 0a3f 0929 9d3e
00000040: 4368 cfbe a0fc 85be d9a2 1b3d c2be 9fbd
00000050: e202 0abc 7a53 1cbe db9f f7bc 0cc4 3cbe
00000060: 97ee 073e 1098 b8be 203c 053d 9857 c2bc
00000070: de25 953c 2098 93bd 44f5 e3bd b3cd a1be
00000080: c972 c83d 22c6 dcbe 37d8 833e 1d80 6fbd
00000090: 728d 343f dcc7 bebe 454c 1ebf 374e bcbe
000000a0: f6c6 11bf 745f 4c3d feb9 cc3d 2af5 ac3e
000000b0: fa51 81be 1708 e7bd 5c4c 283e a568 943e
000000c0: 0771 5bbe 270a 08be 18f6 6b3d c157 083e
000000d0: fae5 9b3e 0797 51be 5f85 d7bd d80c a3be
000000e0: aeed 60be 876b 1dbf 67af 953d 874e 163e
000000f0: 702e 25bd 7b8c 13bc 397b 933d 9624 903e
00000100: e867 993d fc62 e7be db83 1f3e b575 96be
00000110: ab53 003f aacc ab3e 1ee9 12bf d436 a63e
00000120: f676 3fbd 9197 f7bc 2335 5a3e 6d5f 13bf
00000130: 1967 d2be 6deb d6be 3754 c0be a964 9d3e
00000140: bbbb 6d3e 3ca3 09be 9c5f aabe 851e 7abe
00000150: 4a17 e7bd f3ed fa3e ed54 76be 7e99 07bd
00000160: 798f eabe 1958 973e 54ca b13e 439c 93be
00000170: 198f cd3d 4e5c ec3c 9758 9b3e d437 0cbf
00000180: b49e c0bb 4af1 ddbd ccec 68be 6f25 1ebf
00000190: 3c48 163f 0383 ab3e b5a2 96bc 1637 2cbe
000001a0: 0e14 d23d 28bc 5a3a 84e3 aabe 4572 52bc
000001b0: dee4 233e 70c8 0abe 3f37 4a3e 5cc1 bfbd
000001c0: 5f8c ecbd 0cfe ddbd 4af4 d93c e5c8 2b3e
000001d0: 5851 45be e82d 99be dbc0 2f3e ba81 35bd
000001e0: 2459 6cbe b426 cb3e 0bef c1be ca98 0c3e
000001f0: 657d 263e 2568 133f a32d cdbe 0202 a63e
0.15474766 -0.18870586 0.25483868 0.07903361 0.33354637 0.14052211 -0.62367177 -0.66885096
-0.34857017 0.18065746 0.07625118 -0.4415915 -0.065760985 0.220578 0.5418251 0.3069537
-0.40509233 -0.261693 0.0379971 -0.07800056 -0.008423539 -0.15266219 -0.030227592 -0.18434161
0.13274609 -0.36053514 0.032528043 -0.023723409 0.018206533 -0.0720675 -0.11130765 -0.3160225
0.097875185 -0.43119913 0.25750896 -0.058471788 0.7052833 -0.37261856 -0.6183513 -0.36778423
-0.56944215 0.04989572 0.09996413 0.33780795 -0.25257856 -0.1128084 0.16435379 0.28986087
-0.21429835 -0.13285123 0.05760774 0.13314725 0.30448896 -0.20467769 -0.105234854 -0.31845737
-0.21965668 -0.614922 0.07308846 0.14678393 -0.04032749 -0.009005661 0.07201237 0.28152913
0.07490522 -0.45192707 0.15577643 -0.29386678 0.5012767 0.33554584 -0.5738696 0.32463706
-0.04674431 -0.03022364 0.21309333 -0.57567483 -0.41094282 -0.4197649 -0.3756425 0.3074086
0.23216145 -0.13441175 -0.3327607 -0.24425705 -0.11283739 0.49009666 -0.24055834 -0.033105366
-0.45812586 0.295594 0.34724677 -0.28830156 0.10037059 0.028852608 0.30341026 -0.54772687
-0.005878294 -0.10837038 -0.22746581 -0.6177587 0.5870397 0.33498392 -0.018388132 -0.16817889
0.102577314 0.00083440775 -0.33376706 -0.012844627 0.16005275 -0.13553023 0.19747637 -0.09363052
-0.11550211 -0.10839471 0.026605744 0.16775854 -0.19269311 -0.29917836 0.17163412 -0.04431317
-0.2308088 0.39677966 -0.37877688 0.1373016 0.16258772 0.57580787 -0.4007388 0.32423407

fc.2.weight f4 [64, 128]
00000000: 2f37 21bd 8782 923d d23c 1fbe b32f be3c
00000010: 024a 1dbc 9bf1 bcbd d731 153e ca49 8c3d
00000020: 28c1 1c3d e352 033e 1d1a 043c b05f cc3d
00000030: 55f7 b93d 860c 49bd 5ff7 2ebf 3b5f 4fbd
00000040: 6892 063e f11e 9cbe 13cb 7c3d 20fb ccb9
00000050: 2795 15bd 7568 30bd 2921 2240 6649 02be
00000060: 73ec 8cbd 20f8 ebb9 e7f0 2fbd 7586 37be
00000070: fe0c 2c3d 9a33 a8bc 9318 9c3d 89af fe3d
00000080: 14ba 8d3d e965 183d d90e d3be 9f35 2fbd
00000090: f86b 893e c0dc bd3b 46a8 6c3d 7666 72bd
000000a0: 41c8 e73d 297e 98bd cc4f 6dbd 2441 b7bc
000000b0: 2c92 1dbd b26b 803c bd1f 543d 8242 29bd
000000c0: 425b a3bf 9545 8e3d c1ea f4bd f438 afbc
000000d0: 35a7 053d ac29 9fbc efb7 5f3d 5773 d53d
000000e0: 42eb 92bc 5046 1f3d d8fc bebc c610 873d
000000f0: 1e21 3e3d 9c1e 84bd 8cdf afbd f4e6 65bc
00000100: e8bd 8b3d dd01 153d 6adf a13b 8002 debb
00000110: 2806 40bd 8f2c 06bd 9b89 7c3e 2e5a 43bd
00000120: b8b7 cebc 2d85 5fbd 995d a6be b884 df3c
00000130: 1d8b 91bc 8213 043e 8a8a ab3c e782 94be
00000140: faff 1abd 50a5 463d 3493 473e 1c9c 5abd
00000150: e9e7 95bc 455f 63bd 031a 83bd b328 373c
00000160: de35 f13c f044 f4bc 0b6d 9b3d 5b94 c03c
00000170: 99a0 9bbd c866 893e 921b 703d f4dd 7f3d
00000180: 8a78 cab9 532e 30be a85a 52bb 2f4e e33d
00000190: 675a a33e 3128 0c3d 9548 edbc 992c 07bc
000001a0: 36ac e33e bdb4 443d 2be1 9a3c e625 61be
000001b0: bc65 4d3c 9963 a23c 6b38 973c d234 8f3e
000001c0: e05c 803d 10cf cbbd 4365 243d 9e74 4bbd
000001d0: 92cb cbbc 2f80 05be f448 b63d 283d 0dbe
000001e0: bb4e 09bd fea9 b3bc e069 0ebd 8254 2a3e
000001f0: afa0 d83c 9422 9f3c dd2e 5c3d 5707 093d
00000200: d5bf cd3d 5067 bfbb 767a 09bd 4c56 dbbd
00000210: 1a2f 8ebd b861 1a3c d3c8 d0bd 0d91 29bd
00000220: 8b88 d33c 4856 96bb 4e2e a03d 04d9 06be
00000230: 6a94 8b3c 6007 4ebd 615d c43d 1e88 843d
00000240: 46b1 9bbd 90ba c03d f1a1 dabd 2272 1e3d
00000250: 1fb9 e23c 8a55 a83d 6d17 76bd 3ed1 443c
00000260: bc0c 6ebd 8ab3 57bd 968e 433c 948f 9bbc
00000270: e48c 87bd d1ba 6c3c ec9c 693d 839b ab3d
00000280: 3870 cfbd 54e0 e7bd 76af 9cbd d28d 29bc
00000290: ca11 503d d001 673d 35fb 3d3d f2fc e3bc
000002a0: 6a6c b03c a5e0 86bc 4f1a b43b 8e50 f7bc
000002b0: 0eef 44bd 3182 27bd d6d6 cb3d 36ae 753d
000002c0: c665 323d c971 8dbd c891 c2bc bf96 51bd
000002d0: 0a53 033b d95a 37bd ccc2 a1bd 52cb a0bd
000002e0: 8e3c c53d 681d e0bc b55b 89bd 9028 0e3d
000002f0: abce a43d b537 ba3d 8675 983d 1e6d ee3c
00000300: 3926 883d c99b 2ebd 023c c43b 98fe 71bd
00000310: 3864 e1bb 78cf 25bd 70f8 69bd 8370 813d
00000320: bc57 b6bc 9443 b6bc ebfc b13d 1bff 5a3d
00000330: f17c a43c 524c cabd 7a09 1f3c e626 70bd
00000340: 4077 483d e8fc 17bd 0fc3 973c f29d a7bc
00000350: 72e1 233d 8c69 b83d 45a3 e23c 9f6a 91bd
00000360: 70bb 153d 2c85 953d 8812 6cbc 82cc afbd
00000370: 4d51 89bd 0c01 4e3d 74a6 293d 6370 6b3c
00000380: c994 9abd 8a3f 45bd be77 ddbd 0df3 8fbd
00000390: 2a05 343d 7a40 033d 5ad0 7b3d d5ac e6bc
000003a0: d5b6 9dbd f0f7 73bd ea2b 9fbd 521f 64bc
000003b0: eb37 b23c 5fa0 c13d 65cf b3bd 781d a1bd
000003c0: 58f6 823d 7eed 37bd 615d 0cbd ef82 af3d
000003d0: e8b1 7c3d fda0 983d 718f b6bd a0f6 8e3d
000003e0: cfb1 e03c 5ebb e0bc a833 1d3d b674 2b3b
000003f0: ae2e 52bc 0de1 aa3d a7bf 82bd e283 973c
-0.039359268 0.07153802 -0.15550545 0.023216104 -0.009600164 -0.0922577 0.14569794 0.06850012
0.038270146 0.12824588 0.0080628665 0.099791884 0.09080378 -0.04908421 -0.6834621 -0.05062793
0.13141787 -0.30492356 0.061717104 -0.00039097015 -0.036519196 -0.043068368 2.533274 -0.12723312
-0.068810366 -0.0004500756 -0.04295435 -0.17922385 0.042004578 -0.020532418 0.07621875 0.124358244
0.06920257 0.037206564 -0.41222265 -0.042775746 0.26840186 0.0057941377 0.057777666 -0.059179746
0.11317492 -0.07445938 -0.05793743 -0.022369929 -0.03846948 0.015676353 0.05178808 -0.041323192
-1.2762225 0.069468655 -0.11958838 -0.021389462 0.032630164 -0.01942905 0.054618772 0.1042239
-0.017934445 0.038885415 -0.023313925 0.06594996 0.0464183 -0.06451151 -0.0858756 -0.014032114
0.06823331 0.03637873 0.004939963 -0.0067752004 -0.04688087 -0.032757338 0.24661867 -0.047693424
-0.025234088 -0.054570366 -0.32493284 0.027284965 -0.01776653 0.12898067 0.020940084 -0.2900612
-0.037841775 0.048497498 0.19489747 -0.053371534 -0.01829906 -0.055510778 -0.06401446 0.011179137
0.029444631 -0.029818028 0.07589158 0.023508241 -0.07598991 0.26836228 0.058620043 0.06246753
-0.0003861825 -0.17205171 -0.0032097492 0.11098897 0.3190491 0.034218017 -0.028965274 -0.008250379
0.44467324 0.048023928 0.018906197 -0.21987113 0.012536462 0.019822882 0.01845952 0.27969986
0.062677145 -0.099516034 0.040135633 -0.04967176 -0.024877343 -0.1303718 0.089006335 -0.1379286
-0.03352235 -0.021931645 -0.03476894 0.166338 0.026443807 0.019425668 0.05375563 0.033454265
0.10046355 -0.005841173 -0.033564053 -0.10709819 -0.06942578 0.009422712 -0.10194554 -0.041398097
0.025821945 -0.0045879222 0.07821332 -0.13168722 0.017038543 -0.050300002 0.09588123 0.06471275
-0.076021716 0.09410584 -0.10675419 0.038683064 0.027676163 0.0821944 -0.060080934 0.012012778
-0.058117613 -0.052661456 0.011935851 -0.018989362 -0.0661867 0.014448837 0.057034418 0.08379271
-0.10128826 -0.11322084 -0.07650654 -0.010348754 0.050798215 0.056398213 0.046382148 -0.027830575
0.02153607 -0.01646454 0.0054963003 -0.030189779 -0.048079543 -0.040895645 0.09953086 0.059980594
0.04355409 -0.069064684 -0.023751155 -0.051169153 0.0020038509 -0.044764373 -0.07898483 -0.0785128
0.096306905 -0.027357772 -0.06706945 0.034706652 0.08047231 0.090926565 0.07444291 0.029104766
0.066479154 -0.042629037 0.005988599 -0.05908069 -0.006878402 -0.04048106 -0.057121694 0.06320288
-0.022258632 -0.02224902 0.086908184 0.053465944 0.020079108 -0.09877838 0.009706849 -0.058630846
0.04894185 -0.037106425 0.018525628 -0.020461056 0.040009923 0.090045065 0.027665744 -0.071004145
0.036555707 0.07300791 -0.014408715 -0.08583929 -0.0670496 0.050293967 0.041418508 0.014370057
-0.0754791 -0.0481563 -0.10813855 -0.0702878 0.043950237 0.03204391 0.061477996 -0.028158585
-0.07700888 -0.059562624 -0.07772048 -0.013923483 0.02175518 0.094544165 -0.08779792 -0.07866949
0.063946426 -0.044904225 -0.03426874 0.085698955 0.061693102 0.07452581 -0.08914078 0.06980634
0.027428536 -0.027433094 0.03837934 0.0026162094 -0.012828512 0.08343706 -0.06384211 0.018495504

fc.2.bias f4 [64]
00000000: 9c90 58be 30d5 c93b bede 31bc 680e 6cbb
00000010: 704f b7bc b3e6 9d3c 7829 bdbb f933 acbe
00000020: 6722 013d c54a 0ebd 9e26 083c 569a b33d
00000030: 46dc a6be 093f cc3c 67b2 cdbd 1887 02bc
00000040: d7e8 9fbd e84c 143d 5958 c3bc 454c a2bd
00000050: fb62 0e3e 1862 8f3e fc11 99bd 86ae 403d
00000060: 76f0 a43d d789 c8bd 5218 34bd b8b8 bfbb
00000070: 7604 cd3d cc4f d13d 6aea f0bd cb15 81bd
00000080: 19d6 9b3c ccf1 7abe d57e 3c3d e744 2e3c
00000090: 74ff 51bb 266d 49be a200 b43c 2795 a63d
000000a0: 2b63 2e3e c460 233b 00e9 ec3c 5f07 adbd
000000b0: f336 803c ccd0 313d e7a4 28be 5101 30be
000000c0: 588d 07bd 729e fc3b ed45 843d 680f 5c3c
000000d0: 20d4 083d ce48 ac3e 398f 4d3d b6a7 283d
000000e0: 3098 073c c239 4c3d df3d a7be 1ee3 0abc
000000f0: d1c3 153d bf47 443e 6fda a63c a8c6 2bbe
-0.21148914 0.006159447 -0.0108563285 -0.003601933 -0.022376746 0.019275045 -0.0057727657 -0.33633402
0.03152695 -0.034739275 0.008309988 0.087696716 -0.3258993 0.024932401 -0.10043793 -0.007966779
-0.078080826 0.036206156 -0.023845838 -0.079247035 0.13904946 0.28004527 -0.07474133 0.04704144
0.08053677 -0.09791916 -0.043968506 -0.0058508776 0.100106165 0.10220298 -0.11763461 -0.06302985
0.019022988 -0.245063 0.046019394 0.010636545 -0.003204313 -0.19670543 0.021972958 0.08133917
0.17030017 0.0024929503 0.028919697 -0.084486715 0.015651202 0.043412015 -0.16469155 -0.17188002
-0.03309378 0.007709318 0.0645865 0.0134314075 0.033405423 0.33649296 0.050185416 0.041175567
0.00827603 0.04985977 -0.3266439 -0.0084770005 0.0365637 0.19167994 0.02036783 -0.16775

fc.4.weight f4 [32, 64]
00000000: 9399 cebc b694 a1bd 8002 6dbd 6830 eb3d
00000010: d182 aebc 6e3e 36bd d69a 10bc 6fea ebbc
00000020: f207 693d ad8b b6bd 3566 c33e 226a fe3c
00000030: e7d7 eabc d4a0 50bd 5594 1dbf 36fb a53d
00000040: 6a50 7c3c c286 ddbd ca07 a8bb 2b2c 12be
00000050: 8107 08bd 9c7c b83c 72da f13d 3ce9 9c3d
00000060: 5a96 a5bc ea03 57bc 22c2 afbb 30bd 8ebd
00000070: 0fbe 0fbd a018 143e 5a0d 50bd 726e eabb
00000080: 46de 66bd e027 3bbd b024 0d3e dcc1 333c
00000090: 6ba7 10bd d5bc f03c cf4d 80bd b76f 1e3e
000000a0: f044 0ebd 631d f13d 7410 c03c 4109 8fbc
000000b0: 4500 fabd 8b53 f23c 8f2f 9cbd 3e19 b6bd
000000c0: 4637 033c 16a8 a4bd 06f0 7ebd ef61 803d
000000d0: 7b37 e2bd 45be babd 1986 a53d 1a8e cbbd
000000e0: e46e 3e3d 3549 40bc 67b8 47be 10bc dc3d
000000f0: c031 e8bd d217 d53d de80 f23d b91c bdbd
00000100: 4d06 883d ac80 8bbd b1c7 943d 26a4 66bd
00000110: 9450 983c c670 cc3d 0231 34bd 7eed 733d
00000120: d59c 8d3d 4c8f 993d 8400 6a3d ed01 eebd
00000130: 651f 16bd d923 62bd daf0 7abc f1fe 84bd
00000140: 2f8b 0c3e 6328 c03b 7ba0 07be 509c 013e
00000150: 16fc b43d cb8e b1bd a008 07bd 6426 a03d
00000160: 617b 45bc 5746 bd3d d826 ccbd 98eb c2bd
00000170: a600 a5bd 15fc 993d 1104 a4bd ea69 c4bd
00000180: 914d e6bd c7cc b93d dc67 25bd 65d3 213d
00000190: 3017 a6bd 4e4c 98bc cfe9 ea3d 9ccc a83d
000001a0: 8abd 99bd 6c35 213d 07ee f43d cf24 aabd
000001b0: 9c71 e23c a89a e23d c8c3 ed3c e8a4 b73b
000001c0: 8425 3cbd 8ebf e63c 08ad 6fbd d189 053c
000001d0: 47f0 a8bc ce76 babd c2b3 9abd 12c8 dabd
000001e0: 3106 133e f507 2f3d 8aff 983d 73ab 10be
000001f0: 9894 8c3d 2a5d 0fbe 50e0 2f3c 3949 ce3d
00000200: 2309 96bd ea3a d7bd ced7 a83d bc22 bbbc
00000210: dbfe 97bd ff14 e8bb 45e6 0c3d 1c42 1cbe
00000220: 41e5 0abe 1392 8a3d 6fc3 f5bc 5fc9 573d
00000230: 04da 0bbd 7c3e 52bd 167e 55bd 2ff3 05be
00000240: 5896 c8bd b793 fbbc ad3c 833d bc4a 6bbd
00000250: 07a9 fabd 3729 c0bc 150d 1ebe 6262 21bc
00000260: 1921 f73d a034 74bd 8c6e 0e3d b828 60bc
00000270: d7eb dd3d ee3d 0dbe 9155 35bd c241 54bd
00000280: 891a 84bd 6100 bf3c 1e7e 8c3d 91e7 17be
00000290: 98a2 b9bd 7b91 edbd 4a7f e03d 4201 09bd
000002a0: 435d 5c3c eb38 213c bd2d d93d 0f2a 873c
000002b0: 89bc b43d 9ce6 793c f765 96bc ec12 e3bd
000002c0: 5e53 34bc d9b5 08bd 79bc 18be df0b 383d
000002d0: 25d9 bd3d 5a6c 843d f16b 21be ed60 c63d
000002e0: e163 bfbd f996 403d 77d8 853d 3c18 03be
000002f0: 3fe0 71bd 9540 e1bc 3479 cd3d e065 b3bd
00000300: e303 11be 1843 8dbd 08d5 47bd 83f2 62be
00000310: fb97 c83b 658f 873d d9bb fbbd 0e32 6f3e
00000320: fde2 95bb ca58 e7bd 94fb 5dbd b66f 663d
00000330: 03dc ca3d 4c7d 7f3d 905d 803e 7f67 283d
00000340: b632 d5bc 867a ecbc d256 10be f498 a23d
00000350: 7e78 a0bc 72c7 27be 1df7 f2bc bfbe d83c
00000360: e36e 1dbd 9802 e0bc 761b 123c 8a70 c6bc
00000370: 7e37 c73d a073 243e 908a a23c a0d6 5dba
00000380: 6f84 d2bd 4cb3 93bb f759 093d 9934 debd
00000390: b6cf 2d3d 345c 5fbe 4c1b 69bd c150 b83d
000003a0: 73b3 d63d e67b 35bd 748a 60bb 456c e8bd
000003b0: bb20 093e fd98 2a3d dc1a 01bd a6aa 13be
000003c0: 438c 7c3c aaf1 d5bd ade9 ed3d 58a7 db3a
000003d0: 36e2 c43d 7786 b93d 3991 a6bd 0d3f 823d
000003e0: f780 3c3c 453f b5bd 1b40 313e 56ef ac3d
000003f0: 5929 453d 5035 743e 5fb4 4d3e 0529 233e
-0.025219714 -0.078896925 -0.057863712 0.11483842 -0.021302612 -0.04449313 -0.008825978 -0.02879831
0.056892343 -0.0891336 0.38163915 0.031056467 -0.028667403 -0.050934628 -0.6155446 0.08104555
0.015400032 -0.10816719 -0.0051278817 -0.14274661 -0.03321028 0.022520356 0.11809243 0.076616734
-0.020213295 -0.013123492 -0.0053637186 -0.069696784 -0.035093363 0.14462519 -0.050793983 -0.0071542794
-0.05636432 -0.045692325 0.13783526 0.010971513 -0.035315912 0.029386917 -0.06264841 0.15472303
-0.034733713 0.11773183 0.023445345 -0.017460467 -0.12207083 0.029580852 -0.076262586 -0.08891533
0.008008784 -0.08039872 -0.062240623 0.06268679 -0.11045738 -0.09118322 0.08082218 -0.09939213
0.046492472 -0.011736204 -0.19503938 0.107780576 -0.11337614 0.10404934 0.11840986 -0.09233994
0.06641827 -0.068116516 0.072646506 -0.056308888 0.01859311 0.09982447 -0.04399205 0.059552662
0.06914679 0.07498035 0.057129398 -0.11621461 -0.036651034 -0.05520997 -0.015316213 -0.06493939
0.1372497 0.0058641895 -0.13244812 0.12657285 0.08837144 -0.08669814 -0.03296721 0.078198224
-0.012053342 0.09241932 -0.09968346 -0.09517592 -0.08056764 0.07518784 -0.08008588 -0.09590514
-0.11245263 0.09072261 -0.04038225 0.039508242 -0.081098914 -0.018591072 0.11470377 0.08242151
-0.07506855 0.039357588 0.119594626 -0.08307802 0.027642064 0.110646546 0.02902402 0.005604375
-0.045934215 0.028167512 -0.058514625 0.008150534 -0.020622386 -0.091046914 -0.07553817 -0.10682692
0.1435783 0.042732198 0.07470615 -0.14127903 0.068642795 -0.14000383 0.010734633 0.1007256
-0.073259614 -0.10509284 0.082442865 -0.022843711 -0.07421657 -0.007082581 0.03439929 -0.15259594
-0.13564016 0.06766143 -0.030000417 0.052682277 -0.034143463 -0.05132912 -0.052122198 -0.13081048
-0.09794301 -0.030710084 0.06408057 -0.05744432 -0.12239271 -0.023457153 -0.15434678 -0.009850116
0.1206686 -0.0596205 0.034773394 -0.013681583 0.108359985 -0.13793156 -0.044271056 -0.051820524
-0.06450374 0.02331561 0.068599924 -0.1483443 -0.090642154 -0.11600014 0.109617785 -0.033448465
0.01344997 0.00984023 0.10604427 0.016499547 0.08825023 0.0152527355 -0.018359168 -0.110875934
-0.011006204 -0.03337655 -0.14915647 0.044933196 0.09269933 0.06465979 -0.15763833 0.09686456
-0.09345222 0.04701898 0.06535428 -0.12802213 -0.05905175 -0.027496615 0.10032883 -0.087596655
-0.14161639 -0.06897563 -0.048787147 -0.22162823 0.006121633 0.06619147 -0.122916885 0.23358938
-0.0045741783 -0.11296232 -0.054195 0.05625888 0.09905245 0.06237535 0.25071383 0.041114327
-0.026025157 -0.028867017 -0.1409562 0.0793933 -0.019588705 -0.16384676 -0.029658848 0.026458142
-0.038435828 -0.027344987 0.00891768 -0.024223585 0.09727381 0.16059732 0.019841462 -0.00084624626
-0.10279166 -0.004507458 0.033533063 -0.10849876 0.042434417 -0.21812516 -0.056910798 0.089997776
0.10483446 -0.044307612 -0.0034262212 -0.11348776 0.13391392 0.041649807 -0.031519756 -0.14420566
0.0154143 -0.104464844 0.11616836 0.0016758246 0.09613459 0.0905885 -0.08133168 0.06359682
0.011505357 -0.08849958 0.1730961 0.08444087 0.048135135 0.23848462 0.20088337 0.15933616

fc.4.bias f4 [32]
00000000: 9539 0b3d 74c1 203c 4b46 07bd 0583 c83d
00000010: 96d6 d13b 90a8 2bbe c8da 2b3e 9a2f c7bd
00000020: 36e0 a3bd e68c 6e3c 22dc da3d 4d56 e23d
00000030: f39e c83d ee9a 963c 95f7 1fbd a23f b8bd
00000040: b240 f03d 1ec7 023d 3942 31be f9ae 01bd
00000050: 2732 ee3d 72b4 87bd 3aa9 b33d 3138 b63e
00000060: 2d5b 20bd ef47 16be 5bcd 32be 965e a5bd
00000070: 6da2 f7bd 4004 9ebd 0da1 d43d c912 6d3e
0.03399046 0.009811748 -0.03302602 0.09790615 0.0064037545 -0.1676352 0.16782677 -0.09725876
-0.08001749 0.01455996 0.10686518 0.11051617 0.09795942 0.018384423 -0.039054472 -0.08996512
0.1173109 0.031928174 -0.17310418 -0.031661008 0.116306596 -0.06626214 0.08772512 0.35589746
-0.039149452 -0.14675878 -0.1746115 -0.080746815 -0.12091527 -0.077156544 0.103822805 0.23151697

fc.6.weight f4 [3, 32]
00000000: dea1 34be a2c7 59bd cc9a 21be 38aa 4c3d
00000010: e31c d3bd 9c0f 233d 90f4 9ebd 4164 eebd
00000020: 9225 d0bd e257 f9bd 740d 053e ecf7 fcbd
00000030: 5be4 4fbe c071 f9bc 9b85 603c 2a35 003e
00000040: 9342 7fbc 671a 9dbd a5ac c9bd ee52 0cbe
00000050: 634d 17be 07b0 073e 2e00 dfbd db5e 9ebe
00000060: a53f 633d c005 21b9 262b b93d 3cb2 d43d
00000070: 7a50 4cbd e59c f0bd a862 58bd 24df 9ebe
00000080: 01f8 8d3d ff32 fcbd da17 483b 2a3d 2cbe
00000090: 1861 153d 6b0f 743c 4f9a 4e3e 1f9a e3bd
000000a0: eeab cabd 313e 8ebd 30ee ce3d f6ee 773e
000000b0: 7648 423e 0f29 fa3d 6897 2b3e 8580 02be
000000c0: 4dd9 5f3e 33d4 0b3d f002 19be 1c83 95bd
000000d0: 8e7a 38bc 00f6 b63b 87b5 e23d 900f 483e
000000e0: 5086 05c0 6216 02bf 3d83 8fbe a5ea 023e
000000f0: 91a5 a7bd f6f5 ad3d 68a8 ec3d 91e9 893d
00000100: 7282 c7bb 22e5 e53c 76b5 18bd d051 703e
00000110: f0a5 29be 7ec9 aabd 7952 3f3e d81a 3c3e
00000120: 1e01 fd3d c4f2 513e ffc4 5f3d cd9b 053e
00000130: 742e febd 55de 10be edde 91bd 40f6 8cbd
00000140: 37b8 033e c7e0 253e c4fe c33d ab61 ed3c
00000150: b885 41bd 5b2f 14bd 022e e83c 2016 9dbd
00000160: 6e8d 9c3e 5760 d8bd 8f65 123e ffc9 22be
00000170: 3bf1 fabd 869b af3d 698e 1fbd 19eb 453e
-0.17639872 -0.0531689 -0.15781707 0.04996702 -0.10308244 0.039809808 -0.0776149 -0.11640216
-0.10163416 -0.121749654 0.12993413 -0.12351975 -0.20301954 -0.030449748 0.013703729 0.1252028
-0.015579837 -0.076710515 -0.098473825 -0.1370351 -0.14775614 0.13250743 -0.10888706 -0.30931744
0.055480618 -0.00015356299 0.09041433 0.10385558 -0.049881436 -0.11748675 -0.05282846 -0.31029618
0.069320686 -0.12314414 0.0030531795 -0.16820207 0.03646955 0.014896254 0.20176052 -0.11113381
-0.09896074 -0.06945456 0.101040244 0.2421225 0.18972954 0.122148626 0.16756976 -0.12744339
0.21860237 0.034137916 -0.14942527 -0.07300398 -0.011259688 0.0055835247 0.1106978 0.19537187
-2.0863228 -0.50815403 -0.28029814 0.12784822 -0.08185876 0.08494179 0.115555584 0.067340024
-0.0060885483 0.02806336 -0.03728243 0.23468709 -0.16567206 -0.08339213 0.18683805 0.18369615
0.12353729 0.20502764 0.05463123 0.13047715 -0.12411204 -0.14147313 -0.07122598 -0.06882906
0.12863241 0.16199027 0.09570077 0.028977236 -0.047246665 -0.036177974 0.02834225 -0.07670236
0.30576652 -0.1056525 0.14296554 -0.15897368 -0.12253042 0.085745856 -0.038954172 0.19327964

fc.6.bias f4 [3]
00000000: f81d c3bd b532 903e e19e ee3d
-0.095272005 0.28163686 0.116513975
