Genetic_Models/dino_genetic_model13.pth (torch, 184558 bytes, 10 tensors)

fc.0.weight f4 [256, 6]
0	0x3cb2fbe7	0.021848632
1	0x3da0b015	0.07846085
2	0xbf171ac5	-0.5902522
3	0xbc7b86c8	-0.015351959
4	0xc09d9687	-4.924625
5	0xc08466ef	-4.137565
6	0xbea80c12	-0.3282171
7	0x3e823f48	0.25438905
8	0xbf1d44fb	-0.6143338
9	0xbb6e5028	-0.0036363695
10	0x3fd629d1	1.6731511
11	0xbfab3135	-1.3374392
12	0xbeb03370	-0.34414244
13	0xbdd056b5	-0.10172788
14	0xbeed467d	-0.4634284
15	0x3e87d661	0.26530746
16	0x3e3a92b7	0.1822003
17	0xbf71ae9b	-0.9440705
18	0xbecc5f25	-0.3991634
19	0xbe629c3f	-0.22129916
20	0x3e9bbaba	0.304159
21	0x3ea16e3e	0.3152942
22	0x401dd592	2.4661603
23	0xbf3f5ec4	-0.74753976
24	0xbcc5fe58	-0.024169132
25	0xbe093b66	-0.13401565
26	0x3f01d03b	0.5070836
27	0x3e022f90	0.12713456
28	0xbe157038	-0.1459359
29	0xbffa2b3e	-1.9544446
30	0xbe8c8935	-0.2744843
31	0x3db5e114	0.08880821
32	0xbe909d4c	-0.28245008
33	0xbe2c86fe	-0.1684837
34	0xbe541dc6	-0.20714483
35	0xbc806058	-0.01567094
36	0xbe3a8847	-0.18216048
37	0x3d48e867	0.04904976
38	0x3f0c9b0e	0.54924095
39	0xbbf51bdc	-0.0074801277
40	0x3ec63675	0.38713422
41	0xbf7b4228	-0.9814782
42	0x3e9330f2	0.2874828
43	0xbe01b732	-0.1266754
44	0x3ebd864d	0.37016526
45	0xbe6aa0bc	-0.22912878
46	0x405f55c5	3.48961
47	0x4022eecf	2.5458257
48	0x3e890c75	0.26767316
49	0x3d7701b3	0.060304355
50	0xbdff2474	-0.12458125
51	0xbdb761c9	-0.08954198
52	0x3f84a98c	1.0364242
53	0xbff7ca65	-1.9358641
54	0xbe482d78	-0.19548595
55	0xbf03c07b	-0.51465577
56	0xbe06b244	-0.1315394
57	0x3e93d67d	0.2887458
58	0xbdc05ab4	-0.093923
59	0x3f893ce1	1.0721704
60	0xbdb08f4d	-0.086210825
61	0xbc4a5cb2	-0.012351202
62	0x3dbdf950	0.09276068
63	0x3c8a963a	0.016917337
64	0xc013f2b9	-2.3116896
65	0xc03a6a68	-2.9127445
66	0xbeb13254	-0.3460871
67	0xbe01afc6	-0.12664708
68	0xbf214378	-0.62993574
69	0x3e3cb1b4	0.18427163
70	0x4071eaa8	3.7799473
71	0x40076203	2.1153572
72	0x3e7f50d9	0.24933185
73	0xbe80c277	-0.25148365
74	0xbf640010	-0.89062595
75	0x3db358b8	0.08757156
76	0x4016ca81	2.3561099
77	0xbf4851bc	-0.78249717
78	0xbf1141b2	-0.5674087
79	0x3e85e55a	0.26151544
80	0x3e45ab81	0.19303705
81	0x3c9d4d2a	0.019201834
82	0xbfdfef98	-1.7494993
83	0x3ffdf32a	1.9839833
84	0xbdda5f2b	-0.10662683
85	0x3d12d8e0	0.03585136
86	0xbf0a421b	-0.5400712
87	0x3d6c452c	0.057683155
88	0xbf2c9f66	-0.6743072
89	0xbfe79bbd	-1.8094403
90	0x3e796590	0.2435515
91	0xbe837730	-0.2567687
92	0x3e9c73ed	0.30557194
93	0xbe5a6968	-0.21329272
94	0xbec2d4fb	-0.38053116
95	0xbac44d74	-0.0014976696
96	0xbe57c7c7	-0.21072303
97	0xbe23ee57	-0.16008888
98	0xbe00023b	-0.12500851
99	0xbcaef6ac	-0.021357857
100	0x3e8a2cf0	0.2698741
101	0x3d907c09	0.07054908
102	0xbf133f16	-0.57518137
103	0x3e55a4eb	0.20863692
104	0xbed07097	-0.407109
105	0x3bd6c959	0.006554764
106	0xbfa0a269	-1.2549564
107	0x3e449672	0.19198015
108	0x3ace1ea9	0.001572569
109	0x3e047754	0.12936145
110	0xbebf1783	-0.37322626
111	0xbd5a4451	-0.053287808
112	0xbe8f4e1f	-0.2798929
113	0xbf98dbd5	-1.1942087
114	0x3e2dc8c4	0.16971117
115	0x3e333eec	0.17504472
116	0xbed1a6af	-0.40947482
117	0xbe1c80ff	-0.15283583
118	0x3f6f6863	0.93518656
119	0xbfa747d5	-1.3068796
120	0x3ea71c81	0.32638934
121	0xbe9c54df	-0.30533502
122	0xbf22146a	-0.633124
123	0xbe2335c6	-0.15938482
124	0x408f6c36	4.4819593
125	0x4069acf8	3.6511822
126	0xbdb72707	-0.08942991
127	0x3e12e5e3	0.14345507
128	0x3cc6d53e	0.024271604
129	0xbd509f78	-0.05093333
130	0x406aff65	3.671838
131	0x40744758	3.8168545
132	0x3deb4e8d	0.11489592
133	0x3e819708	0.2531054
134	0x3e53ef2d	0.20696707
135	0xbe60b024	-0.21942192
136	0xbe8f2487	-0.27957556
137	0xc02deb27	-2.7174776
138	0x3ecfe3cc	0.40603483
139	0x3d29b8c7	0.041435983
140	0xbeda725e	-0.4266538
141	0xbed3337e	-0.41250223
142	0xbf5cb99f	-0.86220735
143	0xc036bb00	-2.8551636
144	0x3d9d1e62	0.07671811
145	0xbd7a7ce5	-0.061154265
146	0x3e22a223	0.15882163
147	0xbea1a1a3	-0.31568632
148	0xbeacc745	-0.3374578
149	0xbe832a47	-0.25618193
150	0xbe973b97	-0.2953765
151	0xbe4cc0e1	-0.19995452
152	0xbc7ee82a	-0.015558282
153	0xbe5ca180	-0.21545982
154	0x3e220760	0.15823126
155	0x3e6ce4db	0.23134176
156	0xbe22e5bc	-0.15907949
157	0xbdd106cb	-0.10206374
158	0x3da27693	0.079327725
159	0xbe6a6bbf	-0.22892664
160	0x3e24f3fc	0.16108698
161	0x3e26a67c	0.16274446
162	0x3d8f9656	0.07011096
163	0x3da39f4a	0.07989366
164	0xbdcefcff	-0.10106849
165	0xbdf892fd	-0.12137411
166	0x409a001f	4.812515
167	0x40998e81	4.7986455
168	0xbe5d1f7f	-0.21594046
169	0x3edd9f96	0.43285817
170	0xbe42bc93	-0.19017248
171	0xbe293b58	-0.16526544
172	0xbe69d8d1	-0.22836615
173	0xbfcd2c25	-1.6029097
174	0x3daa2138	0.08307117
175	0x3e813f3b	0.25243554
176	0xbedd404e	-0.43213123
177	0xbe3591b4	-0.17731363
178	0x40017eb9	2.0233595
179	0xbf445274	-0.76688313
180	0xbc0c4898	-0.00856223
181	0xbeaca9bf	-0.33723256
182	0xbdc9affe	-0.09848021
183	0xbe7437f1	-0.23849465
184	0xbc56b779	-0.013105267
185	0x3e02d520	0.12776613
186	0xbd46e927	-0.048562195
187	0x3e8a3200	0.26991272
188	0x3e10fb1b	0.14158289
189	0xbdce5122	-0.100740686
190	0x3f9463d7	1.1592969
191	0xbfef486a	-1.8693974
192	0x3d31d7c6	0.04341867
193	0xbdb53e1d	-0.08849738
194	0xbeb77334	-0.3583008
195	0xbea0d215	-0.3141028
196	0xbea21441	-0.31656078
197	0x3d8d17ca	0.06889303
198	0xbeb0f27b	-0.34559998
199	0x3e0e0726	0.13869914
200	0xbef2971d	-0.47380915
201	0x3db7dca1	0.089776285
202	0x3eb6188b	0.355656
203	0xbfb1829a	-1.3867981
204	0xbd6df159	-0.058091495
205	0x3dca14e8	0.09867269
206	0xbf619c3d	-0.88129026
207	0x3d3a2516	0.045445524
208	0x3ed3b038	0.41345382
209	0xbf34875b	-0.70519036
210	0xbd39048c	-0.045170352
211	0xbeb071a2	-0.34461695
212	0xbf609347	-0.8772473
213	0x3e60185c	0.21884292
214	0xbe7f795c	-0.24948639
215	0x40052e06	2.080934
216	0x3d09fe0c	0.033689544
217	0x3deb6b8a	0.11495121
218	0xbf324fb5	-0.69652873
219	0xbcdc5a71	-0.026898595
220	0xbde690d0	-0.112580895
221	0xbfbfcc62	-1.4984248
222	0xbe822545	-0.2541906
223	0xbe70a8e7	-0.23501931
224	0x3e98a344	0.29812062
225	0xbd2742a8	-0.040835053
226	0x3e41af24	0.18914467
227	0xbe9a49bc	-0.3013438
228	0x3e54b267	0.2077118
229	0xbeeeb36a	-0.46621257
230	0x3e1e6dfd	0.15471645
231	0x3e357c1d	0.17723127
232	0x3f028335	0.50981456
233	0xc02522f3	-2.5802581
234	0xbea1d64e	-0.31608814
235	0x3e969178	0.2940786
236	0x3d8dbbaa	0.0692056
237	0xbcf96e08	-0.030447975
238	0xc002cd25	-2.043771
239	0x3fdc814d	1.722696
240	0xbe84cc48	-0.25937104
241	0x3d82ae8d	0.06380949
242	0x3f287a19	0.65811306
243	0x3c65a1e0	0.014015645
244	0x3e8c9199	0.27454832
245	0xbfdfbda4	-1.7479749
246	0xbd84af16	-0.064787075
247	0x3d136899	0.035988424
248	0xbed3b2bf	-0.4134731
249	0xbe06152a	-0.13094011
250	0xbe0d5917	-0.13803516
251	0xbe9c739f	-0.30556962
252	0xbe444f20	-0.19170809
253	0xbed0f5fe	-0.40812677
254	0xbec5afd2	-0.38610703
255	0x3e66e02c	0.22546452

fc.0.bias f4 [256]
0	0xbf2b2c10	-0.6686411
1	0xbe7abddc	-0.24486488
2	0x3e062f5e	0.13104007
3	0x3d4a3649	0.049368177
4	0xbf032d63	-0.5124113
5	0x3eb8773c	0.3602847
6	0xbde8541e	-0.11344169
7	0xbd868a6a	-0.06569369
8	0xbe2b5627	-0.16732083
9	0xbe20a7f1	-0.15689065
10	0xbf28fe60	-0.66013145
11	0xbef1f967	-0.4726059
12	0xbd590983	-0.052987587
13	0x3f135a33	0.5755951
14	0xbf1a6dac	-0.60323596
15	0xbe9d1a4c	-0.30684125
16	0x3ec39c6e	0.38205284
17	0x3dc53ad0	0.09630358
18	0xbe80f94b	-0.25190195
19	0xbd1a98fe	-0.03774356
20	0x3e996069	0.29956368
21	0xbedf870b	-0.43657717
22	0xbdf10826	-0.11769132
23	0xbeae53d6	-0.34048337
24	0x3e266181	0.16248132
25	0x3e754804	0.23953253
26	0xbe731e43	-0.23742013
27	0xbd244562	-0.04010523
28	0xbe2de404	-0.16981512
29	0xbe6ae3fc	-0.22938532
30	0x3ead1b1a	0.3380974
31	0xbf019d4b	-0.50630635
32	0x3d7a18dd	0.061058868
33	0xbf246c58	-0.6422782
34	0xbe8a5339	-0.2701662
35	0xbef4f439	-0.47842577
36	0xbe2a1ef2	-0.16613367
37	0xbe8e43d3	-0.2778612
38	0x3df2cff1	0.11856068
39	0xbe19da2a	-0.15024629
40	0x3c13140a	0.008976946
41	0xbe58728d	-0.21137448
42	0xbe26a5fa	-0.16274253
43	0xbf4aacd2	-0.7916995
44	0x3ecd213c	0.40064418
45	0xbf0eb5ee	-0.5574635
46	0xbf600c7d	-0.87519056
47	0x3dbc2b58	0.09187955
48	0x3dd43ed9	0.1036355
49	0x3e728a00	0.23685455
50	0x3dd8e11b	0.105898105
51	0x3e5b0530	0.21388698
52	0xbefd725f	-0.4950132
53	0xbe38f440	-0.18061924
54	0x3bba0ac0	0.005677551
55	0xbec6233e	-0.38698763
56	0xbecbf766	-0.39837188
57	0x3d57431b	0.05255423
58	0xbc1e7545	-0.009671514
59	0xbda80e71	-0.082058795
60	0xbdfdd3d6	-0.1239392
61	0x3e954961	0.29157546
62	0x3e30d474	0.17268544
63	0xbed20d98	-0.41025996
64	0x3e7025e1	0.2345195
65	0xbe21a5cc	-0.15785903
66	0xbe17f7e3	-0.14840655
67	0x3eac1f8f	0.33617827
68	0xbda4a9a1	-0.08040167
69	0xbed3c162	-0.41358477
70	0x3e39b4e5	0.18135412
71	0xbea6c12b	-0.3256925
72	0xbe627622	-0.22115377
73	0x3e49ca69	0.1970612
74	0x3ea2fef7	0.31835148
75	0xbed3e831	-0.41388085
76	0xbe4ad0a6	-0.19806156
77	0x3cb063a6	0.021531891
78	0xbecf42a1	-0.4048052
79	0xbef112aa	-0.47084552
80	0xbcfea109	-0.031082647
81	0xbec82bf1	-0.39096025
82	0xbec64743	-0.38726243
83	0x3ec99458	0.3937099
84	0xbe622a9c	-0.22086567
85	0xbf18a707	-0.59629864
86	0x3f180c97	0.5939421
87	0xbec2fb9f	-0.38082597
88	0xbf09c4ec	-0.53816104
89	0x3eb4e159	0.35328177
90	0xbed452b3	-0.41469344
91	0x3ee8be41	0.45457652
92	0x3e63e98e	0.22257063
93	0x3ce5d173	0.028053975
94	0xbe17beec	-0.14818925
95	0xbd235092	-0.03987176
96	0xbd835b3c	-0.06413886
97	0xbe545463	-0.20735316
98	0xbf113ef5	-0.5673669
99	0x3c00a060	0.007850736
100	0x3ca372b0	0.019952148
101	0x3e390016	0.18066439
102	0xbed3e50a	-0.4138568
103	0x3e8c26b3	0.27373275
104	0xbec1f0ce	-0.37879032
105	0xbdcd006f	-0.10009848
106	0x3e7d0e29	0.24712433
107	0xbdd384c0	-0.103280544
108	0x3dddb024	0.10824612
109	0xbefc6f91	-0.49303868
110	0x3db88995	0.09010617
111	0x3ea65924	0.32489884
112	0xbe862e4a	-0.2620719
113	0x3f5883cc	0.84576106
114	0x3e0c166a	0.13680425
115	0xbea047f9	-0.3130491
116	0xbe9ed8af	-0.3102469
117	0xbe2b9db2	-0.16759375
118	0x3d12fe69	0.035887156
119	0x3eb9d7b8	0.36297393
120	0xbe101b91	-0.14073016
121	0xbee7c5a7	-0.45267984
122	0xbca957be	-0.020671722
123	0x3e920a64	0.28523552
124	0x3f3a0628	0.72665644
125	0x3d9120ce	0.07086335
126	0x3ebd288e	0.36945003
127	0xbc9bcdff	-0.019019125
128	0xbd7f2698	-0.062292665
129	0x3d9aae29	0.0755275
130	0xbf188ca5	-0.59589607
131	0xbe54e40d	-0.2079012
132	0xbe94c1f6	-0.2905423
133	0xbe9188f2	-0.28424793
134	0x3f20cc68	0.628119
135	0xbf21e00a	-0.6323248
136	0x3ea9d1f0	0.33167982
137	0xbf1526e1	-0.5826245
138	0x3ebc1940	0.36738014
139	0xbed0d239	-0.40785387
140	0xbf2aaec4	-0.6667292
141	0xbec655ff	-0.38737485
142	0xbd962f9a	-0.07333298
143	0x3f09eab0	0.5387373
144	0xbf12bbe3	-0.5731794
145	0x3cea0b51	0.02856985
146	0x3ed1456b	0.40873274
147	0x3ec89e8c	0.39183462
148	0x3f155e25	0.5834678
149	0x3eacceb0	0.3375144
150	0x3e141852	0.14462402
151	0x3d8bdacd	0.06828842
152	0xbc81c413	-0.015840566
153	0xbe4e3665	-0.20137937
154	0x3d7a8c98	0.061169237
155	0x3e70c2ff	0.23511885
156	0xbe7d1646	-0.24715528
157	0xbc47cb43	-0.012194457
158	0x3d01402f	0.03155535
159	0xbc10df16	-0.00884225
160	0x3d291e10	0.041288435
161	0xbea8131e	-0.32827085
162	0x3ea9d90e	0.33173412
163	0xbe931edc	-0.2873448
164	0xbdede6e6	-0.11616306
165	0xbe2f999b	-0.1714844
166	0xbf434106	-0.7627109
167	0xbf12c83b	-0.5733678
168	0xbdbb3510	-0.0914098
169	0x3ea590fb	0.32337174
170	0x3e95f7e0	0.29290676
171	0xbc854072	-0.016266081
172	0xbef14d6a	-0.47129375
173	0x3dbbe40c	0.09174356
174	0xbf02cdd8	-0.5109534
175	0x3f324ed4	0.6965153
176	0x3ebd4a40	0.3697071
177	0x3e86a0b0	0.2629447
178	0xbe33c7c5	-0.17556675
179	0xbf06f03f	-0.52710336
180	0xbf599350	-0.84990406
181	0xbefbe484	-0.4919778
182	0x3e7a4c5e	0.24443194
183	0xbed3d149	-0.4137061
184	0xbde173fa	-0.11008449
185	0x3bc4f15e	0.0060102185
186	0x3e21f6aa	0.15816751
187	0x3e5e5bf9	0.21714772
188	0xbedba100	-0.4289627
189	0xbbb18b09	-0.0054181856
190	0x3ccc1e58	0.024916813
191	0xbe09ef93	-0.13470297
192	0xbe4a8f66	-0.19781265
193	0xbf00a3f1	-0.50250155
194	0x3eae69d1	0.34065107
195	0x3e6cc44f	0.23121761
196	0x3df5f9e1	0.12010551
197	0x3ddc5566	0.10758476
198	0x3e73d559	0.23811854
199	0xbebe1032	-0.3712173
200	0x3e817eb0	0.25291967
201	0xbf0baf5a	-0.5456444
202	0xbf1f6dfd	-0.62277204
203	0x3ddc7021	0.107635744
204	0x3d883c74	0.066521555
205	0xbd706628	-0.058691174
206	0xbebe6d43	-0.37192735
207	0x3e9208ae	0.28522247
208	0x3d840e61	0.06448055
209	0xbf15c8a5	-0.58509284
210	0x3e4913d0	0.19636464
211	0x3de894b8	0.11356491
212	0xbe14b56f	-0.14522336
213	0xbeb8e21a	-0.36110002
214	0x3e55b03d	0.20868011
215	0xbf14b058	-0.5808158
216	0xbf2eb649	-0.68246895
217	0xbefc1cf2	-0.49240834
218	0xbefff9d6	-0.49995297
219	0xbea02e26	-0.31285208
220	0xbef58576	-0.47953385
221	0x3e8b2767	0.271785
222	0xbe48b34f	-0.19599651
223	0x3de4cedd	0.111722685
224	0x3d812fe7	0.06307965
225	0x3f087b4c	0.53313136
226	0x3ec6ecac	0.3885244
227	0xbcd9baf8	-0.026578411
228	0x3e859a56	0.2609431
229	0xbe924945	-0.28571525
230	0xbe90280b	-0.2815555
231	0xbcfffa7d	-0.031247372
232	0xbeb97f1e	-0.36229795
233	0xbeb02d51	-0.34409574
234	0xbe675ca5	-0.22593935
235	0x3e5df2a6	0.21674594
236	0xbd55e0d0	-0.05221635
237	0xbe64e21f	-0.22351883
238	0xbeb56bc3	-0.35433778
239	0xbb35ba40	-0.0027729422
240	0xbe33348d	-0.17500515
241	0xbdac897d	-0.08424661
242	0xbe52887b	-0.20559876
243	0xbea20fc1	-0.31652644
244	0x3d6db21c	0.058031186
245	0x3ea22c63	0.3167449
246	0xbdc8a212	-0.097965375
247	0xbe0e93a8	-0.13923514
248	0xbe214238	-0.15747917
249	0x3eade1b1	0.3396125
250	0xbec5b27d	-0.38612738
251	0x3e83546e	0.25650352
252	0xbe86017a	-0.26173002
253	0x3e3772f3	0.17914943
254	0xbe578f6d	-0.21050806
255	0xbefecc9f	-0.49765489

fc.3.weight f4 [128, 256]
0	0x3e31ef29	0.17376389
1	0x3e46b7ad	0.19406004
2	0xbdd374a1	-0.103249796
3	0xbdfe1495	-0.124062695
4	0xbccf4413	-0.025301015
5	0xbcd0b481	-0.025476696
6	0x3cb7127c	0.022347681
7	0xbd8959ba	-0.06706567
8	0x3d79717e	0.06089925
9	0xbd01885e	-0.03162419
10	0x3c8168a4	0.015796967
11	0xbf6b920a	-0.9201971
12	0xbd3ea479	-0.046543572
13	0x3e0c7e2c	0.13720006
14	0x3d6b8f26	0.057509564
15	0xbc890c1a	-0.016729403
16	0x3d014d93	0.03156812
17	0x3e1323bd	0.14369102
18	0x3d7269fe	0.059183113
19	0x3c88a87b	0.0166819
20	0x3d96ddd3	0.07366528
21	0x3d858e9d	0.06521342
22	0x3deb1e55	0.11480395
23	0xbd8f2c87	-0.06990915
24	0x3d5e395d	0.054253925
25	0x3b2ee902	0.0026689176
26	0x3ceee493	0.029161727
27	0x3e1b7744	0.15182215
28	0x3dfd6421	0.12372614
29	0x3db403eb	0.0878981
30	0xbd6ecf8c	-0.0583034
31	0x3df8c449	0.121468134
32	0x3c966a4e	0.018361237
33	0x3c83b6c2	0.016078357
34	0xbb1b0338	-0.0023653042
35	0xbf021aaa	-0.50821936
36	0x3d9f867a	0.07789321
37	0x3d3aa9d4	0.045572117
38	0x3cd9aafb	0.026570788
39	0x3c66c6a7	0.014085448
40	0x3d22c245	0.03973605
41	0xbd03875a	-0.032111503
42	0xbd62f7f0	-0.055412233
43	0x3e4ac2ae	0.19800827
44	0xbd3ba2cb	-0.04580955
45	0xbe685a12	-0.22690609
46	0x3d63e0cd	0.05563431
47	0xbd6e2723	-0.058142792
48	0xbcd2feb5	-0.02575622
49	0x3c94e165	0.018173883
50	0xbdb0187c	-0.0859842
51	0x3cace531	0.02110538
52	0xbd9c666c	-0.07636723
53	0xbdd5c909	-0.10438735
54	0x3bb5810a	0.0055390643
55	0xbce1744b	-0.027521273
56	0xbc0ccc0d	-0.008593571
57	0x3d946389	0.07245547
58	0xbd0424e7	-0.032261755
59	0x3d0daf72	0.034591146
60	0x3e2f2201	0.17102815
61	0xbd0ffb44	-0.035151735
62	0x3d5f681d	0.05454265
63	0xbcc508de	-0.02405208
64	0xbd9b8cd6	-0.07595222
65	0x3e1f257a	0.1554164
66	0xbd6250aa	-0.05525271
67	0xbcbc2a46	-0.022969376
68	0x3d98fee2	0.0747049
69	0xbe8ae5c4	-0.27128422
70	0xbe996a69	-0.29963997
71	0xbced2780	-0.0289495
72	0xbd81075f	-0.06300234
73	0xbe8b5473	-0.27212867
74	0x3d6b293c	0.05741237
75	0x3d266921	0.040627602
76	0x3d886396	0.066596195
77	0x3d60fa35	0.054926116
78	0xbcb45122	-0.022011343
79	0x3dfe3130	0.124117255
80	0xbbaf93b0	-0.005358182
81	0x3c1129d7	0.008860073
82	0x3cde06c9	0.027102845
83	0xbc9b100a	-0.018928546
84	0x3db8896c	0.09010586
85	0xbe9bc91d	-0.30426875
86	0x3def2244	0.116764575
87	0x3d013d50	0.031552613
88	0xbdc87e01	-0.09789658
89	0xbdecbe9b	-0.115597926
90	0x3cbe6d03	0.02324534
91	0xbf0d109b	-0.5510346
92	0x3e6fd14e	0.23419687
93	0x3d89a0de	0.06720136
94	0xbdea74d7	-0.11448067
95	0xbc812b84	-0.01576782
96	0x3db756a3	0.089520715
97	0x3cd64cd0	0.026159674
98	0x3daba53a	0.08381124
99	0x3e1fef60	0.15618658
100	0xbcbf2968	-0.023335174
101	0x3c225480	0.009907842
102	0xbd098482	-0.033573635
103	0x3bb7d2d2	0.0056098485
104	0x3e369f32	0.17834166
105	0x3d04891a	0.032357313
106	0xbbfd7ad0	-0.0077355877
107	0x3d76f1b0	0.060289085
108	0xbed1f70a	-0.41008788
109	0xbe9a57e5	-0.30145183
110	0x3cadd037	0.021217449
111	0x3d30632a	0.04306332
112	0x3d40329c	0.046923265
113	0xbf5b7fb9	-0.85741764
114	0xbcabe600	-0.020983696
115	0x3c8348d7	0.016025944
116	0xbd6059a2	-0.05477298
117	0x3d54b250	0.051927865
118	0xbc9bf406	-0.019037258
119	0xbcd7ad09	-0.026327627
120	0x3d9e5799	0.07731552
121	0xbd77c961	-0.060494784
122	0xbd408d63	-0.047009837
123	0x3dd55d32	0.10418166
124	0xbf1f84cd	-0.6231201
125	0x3e6525fa	0.22377768
126	0x3c99524e	0.018716004
127	0xbcba8a39	-0.022770988
128	0x3cf6823d	0.0300914
129	0xbc03699e	-0.008020787
130	0x3d3507ad	0.044196773
131	0x3d4f79cf	0.050653275
132	0x3d2e7f0e	0.042601638
133	0xbe08d04c	-0.13360709
134	0x3d471c45	0.048610944
135	0x3d8ac890	0.067765355
136	0xbf177df5	-0.5917657
137	0x3e1919d2	0.14951256
138	0xbeadac37	-0.33920452
139	0x3d7e2bcf	0.062053498
140	0x3dfea3a3	0.12433555
141	0x3b1bda20	0.0023781136
142	0xbc7e1228	-0.0155072585
143	0x3c2f2048	0.010688849
144	0xbdec631f	-0.11542343
145	0x3c1c0a27	0.009523905
146	0xbdbebbf6	-0.093131945
147	0xbd241aee	-0.040064745
148	0xbe3801a0	-0.1796937
149	0xbc9821ce	-0.018570807
150	0xbf2d85a2	-0.6778203
151	0xbee9c288	-0.45656228
152	0x3c32ad40	0.010905564
153	0x3d98a73b	0.07453772
154	0x3cb09d5d	0.021559412
155	0x3cbb7ad0	0.02288571
156	0x3dc31f66	0.09527473
157	0xbe623641	-0.22091009
158	0x3cf54288	0.029938951
159	0xbf250466	-0.64459836
160	0x3cd96cb4	0.026541092
161	0x3e0c6b34	0.1371277
162	0xbd7169e0	-0.05893886
163	0xbeba7c06	-0.36422747
164	0x3d6ff456	0.058582626
165	0xbefdfb4e	-0.49605793
166	0x3d1db15f	0.038499232
167	0xbcf33bdb	-0.029691627
168	0xbd6d69c6	-0.0579622
169	0xbe09a209	-0.13440718
170	0x3d73ea40	0.05954957
171	0x3d7b48d2	0.061348744
172	0x3d269a73	0.040674638
173	0xbc9c63dc	-0.019090585
174	0xbeb4d84a	-0.35321265
175	0xbf0dad74	-0.55342793
176	0xbe048a9a	-0.12943497
177	0xbd47fe0f	-0.048826274
178	0x3da2d211	0.07950223
179	0x3d565fef	0.052337583
180	0x3e8391c5	0.2569715
181	0x3e694468	0.22780001
182	0xbd7e704c	-0.062118813
183	0xbc00ac03	-0.007853511
184	0x3daa7f2d	0.08325038
185	0xbdcbd5d5	-0.099528946
186	0x3c40c030	0.011764571
187	0xbd7ab048	-0.06120327
188	0x3dd28094	0.102784306
189	0x3d1cb9b4	0.038263038
190	0x3dac064a	0.08399637
191	0xbab190f8	-0.0013547232
192	0xbd806598	-0.062693775
193	0xbd86da99	-0.06584663
194	0xbda18bcb	-0.078879915
195	0xbd22566a	-0.039633192
196	0x3d44de25	0.048063416
197	0x3c899264	0.016793437
198	0xbcddc730	-0.027072519
199	0x3d4f0184	0.050538555
200	0x3d2b8e53	0.041883778
201	0xbda0fa28	-0.078602135
202	0x3d2f892c	0.042855427
203	0xbd12f9a6	-0.035882615
204	0xbbeee5de	-0.007290586
205	0xbd386c04	-0.045024887
206	0x3c5058b2	0.012716459
207	0xbc983a50	-0.018582493
208	0xbc0ed575	-0.008717884
209	0x3fa9fb48	1.327981
210	0x3fd76c41	1.6829911
211	0xbccf7e7e	-0.02532887
212	0xbfad8441	-1.3555986
213	0xbe094cd9	-0.13408221
214	0x3b97749d	0.0046220557
215	0xb9b90604	-0.00035290432
216	0xbcc80f94	-0.02442149
217	0x3d4634c4	0.048390165
218	0xbcd72708	-0.026263729
219	0x3d28daa2	0.04122413
220	0x3cb6859e	0.02228051
221	0xbe9854ef	-0.297523
222	0x3b9b82e8	0.00474583
223	0xbfa8acb8	-1.317771
224	0xbee945a7	-0.45560953
225	0x3db4b1b2	0.08822955
226	0xbcfa488c	-0.030552171
227	0xbd2c8044	-0.04211451
228	0x3c93bb03	0.01803351
229	0x3d62a6d4	0.05533488
230	0x3d6a520c	0.057207152
231	0xbd044ee0	-0.032301784
232	0xbd92067a	-0.071301416
233	0x3d687a0a	0.05675701
234	0x3ea66f4a	0.32506782
235	0xbcd252ce	-0.02567425
236	0x3d77c28c	0.06048827
237	0x3b9392b8	0.004503574
238	0xbe9d3cd9	-0.30710486
239	0x3e1ae982	0.15128139
240	0x3be450d5	0.0069676437
241	0x3d8f3ba0	0.069937944
242	0xbd69166a	-0.05690614
243	0xbcca9558	-0.024729416
244	0xbd1531a7	-0.036424305
245	0xbd418b5c	-0.047252044
246	0x3d6514dc	0.055928096
247	0xbcb48c0f	-0.022039441
248	0x3d13690d	0.035988856
249	0x3d03d88b	0.032188933
250	0xbdc4ffc4	-0.09619096
251	0x3d46e4a2	0.048557885
252	0x3cd90e85	0.026496181
253	0x3d4853dc	0.0489081
254	0xbd0c8cce	-0.03431397
255	0xbc229ebe	-0.009925542

fc.3.bias f4 [128]
0	0x3d007dca	0.03136996
1	0x3b362da2	0.0027798195
2	0xbd57c46e	-0.052677564
3	0x3e72b313	0.23701124
4	0xbd5ce6ca	-0.053931035
5	0xbcf0485c	-0.029331379
6	0x3be63694	0.007025549
7	0xbe27cbda	-0.16386357
8	0x3e946947	0.2898657
9	0xbcf0dcbe	-0.029402133
10	0xbd465ae4	-0.048426524
11	0x3c8f994a	0.017529149
12	0xbd936472	-0.07196893
13	0xbc4b08c0	-0.012392223
14	0xbd8fb0e2	-0.070161596
15	0xbe81bdf6	-0.2534024
16	0xbc6b93a5	-0.014378463
17	0x3e4a5912	0.1976054
18	0xbcf12a9b	-0.029439261
19	0x3e07a70a	0.13247314
20	0xbd90cc32	-0.07070197
21	0x3e43a56d	0.19106074
22	0xbc4401c7	-0.011963314
23	0xbdb5cfe2	-0.08877541
24	0x3c2e5e0a	0.010642538
25	0x3e75c008	0.23999035
26	0xbdeae829	-0.11470062
27	0xbbc08c24	-0.005876081
28	0x3e676cd1	0.22600104
29	0x3ca5d396	0.020242494
30	0x3e8f4a58	0.27986407
31	0x3e257142	0.16156486
32	0xbee32e81	-0.44371417
33	0xbd3dea49	-0.04636601
34	0xbd8484fd	-0.06470678
35	0x3eaf6e32	0.3426376
36	0x3c2a36f0	0.010389075
37	0x3c145632	0.009053754
38	0x3c2135ad	0.009839457
39	0xbdf0c643	-0.117565654
40	0xbe86476a	-0.2622636
41	0xbe96837e	-0.29397196
42	0x3ed05071	0.40686372
43	0xbe85d528	-0.26139188
44	0xbe63a830	-0.22232127
45	0xbd223b8a	-0.039607562
46	0xbc6d4b39	-0.0144832665
47	0x3eb9c39a	0.36282045
48	0xbdbce8c2	-0.092240825
49	0xbc2cd077	-0.010547749
50	0xbcc759f0	-0.024334878
51	0xbd0cb042	-0.03434778
52	0xbcc52858	-0.024067089
53	0xbda233d1	-0.079200394
54	0xba5ff42c	-0.00085431593
55	0xbddc0c29	-0.10744507
56	0x3e6bb6e9	0.23018993
57	0xbe3449af	-0.17606233
58	0xbcfdda2f	-0.030987827
59	0xbbd9ca80	-0.0066464543
60	0xbda2d807	-0.0795136
61	0xbe9ca63b	-0.30595574
62	0xbd5c73d4	-0.0538214
63	0x3be22d9f	0.006902411
64	0xbd867667	-0.06565552
65	0xbc163f0c	-0.009170305
66	0xbbdbedef	-0.0067117135
67	0x3bf25342	0.007395179
68	0x3c940230	0.01806745
69	0xbc806da3	-0.015677279
70	0xbee8bb56	-0.45455426
71	0xbdd17cfc	-0.10228917
72	0xbdb23f39	-0.08703465
73	0xbc8a330f	-0.01687005
74	0x3c1ea8e0	0.009683818
75	0x3c512de8	0.012767293
76	0xbe3811f5	-0.179756
77	0x3c1309ea	0.008974532
78	0xbeb6a052	-0.3566919
79	0x3ec74909	0.3892291
80	0xbcd5a004	-0.026077278
81	0xbc7deabc	-0.01549786
82	0xbee38e0c	-0.4444431
83	0x3c874ca1	0.016516032
84	0x3e88efe4	0.26745522
85	0x3d4cb7ac	0.04997985
86	0x3d25ad9a	0.040448762
87	0xbb442732	-0.0029930589
88	0x3e4cbb5a	0.19993344
89	0xbdd890fc	-0.105745286
90	0xbb9d230e	-0.0047954386
91	0x3c201928	0.009771623
92	0xbd35c8f6	-0.044381104
93	0x3ef84c18	0.48495555
94	0xbcaf8086	-0.02142359
95	0xbdec5b2e	-0.11540829
96	0xbe076b2d	-0.13224478
97	0x3ec1192b	0.37714514
98	0xbe061335	-0.13093264
99	0x3d32ac57	0.043621387
100	0x3e038601	0.12844087
101	0x3dfce09d	0.12347529
102	0xbe2b1782	-0.16708186
103	0x3e57c8e2	0.21072724
104	0xbc69383b	-0.014234598
105	0x3d196d9b	0.037458044
106	0xbd002e97	-0.03129443
107	0x3e357b68	0.17722857
108	0x3b9cc3ee	0.004784099
109	0xbc475048	-0.012165137
110	0xbd1f1796	-0.038840853
111	0x3efd0c72	0.49423558
112	0x3e9672bd	0.29384413
113	0x3aac84d4	0.0013162144
114	0xbc75db93	-0.015005964
115	0xbe3e7b5a	-0.18601742
116	0xbcc0b160	-0.023522079
117	0x3cc81633	0.024424648
118	0xbca1f47e	-0.019769903
119	0xbdb52fd6	-0.088470146
120	0x3ee461a2	0.44605738
121	0xbda1e222	-0.079044595
122	0x3bd40ab5	0.006471003
123	0xbe973d02	-0.29538733
124	0xbdbe04fa	-0.09278293
125	0xbd0e06c0	-0.034674406
126	0xbd73d79f	-0.059531804
127	0xbdd7d914	-0.10539451

fc.5.weight f4 [64, 128]
0	0x399c7615	0.00029842617
1	0x3d3bddaf	0.04586571
2	0xbe7cd919	-0.24692191
3	0x3c8dac51	0.01729408
4	0xbd86d706	-0.06583981
5	0x3cfaac9b	0.030599883
6	0x3d8b2a7d	0.06795213
7	0xbcf0cfc4	-0.029395945
8	0xbd9cf2fd	-0.07663534
9	0xbd6a796f	-0.057244714
10	0xbd8ca9c9	-0.068683214
11	0x3d1af23c	0.03782867
12	0x3d80027c	0.06250474
13	0x3d88e529	0.06684334
14	0xbd117424	-0.03551115
15	0xbc9a1120	-0.018806994
16	0x3d40f93e	0.047112696
17	0xbd866588	-0.06562334
18	0x3d5053ea	0.050861277
19	0x3bff43cc	0.0077900644
20	0x3c9ee77a	0.019397486
21	0xbbca49a1	-0.006173328
22	0xbc970911	-0.01843694
23	0xbcd0d3de	-0.025491651
24	0xbd357254	-0.044298485
25	0x3c911325	0.017709324
26	0xbbb29e96	-0.005451034
27	0x3d00c8c4	0.031441465
28	0xbdbc65d4	-0.0919911
29	0x3cc71d56	0.02430598
30	0x3d567c54	0.052364662
31	0xbbcab010	-0.006185539
32	0xbd3d816a	-0.046265997
33	0xbd8cea63	-0.06880643
34	0xbd79d164	-0.060990706
35	0x3dc0da3b	0.09416624
36	0x3d585e1d	0.05282413
37	0xbc6925cc	-0.014230203
38	0x3ccc0e9a	0.024909306
39	0xbd62e2e3	-0.055392157
40	0x3d14e16d	0.036347795
41	0xbd50cdb3	-0.05097742
42	0x3d0dcc83	0.034618866
43	0x3c1648d6	0.009172639
44	0xbdfe40fa	-0.12414737
45	0x3d369aee	0.044581346
46	0xbd22d58d	-0.03975444
47	0xbd52263a	-0.051305987
48	0x3aa276e0	0.0012395047
49	0x3c9c851c	0.01910644
50	0x3c9794f4	0.018503644
51	0x3dc3b3df	0.09555792
52	0xbd274965	-0.04084148
53	0xbcf09ab0	-0.029370636
54	0xbd8feaaa	-0.070271805
55	0xbc13cf21	-0.009021551
56	0xbd51f3b7	-0.051257815
57	0x3d833100	0.064058304
58	0x3cfd4753	0.0309178
59	0x3d22f007	0.03977969
60	0x3ceb8f14	0.028754748
61	0x3cf8bb51	0.030362757
62	0xbd8e0f45	-0.06936506
63	0x3c902490	0.01759556
64	0x3dabfe8a	0.08398159
65	0x3cf8fc30	0.03039369
66	0xbd77fac1	-0.060541872
67	0xbd3ea25a	-0.04654155
68	0xbd5288ce	-0.0514
69	0x3c824a00	0.015904427
70	0xbd27b35c	-0.040942535
71	0x3d4f2d18	0.050580114
72	0xbd3cf09c	-0.0461279
73	0xbd55429a	-0.05206547
74	0xbd127666	-0.035757445
75	0x3d95ee9f	0.07320904
76	0xbdb2b3f1	-0.08725727
77	0xbd6d59ba	-0.057946898
78	0xbe1f6a8f	-0.15567993
79	0x3d3c49b1	0.045968715
80	0x3cc35174	0.02384255
81	0x3c9cd86b	0.019146165
82	0xbd344aef	-0.044016775
83	0x3c508a1e	0.012728242
84	0xba329e78	-0.0006813775
85	0xbcb8080a	-0.02246477
86	0x3d670716	0.056403242
87	0xbce60fef	-0.02808377
88	0xbd6cd743	-0.057822477
89	0xbcdeb9e7	-0.027188255
90	0xbda21053	-0.0791327
91	0x3d74ef91	0.05979878
92	0xbd644c15	-0.05573662
93	0xbc1360bc	-0.008995231
94	0x3d62a96f	0.055337366
95	0x3d80f47a	0.0629663
96	0x3d0de237	0.034639563
97	0x3d419832	0.047264285
98	0x3cf80ba0	0.03027898
99	0xbd214afc	-0.03937815
100	0x3ca08da6	0.019598793
101	0xbd26ea72	-0.04075093
102	0xbd758324	-0.05993952
103	0x3cc2c5ec	0.023776017
104	0x3c726718	0.014795087
105	0xbd858918	-0.06520289
106	0xbd48b848	-0.04900387
107	0x3d4021e1	0.04690731
108	0xbd86a833	-0.0657505
109	0xbd82a594	-0.06379238
110	0x3cd10141	0.025513293
111	0x3c101317	0.008793614
112	0x3b944176	0.004524405
113	0xbd949f1e	-0.07256912
114	0x3d9119b9	0.07084984
115	0x3d481ca0	0.048855424
116	0xbca1d4ef	-0.019754855
117	0x3c3e0ded	0.0116
118	0x3d041cde	0.032254092
119	0x3d2df7f3	0.04247279
120	0xbc0cc6d8	-0.00859233
121	0xbd685eee	-0.056731157
122	0x3d283661	0.041067485
123	0xbd7d4e97	-0.061842527
124	0xbb4a0dea	-0.0030831047
125	0x3cbe68b0	0.023243278
126	0xbcbb5372	-0.022866938
127	0x3c8658c5	0.01639975
128	0xbca233c5	-0.019800076
129	0xbd3161a9	-0.043306027
130	0x3d2cc011	0.042175356
131	0xbd1ad829	-0.037803803
132	0x3cb3f07c	0.021965258
133	0x3d4bc51e	0.049748532
134	0x3d295413	0.041339945
135	0xbce91694	-0.028453149
136	0x3d31aa3a	0.04337523
137	0x3d8c9622	0.06864573
138	0xbd97b165	-0.07406882
139	0xbd94eb87	-0.07271486
140	0xbdad2253	-0.084538125
141	0xbd316f7e	-0.043319218
142	0xbdab6ea1	-0.0837071
143	0xbc9d0b07	-0.019170297
144	0xbd178a70	-0.03699726
145	0x3cd3fc4f	0.025877146
146	0xbd083e50	-0.03326255
147	0xbdbcbc9c	-0.09215662
148	0x3d58b93a	0.05291102
149	0x3d97061b	0.073742114
150	0xbd3cb8d4	-0.046074703
151	0x3d10ed32	0.035382457
152	0x3d82f86b	0.06395038
153	0xbd725278	-0.05916068
154	0xbbf232cc	-0.0073913094
155	0x3d53f78a	0.051749744
156	0xbd988c1c	-0.07448599
157	0x3d3e2ad4	0.046427563
158	0xbd4ce366	-0.05002155
159	0xbd204e8e	-0.039137416
160	0x3d2deb63	0.04246081
161	0x3d94ec5d	0.07271645
162	0x3d9cbe71	0.07653511
163	0x3cd62a73	0.026143288
164	0xbd4f69d4	-0.050638035
165	0xbdb1f0a3	-0.08688476
166	0xbd537201	-0.051622394
167	0x3bebc3fe	0.007194995
168	0xbd11f256	-0.0356315
169	0xbd8758fd	-0.0660877
170	0xbcd55331	-0.026040645
171	0x3cc45d8e	0.023970392
172	0xbc34b82d	-0.011030239
173	0xbd3ecc1e	-0.04658138
174	0xbd968f6c	-0.07351574
175	0xbd52dc05	-0.05147936
176	0x3d9fa488	0.07795054
177	0x3d2b8997	0.041879263
178	0x3d03d9fb	0.032190304
179	0x3db99aa7	0.09062701
180	0x3cd2eefe	0.025748726
181	0xbd7b6980	-0.06137991
182	0x3cae497d	0.021275276
183	0xbd0752a5	-0.0330378
184	0x3d3dc97e	0.046334736
185	0xbd874309	-0.06604583
186	0x3c2e0a80	0.010622621
187	0x3d54140e	0.05177694
188	0xbc468cd5	-0.012118538
189	0x3d055cb2	0.032559104
190	0x3d301e7c	0.042997822
191	0xbd2ada74	-0.04171224
192	0x3c67b654	0.0141425915
193	0x3c8b9c22	0.017042223
194	0x3d93e13e	0.07220696
195	0xbda945fe	-0.08265303
196	0x3cb6b5e9	0.022303538
197	0xbcb8b5da	-0.022547651
198	0xbdadb87e	-0.08482455
199	0x3d61c612	0.055120535
200	0xbd15f305	-0.036608715
201	0x3d6a22d9	0.05716214
202	0xbd54b648	-0.05193165
203	0xbd504142	-0.050843485
204	0x3c5b9300	0.013401747
205	0x3c5dc5d6	0.013535937
206	0xbd3da03e	-0.046295397
207	0x3d8f7dc2	0.07006408
208	0xbce0fefc	-0.027465336
209	0xbdaa74c2	-0.08323051
210	0x3d93dce5	0.07219867
211	0x3c07e90d	0.00829531
212	0xbd00bd1c	-0.03143035
213	0x3d0b0a07	0.03394511
214	0xbc99c6ea	-0.018771607
215	0x3d94e7b2	0.07270755
216	0xbc7cfb83	-0.015440824
217	0xbd87242c	-0.06598696
218	0xbd187e4f	-0.037229832
219	0xbd7cbec1	-0.061705355
220	0x3c782077	0.015144459
221	0xbde54647	-0.11195045
222	0x3d653ce2	0.055966265
223	0xbd35c797	-0.044379797
224	0xbd17e056	-0.037079178
225	0xbda7d4db	-0.08194896
226	0xbd74f5bd	-0.059804667
227	0xbd6686a5	-0.05628075
228	0xbdd01649	-0.101605006
229	0x3c01e4ea	0.0079281125
230	0xbde0c64e	-0.109753236
231	0x3d173451	0.036915127
232	0xbced6db5	-0.028982976
233	0xbd82ab8f	-0.063803785
234	0xbd136997	-0.03598937
235	0x3cdef2e2	0.027215425
236	0xbdc7f6e2	-0.09763886
237	0x3d3049cd	0.043039132
238	0xbd6ed768	-0.058310896
239	0x3d46fe0f	0.048582133
240	0xbdb0b192	-0.08627619
241	0x3c4bcd2a	0.012439052
242	0x3d01c984	0.03168632
243	0xbd08c319	-0.033389185
244	0x3d250e43	0.040296804
245	0xbd941d12	-0.07232107
246	0x3d7ea658	0.062170357
247	0x3cc92261	0.024552526
248	0xbd6da1e8	-0.058015734
249	0x3db145cd	0.086558916
250	0xbd8b7e93	-0.068112515
251	0xbd657e58	-0.056028694
252	0xbd12d712	-0.03584964
253	0x3d948910	0.07252705
254	0x3dc71f74	0.09722796
255	0x3d22da7e	0.03975915

fc.5.bias f4 [64]
0	0x3d973dd8	0.07384843
1	0x3d8ce522	0.06879641
2	0xbd1fee41	-0.039045576
3	0xbd96378a	-0.07334812
4	0x3c056b89	0.008143314
5	0xbe4a06c2	-0.1972914
6	0x3d94449e	0.0723965
7	0x3c3966f1	0.011316047
8	0xbc262231	-0.010139988
9	0xbd865c7d	-0.065606095
10	0xbde4beff	-0.11169242
11	0x3e4be450	0.19911313
12	0xbf1801ad	-0.5937756
13	0x3e077e72	0.13231829
14	0x3dda2d2b	0.10653146
15	0xbddfc428	-0.10926086
16	0xbe9c0c03	-0.30477914
17	0x3e5765f4	0.21034986
18	0x3de6e516	0.112741634
19	0xbd84617b	-0.064639054
20	0xbd7a61ce	-0.06112843
21	0x3d5a41f9	0.053285573
22	0x3d8cc8ed	0.06874261
23	0x3d911c5f	0.070854895
24	0x3e8b9f03	0.27269754
25	0xb9fa5060	-0.000477436
26	0x3d0eb0e0	0.03483665
27	0xbe499fd3	-0.19689874
28	0x3e736b34	0.23771363
29	0xbe082cee	-0.1329839
30	0x3d51301d	0.051071275
31	0x3da12f31	0.07870329
32	0xbe546619	-0.20742072
33	0xbe5ca4aa	-0.2154719
34	0xbc4db856	-0.012556156
35	0x3f299906	0.6624912
36	0xbd3e73d4	-0.04649718
37	0xbcc6a2f0	-0.024247617
38	0xbe31a1a2	-0.17346814
39	0x3d5af101	0.053452495
40	0x3d91dde9	0.07122404
41	0xbd8e593c	-0.06950614
42	0xbc2d08cf	-0.010561182
43	0x3d93abcd	0.07210503
44	0xbe042577	-0.12904917
45	0x3e5b6536	0.21425328
46	0x3ea548cf	0.3228211
47	0x3d0a1f61	0.03372133
48	0x3d9f9a48	0.07793099
49	0x3cf04405	0.02932931
50	0xbe752051	-0.23938109
51	0x3c28f30f	0.010311856
52	0x3dcdd010	0.100494504
53	0xbe6d0adc	-0.23148674
54	0xbe3581af	-0.17725252
55	0x3dcd9603	0.10038378
56	0xbf69c6d5	-0.9131902
57	0xbe39f4ff	-0.18159865
58	0x3d24a5a0	0.040197015
59	0xbcdf2f3f	-0.027244208
60	0xbec7cd76	-0.39023942
61	0x3e4bcec1	0.19903089
62	0x3d7df9b7	0.062005725
63	0xbd094f3b	-0.033522826

fc.7.weight f4 [32, 64]
0	0xbdd0e199	-0.10199279
1	0x3e056675	0.13027366
2	0x3d80d49a	0.062905505
3	0x3de2bcc1	0.11071158
4	0xbc7d672c	-0.015466493
5	0xbc6de7b3	-0.014520573
6	0x3ce93cfe	0.028471466
7	0xbe04bb3d	-0.1296205
8	0xbd773ac8	-0.060358793
9	0x3df823a5	0.12116174
10	0xbdb2707f	-0.08712863
11	0xbda6d9c6	-0.08147006
12	0x3de12d73	0.10994997
13	0xbd2a12ea	-0.041521944
14	0xbd7dc799	-0.06195793
15	0xbe0c213b	-0.13684551
16	0x3dd01332	0.10159911
17	0xbe00e26a	-0.1258637
18	0xbd4e83be	-0.050418608
19	0xbda9a692	-0.08283724
20	0x3d9a9702	0.07548334
21	0xbdbb695c	-0.09150955
22	0x3d96d4bc	0.073647946
23	0x3d5f1901	0.054467205
24	0xbd9fc3dd	-0.0780103
25	0x3dbff27f	0.09372424
26	0x3da0cf38	0.07852024
27	0xbc512aca	-0.012766549
28	0x3ccf2534	0.025286295
29	0x3d3ecbc4	0.046581045
30	0xbdaa6a06	-0.083210036
31	0x3b05790a	0.0020366334
32	0xbd86708b	-0.065644346
33	0xbaacaf40	-0.0013174787
34	0x3da783e0	0.0817945
35	0xbceedc36	-0.02915774
36	0xbd8e18c8	-0.069383204
37	0xbd40116a	-0.046891607
38	0x3d8df09c	0.06930658
39	0xbdf3f9fc	-0.11912915
40	0xbd96fde1	-0.07372642
41	0x3d92c00c	0.07165536
42	0xbcac4eb7	-0.021033628
43	0xbd505a65	-0.050867457
44	0xbc02a3c6	-0.007973617
45	0xbc274238	-0.010208659
46	0xbd801f03	-0.06255915
47	0x3d9aaa10	0.07551968
48	0xbd07f02c	-0.03318803
49	0x3de439f6	0.11143868
50	0xbd35a690	-0.0443483
51	0x3d702060	0.058624625
52	0xbd9d93b8	-0.07694191
53	0xbde71509	-0.11283309
54	0xbd3c9368	-0.046039015
55	0xbd2a7593	-0.041616034
56	0xbd6f6d28	-0.05845371
57	0xbd543882	-0.051811703
58	0xbe27bbbf	-0.16380213
59	0x3cb2be29	0.021819191
60	0xbcbe2344	-0.023210175
61	0x3e0999fd	0.13437648
62	0xbd040004	-0.032226577
63	0xbda51de7	-0.08062344
64	0xbde409d6	-0.111346886
65	0x3d940f79	0.07229514
66	0x3c110263	0.008850667
67	0x3ded0fd4	0.115752846
68	0x3dd6805a	0.104737
69	0x3d6b90fd	0.05751132
70	0xbde8f330	-0.11374509
71	0x3d62cd3b	0.055371504
72	0x3cdcd22d	0.026955688
73	0xbd3c5700	-0.045981407
74	0x3dbbf241	0.09177066
75	0x3d7bdbfb	0.061489087
76	0x3da95e7f	0.08269977
77	0x3d102a2c	0.03519647
78	0x3dc9fa2e	0.09862171
79	0xbd367704	-0.044547096
80	0x3e003acb	0.12522428
81	0xbdf10e2b	-0.117702805
82	0xbe222b04	-0.15836722
83	0x3dbc4d23	0.091944
84	0x3ddcbf15	0.107786335
85	0x3f179940	0.59218216
86	0x3dd76a04	0.10518268
87	0x3d29e8be	0.041481726
88	0xbf873408	-1.0562754
89	0xbc0f3953	-0.0087416945
90	0x3ddb2aa3	0.10701492
91	0x3b3099c1	0.0026947113
92	0x3d06c46d	0.03290217
93	0x3d4b6a32	0.049661823
94	0x3deb1622	0.11478831
95	0x3d653608	0.05595973
96	0x3d64c387	0.055850532
97	0xbdad073d	-0.08448646
98	0x3cd15b6b	0.025556287
99	0x3d74deca	0.05978278
100	0x3d3be546	0.04587295
101	0xbd80aff8	-0.062835634
102	0x3e661172	0.22467592
103	0x3b1d4763	0.0023998849
104	0xbcf5ea64	-0.030018993
105	0xbdd09afe	-0.101858124
106	0x3d83a382	0.06427671
107	0x3b76ff21	0.003768869
108	0x3e9954a1	0.2994738
109	0x3da76f21	0.08175493
110	0xbad3aac8	-0.0016148919
111	0xbcebe2a8	-0.028794602
112	0x3e20b367	0.15693437
113	0x3ec0dc63	0.37668142
114	0x3e077c1e	0.1323094
115	0xbde9e081	-0.11419774
116	0xbd11f56f	-0.035634454
117	0xbd9d88ca	-0.07692106
118	0x3c821372	0.015878413
119	0xbe8507ea	-0.259826
120	0x3e7a82a5	0.244639
121	0xbe83d039	-0.257448
122	0xbe1d02a5	-0.1533304
123	0xbe0fa4ce	-0.14027712
124	0xbe83a75d	-0.25713626
125	0xbd627c38	-0.055294245
126	0x3dc4076f	0.0957173
127	0xbd0c0569	-0.034184847
128	0xbdebbb47	-0.1151033
129	0xbdb183dd	-0.08667729
130	0x3dc29623	0.095012926
131	0x3d9c3011	0.076263554
132	0x3d6f6462	0.058445342
133	0xbd84c46b	-0.06482776
134	0xbdf02205	-0.11725239
135	0x3dd7be28	0.10534316
136	0xbc6701ee	-0.014099581
137	0xbe00fac5	-0.12595661
138	0x3d0d44bd	0.034489382
139	0xbe170621	-0.14748432
140	0x3d4cd80c	0.050010726
141	0xbc7bdb31	-0.0153720835
142	0xbd144010	-0.036193907
143	0x3d7f17ec	0.062278673
144	0x3d891398	0.0669319
145	0xbbe7b775	-0.0070714303
146	0xbd40f29a	-0.047106363
147	0x3da75038	0.081695974
148	0xbd2692dc	-0.0406674
149	0x3de90dea	0.11379607
150	0xbdd6769b	-0.10471841
151	0x3d62cf24	0.055373326
152	0xbcbfaa5a	-0.02339666
153	0x3e11068c	0.14162654
154	0x3d3f8428	0.046756893
155	0x3d45f26c	0.048326895
156	0xbe1b2cfc	-0.15153879
157	0x3ca38aec	0.019963704
158	0x3d8c3829	0.06846649
159	0x3d3cc36e	0.046084814
160	0xbd348ef2	-0.044081636
161	0x3ce3acd6	0.027792376
162	0xbc8e4e67	-0.01737137
163	0xbe037324	-0.12836891
164	0x3dbc30d1	0.091889985
165	0x3dadffde	0.084960684
166	0x3d7b2821	0.061317567
167	0xbdbaff9a	-0.091307834
168	0x3d33fe0c	0.04394345
169	0x3dca0948	0.098650515
170	0xbde38ae9	-0.111104794
171	0x3ddc3a3c	0.10753295
172	0x3dfc2558	0.1231181
173	0x3d56e422	0.05246366
174	0xbb9053ac	-0.0044045057
175	0x3cf14b6d	0.029454911
176	0xbd8de6c6	-0.06928782
177	0xbde9c483	-0.11414435
178	0x3d483f14	0.04888828
179	0x3d8342e5	0.064092435
180	0xbdf31975	-0.1187009
181	0xbe1f8c6e	-0.15580913
182	0xbd1438e8	-0.036187083
183	0x3dacc4a6	0.08435945
184	0x3d64ac68	0.055828482
185	0xbd7f7b88	-0.062373668
186	0xbe1a2ce7	-0.15056191
187	0x3d8b23fa	0.06793971
188	0x3d5f8051	0.05456573
189	0xbdef1ffa	-0.11676021
190	0xbcf1b687	-0.029505981
191	0xbde2794a	-0.1105829
192	0xbdd86e54	-0.105679184
193	0xbd2edcb3	-0.042690944
194	0x3dea58c8	0.11442715
195	0xbd04b3d6	-0.032398067
196	0x3de10fc0	0.10989332
197	0xbc9bd725	-0.019023487
198	0x3dc4c37c	0.09607598
199	0xbd51b53b	-0.051198225
200	0x3d6d0a73	0.057871293
201	0xbde39227	-0.11111861
202	0x3df59796	0.11991803
203	0x3dae4dec	0.08510956
204	0x3dfdf1fb	0.1239967
205	0x3c4118f9	0.011785739
206	0x3dd61850	0.10453856
207	0xbde0b50e	-0.109720334
208	0x3e0fdee1	0.14049865
209	0xbe0ef9b3	-0.1396244
210	0xbe1188e2	-0.14212373
211	0x3c941bca	0.018079657
212	0x3e235579	0.15950574
213	0xbec6dafb	-0.38838944
214	0xbc43d30a	-0.011952171
215	0xbd01182d	-0.031517196
216	0xbe22e421	-0.15907337
217	0x3e010642	0.12600043
218	0xbf29cc11	-0.66327006
219	0x3e18160e	0.14852163
220	0x3d462e7c	0.048384175
221	0x3e3d57fd	0.18490596
222	0xbd938f76	-0.072050974
223	0xbda3a3a0	-0.07990193
224	0xbdd0bf60	-0.10192752
225	0x3d9f9519	0.0779211
226	0xbcf2e963	-0.029652303
227	0x3c7fc13e	0.015610037
228	0xbda17a0f	-0.07884609
229	0x3cfeb499	0.031091975
230	0xbe3c840a	-0.18409744
231	0x3df074b2	0.11741008
232	0xbd52080b	-0.0512772
233	0xbdae0494	-0.08496967
234	0x3d7a4c88	0.061108142
235	0x3e0a91f8	0.13532245
236	0x3f0c20aa	0.5473734
237	0x3dcad1aa	0.099032715
238	0x3d171941	0.03688932
239	0x3b5d1430	0.0033733957
240	0xbdb11a3c	-0.08647582
241	0xbdd9f534	-0.10642472
242	0x3a8d40c8	0.0010776753
243	0x3d85b433	0.06528511
244	0x3c523006	0.0128288325
245	0x3df22acb	0.11824568
246	0xbca2ea18	-0.019887015
247	0x3e16231f	0.14661835
248	0x3e304dbb	0.17217152
249	0xbdc1f031	-0.09469641
250	0xbe584318	-0.21119344
251	0xbe79f490	-0.244097
252	0x3e7aff0e	0.24511358
253	0x3d54ffe5	0.052001853
254	0xbb825e03	-0.003978492
255	0xbdd86503	-0.105661415

fc.7.bias f4 [32]
0	0xbb217888	-0.0024638493
1	0x3cf9919c	0.03046494
2	0x3d0e1040	0.034683466
3	0x3cc0d4df	0.023539005
4	0x3db044dc	0.08606884
5	0xbe42519e	-0.18976447
6	0xbaaf720d	-0.001338543
7	0xbed10701	-0.40825656
8	0xbe4b3d86	-0.19847688
9	0x3e5668ea	0.20938459
10	0xbe86fa8e	-0.26363033
11	0xbe236628	-0.15956938
12	0x3df12947	0.11775451
13	0x3e544b67	0.20731889
14	0xbe1b2a0d	-0.1515276
15	0xbe5ff8a6	-0.21872196
16	0x3d5d07f7	0.053962674
17	0x3e051e5f	0.12999867
18	0x3d1248e2	0.035714038
19	0x3e2e6d1e	0.17033812
20	0x3dc54e36	0.09634058
21	0xbdca0325	-0.09863881
22	0xbdc06af7	-0.09395402
23	0xbd99d4ec	-0.07511315
24	0x3d792448	0.060825616
25	0xbdc26a0d	-0.09492884
26	0xbe26c791	-0.16287066
27	0x3e00030d	0.12501164
28	0x3e578e00	0.21050262
29	0xbe7c15a8	-0.24617636
30	0x3e04f06c	0.12982339
31	0xbe077326	-0.1322752

fc.9.weight f4 [3, 32]
0	0xbe386f43	-0.18011193
1	0xbe930176	-0.28712052
2	0x3d76c99b	0.06025086
3	0xbf080f6c	-0.5314853
4	0x3e300b49	0.17191805
5	0x3e90ad2a	0.28257114
6	0x3e28b240	0.16474247
7	0x3f16f7cf	0.58971876
8	0x3db19d7d	0.08672617
9	0x3e1022e1	0.14075805
10	0x3ba7e2f5	0.005123491
11	0xbdb4e524	-0.088327676
12	0xbf61bef8	-0.8818202
13	0xbe1370d3	-0.14398508
14	0xbd9b1094	-0.075715214
15	0x3f6c7e4f	0.9238023
16	0x3e56e524	0.20985848
17	0xbdb5323e	-0.088474736
18	0xbd002075	-0.031280953
19	0xbec88385	-0.3916284
20	0x3e25e247	0.16199599
21	0xbe11b85f	-0.14230488
22	0x3e17071f	0.1474881
23	0xbdab37d3	-0.08360257
24	0xbdbe306d	-0.0928658
25	0xbe3607b3	-0.17776375
26	0xbd2b70bd	-0.041855562
27	0xbaa23ec0	-0.001237832
28	0xbcb2c1a6	-0.021820854
29	0x3e347285	0.1762181
30	0x3e00675b	0.12539427
31	0x3ee8ade4	0.45445168
32	0x3e1ce660	0.15322256
33	0x3c6e5b54	0.0145481415
34	0x3daafa88	0.08348566
35	0xbd9a0270	-0.07519996
36	0x3d3c3bd1	0.045955483
37	0xbeee6428	-0.46560788
38	0x3d23e456	0.04001268
39	0xbe449c82	-0.19200328
40	0xbf063481	-0.52423865
41	0x3eb2dced	0.34934178
42	0xbf83ab5e	-1.0286672
43	0x3e09bb15	0.13450272
44	0x3dbdc9ff	0.09267043
45	0x3e06789a	0.13131943
46	0xbdb3571e	-0.08756851
47	0x3e09d1af	0.13458894
48	0x3de26dc4	0.110560924
49	0x3e17b223	0.14814048
50	0xbd6482c0	-0.055788755
51	0xbe93cf39	-0.28869036
52	0xbe9db2c5	-0.30800453
53	0xbe437112	-0.19086102
54	0x3e16ac92	0.14714268
55	0xbccc5ce4	-0.024946637
56	0xbd44b4c4	-0.048023954
57	0xbe0c01dc	-0.13672584
58	0x3cf2cc2c	0.029638372
59	0x3dd2c5c9	0.10291631
60	0x3eb77c20	0.35836887
61	0xbe3f47de	-0.18679759
62	0x3e755785	0.23959167
63	0xbc971256	-0.01844136
64	0xbd750814	-0.059822157
65	0x3e90e6e2	0.2830115
66	0xbe1bf148	-0.1522876
67	0x3e5bb933	0.21457367
68	0xbd7636bc	-0.060110793
69	0x3d64c53b	0.055852156
70	0xbdc68244	-0.09692815
71	0xbe99bf40	-0.30028725
72	0x3cd47a64	0.025937267
73	0xbe4845f4	-0.19557935
74	0x3e156820	0.14590502
75	0xbac3f2cc	-0.0014949678
76	0x3d094bc9	0.03351954
77	0x3e053b3a	0.13010874
78	0x3e81ee4a	0.25377113
79	0x3b5629a6	0.0032678633
80	0xbd96b995	-0.07359616
81	0x3d51ba3a	0.05120299
82	0x3e16a245	0.14710338
83	0x3eb5c157	0.3549907
84	0x3e64e765	0.22353895
85	0x3e064d59	0.13115443
86	0x3dfbd097	0.12295645
87	0x3d8dccf5	0.06923858
88	0x3cd1ea06	0.025624286
89	0x3eaced88	0.33774972
90	0xbc8c4ff1	-0.017127963
91	0x3d14aa6c	0.03629534
92	0xbbe8242a	-0.007084389
93	0x3c60a2ca	0.013710687
94	0xbe1aeb60	-0.15128851
95	0xbebe7525	-0.3719875

fc.9.bias f4 [3]
0	0xbdf9fbd0	-0.122062325
1	0x3e37c4cf	0.1794617
2	0x3d73c3c4	0.05951287
