Genetic_Models/dino_genetic_model10.pth (torch, 184558 bytes, 10 tensors)

fc.0.weight f4 [256, 6]
000000 b5 a8 2f 3c d8 db 9b 3d 25 86 1b bf c8 86 7b bc
       0.010721375 0.07610291 -0.60751563 -0.015351959
000010 28 f8 9c c0 38 0c 84 c0 12 0c a8 be 7a c8 85 3e
       -4.9052925 -4.1264915 -0.3282171 0.26129514
000020 d7 cc 20 bf ba 72 2b bc d1 29 d6 3f 35 31 ab bf
       -0.6281256 -0.010464365 1.6731511 -1.3374392
000030 26 2e ae be 94 3a 09 be c2 98 ea be e2 36 83 3e
       -0.34019583 -0.13401252 -0.4581967 0.2562781
000040 c3 6a 36 3e 9b ae 71 bf 8a 73 c9 be 96 21 60 be
       0.17814164 -0.9440705 -0.39345962 -0.21887812
000050 0d 8f 85 3e 3e 6e a1 3e 92 d5 1d 40 c4 5e 3f bf
       0.26085702 0.3152942 2.4661603 -0.74753976
000060 58 fe c5 bc 66 3b 09 be ee 8f 01 3f 85 ea 04 3e
       -0.024169132 -0.13401565 0.50610244 0.12980087
000070 38 70 15 be c1 6e f9 bf a1 e0 92 be 14 e1 b5 3d
       -0.1459359 -1.9486924 -0.28687003 0.08880821
000080 08 02 92 be fe 86 2c be c6 1d 54 be 58 60 80 bc
       -0.28517175 -0.1684837 -0.20714483 -0.01567094
000090 de bc 31 be 67 e8 48 3d 31 25 09 3f dc 1b f5 bb
       -0.17357203 0.04904976 0.53572375 -0.0074801277
0000a0 d7 6c c9 3e 28 42 7b bf f2 30 93 3e 32 b7 01 be
       0.3934085 -0.9814782 0.2874828 -0.1266754
0000b0 4d 86 bd 3e bc a0 6a be c6 1e 60 40 00 d2 21 40
       0.37016526 -0.22912878 3.5018783 2.5284424
0000c0 f7 9e 83 3e f9 2b 78 3d 74 24 ff bd c9 61 b7 bd
       0.25707218 0.06058881 -0.12458125 -0.08954198
0000d0 8c a9 84 3f ab 31 f7 bf 78 2d 48 be 7b c0 03 bf
       1.0364242 -1.9312032 -0.19548595 -0.51465577
0000e0 44 b2 06 be 7d d6 93 3e b4 5a c0 bd 10 32 89 3f
       -0.1315394 0.2887458 -0.093923 1.0718403
0000f0 2e 29 96 bd dc fe 2e bc 50 f9 bd 3d 3a 96 8a 3c
       -0.07332073 -0.01068088 0.09276068 0.016917337
000100 8a 00 14 c0 21 52 3b c0 54 32 b1 be c6 af 01 be
       -2.312533 -2.9268878 -0.3460871 -0.12664708
000110 78 43 21 bf b4 b1 3c 3e a8 ea 71 40 03 62 07 40
       -0.62993574 0.18427163 3.7799473 2.1153572
000120 ad 91 77 3e 77 c2 80 be 10 00 64 bf b8 58 b3 3d
       0.24176665 -0.25148365 -0.89062595 0.08757156
000130 81 ca 16 40 2e 90 41 bf 27 82 15 bf 5a e5 85 3e
       2.3561099 -0.75610626 -0.5840172 0.26151544
000140 81 ab 45 3e 2c b4 05 3c 98 ef df bf 2a f3 fd 3f
       0.19303705 0.008160632 -1.7494993 1.9839833
000150 2b 5f da bd f5 02 2a 3d 1b 42 0a bf 2c 45 6c 3d
       -0.10662683 0.041506726 -0.5400712 0.057683155
000160 cc 6c 2b bf bd 9b e7 bf b4 a7 6b 3e 30 77 83 be
       -0.66962886 -1.8094403 0.23013192 -0.2567687
000170 ed 73 9c 3e 68 69 5a be 41 74 b8 be 40 4b fe bb
       0.30557194 -0.21329272 -0.36026195 -0.0077604353
000180 c7 c7 57 be 57 ee 23 be 3b 02 00 be 6d 8d 02 bd
       -0.21072303 -0.16008888 -0.12500851 -0.031873155
000190 59 41 82 3e 09 7c 90 3d 16 3f 13 bf 02 5e 72 3e
       0.2544048 0.07054908 -0.57518137 0.23668674
0001a0 97 70 d0 be b2 47 6b 3c 76 a9 9f bf 72 96 44 3e
       -0.407109 0.014360355 -1.247359 0.19198015
0001b0 a0 0c 95 3a 54 77 04 3e 83 17 bf be 53 6f 4a bd
       0.001137156 0.12936145 -0.37322626 -0.049422573
0001c0 1f 4e 8f be d5 db 98 bf 60 77 38 3e ac 76 35 3e
       -0.2798929 -1.1942087 0.18014288 0.17721051
0001d0 ea 35 d7 be ff 80 1c be 19 4e 6f 3f 33 42 a4 bf
       -0.4203332 -0.15283583 0.9347854 -1.2832702
0001e0 81 1c a7 3e 33 06 8b be f6 6f 21 bf 68 32 1b be
       0.32638934 -0.27153167 -0.63061464 -0.15155947
0001f0 91 31 8f 40 35 c7 6a 40 07 27 b7 bd 3a 80 1a 3e
       4.4748006 3.6684086 -0.08942991 0.15087977
000200 3c b0 a7 3c af 13 4b bd 81 a7 6a 40 9a 8c 73 40
       0.020469777 -0.04957932 3.6664736 3.8054566
000210 ee bb fc 3d 41 91 75 3e 2d ef 53 3e 24 b0 60 be
       0.12340532 0.23981191 0.20696707 -0.21942192
000220 87 24 8f be 77 03 2e c0 cc e3 cf 3e c7 b8 29 3d
       -0.27957556 -2.7189615 0.40603483 0.041435983
000230 66 56 da be 8c 86 ce be 9f b9 5c bf 2a 0a 37 c0
       -0.42644042 -0.40337026 -0.86220735 -2.8599954
000240 0f 6e 9d 3d 94 d8 86 bd 23 a2 22 3e a3 a1 a1 be
       0.07687008 -0.06584278 0.15882163 -0.31568632
000250 9d 8a a3 be 47 2a 83 be 97 3b 97 be 8e 6f 44 be
       -0.3194169 -0.25618193 -0.2953765 -0.1918318
000260 e9 fc 32 bc d2 08 63 be 60 07 22 3e 67 8d 7a 3e
       -0.010924556 -0.22171333 0.15823126 0.24468003
000270 3d 54 2d be 82 1b bc bd 93 76 a2 3d 50 c5 6f be
       -0.16926666 -0.09184934 0.079327725 -0.23415112
000280 fc f3 24 3e 7c a6 26 3e 36 9e 9c 3d da ee 9c 3d
       0.16108698 0.16274446 0.07647364 0.07662745
000290 50 ca a1 bd 01 cd f3 bd 20 df 99 40 ca fe 98 40
       -0.07899916 -0.11904336 4.808487 4.781102
0002a0 c4 e4 56 be 63 3f d4 3e 3a f5 31 be 58 3b 29 be
       -0.20985705 0.4145461 -0.17378703 -0.16526544
0002b0 d1 d8 69 be ce 68 cc bf 38 21 aa 3d 3b 3f 81 3e
       -0.22836615 -1.5969484 0.08307117 0.25243554
0002c0 c0 63 de be 9b 8a 30 be b9 7e 01 40 51 6c 40 bf
       -0.43435478 -0.17240374 2.0233595 -0.7516528
0002d0 00 7f 16 bc bf a9 ac be 99 51 e8 bd d8 b0 69 be
       -0.009185553 -0.33723256 -0.113436885 -0.22821367
0002e0 79 b7 56 bc c9 f4 13 3e 8a cd 30 bd 2f 75 86 3e
       -0.013105267 0.14448847 -0.043164767 0.2626128
0002f0 1b fb 10 3e 4e f6 12 be c1 a7 96 3f 4f 07 ef bf
       0.14158289 -0.1435177 1.1769944 -1.8674105
000300 a9 91 eb 3c d7 5a ad bd 34 73 b7 be 15 d2 a0 be
       0.02875598 -0.08464592 -0.3583008 -0.3141028
000310 41 14 a2 be 29 12 9c 3d 7b f2 b0 be 26 07 0e 3e
       -0.31656078 0.07620651 -0.34559998 0.13869914
000320 b1 4d fd be a1 dc b7 3d 75 06 b6 3e e3 79 b2 bf
       -0.49473336 0.089776285 0.355518 -1.3943447
000330 59 f1 6d bd e8 14 ca 3d 3d 9c 61 bf 16 25 3a 3d
       -0.058091495 0.09867269 -0.88129026 0.045445524
000340 38 b0 d3 3e 5b 87 34 bf 61 ac 81 bd a2 71 b0 be
       0.41345382 -0.70519036 -0.06331707 -0.34461695
000350 47 93 60 bf 8a d9 5c 3e 22 86 77 be 2a 8a 05 40
       -0.8772473 0.2156736 -0.24172261 2.0865579
000360 0c fe 09 3d 8a 6b eb 3d 80 5d 30 bf 71 5a dc bc
       0.033689544 0.11495121 -0.6889267 -0.026898595
000370 d0 90 e6 bd 62 cc bf bf e0 44 82 be e7 a8 70 be
       -0.112580895 -1.4984248 -0.25443172 -0.23501931
000380 44 a3 98 3e a8 42 27 bd 24 af 41 3e bc 49 9a be
       0.29812062 -0.040835053 0.18914467 -0.3013438
000390 ab 7a 48 3e 19 1c f1 be fd 6d 1e 3e e2 d9 3c 3e
       0.19578044 -0.4709175 0.15471645 0.1844249
0003a0 35 83 02 3f 13 71 25 c0 4e d6 a1 be c4 3c 92 3e
       0.50981456 -2.5850265 -0.31608814 0.28561985
0003b0 aa bb 8d 3d 3c 09 c4 bc 02 ea 02 c0 f8 01 de 3f
       0.0692056 -0.023930185 -2.0455327 1.7344351
0003c0 48 cc 84 be f1 97 a2 3d 0f 4c 2d 3f e0 a1 65 3c
       -0.25937104 0.07939137 0.6769418 0.014015645
0003d0 99 91 8c 3e 6b c5 e1 bf 6c c3 6b bd b6 d0 ba 3c
       0.27454832 -1.7638372 -0.057559416 0.0228046
0003e0 35 47 ca be b6 5d 13 be 17 59 0d be 9f 73 9c be
       -0.39507452 -0.14391217 -0.13803516 -0.30556962
0003f0 20 4f 44 be a0 89 db be 99 e6 c4 be 2c e0 66 3e
       -0.19170809 -0.42878437 -0.38457182 0.22546452

fc.0.bias f4 [256]
000000 89 ed 2a bf 2f 82 6c be 28 fa fb 3d 53 52 46 3d
       -0.667687 -0.23096536 0.12303573 0.048418354
000010 cb 33 03 bf 3c 77 b8 3e 8a f7 d8 bd 6a 8a 86 bd
       -0.51250905 0.3602847 -0.10594089 -0.06569369
000020 27 56 2b be f1 a7 20 be 60 fe 28 bf a8 50 ec be
       -0.16732083 -0.15689065 -0.66013145 -0.46155286
000030 e2 5e 9c bd 60 5b 13 3f 6c 4f 18 bf ed ac 9b be
       -0.07635285 0.575613 -0.5949619 -0.3040537
000040 6e 9c c3 3e d0 3a c5 3d 4b f9 80 be 00 6d 0e bd
       0.38205284 0.09630358 -0.25190195 -0.03477192
000050 69 60 99 3e 16 f8 d5 be 26 08 f1 bd d6 53 ae be
       0.29956368 -0.41790837 -0.11769132 -0.34048337
000060 a8 c8 17 3e 04 48 75 3e 43 1e 73 be 62 45 24 bd
       0.14822638 0.23953253 -0.23742013 -0.04010523
000070 af 56 36 be fc e3 6a be 1a 1b ad 3e af 15 04 bf
       -0.17806505 -0.22938532 0.3380974 -0.51595587
000080 94 d8 7f 3d 58 6c 24 bf fd 12 81 be 39 f4 f4 be
       0.062462404 -0.6422782 -0.252098 -0.47842577
000090 f2 1e 2a be d3 43 8e be df c6 f8 3d 2a da 19 be
       -0.16613367 -0.2778612 0.12147307 -0.15024629
0000a0 0a 14 13 3c be e5 64 be 8a b4 25 be d2 ac 4a bf
       0.008976946 -0.22353265 -0.16182151 -0.7916995
0000b0 3c 21 cd 3e 73 65 0d bf 3a a9 5e bf 58 2b bc 3d
       0.40064418 -0.55232924 -0.8697697 0.09187955
0000c0 31 e7 ca 3d 00 8a 72 3e 1b e1 d8 3d 30 05 5b 3e
       0.099073775 0.23685455 0.105898105 0.21388698
0000d0 8d 2f 02 bf 40 f4 38 be c0 0a ba 3b d4 42 cb be
       -0.50853807 -0.18061924 0.005677551 -0.39699423
0000e0 66 f7 cb be 1b 43 57 3d 45 75 1e bc 0c 42 93 bd
       -0.39837188 0.05255423 -0.009671514 -0.07190332
0000f0 d6 d3 fd bd 61 49 95 3e be 69 23 3e 92 d3 cd be
       -0.1239392 0.29157546 0.15958306 -0.40200478
000100 e1 25 70 3e f9 cd 35 be 37 50 18 be 60 de af 3e
       0.2345195 -0.17754354 -0.1487435 0.34349346
000110 a1 a9 a4 bd 62 c1 d3 be e5 b4 39 3e 2b c1 a6 be
       -0.08040167 -0.41358477 0.18135412 -0.3256925
000120 22 76 62 be 94 66 4b 3e 8a b0 9d 3e 1a e2 cc be
       -0.22115377 0.19863349 0.3079875 -0.40016252
000130 a6 d0 4a be a6 63 b0 3c a1 42 cf be 74 c9 f0 be
       -0.19806156 0.021531891 -0.4048052 -0.47028697
000140 50 15 e3 bc b9 d2 c7 be ee 74 c4 be 5e f6 d0 3e
       -0.027720124 -0.39027956 -0.3837046 0.40812963
000150 9c 2a 62 be 07 a7 18 bf 4b 06 1b 3f 58 1b bb be
       -0.22086567 -0.59629864 0.6055648 -0.365443
000160 ec c4 09 bf fc 28 b9 3e 69 76 da be 7a 8a ea 3e
       -0.53816104 0.3616408 -0.42668465 0.45808774
000170 8e e9 63 3e 73 d1 e5 3c 51 96 27 be 92 50 23 bd
       0.22257063 0.028053975 -0.16365935 -0.03987176
000180 4f 3c b2 bd 63 54 54 be 78 72 0d bf ee e2 6a 3c
       -0.08702909 -0.20735316 -0.5525279 0.014336331
000190 bc 63 65 3c bc 3b 49 3e 0a e5 d3 be 5e bc 86 3e
       0.014000829 0.19651693 -0.4138568 0.26315588
0001a0 6a 7a c9 be 6f 00 cd bd 29 0e 7d 3e c0 84 d3 bd
       -0.39351207 -0.10009848 0.24712433 -0.103280544
0001b0 24 b0 dd 3d 85 d1 f7 be 6b a1 b5 3d 24 59 a6 3e
       0.10824612 -0.48402038 0.08868679 0.32489884
0001c0 e0 ff 81 be 96 d3 55 3f 98 79 06 3e f9 47 a0 be
       -0.2539053 0.8352598 0.13132322 -0.3130491
0001d0 96 f1 99 be b2 9d 2b be a9 1e 09 3d 84 a4 c1 3e
       -0.30067128 -0.16759375 0.033476505 0.37820828
0001e0 12 04 10 be a7 c5 e7 be 8c d9 01 bd 64 0a 92 3e
       -0.14064053 -0.45267984 -0.03170161 0.28523552
0001f0 28 06 3a 3f ce 20 91 3d 25 db bb 3e ff cd 9b bc
       0.72665644 0.07086335 0.36690632 -0.019019125
000200 93 35 80 bd 30 dc a9 3d a5 8c 18 bf 0d e4 54 be
       -0.062602185 0.082939506 -0.59589607 -0.2079012
000210 f6 c1 94 be cf bf 86 be 68 cc 20 3f bd 96 20 bf
       -0.2905423 -0.26318213 0.628119 -0.6273001
000220 f0 d1 a9 3e e1 26 15 bf b1 2a bc 3e 4b 8e c8 be
       0.33167982 -0.5826245 0.3675132 -0.3917106
000230 c4 ae 2a bf ff 55 c6 be 9a 2f 96 bd b0 ea 09 3f
       -0.6667292 -0.38737485 -0.07333298 0.5387373
000240 e3 bb 12 bf 51 0b ea 3c 51 56 de 3e 8c 9e c8 3e
       -0.5731794 0.02856985 0.4342523 0.39183462
000250 25 5e 15 3f b0 ce ac 3e 52 18 14 3e cd da 8b 3d
       0.5834678 0.3375144 0.14462402 0.06828842
000260 13 c4 81 bc 65 36 4e be 07 15 68 3d ff c2 70 3e
       -0.015840566 -0.20137937 0.05666068 0.23511885
000270 46 16 7d be 43 cb 47 bc 2f 40 01 3d 16 df 10 bc
       -0.24715528 -0.012194457 0.03155535 -0.00884225
000280 10 1e 29 3d 1e 13 a8 be 0e d9 a9 3e dc 1e 93 be
       0.041288435 -0.32827085 0.33173412 -0.2873448
000290 1b 98 02 be 18 8b 35 be 06 41 43 bf 3b c8 12 bf
       -0.12753336 -0.17728841 -0.7627109 -0.5733678
0002a0 10 35 bb bd fb 90 a5 3e 40 9a 92 3e 72 40 85 bc
       -0.0914098 0.32337174 0.28633308 -0.016266081
0002b0 2c 38 f2 be 9d a8 c1 3d 60 9d 07 bf 63 da 31 3f
       -0.4730848 0.094559886 -0.5297451 0.69473857
0002c0 d8 26 b4 3e 2c e3 85 3e c8 d5 22 be cd 23 07 bf
       0.35185885 0.2614988 -0.15901864 -0.52789
0002d0 50 93 59 bf 41 f8 f6 be 5e 4c 7a 3e 3d cb d4 be
       -0.84990406 -0.48236278 0.24443194 -0.41561309
0002e0 fa 73 e1 bd 3e b7 b1 3c aa f6 21 3e 57 5c 55 3e
       -0.11008449 0.021693822 0.15816751 0.20836006
0002f0 00 a1 db be 64 c7 dc bb 0c 43 0e 3d fd 6c 18 be
       -0.4289627 -0.0067376364 0.03473191 -0.14885326
000300 15 b4 50 be d6 e5 01 bf 26 2f a5 3e ff 51 53 3e
       -0.20381196 -0.50741327 0.32262534 0.20636748
000310 59 ea 05 3e 66 55 dc 3d ab e0 62 3e c7 4c b8 be
       0.13077678 0.10758476 0.22156017 -0.35996076
000320 b0 7e 81 3e bb 63 04 bf fd 6d 1f bf 38 78 c6 3d
       0.25291967 -0.51714677 -0.62277204 0.09690899
000330 74 3c 88 3d 28 66 70 bd 43 6d be be 63 f4 90 3e
       0.066521555 -0.058691174 -0.37192735 0.28311452
000340 fd cd 63 3d 1f 2f 18 bf d0 13 49 3e b8 94 e8 3d
       0.055616368 -0.594469 0.19636464 0.11356491
000350 43 f3 17 be e4 38 ba be 3d b0 55 3e 58 b0 14 bf
       -0.1483889 -0.3637153 0.20868011 -0.5808158
000360 49 b6 2e bf 37 d1 fb be d6 f9 ff be c1 8b a2 be
       -0.68246895 -0.49183056 -0.49995297 -0.3174725
000370 d4 67 ef be 72 48 86 3e 59 96 60 be f7 9d e8 3d
       -0.46758902 0.26227146 -0.21932353 0.113582544
000380 e7 2f 81 3d 4c 7b 08 3f b0 d4 c4 3e f8 ba d9 bc
       0.06307965 0.53313136 0.38443518 -0.026578411
000390 56 9a 85 3e 45 49 92 be 2b 06 8e be 07 d5 72 bd
       0.2609431 -0.28571525 -0.2773908 -0.05928519
0003a0 35 12 ac be 51 2d b0 be ee 12 62 be a6 f2 5d 3e
       -0.3360764 -0.34409574 -0.22077534 0.21674594
0003b0 d0 e0 55 bd 3f 11 5c be 3b 39 c2 be 40 ba 35 bb
       -0.05221635 -0.21490954 -0.37934288 -0.0027729422
0003c0 ae 05 2a be 7d 89 ac bd 7b 88 52 be 1b 4f a2 be
       -0.16603729 -0.08424661 -0.20559876 -0.31700978
0003d0 12 91 87 3d 0c 18 9b 3e af 5b a7 bd a8 93 0e be
       0.06619467 0.30291784 -0.08171784 -0.13923514
0003e0 38 42 21 be b1 e1 ad 3e ce 7f c3 be c6 3e 7c 3e
       -0.15747917 0.3396125 -0.38183445 0.24633321
0003f0 7a 01 86 be 02 63 2b 3e 21 44 4c be 6c c7 01 bf
       -0.26173002 0.16736987 -0.19947864 -0.5069492

fc.3.weight f4 [128, 256]
000000 5e 67 2f 3e ad b7 46 3e 4a a3 ba bd 95 14 fe bd
       0.17129275 0.19406004 -0.09113176 -0.124062695
000010 13 44 cf bc 90 6e 4b bc 7c 12 b7 3c ba 59 89 bd
       -0.025301015 -0.012416497 0.022347681 -0.06706567
000020 91 4d 6c 3d 3d 2e 32 bd 97 6e e9 3c 0a 92 6b bf
       0.05769116 -0.043501128 0.028495116 -0.9201971
000030 5b 39 29 bd d8 63 f4 3d 48 29 54 3d eb c2 34 bc
       -0.041314464 0.11933106 0.05179718 -0.0110328
000040 ea 1c 00 3d bd 23 13 3e fe 69 72 3d 1d e6 64 3c
       0.031277575 0.14369102 0.059183113 0.013970879
000050 39 6f 8d 3d 9d 8e 85 3d b4 75 e6 3d 05 2b 6b bd
       0.0690598 0.06521342 0.11252919 -0.057414073
000060 1e 76 32 3d 02 e9 2e 3b c8 d1 ec 3c 22 9c 10 3e
       0.043569677 0.0026689176 0.028908625 0.1412206
000070 21 64 fd 3d 8e ba dd 3d 8c cf 6e bd 61 b9 d0 3d
       0.12372614 0.10826598 -0.0583034 0.10191608
000080 4e 6a 96 3c c2 b6 83 3c 38 03 1b bb e8 8a fb be
       0.018361237 0.016078357 -0.0023653042 -0.49129415
000090 7a 86 9f 3d 16 64 72 3d b6 be 08 3c a7 c6 66 3c
       0.07789321 0.05917748 0.00834625 0.014085448
0000a0 45 c2 22 3d 5a 87 03 bd f0 f7 62 bd 66 34 48 3e
       0.03973605 -0.032111503 -0.055412233 0.19551238
0000b0 cb a2 3b bd 9f 91 77 be e0 78 55 3d 23 27 6e bd
       -0.04580955 -0.24176644 0.05211723 -0.058142792
0000c0 b5 fe d2 bc 65 e1 94 3c 7c 18 b0 bd 31 e5 ac 3c
       -0.02575622 0.018173883 -0.0859842 0.02110538
0000d0 6c 66 9c bd 09 c9 d5 bd 70 e3 1f bb 84 24 47 bd
       -0.07636723 -0.10438735 -0.0024397038 -0.04861881
0000e0 0d cc 0c bc 3a 41 95 3d e7 24 04 bd 80 7c 24 3d
       -0.008593571 0.072878316 -0.032261755 0.040157795
0000f0 ce fb 3b 3e 44 fb 0f bd 28 95 43 3d de 08 c5 bc
       0.18357775 -0.035151735 0.04774967 -0.02405208
000100 a4 3f 8f bd 7a 25 1f 3e 1c c9 4f bd 84 93 b5 bc
       -0.0699456 0.1554164 -0.050728902 -0.022165067
000110 e2 fe 98 3d e9 40 8a be f1 05 91 be 80 27 ed bc
       0.0747049 -0.27002648 -0.28324845 -0.0289495
000120 4a 49 8e bd 2f f9 87 be 3c 29 6b 3d d6 ec 13 3d
       -0.069475725 -0.265573 0.05741237 0.036114536
000130 f2 e4 a6 3d 35 fa 60 3d 88 3a 80 bc 0c f4 ef 3d
       0.081491366 0.054926116 -0.01565291 0.1171647
000140 4c 54 76 3b d7 29 11 3c 2e 8b 56 3d d0 5e 44 bc
       0.0037586866 0.008860073 0.052378826 -0.011985496
000150 6c 89 b8 3d 1d c9 9b be 44 22 ef 3d 50 3d 01 3d
       0.09010586 -0.30426875 0.116764575 0.031552613
000160 79 0f b7 bd 29 22 f9 bd 03 6d be 3c b7 eb 0f bf
       -0.08938498 -0.12164719 0.02324534 -0.5621905
000170 7f 74 75 3e de a0 89 3d d7 74 ea bd 84 2b 81 bc
       0.23970221 0.06720136 -0.11448067 -0.01576782
000180 a3 56 b7 3d d0 4c d6 3c 3a a5 ab 3d 39 e9 11 3e
       0.089520715 0.026159674 0.08381124 0.14249124
000190 68 29 bf bc e2 56 22 3b 82 84 09 bd c2 0a fd bb
       -0.023335174 0.0024771024 -0.033573635 -0.0077222297
0001a0 32 9f 36 3e ae f4 17 3d d0 7a fd bb cc 6e 02 3d
       0.17834166 0.03709858 -0.0077355877 0.031843945
0001b0 f0 44 cb be 04 3a 83 be ff 13 9c 3c 2a 63 30 3d
       -0.39701033 -0.256302 0.019052504 0.04306332
0001c0 9c 32 40 3d 68 68 59 bf 5c 16 04 bd b5 56 b8 3c
       0.046923265 -0.84924936 -0.032247886 0.022502283
0001d0 85 9f 39 bd dd 51 13 3d 61 3c 20 bc 09 ad d7 bc
       -0.045318145 0.035966743 -0.00978002 -0.026327627
0001e0 5b 38 ac 3d 61 c9 77 bd 06 1d 56 bd e1 85 e8 3d
       0.084091865 -0.060494784 -0.052273773 0.113536604
0001f0 cd 84 1f bf 5c d4 68 3e 1c b5 f7 3c 39 8a ba bc
       -0.6231201 0.22737259 0.030237727 -0.022770988
000200 3d 82 f6 3c 34 3c e9 3a ad 07 35 3d cf 79 4f 3d
       0.0300914 0.0017794431 0.044196773 0.050653275
000210 ba 0b 40 3d 64 a2 e3 bd 36 e1 72 3d 90 c8 8a 3d
       0.046886183 -0.11114958 0.05929681 0.067765355
000220 8a fa 18 bf d2 19 19 3e 25 6c b0 be cf 2b 7e 3d
       -0.5975729 0.14951256 -0.34457508 0.062053498
000230 a3 a3 fe 3d 20 da 1b 3b 28 12 7e bc 48 20 2f 3c
       0.12433555 0.0023781136 -0.0155072585 0.010688849
000240 1f 63 ec bd b6 6f b2 3c f6 bb be bd 85 3c 58 bd
       -0.11542343 0.021781784 -0.093131945 -0.05279209
000250 d5 8f 33 be 20 cc a7 bc 82 82 2a bf 7f f0 eb be
       -0.17535336 -0.020483077 -0.6660539 -0.4608192
000260 40 ad 32 3c 3b a7 98 3d f8 cf 95 3c d0 7a bb 3c
       0.010905564 0.07453772 0.018287644 0.02288571
000270 b2 98 d2 3d 41 36 62 be 88 42 f5 3c 66 04 25 bf
       0.102830306 -0.22091009 0.029938951 -0.64459836
000280 f2 d4 1b 3d 34 6b 0c 3e 94 c9 64 bd c0 14 bf be
       0.038044877 0.1371277 -0.055856302 -0.37320518
000290 55 5a 58 3d 4e fb fd be 5f b1 1d 3d db 3b f3 bc
       0.052820522 -0.49605793 0.038499232 -0.029691627
0002a0 d6 f0 04 bd 86 84 08 be 40 ea 73 3d 52 f9 93 3d
       -0.03245624 -0.13331804 0.05954957 0.072252885
0002b0 02 31 3f 3d dc 63 9c bc 4a d8 b4 be 0d a8 0c bf
       0.046677597 -0.019090585 -0.35321265 -0.54943925
0002c0 9a 8a 04 be 80 fa 3c bd 11 d2 a2 3d 03 12 77 3d
       -0.12943497 -0.046137333 0.07950223 0.06031991
0002d0 c5 91 83 3e 68 44 69 3e 4c 70 7e bd 03 ac 00 bc
       0.2569715 0.22780001 -0.062118813 -0.007853511
0002e0 85 2c a1 3d 77 25 d4 bd 30 c0 40 3c 48 b0 7a bd
       0.078698196 -0.10358708 0.011764571 -0.06120327
0002f0 94 80 d2 3d b4 b9 1c 3d 58 1c a4 3d f8 90 b1 ba
       0.102784306 0.038263038 0.08013219 -0.0013547232
000300 98 65 80 bd 99 da 86 bd cb 8b a1 bd 6a 56 22 bd
       -0.062693775 -0.06584663 -0.078879915 -0.039633192
000310 25 de 44 3d 64 92 89 3c 30 c7 dd bc 49 b1 1d 3d
       0.048063416 0.016793437 -0.027072519 0.03849915
000320 fa 6f 37 3d d6 16 a9 bd f6 a0 f0 3c a6 f9 12 bd
       0.044784524 -0.08256309 0.029373627 -0.035882615
000330 de e5 ee bb 04 6c 38 bd b2 58 50 3c 50 3a 98 bc
       -0.007290586 -0.045024887 0.012716459 -0.018582493
000340 75 d5 0e bc 8f a6 a9 3f dc b1 d9 3f 7e 7e cf bc
       -0.008717884 1.3253955 1.7007403 -0.02532887
000350 41 84 ad bf 8f 18 0f be c6 2a 52 3c 6d ad 05 3d
       -1.3555986 -0.13974212 0.012827581 0.032636095
000360 40 ea 89 ba 5f 18 29 3d e1 77 a1 bc 63 a2 43 3d
       -0.0010522082 0.041283008 -0.019710483 0.047762286
000370 9e 85 b6 3c ef 54 98 be 14 62 12 3d b8 ac a8 bf
       0.02228051 -0.297523 0.035738066 -1.317771
000380 a7 45 e9 be dd 3a a2 3d d3 eb 43 bd f9 6b 57 bd
       -0.45560953 0.079213835 -0.04783232 -0.052593205
000390 66 49 05 3c d4 a6 62 3d 0c 52 6a 3d e4 1e ce bc
       0.008135175 0.05533488 0.057207152 -0.025161214
0003a0 f8 76 90 bd 3a 69 63 3d 4a 6f a6 3e ce 52 d2 bc
       -0.070539415 0.055520274 0.32506782 -0.02567425
0003b0 b1 af 8b 3d 6a 11 bf 3c 3e 62 9f be 97 af 20 3e
       0.0682062 0.023323733 -0.3112964 0.15691982
0003c0 d5 50 e4 3b 41 94 9a 3d 66 5c 30 bd 58 95 ca bc
       0.0069676437 0.075478084 -0.043056868 -0.024729416
0003d0 a7 31 15 bd 8b 86 38 bd dc 14 65 3d 00 9c 3f bc
       -0.036424305 -0.045050185 0.055928096 -0.011694908
0003e0 0d 69 13 3d 44 ae 25 3d c4 ff c4 bd a2 e4 46 3d
       0.035988856 0.040449396 -0.09619096 0.048557885
0003f0 85 0e d9 3c dc 53 48 3d ce 8c 0c bd be 9e 22 bc
       0.026496181 0.0489081 -0.03431397 -0.009925542

fc.3.bias f4 [128]
000000 05 d9 10 3d 56 09 2e 3c 6e c4 57 bd 24 53 73 3e
       0.035363216 0.010622343 -0.052677564 0.23762184
000010 ca e6 5c bd 5c 48 f0 bc 4a 89 63 3c 8e 31 34 be
       -0.053931035 -0.029331379 0.013887713 -0.17597029
000020 0d 87 97 3e 83 6d 53 bc 98 b3 54 bd 4a 99 8f 3c
       0.29595223 -0.012904528 -0.051929086 0.017529149
000030 ab 79 04 bd c0 08 4b bc e2 b0 8f bd f6 bd 81 be
       -0.032342594 -0.012392223 -0.070161596 -0.2534024
000040 23 31 3b bc 12 59 4a 3e 9b 2a f1 bc 57 e7 e4 3d
       -0.011425289 0.1976054 -0.029439261 0.11176937
000050 30 36 94 bd 6d a5 43 3e c7 01 44 bc fb 93 96 bd
       -0.07236898 0.19106074 -0.011963314 -0.07352444
000060 0a 5e 2e 3c 6a 82 88 3e f1 1a 07 be 00 da 30 3a
       0.010642538 0.26661998 -0.13193871 0.0006746352
000070 b2 b9 7a 3e a0 2b 19 3c 58 4a 8f 3e 02 d9 3a 3e
       0.244849 0.00934878 0.27986407 0.18246844
000080 81 2e e3 be 1d 45 1f bd 96 7d 6b bd 4d 2f a7 3e
       -0.44371417 -0.03888427 -0.057492815 0.32653275
000090 54 3a 9e 3c b0 84 e0 3b ad 35 21 3c 02 f3 fa bd
       0.019314922 0.006851755 0.009839457 -0.12253381
0000a0 96 b5 84 be 01 33 9a be e1 02 ce 3e 47 62 95 be
       -0.2591979 -0.30117038 0.4023657 -0.29176542
0000b0 30 a8 63 be 20 58 ce bc 2c 43 93 bc 56 b0 b0 3e
       -0.22232127 -0.025188506 -0.017976366 0.34509534
0000c0 cf 49 eb bd 77 d0 2c bc f0 59 c7 bc f9 08 1d bd
       -0.11488687 -0.010547749 -0.024334878 -0.038338635
0000d0 58 28 c5 bc d1 33 a2 bd 2c f4 5f ba 35 58 d6 bd
       -0.024067089 -0.079200394 -0.00085431593 -0.10466043
0000e0 22 04 6b 3e af 49 34 be ec ad 33 bd 98 2d 00 bd
       0.22950795 -0.17606233 -0.043867037 -0.03129348
0000f0 55 b5 94 bd 3b a6 9c be d4 73 5c bd 5d b2 6d 3c
       -0.07261149 -0.30595574 -0.0538214 0.014507857
000100 67 76 86 bd 0c 3f 16 bc 78 ac 41 ba 42 53 f2 3b
       -0.06565552 -0.009170305 -0.00073880656 0.007395179
000110 98 3b 39 3b a3 6d 80 bc 56 bb e8 be fc 7c d1 bd
       0.002826428 -0.015677279 -0.45455426 -0.10228917
000120 39 3f b2 bd 0f 33 8a bc c4 bc 6f 3c 9d 1d 5d 3c
       -0.08703465 -0.01687005 0.014632408 0.01349583
000130 fc ca 53 be ea 09 13 3c 82 f5 be be 09 49 c7 3e
       -0.20682901 0.008974532 -0.37296683 0.3892291
000140 04 a0 d5 bc bb 0d 36 bc 0c 8e e3 be 0a 7b 26 3d
       -0.026077278 -0.011111672 -0.4444431 0.040644683
000150 12 c8 87 3e ac b7 4c 3d 9a ad 25 3d 32 27 44 bb
       0.2651983 0.04997985 0.040448762 -0.0029930589
000160 3e 57 4b 3e 04 0a f4 bd 0e 23 9d bb 23 f3 f8 3b
       0.19857499 -0.11915973 -0.0047954386 0.0075973435
000170 8a 4f 0d bd d6 5b f5 3e 88 a9 db 3a 2e 5b ec bd
       -0.034499682 0.47921628 0.0016758898 -0.11540829
000180 82 ef 07 be 1d 64 bf 3e 48 a8 13 be 9f e2 1b 3d
       -0.13274959 0.37381068 -0.14419663 0.03805792
000190 01 86 03 3e e6 cc ed 3d f3 6a 3f be e2 c8 57 3e
       0.12844087 0.11611347 -0.18693142 0.21072724
0001a0 3b 38 69 bc df 24 02 3d 82 3a a2 bc 59 d4 34 3e
       -0.014234598 0.031773444 -0.01980329 0.17659129
0001b0 ee c3 9c 3b 48 50 47 bc 14 9c 17 bd 38 8c fe 3e
       0.004784099 -0.012165137 -0.037014082 0.49716353
0001c0 bd 72 96 3e d4 84 ac 3a 1c b4 97 bb fa c8 49 be
       0.29384413 0.0013162144 -0.004629625 -0.19705573
0001d0 60 b1 c0 bc 33 16 c8 3c f2 bf 46 bc d6 2f b5 bd
       -0.023522079 0.024424648 -0.012130724 -0.088470146
0001e0 62 24 df 3e 22 e2 a1 bd b5 0a d4 3b 02 3d 97 be
       0.43582445 -0.079044595 0.006471003 -0.29538733
0001f0 fa 04 be bd c5 31 0d bd 9f d7 73 bd 4a 0d e0 bd
       -0.09278293 -0.034471292 -0.059531804 -0.10940035

fc.5.weight f4 [64, 128]
000000 15 76 9c 39 af dd 3b 3d 19 d9 7c be b2 6a 29 bc
       0.00029842617 0.04586571 -0.24692191 -0.01034038
000010 c3 79 59 bd 17 5f 29 3d 50 23 8e 3d c4 cf f0 bc
       -0.053094637 0.04135045 0.06940329 -0.029395945
000020 1e 05 a8 bd ca 29 81 bd 9b 4c 9d bd 54 16 20 3d
       -0.08204101 -0.06306799 -0.07680627 0.039083794
000030 7c 02 80 3d 29 e5 88 3d d6 c3 1c bd 20 11 9a bc
       0.06250474 0.06684334 -0.0382727 -0.018806994
000040 3e f9 40 3d 71 c1 8e bd 27 c7 2f 3d cc 43 ff 3b
       0.047112696 -0.0697049 0.042914536 0.0077900644
000050 7a e7 9e 3c a1 49 ca bb 41 60 06 bd b4 69 1a bd
       0.019397486 -0.006173328 -0.03280664 -0.037698463
000060 54 72 35 bd f4 84 b0 3c 96 9e b2 bb 96 9b 56 3d
       -0.044298485 0.021547772 -0.005451034 0.052394472
000070 d4 65 bc bd 56 1d c7 3c 54 7c 56 3d 10 b0 ca bb
       -0.0919911 0.02430598 0.052364662 -0.006185539
000080 6a 81 3d bd 63 ea 8c bd 64 d1 79 bd c6 ec be 3d
       -0.046265997 -0.06880643 -0.060990706 0.09322505
000090 21 21 3f 3d cc 25 69 bc 9a 0e cc 3c e3 e2 62 bd
       0.046662454 -0.014230203 0.024909306 -0.055392157
0000a0 a0 d3 e4 3c 8e b4 76 bc 83 cc 0d 3d f4 05 88 bb
       0.027932942 -0.015057696 0.034618866 -0.0041511003
0000b0 9c bd f3 bd ee 9a 36 3d a2 98 58 bd 3a 26 52 bd
       -0.119013995 0.044581346 -0.052879937 -0.051305987
0000c0 da 2d 82 bb 06 2b d6 3b f4 94 97 3c b8 e3 a9 3d
       -0.003972751 0.0065358905 0.018503644 0.08295387
0000d0 88 18 56 bd b0 9a f0 bc aa ea 8f bd fb dd bb bc
       -0.05226949 -0.029370636 -0.070271805 -0.022932997
0000e0 b5 73 31 bd 40 1a 30 3d 53 47 fd 3c 22 35 2f 3d
       -0.043323237 0.042993784 0.0309178 0.04277528
0000f0 14 8f eb 3c 51 bb f8 3c 45 0f 8e bd f3 07 11 3c
       0.028754748 0.030362757 -0.06936506 0.008851993
000100 8a fe ab 3d 50 90 b5 3c c1 fa 77 bd 5a a2 3e bd
       0.08398159 0.02216354 -0.060541872 -0.04654155
000110 bd ef 79 bd 74 a2 d7 3a c3 c1 0c bd 41 71 5c 3d
       -0.061019648 0.0016451613 -0.034364473 0.053818945
000120 9c f0 3c bd 9a 42 55 bd 66 76 12 bd 67 cb aa 3d
       -0.0461279 -0.05206547 -0.035757445 0.08339577
000130 7c 88 9a bd ba 59 6d bd 8f 6a 1f be 63 ee 32 3d
       -0.075455636 -0.057946898 -0.15567993 0.043684375
000140 74 51 c3 3c 14 54 65 3b ef 4a 34 bd 4c 2f 3b 3b
       0.02384255 0.0034992741 -0.044016775 0.0028562127
000150 78 9e 32 ba 60 05 dc bc 16 07 67 3d ef 15 8d bc
       -0.0006813775 -0.026858032 0.056403242 -0.017222373
000160 d7 ff 69 bd e7 b9 de bc c6 0c 69 bd 91 ef 74 3d
       -0.057128754 -0.027188255 -0.056896947 0.05979878
000170 b7 ca 94 bd bc 60 13 bc b6 62 17 3d d5 ac 68 3d
       -0.07265227 -0.008995231 0.036959372 0.05680545
000180 99 cf 6e 3d a6 2a 33 3d a0 0b f8 3c c4 1a 1c bd
       0.05830345 0.043741845 0.03027898 -0.038111463
000190 a6 8d a0 3c 41 93 10 bd 19 cd 9d bd 79 73 a9 3c
       0.019598793 -0.035296682 -0.07705135 0.020684944
0001a0 18 67 72 3c 05 e7 74 bd 48 b8 48 bd 56 f6 ed 3c
       0.014795087 -0.05979063 -0.04900387 0.029048126
0001b0 33 a8 86 bd 94 a5 82 bd ec 9f 3c 3c 17 13 10 3c
       -0.0657505 -0.06379238 0.011512738 0.008793614
0001c0 76 41 94 3b 1e 9f 94 bd b9 19 91 3d a0 1c 48 3d
       0.004524405 -0.07256912 0.07084984 0.048855424
0001d0 ef d4 a1 bc ed 0d 3e 3c 8b 5c bc 3c f3 f7 2d 3d
       -0.019754855 0.0116 0.022993347 0.04247279
0001e0 75 97 98 3b 40 05 7a bd 61 36 28 3d 92 86 70 bd
       0.004656727 -0.061040163 0.041067485 -0.058722086
0001f0 ea 0d 4a bb b0 68 be 3c 72 53 bb bc 9f d0 38 bc
       -0.0030831047 0.023243278 -0.022866938 -0.011280208
000200 e8 36 88 bc 2c 4c 20 bd 11 c0 2c 3d 28 75 9b bc
       -0.016627744 -0.039135143 0.042175356 -0.018976763
000210 2e 09 ad 3b 1e c5 4b 3d 13 54 29 3d 94 16 e9 bc
       0.0052806353 0.049748532 0.041339945 -0.028453149
000220 3a aa 31 3d a9 e6 71 3d ba d5 8c bd 87 eb 94 bd
       0.04337523 0.059057865 -0.068767026 -0.07271486
000230 53 22 ad bd 17 9b 53 bd a1 6e ab bd ef c4 1c bd
       -0.084538125 -0.051661577 -0.0837071 -0.038273748
000240 c8 80 57 bd 50 11 f6 3c 50 3e 08 bd 8f 89 b7 bd
       -0.05261305 0.030037552 -0.03326255 -0.08961784
000250 3a b9 58 3d 1b 06 97 3d d4 b8 3c bd 32 ed 10 3d
       0.05291102 0.073742114 -0.046074703 0.035382457
000260 6b f8 82 3d 78 52 72 bd f8 9b fb 3b 92 a6 30 3d
       0.06395038 -0.05916068 0.007678505 0.043127604
000270 1c 8c 98 bd d4 2a 3e 3d cc 38 d6 bc 8e 4e 20 bd
       -0.07448599 0.046427563 -0.02615013 -0.039137416
000280 63 eb 2d 3d 5d ec 94 3d 71 be 9c 3d 73 2a d6 3c
       0.04246081 0.07271645 0.07653511 0.026143288
000290 d4 69 4f bd a3 f0 b1 bd bb 52 71 bd e1 05 b9 3c
       -0.050638035 -0.08688476 -0.05891679 0.022585811
0002a0 56 f2 11 bd fd 58 87 bd a6 92 90 bd 04 69 4f 3c
       -0.0356315 -0.0660877 -0.07059221 0.012659315
0002b0 ea c0 ce 3b b9 eb 19 bd 6c 8f 96 bd ca 85 2c bd
       0.0063096182 -0.03757832 -0.07351574 -0.04211978
0002c0 30 61 9e 3d 97 89 2b 3d fb d9 03 3d d3 6a c8 3d
       0.07733381 0.041879263 0.032190304 0.09786
0002d0 0c 10 c8 3b 80 69 7b bd 7d 49 ae 3c a5 52 07 bd
       0.0061054286 -0.06137991 0.021275276 -0.0330378
0002e0 0a de 87 3d c2 84 8e bd 47 35 03 3c ec 5a 40 3d
       0.066341475 -0.06958915 0.008008308 0.04696171
0002f0 c3 63 ee bc b2 5c 05 3d 12 9b 48 3d 74 da 2a bd
       -0.029100304 0.032559104 0.04897601 -0.04171224
000300 54 b6 67 3c 22 9c 8b 3c 3e e1 93 3d fe 45 a9 bd
       0.0141425915 0.017042223 0.07220696 -0.08265303
000310 75 d0 f7 3b bb 00 dd bc 7e b8 ad bd 23 10 4c 3d
       0.007562692 -0.026977887 -0.08482455 0.049820077
000320 05 f3 15 bd d9 22 6a 3d 48 b6 54 bd 42 41 50 bd
       -0.036608715 0.05716214 -0.05193165 -0.050843485
000330 00 93 5b 3c 8c e1 01 3c 3e a0 3d bd c2 7d 8f 3d
       0.013401747 0.00792731 -0.046295397 0.07006408
000340 d0 eb 90 bc 3a 8c aa bd e5 dc 93 3d 0d e9 07 3c
       -0.01769057 -0.08327527 0.07219867 0.00829531
000350 e8 27 2b bd 24 31 bd 3c ea c6 99 bc b2 e7 94 3d
       -0.041786104 0.023094721 -0.018771607 0.07270755
000360 83 fb 7c bc 2c 24 87 bd 4f 7e 18 bd 72 ca 71 bd
       -0.015440824 -0.06598696 -0.037229832 -0.059030958
000370 a7 df 8e 3c 47 46 e5 bd e2 3c 65 3d 97 c7 35 bd
       0.01744063 -0.11195045 0.055966265 -0.044379797
000380 03 83 63 bd db d4 a7 bd f1 bf b0 bd a5 86 66 bd
       -0.055544864 -0.08194896 -0.0863036 -0.05628075
000390 b1 ff 9c bd 8b 85 cb 3c 4e c6 e0 bd 51 34 17 3d
       -0.07665957 0.024843952 -0.109753236 0.036915127
0003a0 56 7d 4d bc 8f ab 82 bd f8 cc 34 bd 34 c4 e4 3c
       -0.012542089 -0.063803785 -0.044140786 0.027925588
0003b0 e2 f6 c7 bd d8 d4 56 3d 68 d7 6e bd 0f fe 46 3d
       -0.09763886 0.052449077 -0.058310896 0.048582133
0003c0 92 b1 b0 bd 2a cd 4b 3c 84 c9 01 3d 2e 58 0f bd
       -0.08627619 0.012439052 0.03168632 -0.034996204
0003d0 43 0e 25 3d e5 17 8c bd b8 80 7c 3d 61 22 c9 3c
       0.040296804 -0.06840495 0.061646193 0.024552526
0003e0 e8 a1 6d bd 85 ae b1 3d 14 04 89 bd f4 4e 57 bd
       -0.058015734 0.08675865 -0.06690231 -0.05256553
0003f0 12 d7 12 bd e5 8b 9b 3d 74 1f c7 3d 68 0f 08 3d
       -0.03584964 0.07595042 0.09722796 0.033217818

fc.5.bias f4 [64]
000000 d8 3d 97 3d 27 33 95 3d 03 32 da bc 1b df 9c bd
       0.07384843 0.07285147 -0.026635176 -0.076597415
000010 89 6b 05 3c c2 06 4a be a5 fa b3 3d f1 66 39 3c
       0.008143314 -0.1972914 0.08788041 0.011316047
000020 4c 4e 4e bc 7d 5c 86 bd ff be e4 bd 50 e4 4b 3e
       -0.01259191 -0.065606095 -0.11169242 0.19911313
000030 03 00 18 bf 72 7e 07 3e 2b 2d da 3d 28 c4 df bd
       -0.5937502 0.13231829 0.10653146 -0.10926086
000040 03 0c 9c be 1c 27 5c 3e 16 e5 e6 3d a3 89 7c bd
       -0.30477914 0.21499294 0.112741634 -0.061654698
000050 ce 61 7a bd 02 9e b7 3d 3c bd 98 3d 5f 1c 91 3d
       -0.06112843 0.089656845 0.074579686 0.070854895
000060 f1 8c 8d 3e 60 50 fa b9 e0 b0 0e 3d d8 e8 4b be
       0.27646592 -0.000477436 0.03483665 -0.19913042
000070 34 6b 73 3e ee 2c 08 be 1d 30 51 3d 31 2f a1 3d
       0.23771363 -0.1329839 0.051071275 0.07870329
000080 3f 15 6a be aa a4 5c be 56 b8 4d bc fa c6 2a 3f
       -0.22859667 -0.2154719 -0.012556156 0.66709864
000090 d4 73 3e bd f0 a2 c6 bc eb 45 25 be 16 30 1e 3d
       -0.04649718 -0.024247617 -0.16139953 0.038620077
0000a0 e9 dd 91 3d 06 d0 a2 bd cf 08 2d bc cd ab 93 3d
       0.07122404 -0.079498336 -0.010561182 0.07210503
0000b0 ed 4c 04 be 36 65 5b 3e c9 59 a3 3e 61 1f 0a 3d
       -0.1291997 0.21425328 0.31904438 0.03372133
0000c0 48 9a 9f 3d 05 44 f0 3c 51 20 75 be 0f f3 28 3c
       0.07793099 0.02932931 -0.23938109 0.010311856
0000d0 10 d0 cd 3d dc 0a 6d be af 81 35 be 03 96 cd 3d
       0.100494504 -0.23148674 -0.17725252 0.10038378
0000e0 d5 c6 69 bf 40 8f 25 be a0 a5 24 3d 3f 2f df bc
       -0.9131902 -0.16167927 0.040197015 -0.027244208
0000f0 8c f3 c8 be c1 ce 4b 3e b7 f9 7d 3d 3b 4f 09 bd
       -0.39248312 0.19903089 0.062005725 -0.033522826

fc.7.weight f4 [32, 64]
000000 99 e1 d0 bd 3a 81 fe 3d 9a d4 80 3d 6c 5e eb 3d
       -0.10199279 0.12426992 0.062905505 0.11492619
000010 2c 67 7d bc e3 5f 07 3b fe 3c e9 3c 3d bb 04 be
       -0.015466493 0.0020656518 0.028471466 -0.1296205
000020 fb 65 a5 bd a5 23 f8 3d 3c 82 c6 bd c6 d9 a6 bd
       -0.08076092 0.12116174 -0.09692809 -0.08147006
000030 63 d5 de 3d ea 12 2a bd a4 b4 82 bd 3b 21 0c be
       0.10880544 -0.041521944 -0.06382111 -0.13684551
000040 32 13 d0 3d c6 65 13 be 0d 3c 5f bd 4d b0 b4 bd
       0.10159911 -0.14394292 -0.05450063 -0.08822689
000050 90 22 66 3d 5c 69 bb bd 02 0c bc 3d 01 19 5f 3d
       0.056185305 -0.09150955 0.09181978 0.054467205
000060 dd c3 9f bd 7f f2 bf 3d 38 cf a0 3d ca 2a 51 bc
       -0.0780103 0.09372424 0.07852024 -0.012766549
000070 ec fc 06 3b c4 cb 3e 3d 9f 34 c9 bd 46 12 96 3a
       0.002059753 0.046581045 -0.0982449 0.0011449538
000080 8b 70 86 bd e2 37 10 3b e0 83 a7 3d 36 dc ee bc
       -0.065644346 0.0022005965 0.0817945 -0.02915774
000090 3a 82 97 bd 6a 11 40 bd 9c f0 8d 3d fc f9 f3 bd
       -0.073978856 -0.046891607 0.06930658 -0.11912915
0000a0 34 68 a3 bd 2e fe 95 3d f8 b3 9c bc 6c 26 82 bd
       -0.079788595 0.073238716 -0.019128785 -0.06354985
0000b0 c6 a3 02 bc 88 78 b3 bc e5 0b 8d bd 10 aa 9a 3d
       -0.007973617 -0.02190806 -0.06887034 0.07551968
0000c0 2c f0 07 bd f6 39 e4 3d 34 81 7a bd 65 9a 8e 3d
       -0.03318803 0.11143868 -0.061158374 0.06963042
0000d0 e6 da b4 bd 09 15 e7 bd 2c 85 17 bd 67 5a 55 bd
       -0.08830814 -0.11283309 -0.036992237 -0.052088168
0000e0 28 6d 6f bd 82 38 54 bd ee 2c 11 be 52 4c 2d 3d
       -0.05845371 -0.051811703 -0.14177296 0.042309113
0000f0 44 23 be bc fd 99 09 3e 78 21 5a bd 7b 2c b3 bd
       -0.023210175 0.13437648 -0.053254575 -0.08748718
000100 48 a1 e3 bd 5e db 73 3d 2f 38 16 3c d4 0f ed 3d
       -0.11114746 0.059535377 0.009168669 0.115752846
000110 7c 4a e1 3d 3f f3 86 3d 30 f3 e8 bd 3b cd 62 3d
       0.11000535 0.06589364 -0.11374509 0.055371504
000120 2d d2 dc 3c d0 04 48 bd 35 70 a9 3d fb db 7b 3d
       0.026955688 -0.048832715 0.08273355 0.061489087
000130 66 2b b9 3d a8 9d db 3c 2e fa c9 3d 54 62 29 bd
       0.09041481 0.026808575 0.09862171 -0.04135354
000140 cb 3a 00 3e b6 b7 d1 bd 70 a4 0f be 16 cf c1 3d
       0.12522428 -0.10240118 -0.14027572 0.09463327
000150 46 90 fa 3d 40 99 17 3f 04 6a d7 3d be e8 29 3d
       0.12234549 0.59218216 0.10518268 0.041481726
000160 08 34 87 bf 53 39 0f bc a3 2a db 3d c1 99 30 3b
       -1.0562754 -0.0087416945 0.10701492 0.0026947113
000170 6d c4 06 3d bd 36 47 3d 22 16 eb 3d 67 4f 5d 3d
       0.03290217 0.048636187 0.11478831 0.054030802
000180 87 c3 64 3d 9f c6 9c bd 6b 5b d1 3c be da 30 3d
       0.055850532 -0.076550715 0.025556287 0.04317736
000190 46 e5 3b 3d 00 5c 8a bd 72 11 66 3e 63 47 1d 3b
       0.04587295 -0.06755829 0.22467592 0.0023998849
0001a0 64 ea f5 bc fe 9a d0 bd b8 d3 87 3d 21 ff 76 3b
       -0.030018993 -0.101858124 0.06632179 0.003768869
0001b0 a1 54 99 3e 02 1b 8a 3d c8 aa d3 ba 73 42 db bc
       0.2994738 0.067434326 -0.0016148919 -0.026765084
0001c0 05 68 09 3e 41 7f b9 3e 1e 7c 07 3e 14 e6 01 be
       0.13418587 0.362299 0.1323094 -0.12685424
0001d0 6f f5 11 bd 52 6f b2 bd 72 13 82 3c ea 07 85 be
       -0.035634454 -0.08712639 0.015878413 -0.259826
0001e0 f4 4a 7f 3e 39 d0 83 be 27 bd 2c be d3 55 17 be
       0.24930936 -0.257448 -0.16869031 -0.14778833
0001f0 ec 44 7c be 38 7c 62 bd 6f 07 c4 3d 69 05 0c bd
       -0.24635667 -0.055294245 0.0957173 -0.034184847
000200 47 bb eb bd 3e 7f b8 bd 23 96 c2 3d 11 30 9c 3d
       -0.1151033 -0.090086445 0.095012926 0.076263554
000210 62 64 6f 3d 7e ab 65 bd 05 22 f0 bd 28 be d7 3d
       0.058445342 -0.05607175 -0.11725239 0.10534316
000220 ee 01 67 bc 59 d1 da bd bd 44 0d 3d 21 06 17 be
       -0.014099581 -0.10684461 0.034489382 -0.14748432
000230 a5 6f e5 3c 31 db 7b bc 1e 54 e2 bc f6 34 a8 3d
       0.028007338 -0.0153720835 -0.027628 0.082132265
000240 98 13 89 3d 75 b7 e7 bb 9a f2 40 bd 38 50 a7 3d
       0.0669319 -0.0070714303 -0.047106363 0.081695974
000250 dc 92 26 bd ea 0d e9 3d 9b 76 d6 bd 1c 8a b5 3d
       -0.0406674 0.11379607 -0.10471841 0.08864233
000260 5a aa bf bc 9a 3e 0f 3e 28 84 3f 3d 6c f2 45 3d
       -0.02339666 0.13988724 0.046756893 0.048326895
000270 65 cd 08 be f6 d3 3e 3c 33 34 95 3d 6e c3 3c 3d
       -0.13359602 0.011647215 0.07285347 0.046084814
000280 98 f3 ff bc d6 32 27 3d 67 4e 8e bc 24 73 03 be
       -0.031244084 0.040819965 -0.01737137 -0.12836891
000290 d7 c4 c4 3d de ff ad 3d 21 28 7b 3d b5 26 a6 bd
       0.09607857 0.084960684 0.061317567 -0.081128515
0002a0 0c fe 33 3d 48 09 ca 3d 91 16 e6 bd 3c 3a dc 3d
       0.04394345 0.098650515 -0.11234773 0.10753295
0002b0 58 25 fc 3d f8 1c 91 3d ac 53 90 bb 85 e0 9c 3c
       0.1231181 0.070856035 -0.0044045057 0.019150028
0002c0 c6 e6 8d bd 83 c4 e9 bd 14 3f 48 3d eb a5 7f 3d
       -0.06928782 -0.11414435 0.04888828 0.06241409
0002d0 75 19 f3 bd c8 34 28 be 12 af e8 bc a6 c4 ac 3d
       -0.1187009 -0.16426384 -0.028403793 0.08435945
0002e0 b8 8a 25 3d f0 53 87 bd 58 ef 0e be fa 23 8b 3d
       0.040415496 -0.06607807 -0.1395849 0.06793971
0002f0 51 80 5f 3d fa 1f ef bd f9 87 08 bd 3f f9 f6 bd
       0.05456573 -0.11676021 -0.0333328 -0.12059259
000300 54 6e d8 bd b3 dc 2e bd c8 58 ea 3d d6 b3 04 bd
       -0.105679184 -0.042690944 0.11442715 -0.032398067
000310 c0 0f e1 3d 4a cb 9f bc 78 ab c7 3d 3b b5 51 bd
       0.10989332 -0.019506115 0.09749502 -0.051198225
000320 98 00 55 3d 27 92 e3 bd 96 97 f5 3d 0f c5 c6 3d
       0.05200252 -0.11111861 0.11991803 0.09705555
000330 12 05 09 3e 36 87 b4 3b 8f 9d cb 3d 0e b5 e0 bd
       0.1338084 0.0055092825 0.09942161 -0.109720334
000340 34 37 19 3e f6 72 15 be e2 88 11 be ca 1b 94 3c
       0.14962465 -0.14594635 -0.14212373 0.018079657
000350 15 e5 1e 3e fb da c6 be 0a d3 43 bc 3b 96 dd bc
       0.15517075 -0.38838944 -0.011952171 -0.027049175
000360 21 e4 22 be fe f0 f0 3d 7b cb 27 bf 4c 5c 0e 3e
       -0.15907337 0.117647156 -0.6554486 0.13902396
000370 f3 a3 7d 3d 0b 66 37 3e 09 73 7f bd a0 a3 a3 bd
       0.061923932 0.1791002 -0.062365565 -0.07990193
000380 b3 e1 d5 bd 19 95 9f 3d 70 55 87 bc 3e c1 7f 3c
       -0.10443439 0.0779211 -0.016520232 0.015610037
000390 b6 fb 98 bd ef ba 0b 3d 2a 42 45 be 92 30 f2 3d
       -0.07469885 0.03411382 -0.19263521 0.1182567
0003a0 0b 08 52 bd 54 7e de bd a6 f8 93 3d cc 14 e2 3d
       -0.0512772 -0.10863939 0.0722516 0.11039123
0003b0 8a 39 0c 3f 73 dd b3 3d 41 19 17 3d 92 0e 37 bb
       0.547753 0.087824725 0.03688932 -0.0027932269
0003c0 3c 1a b1 bd 7f d3 c6 bd de 45 33 bc 54 c0 74 3d
       -0.08647582 -0.097083084 -0.010941951 0.05975373
0003d0 06 30 52 3c cb 2a f2 3d 18 ea a2 bc 1f 23 16 3e
       0.0128288325 0.11824568 -0.019887015 0.14661835
0003e0 0d a3 49 3e 31 f0 c1 bd 0e a1 60 be 90 f4 79 be
       0.19691105 -0.09469641 -0.21936437 -0.244097
0003f0 ee 0e 77 3e e5 ff 54 3d 03 5e 82 bb 03 65 d8 bd
       0.24126789 0.052001853 -0.003978492 -0.105661415

fc.7.bias f4 [32]
000000 88 78 21 bb 91 ef 9a 3c 1a fb 0e 3d df d4 c0 3c
       -0.0024638493 0.018913062 0.034907438 0.023539005
000010 86 87 b8 3d e5 90 4f be 0d 72 af ba 01 07 d1 be
       0.09010224 -0.20270117 -0.001338543 -0.40825656
000020 86 3d 4b be 11 ce 4e 3e 8e fa 86 be 76 c4 0c be
       -0.19847688 0.20195796 -0.26363033 -0.13746819
000030 47 29 f1 3d b1 50 5f 3e da c0 25 be 9c 8e 5c be
       0.11775451 0.21808125 -0.16186848 -0.21538776
000040 ee 23 49 3d 90 da e7 3d e2 48 12 3d 57 0a 37 3e
       0.04910653 0.11320984 0.035714038 0.17875038
000050 03 2b d5 3d 47 af d7 bd 34 0f f0 bd b2 51 b6 bd
       0.104085945 -0.105314784 -0.1172165 -0.08902301
000060 48 24 79 3d 0d 6a c2 bd 27 83 2a be 0d 03 00 3e
       0.060825616 -0.09492884 -0.16651593 0.12501164
000070 00 8e 57 3e 75 1a 7a be b6 78 04 3e 5c c2 0e be
       0.21050262 -0.24424155 0.12936673 -0.1394133

fc.9.weight f4 [3, 32]
000000 1b 0e 22 be 14 b8 8b be 5a bf 6f 3d 6c 0f 08 bf
       -0.15825693 -0.27288878 0.058532096 -0.5314853
000010 49 0b 30 3e 2a ad 90 3e 40 b2 28 3e cf f7 16 3f
       0.17191805 0.28257114 0.16474247 0.58971876
000020 7d 9d b1 3d 78 b8 0f 3e f5 f0 a9 3b 24 e5 b4 bd
       0.08672617 0.14035213 0.005186195 -0.088327676
000030 f8 be 61 bf d7 2b 21 be 75 c7 90 bd 4f 7e 6c 3f
       -0.8818202 -0.1573938 -0.070692934 0.9238023
000040 d7 c6 46 3e 07 4d 9d bd 1b e0 0c bd d4 87 cf be
       0.19411789 -0.076807074 -0.03439341 -0.40533316
000050 47 e2 25 3e f9 34 23 be bb eb 1b 3e 50 d4 a7 bd
       0.16199599 -0.15938176 0.15226643 -0.08194792
000060 6d 30 be bd b3 07 36 be bd 70 2b bd c0 3e a2 ba
       -0.0928658 -0.17776375 -0.041855562 -0.001237832
000070 a6 c1 b2 bc cb 9f 2b 3e f1 16 f3 3d 11 95 e6 3e
       -0.021820854 0.16760175 0.1186961 0.45035604
000080 60 e6 1c 3e 54 5b 6e 3c 88 fa aa 3d 39 7d 67 bd
       0.15322256 0.0145481415 0.08348566 -0.056515906
000090 d1 3b 3c 3d 2f 84 f4 be aa 91 4b 3d 6c 95 43 be
       0.045955483 -0.47757098 0.049699463 -0.19099969
0000a0 81 34 06 bf d3 30 be 3e 32 c1 7f bf 15 bb 09 3e
       -0.52423865 0.37146625 -0.9990417 0.13450272
0000b0 ff c9 bd 3d 6b aa 02 3e 1e 57 b3 bd af d1 09 3e
       0.09267043 0.12760322 -0.08756851 0.13458894
0000c0 17 b8 ef 3d 23 b2 17 3e c0 82 64 bd 39 cf 93 be
       0.11705034 0.14814048 -0.055788755 -0.28869036
0000d0 c5 b2 9d be f0 2a 49 be 4f 27 18 3e 3c ca 0c bd
       -0.30800453 -0.19645286 0.14858745 -0.034372553
0000e0 c4 b4 44 bd dc 01 0c be 2c cc f2 3c ad f7 bf 3d
       -0.048023954 -0.13672584 0.029638372 0.09373412
0000f0 20 7c b7 3e de 47 3f be 31 ac 74 3e 7b ee e9 bc
       0.35836887 -0.18679759 0.23893811 -0.0285561
000100 3a 2a 67 bd c6 db 93 3e 7d c8 25 be 2d 19 58 3e
       -0.056436755 0.2887861 -0.16189761 0.21103354
000110 17 dd 83 bd 08 b5 e3 3c 12 8d a3 bd b8 9a 8d be
       -0.06438654 0.027796283 -0.079858914 -0.27657104
000120 8b d9 ba 3c f4 45 48 be 5e 55 03 3e 04 de 98 3b
       0.02280881 -0.19557935 0.12825534 0.004665138
000130 94 6f 13 3d 3a 3b 05 3e 4a ee 81 3e a6 29 56 3b
       0.03599508 0.13010874 0.25377113 0.0032678633
000140 95 b9 96 bd 4e 22 33 3d 45 a2 16 3e 57 c1 b5 3e
       -0.07359616 0.043733887 0.14710338 0.3549907
000150 23 1e 70 3e 30 41 01 3e 97 d0 fb 3d 1f 45 97 3d
       0.23448996 0.12622523 0.12295645 0.07386231
000160 f0 13 f7 3c be cd b3 3e f1 4f 8c bc ec aa 2b 3d
       0.030160874 0.35117906 -0.017127963 0.04191105
000170 2a 24 e8 bb 54 cd f3 3c 60 eb 1a be 54 6c be be
       -0.007084389 0.029760994 -0.15128851 -0.37192023

fc.9.bias f4 [3]
000000 f9 67 cb bd cf c4 37 3e e9 4d 70 3d
       -0.099319406 0.1794617 0.05866805
