Genetic_Models/dino_genetic_model75.pth (torch, 48732 bytes, 8 tensors)

fc.0.weight f4 [128, 6]
000000 07 5b 1c 3d 52 d8 59 3e 88 2e 9b be 9d f1 8a 3e
       0.038172748 0.21273926 -0.30308938 0.2713746
000010 02 99 f6 bf 5d e6 a9 bf 19 72 70 be 6e 00 54 3d
       -1.9265444 -1.3273426 -0.23481025 0.051758222
000020 32 ab 54 3e 28 83 64 be c6 81 99 3e cd d6 3f 3e
       0.20768431 -0.22315657 0.29981822 0.18734284
000030 6b 9f d6 bc ff 63 65 be 31 5f a0 be ed eb 5a 3e
       -0.026199063 -0.22401427 -0.31322625 0.21379061
000040 c0 0d 32 c0 8e 06 34 c0 c5 a5 88 bc 67 30 bc 3d
       -2.7820892 -2.8129 -0.016680608 0.091889195
000050 fb e5 50 be b3 4b 30 3e 9f 5b ed 3f f2 16 0f 40
       -0.2040023 0.17216377 1.8543586 2.2357755
000060 dd 78 b0 be 00 f7 57 be 04 e6 1f bd 38 ba 22 be
       -0.3446721 -0.21090317 -0.03903772 -0.1589135
000070 ba 8a b3 3e 66 be 3a be 07 23 9a 3e 45 3b 32 be
       0.35066777 -0.18236694 0.3010485 -0.17405422
000080 01 82 bf bd 70 3f 55 3e b0 f5 f6 bf bc f4 03 c0
       -0.09350968 0.2082498 -1.9293728 -2.0618124
000090 33 d2 df 3e 85 ea fb bc 37 e7 0f 3e 78 b0 b8 bd
       0.43715057 -0.030751476 0.14053045 -0.09018034
0000a0 e8 a0 2f c0 db 2d 3d c0 be 4c bd 3d a9 fa ac 3e
       -2.744196 -2.9559238 0.09243153 0.3378499
0000b0 c7 91 5f be 59 58 59 be 80 35 3d bf 64 6f 03 c0
       -0.21832953 -0.21225108 -0.7390976 -2.0536737
0000c0 cb ee e9 bd 99 15 a2 be 59 b4 93 bd 38 61 a3 3d
       -0.11422499 -0.31657103 -0.07212133 0.079775274
0000d0 44 37 70 be 36 1b fa bd 1c e8 1c be eb 93 26 3e
       -0.23458582 -0.12212221 -0.15322918 0.16267364
0000e0 5c a6 99 3c ca 2b ac be 8d 0e c0 3c 30 e2 a7 3d
       0.018756084 -0.33627158 0.023444438 0.08197439
0000f0 dd c6 4e 3e ea 5b 79 be 26 7c 74 3e f0 85 9d be
       0.20193048 -0.24351469 0.23875484 -0.3076625
000100 7a bb 08 3e b5 78 d1 bd d7 d1 d4 bd 33 6e 82 3e
       0.13352767 -0.10228101 -0.10391586 0.254747
000110 20 5c 32 be 33 46 26 3e ed c9 e4 3f c2 1b 52 bf
       -0.17417955 0.16237716 1.7874123 -0.82073605
000120 54 62 07 3e 11 fd 90 be 44 e1 8a 3e eb 86 31 be
       0.13221103 -0.28318074 0.2712499 -0.17336623
000130 64 d6 c0 3d eb 15 c5 3e 56 cf 03 be dc 01 ca 3b
       0.09415892 0.38493285 -0.12872061 0.0061647724
000140 9d a1 37 3e d5 44 2e be b3 9b a3 bd af e5 fe 3d
       0.17932744 -0.17018445 -0.07988682 0.124461524
000150 24 cb 88 3e d9 06 b9 3d 5e 31 e4 bd d7 7e ba be
       0.26717484 0.09034509 -0.111422285 -0.36424896
000160 d3 e3 66 c0 96 80 66 c0 fe 2c 8d bb e2 2c 3f 3e
       -3.6076553 -3.6015983 -0.004308342 0.18669465
000170 25 17 7b bd 84 09 cb be 81 6c c5 3d 1e 2f 8a be
       -0.06130137 -0.39655697 0.09639836 -0.26989073
000180 34 b3 41 3c 4f 70 6e be ff 7b c8 3d d4 b4 5c 3e
       0.0118225105 -0.2328503 0.097892754 0.21553355
000190 e3 5d 09 40 52 9b ec be 4a 70 d4 3e 3f 7e ac be
       2.1463554 -0.4621225 0.4149192 -0.33690068
0001a0 78 08 0c bb 9b bc bb bd 44 51 f4 3f e8 8c 4b 3f
       -0.0021367352 -0.09166833 1.90873 0.7951188
0001b0 3c 10 17 bd c5 ff 22 be 2b c8 18 be df c4 68 3e
       -0.036880717 -0.15917881 -0.14920108 0.2273135
0001c0 ec 47 0f 40 2e 0b 71 3f cc 4a e1 bd c4 1c af 3e
       2.2387648 0.94157684 -0.110005945 0.34201634
0001d0 ca 0e b2 3d de 3d 00 be ac 3e 17 c0 17 da 29 c0
       0.08694227 -0.125236 -2.3632002 -2.6539361
0001e0 41 8a da 3e 4d 79 97 3e 76 ac 1f 3d 7f 3b 95 3e
       0.42683604 0.29584733 0.03898283 0.29146954
0001f0 32 bf 68 bf 1f cc c2 3f ed c1 09 be 49 3c c6 be
       -0.9091674 1.5218543 -0.13452883 -0.3871787
000200 29 c0 90 3e 73 3d a5 3d 5a f8 8a 3e 5f 05 5c be
       0.28271607 0.08068361 0.27142602 -0.21486424
000210 c8 45 ba 3e 25 96 2f be 4c ff 04 3f e9 77 c9 be
       0.36381364 -0.1714712 0.5195205 -0.39349297
000220 5e aa ad 3f 9c 08 ae 3f be 5f 26 3e d6 a2 08 3e
       1.3567617 1.3596377 0.1624746 0.13343367
000230 6d ae c9 3e fc a4 32 be 76 f7 1b c0 59 1b 2a c0
       0.3939089 -0.17445749 -2.4369788 -2.6579192
000240 0e dc 91 3e be 40 68 3d 71 57 ba bd b1 a5 83 3e
       0.284882 0.056702368 -0.090987094 0.2571235
000250 69 58 e2 bf 76 8c 42 bd 9e 6e 94 be d5 0d 83 3e
       -1.7683231 -0.047497235 -0.28990644 0.2559649
000260 bc 22 c3 be 1b 3c c2 3d 63 ea cf 3f a4 90 f4 3f
       -0.38112438 0.094841205 1.6243404 1.9106641
000270 9d d0 34 3e 56 b4 dd bd 63 8a 43 be c7 95 f4 3d
       0.17657705 -0.10825412 -0.19095759 0.1194263
000280 8f 9b 30 c0 37 92 14 c0 e2 7e 91 3d 9b ae d7 3e
       -2.7594945 -2.3214242 0.07104279 0.421254
000290 67 ec 22 be c3 1b e0 be 31 5e 10 bf cc 5e c1 3f
       -0.15910493 -0.4377118 -0.56393725 1.5107055
0002a0 c5 34 ae bd e5 c4 8a 3e 46 f9 b0 bd d8 73 22 bc
       -0.08506159 0.27103344 -0.08641295 -0.009915315
0002b0 e9 af 09 40 d5 f9 af 3f 18 78 94 be ac 3e 2b be
       2.1513617 1.3748118 -0.28997874 -0.16723126
0002c0 19 17 5f 3e ff 03 82 3d 2a 09 d3 3d f7 c2 f1 bd
       0.21786155 0.063484184 0.10304482 -0.11804765
0002d0 23 d2 90 be 95 a6 2b bd 2f a6 b3 3e 53 48 a7 be
       -0.28285322 -0.041906912 0.35087726 -0.32672366
0002e0 5b b7 9c 3e 78 12 e9 3d a1 2d c5 bd c1 12 a1 3d
       0.3060864 0.11380476 -0.09627844 0.07864905
0002f0 5c 8a ed 3d eb 4a 18 3d 11 c8 db 3f 6c d5 fd bf
       0.115986556 0.037180822 1.717043 -1.9830756
000300 cd 3c 98 bd 91 29 51 3e 9c 2c 97 3e e2 8e 10 be
       -0.07433472 0.20426013 0.29526222 -0.14117005
000310 6f 11 28 40 4e 19 b2 3e 73 62 15 be 12 d0 8e 3e
       2.626064 0.3478493 -0.14588337 0.2789312
000320 8c 92 74 be ed 5b 26 3e bd c4 40 be 12 8d 19 c0
       -0.23884028 0.16246004 -0.1882505 -2.3992352
000330 bf 8c 1b be f2 1e 4c be 66 ea c1 bd 0b 2a 0c 3e
       -0.15190409 -0.1993368 -0.09468536 0.13687913
000340 d2 67 09 c0 cc 7e 26 40 d3 8b 88 be b5 d8 7f be
       -2.1469617 2.601489 -0.26669177 -0.24985011
000350 d7 0e 8d 3e d1 43 e3 3e 26 2e f9 3f 85 45 c7 bf
       0.27550384 0.44387677 1.9467208 -1.5568091
000360 09 fd 43 bf 2f f7 53 be 45 55 a6 3d 55 85 2a 3e
       -0.76557976 -0.20699762 0.081217326 0.16652425
000370 5a a7 71 c0 be b9 fc bf c1 42 09 3e 2a c5 b0 3d
       -3.7758393 -1.9744184 0.13404371 0.08631356
000380 89 ec bf be ad 70 72 3e e4 67 84 3f 69 a0 d9 3f
       -0.3748515 0.23675795 1.0344205 1.7002078
000390 92 8e f4 3e 0d 95 9b 3d 1a 9a 6a bf b7 0f d3 be
       0.47765023 0.075967886 -0.9164139 -0.41222927
0003a0 20 99 8a 3f 51 ad e6 3f cc 60 e8 3c 67 37 6c be
       1.082798 1.8021642 0.028366469 -0.2306801
0003b0 44 de 9f be 93 89 e1 3d 42 04 ba 3f 03 f6 f8 bf
       -0.31224263 0.11012568 1.4532549 -1.9450077
0003c0 70 2e 8c 3e e0 f0 9b 3d 4e ef 28 bd ea f3 95 3d
       0.2737918 0.07614303 -0.041243844 0.073219135
0003d0 a5 39 e5 3e 9d 22 18 c0 7f 5d 85 be 15 6f ec 3d
       0.44770542 -2.3771126 -0.26047894 0.11544625
0003e0 06 0a 11 be ac 22 bc 3d 72 90 20 c0 ec c7 d2 bf
       -0.1416398 0.09186301 -2.5088162 -1.6467261
0003f0 5d 6c 87 3e e6 af d3 3d 8c 69 c4 be cd 8d 1c 3e
       0.26449862 0.10336284 -0.38361776 0.15288468

fc.0.bias f4 [128]
000000 3b 35 45 3e 4e c6 3d be 48 13 83 3e 3b 10 c9 3d
       0.19258587 -0.18532678 0.25600648 0.09817549
000010 51 8a be 3e de cf 0a 3e 80 ab 21 bf bb 5d 29 bf
       0.37214902 0.13555858 -0.63152313 -0.66158646
000020 9e a2 a9 be 45 71 5a 3e fd 85 ba 3d a3 a3 e1 be
       -0.3313188 0.21332271 0.091075875 -0.44070157
000030 a2 ef b6 bd 0a 65 76 3e 7c d5 07 3f 73 02 9d 3e
       -0.08932425 0.24061981 0.53060126 0.3066593
000040 21 6c d7 be 64 06 84 be 12 f7 0e 3d 10 8d 91 bd
       -0.42074683 -0.25786126 0.034903593 -0.07106984
000050 af d7 02 bd 2b 37 2e be f6 d0 cf bc 29 8d 4d be
       -0.031943973 -0.17013232 -0.025368195 -0.2007338
000060 09 6f 48 3e cb 21 bc be 40 64 8b 3d 58 b7 8d bd
       0.19573607 -0.36744532 0.068062305 -0.06919736
000070 76 0a a5 3c de 96 93 bd 35 5f a0 bd f8 27 a1 be
       0.02014659 -0.0720651 -0.07830659 -0.31475806
000080 bc 0f d3 3d 9a 20 d7 be c6 bf 67 3e 22 1d 98 bc
       0.103057355 -0.4201706 0.2263175 -0.01856858
000090 a2 96 2f 3f a6 c2 be be c4 a5 15 bf b9 6c c7 be
       0.6858922 -0.3725788 -0.58456063 -0.38950136
0000a0 85 24 0e bf 5e b2 44 3d 1d f3 fe 3d 7e 59 b1 3e
       -0.55524474 0.048021667 0.12448714 0.3463859
0000b0 6c 88 83 be 0f 20 b3 bd 6f 39 22 3e 3e 35 90 3e
       -0.2569002 -0.08746349 0.15842222 0.2816562
0000c0 07 71 5b be f2 66 01 be d0 f1 a0 3d 4c fb 0e 3e
       -0.21429835 -0.12636927 0.07858622 0.1396305
0000d0 b3 2b 9e 3e 67 f6 4b be ab d4 ca bd c1 a2 b6 be
       0.30892715 -0.19918214 -0.099038444 -0.35671046
0000e0 b8 f1 6c be b8 6f 1a bf 39 cd c3 3d 87 4e 16 3e
       -0.23139083 -0.6032672 0.095606275 0.14678393
0000f0 0e d4 ed bc a6 b3 1a 3c 2c 8a 81 3d d0 ea 99 3e
       -0.02903178 0.009442246 0.06325182 0.3006196
000100 46 e2 d8 3d 5c dd d3 be 9b 58 2d 3e b0 29 94 be
       0.10590033 -0.4137982 0.16928332 -0.28938055
000110 5e c3 fb 3e fb b8 a5 3e 37 64 0f bf d4 36 a6 3e
       0.4917249 0.3236769 -0.5601229 0.32463706
000120 b5 41 0a bd 35 2b 1d bd c0 b1 54 3e 56 af 18 bf
       -0.03375407 -0.038371284 0.20770931 -0.5964254
000130 a7 ec d3 be 26 3f da be 37 54 c0 be 66 bf a4 3e
       -0.4139149 -0.42626303 -0.3756425 0.32177275
000140 03 02 69 3e 41 94 c8 bd 3e df a9 be b7 96 88 be
       0.22754674 -0.09793902 -0.33178133 -0.26677486
000150 46 e2 ed bd bd 3b f8 3e 6a a9 6c be a4 6c 13 bd
       -0.11615424 0.48483077 -0.23111501 -0.03599228
000160 b1 30 f9 be 8d 7a 92 3e fd 97 b3 3e 84 54 8d be
       -0.4866996 0.28609124 0.35076895 -0.27603543
000170 90 6d bd 3d fd 8b 83 3c d9 e8 88 3e 7c 42 0c bf
       0.09249413 0.016057963 0.2674015 -0.5478895
000180 4e d8 44 bb 68 d0 ba bd b9 fd 6c be ec a5 25 bf
       -0.0030036154 -0.091217816 -0.23143663 -0.647063
000190 12 42 11 3f 99 2c b5 3e 9c 20 c9 3b e2 95 28 be
       0.5674144 0.35385588 0.0061379205 -0.16463426
0001a0 d0 05 ea 3d a2 9a 0d 3d db c8 a9 be 6f 14 d6 bc
       0.1142689 0.034571297 -0.33161053 -0.02613279
0001b0 07 dd 20 3e 87 64 19 be f3 4d 48 3e de 84 c1 bd
       0.15709315 -0.14979754 0.19560985 -0.094491705
0001c0 1c 44 ce bd 70 14 da bd c3 35 79 3c e5 c8 2b 3e
       -0.100715846 -0.106484294 0.015210572 0.16775854
0001d0 33 61 5f be 4b 8a 8b be 63 17 24 3e f7 5c 26 bd
       -0.21814422 -0.27253947 0.16024546 -0.040616002
0001e0 e4 07 83 be e8 8a bf 3e 8b 1e b9 be 53 28 15 3e
       -0.25591958 0.37410665 -0.36156115 0.14566164
0001f0 05 92 32 3e cf b9 0b 3f ce ba c7 be f0 31 b3 3e
       0.17438515 0.54580396 -0.39009708 0.34999037

fc.2.weight f4 [64, 128]
000000 a0 0c 17 bc ef 08 88 3d 56 f7 10 be cf 17 41 3c
       -0.009219319 0.06642329 -0.14156851 0.011785462
000010 31 1c c1 bc c4 0e 05 be 40 7d 15 3e 9e 67 79 3d
       -0.023573013 -0.12993914 0.1459856 0.060889833
000020 5f 0f 03 3d 1f 86 c8 3d b8 9d af 3a 62 21 ce 3d
       0.03199708 0.097912066 0.0013398444 0.10064961
000030 c6 e1 d6 3d 72 43 95 bd 87 52 2d bf 41 a4 27 bd
       0.104922816 -0.07288255 -0.6770405 -0.04092813
000040 29 f0 08 3e 7d 8c 98 be 3d e0 9e 3d b8 29 0f 3b
       0.13372864 -0.29794684 0.07757614 0.0021844935
000050 27 7f 98 bd 8a b9 3a bd 6b 3b 22 40 f0 54 0d be
       -0.074461274 -0.0455871 2.5348766 -0.13801932
000060 3e 8f 93 bd 9d 5c 3a 3b 2e 7f 41 bd 83 90 3b be
       -0.07205056 0.002843655 -0.04724043 -0.18316846
000070 5f 17 38 3d 02 bf 07 bd b5 99 ca 3d 8b 7f 18 3e
       0.044944163 -0.033141144 0.098925985 0.14892404
000080 ae a5 af 3d ae 87 5d 3d 24 95 d5 be a8 0f 0b bd
       0.08576523 0.054084472 -0.41715348 -0.033950478
000090 7e bb 95 3e 5e 06 6f bb 84 b1 61 3d 9b c0 b9 bd
       0.29244608 -0.00364723 0.055100933 -0.0906994
0000a0 91 9d c1 3d 66 a0 b2 bd 74 29 38 bd 0e 71 d7 bb
       0.094538815 -0.08722 -0.044961408 -0.0065747565
0000b0 ca 0d 3f bd a6 55 d9 3c 5c a2 27 3d 7a 5f 8e bd
       -0.04664401 0.026530098 0.040926322 -0.069518045
0000c0 a5 04 a4 bf ac 9c bc 3d d0 0c 0c be b6 f7 45 bd
       -1.2813917 0.0920957 -0.13676763 -0.04833194
0000d0 f0 01 58 3a 58 43 b9 ba 0c f6 c5 3d aa 08 be 3d
       0.0008240035 -0.001413445 0.0966607 0.09278996
0000e0 b4 af dc 3b 27 a7 47 3d 94 92 50 bd e9 75 87 3d
       0.0067348126 0.048743393 -0.050921038 0.066142865
0000f0 cc 5a 5f 3d 58 87 53 bd 7b ee a6 bd 29 75 02 bd
       0.05452995 -0.051642746 -0.08150955 -0.031850014
000100 44 a9 33 3d e0 10 d2 3c 88 82 c3 3c ba 9c cc bc
       0.043862596 0.025642812 0.023865953 -0.024977077
000110 15 34 29 bd 6d b8 39 bc b6 0e 6b 3e 1b b7 86 bd
       -0.041309435 -0.011335474 0.2295483 -0.06577893
000120 c6 f2 9c bc cb 49 7b bd dc 85 b3 be b8 84 df 3c
       -0.019158732 -0.06134967 -0.35063064 0.027284965
000130 0c bc 94 3c 2a c9 05 3e e8 2b 2d 3d f5 88 79 be
       0.018156074 0.13065019 0.0422782 -0.24368651
000140 47 b5 3a bd 0d d3 43 3d 48 71 4b 3e 72 c1 44 bd
       -0.045583036 0.047808696 0.19867432 -0.048036046
000150 db 5b b6 bc 60 84 9b bd dd 26 6e bd 50 82 01 3d
       -0.022260597 -0.07593608 -0.05814253 0.031618416
000160 4e f2 d2 3c 78 f1 e6 bc 03 b3 9f 3d be e4 f1 3c
       0.025750306 -0.028191313 0.07797816 0.029528018
000170 c7 e7 95 bd 4f 42 91 3e 6a 7e c3 3c e8 49 84 3d
       -0.07319599 0.28370902 0.02386399 0.06459409
000180 89 2b 5d bc a1 73 32 be a9 24 4c bc 2c f5 bb 3d
       -0.013499149 -0.17426921 -0.012459912 0.09177622
000190 67 5a a3 3e cf c6 c5 3c d4 cd ac bc fc 9d 60 bd
       0.3190491 0.02414265 -0.02109424 -0.054838166
0001a0 6a d9 e4 3e 9e 17 30 3d 00 43 cd b7 10 14 80 be
       0.44697124 0.042991273 -2.4469104e-05 -0.25015306
0001b0 96 a2 e2 3c 4e 53 ea 3c fc 77 b4 3c c5 cb 8e 3e
       0.027665418 0.028604176 0.02202987 0.2788984
0001c0 e0 5c 80 3d 08 59 fa bd 5a 3c 8c 3c d4 4b c1 bc
       0.062677145 -0.122240126 0.017118622 -0.023595728
0001d0 a4 f9 7b 3b 9b 62 03 be 17 17 f1 3d 18 05 1e be
       0.0038448358 -0.12830584 0.11771982 -0.1543163
0001e0 b8 ad ac bc ca 5e 1f bd 7b 67 cf ba b4 0b 0a 3e
       -0.02107893 -0.038908757 -0.0015823686 0.13481027
0001f0 06 01 fe 3c 6b cb 62 3d 18 c7 85 3d 3d 6b 03 3d
       0.031006347 0.055369776 0.06532115 0.032084692
000200 18 07 bf 3d e8 16 a3 bc 83 8e 3f bd 78 be 0c be
       0.09327525 -0.019908383 -0.04676677 -0.13744533
000210 6c a2 b4 bd 22 6b fd 3c 01 10 ec bd 9a e7 91 bc
       -0.08820042 0.030934874 -0.1152649 -0.017810632
000220 d1 e2 f0 3b 50 87 50 bc ee 73 d2 3d 15 63 06 be
       0.0073512574 -0.0127275735 0.10276018 -0.13123734
000230 ec 2e 1c bc 01 48 1a bd a1 cd f9 3d 70 07 b7 3d
       -0.009532671 -0.037666325 0.12197424 0.089369655
000240 8e 14 6b bd 72 ae bc 3d 92 2b e1 bd 1c 28 32 3c
       -0.05739265 0.0921296 -0.109946385 0.010873821
000250 c6 c8 34 3d 08 9d 97 3d c1 87 57 bd de b8 8c bb
       0.044136785 0.07402998 -0.0526197 -0.004294499
000260 00 2b 77 bd c9 65 8a bd 56 14 3b bb 9c d4 f9 bb
       -0.060343742 -0.06757695 -0.0028546057 -0.007624222
000270 20 5c 8d bd e0 74 a2 b9 9b 11 8a 3d b8 ed d8 3d
       -0.06902337 -0.00030986127 0.06741639 0.10592216
000280 60 69 f3 bd d1 5f 12 be cb 84 cb bd c4 bb 9a bb
       -0.11885333 -0.14294364 -0.099374376 -0.0047220904
000290 bc e7 85 3d 86 d4 7e 3d df e7 31 3d 94 ae 67 bc
       0.065383404 0.062214397 0.04343402 -0.014140744
0002a0 2d 4e e6 3c dc 15 f1 3b 5e 61 60 3c 9f 49 38 bd
       0.028113449 0.007357342 0.013695089 -0.044992086
0002b0 7c d4 fb bc 8a c3 09 bd 4d 7c 02 3e f5 3d 72 3d
       -0.030740969 -0.033633746 0.1274273 0.059141118
0002c0 28 07 30 3d a9 4e 8c bd 02 fb 7c bd 3b c2 8a bd
       0.042975575 -0.06850941 -0.061762817 -0.06775328
0002d0 62 45 58 bb 00 40 9a bc b1 a6 a9 bd aa 61 8c bd
       -0.003300034 -0.018829346 -0.08283747 -0.068545654
0002e0 8e 3c c5 3d 54 49 ca bc 72 12 b5 bd 6c 60 10 3c
       0.096306905 -0.024693169 -0.08841409 0.008812051
0002f0 be 06 67 3d be 0e d0 3d 0b ff 31 3d 56 dc 56 3d
       0.056402914 0.10159062 0.04345612 0.052456222
000300 84 88 ec 3d e7 0f 82 bd 00 91 cf 38 9d 0b 16 bd
       0.11549476 -0.063506894 9.8975375e-05 -0.03663217
000310 d7 a9 2e bd da b7 0b bd 03 7b 12 bd b4 0a 83 3d
       -0.04264244 -0.03411088 -0.035761844 0.06398526
000320 9d f0 1c bd ee 00 52 3c 82 d3 d4 3d 5f d0 83 3d
       -0.038315404 0.0128176045 0.103919044 0.06436228
000330 64 c6 f4 3a 61 92 98 bd 40 49 49 3c 72 34 9b bd
       0.0018674848 -0.074497946 0.012285531 -0.075783625
000340 52 38 d3 3c f2 e0 4b bd db 17 19 3d 40 5c ce bb
       0.025783692 -0.04977507 0.037376266 -0.006297618
000350 c4 58 3e 3d 1e 28 b2 3d 72 b7 88 3c 9e de 4d bd
       0.046471372 0.08699058 0.016689036 -0.050261132
000360 de cc 47 3d c7 5c 77 3d cf a1 7a bc 75 0d c2 bd
       0.04877936 0.060391214 -0.015297367 -0.09475223
000370 30 81 66 bd 4c 57 48 3d c8 8a f6 3c 6c a4 b1 bc
       -0.056275547 0.048911378 0.030095473 -0.021684848
000380 1c 1b d8 bd 1c 62 f1 bc d1 c0 b3 bd e7 5a d4 bd
       -0.10552046 -0.029465728 -0.08777011 -0.10368901
000390 a9 bf 1f 3d 06 86 06 3d 86 3f 6b 3d c8 91 35 bd
       0.03900114 0.03284266 0.057433628 -0.04432848
0003a0 5f 1a 73 bd 31 de 5f bd 57 45 8b bd bd 14 0a bd
       -0.05935132 -0.054655258 -0.06800335 -0.033711184
0003b0 40 fa 8e ba f9 29 ca 3d 1a fb c1 bd bb 79 8a bd
       -0.001090832 0.09871287 -0.09471722 -0.067614995
0003c0 5c a8 87 3d 21 50 33 bd 52 41 15 bd f8 6a 35 3d
       0.06623909 -0.04377759 -0.036439247 0.044291466
0003d0 0b fe 88 3d fc 83 df 3d 33 23 b5 bd 16 6a 86 3d
       0.0668908 0.10913846 -0.08844604 0.06563203
0003e0 33 7a 34 3d 54 9f bf bc 24 ea 1d 3d 07 4d 0e 3c
       0.04406185 -0.023391403 0.038553372 0.008685357
0003f0 d9 b2 c1 bb c4 87 ee 3d 2c 2d a3 bd 97 5d da 3c
       -0.005911213 0.11646989 -0.079676 0.026655955

fc.2.bias f4 [64]
000000 5b 71 5d be 70 b2 85 bb 6d 10 3c bc 88 77 21 bc
       -0.21625273 -0.0040801093 -0.011478526 -0.009855159
000010 01 12 0a bc 7f 4e ee 3c cc 7a df bc de bf b3 be
       -0.008427144 0.029090164 -0.027280234 -0.3510732
000020 7b de 4a 3d 6f 0c d7 bc c3 9b 54 3c 0f 7c ab 3d
       0.04952858 -0.026251046 0.01297659 0.08373272
000030 54 37 9d be 3d 98 92 3c 49 c4 d4 bd 36 e8 09 bd
       -0.30706275 0.017894858 -0.10389001 -0.03366872
000040 d2 39 b2 bd 75 9b 3d 3d 9e b2 4c bc 73 2a 92 bd
       -0.087024346 0.046290834 -0.0124937575 -0.07137003
000050 29 8b 2a 3e d6 5f 93 3e e8 94 75 bd 60 ad 17 3d
       0.16654648 0.28784055 -0.05995646 0.037030578
000060 76 f0 a4 3d 74 2e d7 bd 9c b2 ff bc ae 41 8f bc
       0.08053677 -0.10506907 -0.031213097 -0.017487373
000070 18 c4 a2 3d ba 16 a3 3d cc 3c 04 be 9d 2b c0 bd
       0.07947558 0.07963319 -0.12913817 -0.093833186
000080 1a 0a 96 3c bc 11 8c be 0a 34 ed 3b 57 5c 11 3c
       0.018315364 -0.2735728 0.0072388696 0.008872113
000090 57 d6 f8 3c 4e dd 2e be ac e7 f6 3c 26 8b 96 3d
       0.030375643 -0.17076609 0.030139767 0.07350759
0000a0 2b 63 2e 3e 65 bd c9 bc 1c b6 dc 3c a6 2f ac bd
       0.17030017 -0.024626443 0.026942305 -0.08407526
0000b0 38 96 10 3c 89 bc 5d 3d bc 72 21 be 30 2b 36 be
       0.008824877 0.05413488 -0.15766424 -0.17789912
0000c0 64 47 33 bc 4a 12 f7 3b 89 db a4 3d f0 7f 77 3c
       -0.010942314 0.007540022 0.080496855 0.015106186
0000d0 73 46 c2 3c 90 56 b5 3e ce ee 90 3d 30 83 33 3d
       0.023715233 0.35417604 0.070767984 0.043826282
0000e0 84 47 4a 3c 79 30 88 3d d8 fd b2 be 1e e3 0a bc
       0.012346152 0.066498704 -0.34959292 -0.0084770005
0000f0 89 44 80 3c 02 44 27 3e f7 2c b8 3c b7 75 13 be
       0.01565768 0.16334537 0.022482378 -0.14400373

fc.4.weight f4 [32, 64]
000000 ea 34 43 bc d2 8c 7f bd 92 23 a0 bd 66 94 f6 3d
       -0.011914471 -0.062390156 -0.078192845 0.120400235
000010 3d a6 06 3c e3 0a 2a bd 40 f3 69 b9 b0 cd 73 bd
       0.008218345 -0.04151429 -0.00022311229 -0.05952233
000020 35 14 67 3d d6 cd a2 bd 01 32 c1 3e ac de 71 3b
       0.056415755 -0.07949416 0.37733462 0.0036906404
000030 07 b5 50 bd e2 e8 08 bd fe ee 1d bf 2c 7b 83 3d
       -0.05095389 -0.03342522 -0.616928 0.064199775
000040 92 73 c4 3c 15 b2 d2 bd e0 9d 43 bd 76 53 05 be
       0.02398089 -0.10287873 -0.047757983 -0.13020119
000050 a1 e9 4c bd 94 c1 6f 3c f4 65 df 3d fd f4 b5 3d
       -0.050027493 0.014633555 0.10908118 0.088846184
000060 3b 0b 95 bc 7e 08 68 3c 22 c2 af bb 95 62 81 bd
       -0.018193832 0.014162181 -0.0053637186 -0.06317631
000070 30 0d cd bc c7 27 20 3e b2 4b 8e bd e4 07 f7 39
       -0.025030702 0.15640174 -0.069480315 0.0004711739
000080 27 a7 49 bd 06 12 08 bd c9 89 0e 3e 2f 79 8c bc
       -0.049231675 -0.033220313 0.13919748 -0.017147629
000090 24 7f 97 bc 62 5a b9 3c 9d a9 fb bc b7 6f 1e 3e
       -0.018493243 0.022626106 -0.030720526 0.15472303
0000a0 d9 08 73 bd 86 20 e8 3d 2e ea 77 3c 59 67 14 bd
       -0.05933461 0.11334328 0.015131516 -0.036231373
0000b0 24 44 e9 bd a7 2a 0a 3d 49 f0 99 bd 15 5e ce bd
       -0.1138995 0.033732083 -0.07516534 -0.100765385
0000c0 c6 04 d0 bc 31 e4 92 bd 8f 1f 14 bd 04 ab 4b 3d
       -0.025392901 -0.0717243 -0.03616291 0.04972364
0000d0 86 8d 01 be de a3 b1 bd f6 81 8d 3d 2d 83 d9 bd
       -0.12651643 -0.08673833 0.06909554 -0.10620723
0000e0 cb 9d 76 3d 35 49 40 bc 67 b8 47 be e2 49 db 3d
       0.060209077 -0.011736204 -0.19503938 0.107074514
0000f0 3a ea f7 bd ae bb 2e 3e d0 2c db 3d 6e 9c c7 bd
       -0.12105222 0.17063782 0.10701907 -0.097466335
000100 d5 fa 65 3d f9 25 bb bd 78 23 96 3d 28 a9 78 bd
       0.056147415 -0.09138102 0.07330984 -0.060708195
000110 27 f9 4d 3d d1 72 c6 3d 3d 1a 36 bd 53 e1 43 3d
       0.05028644 0.09689868 -0.044458617 0.047822308
000120 23 18 1b 3d 91 14 b1 3d e5 9e f5 3c a9 09 f6 bd
       0.037864815 0.08646501 0.029982993 -0.12013561
000130 9e 14 26 bd dd 8c 62 bd 08 0f 19 bd 6d 98 bd bd
       -0.040547006 -0.05531012 -0.03736785 -0.092575885
000140 df 5e d8 3d 86 e3 07 bd b3 71 f9 bd 6f 76 fc 3d
       0.1056497 -0.033175968 -0.121798895 0.12327277
000150 0f 7b 8c 3d 77 59 e7 bd a9 25 9f bd be c8 24 3d
       0.06859409 -0.11296361 -0.07770855 0.040230505
000160 ce c7 35 3b dc d9 88 3d c6 e6 d4 bd 8a 76 a3 bd
       0.00277375 0.066821784 -0.10395579 -0.07981594
000170 71 1f 52 bd 16 b4 a7 3d 9c d7 c1 bd e7 5b d2 bd
       -0.051299516 0.081886455 -0.09464952 -0.10271435
000180 a4 be 01 be ff 16 a0 3d 09 3f 94 bd 24 5e 8b 3d
       -0.1267038 0.07816886 -0.072385855 0.06805065
000190 d2 f8 a4 bd 0c 8f 31 3c 9f f0 ee 3d 2f a2 80 3d
       -0.08055271 0.010837328 0.116669886 0.06280934
0001a0 70 43 a2 bd d2 e1 84 3d be 6a c7 3d 9f a3 46 bd
       -0.07923019 0.06488384 0.09737156 -0.048495885
0001b0 47 eb b9 3c 6e a5 d2 3d dc ea bf 3c 64 30 64 bc
       0.022695197 0.102854595 0.02342742 -0.013927553
0001c0 dd cd 5b bd af 06 b4 3c 63 92 67 bd b6 1f d8 3c
       -0.053663123 0.021975843 -0.05653609 0.026382308
0001d0 01 83 9e bc e0 e6 bf bd 8a b8 6f bd f0 7b 09 be
       -0.019349577 -0.09370208 -0.0585256 -0.13426185
0001e0 b5 63 0f 3e 1d 68 32 3c 1f 9a 6d 3d 89 ed 0b be
       0.14002879 0.01088908 0.05800831 -0.13664831
0001f0 98 94 8c 3d 68 d5 1c be 2c 89 2d bb 08 fb c2 3d
       0.068642795 -0.15315783 -0.0026479466 0.09520537
000200 2d 4f d4 bd 0d 31 ec bd da 13 47 3d 26 24 02 bd
       -0.10366664 -0.11532793 0.048602916 -0.031772755
000210 6c d6 61 bd 74 89 0c bd a2 74 c0 3c 0f 8e 0a be
       -0.05513613 -0.034310773 0.023493115 -0.13530754
000220 45 ff 04 be d7 d5 83 3d b0 d1 3f bb e1 a2 a8 3d
       -0.12988003 0.06437271 -0.002926927 0.08234192
000230 5e 80 60 bd be b8 38 bd 94 f4 96 bd 6b 74 e6 bd
       -0.05480992 -0.04509806 -0.07370868 -0.11252674
000240 71 0a c5 bd 34 6c e7 bc 64 34 98 3d 85 b6 a0 bd
       -0.09621132 -0.028249837 0.07431868 -0.07847313
000250 8c 33 06 be a0 3f bb ba 32 4e 22 be 1c 67 e6 bb
       -0.13105601 -0.001428593 -0.15850142 -0.0070313346
000260 01 04 ca 3d cf f1 8d bd 94 62 49 3d 6c 71 39 3d
       0.09864045 -0.06930887 0.049166277 0.045274183
000270 54 17 ef 3d 46 14 22 be ca b6 49 bd 64 a4 44 bd
       0.11674371 -0.15828046 -0.049246587 -0.048008338
000280 d6 70 59 bd 85 a6 2c 3c bf 77 a5 3d cf 95 2e be
       -0.053086124 0.010537748 0.080794804 -0.17049335
000290 34 38 d2 bd cc 22 05 be cc a1 fc 3d 73 9e 0a bd
       -0.10264626 -0.13001555 0.12335548 -0.033842515
0002a0 c1 ab 4e 3c 15 b5 0e bc 04 63 bf 3d be 43 d6 3c
       0.0126141915 -0.0087101655 0.093450576 0.026155349
0002b0 9a 32 8a 3d 62 a9 02 bc c6 44 13 bd 1f c0 e0 bd
       0.06747933 -0.007974954 -0.03595426 -0.10974144
0002c0 50 29 7c bb dc b3 1e bd 55 6c 19 be 61 62 ad 3d
       -0.0038476773 -0.038745746 -0.14982732 0.0846603
0002d0 2e 10 c6 3d aa ff b6 3d f1 6b 21 be 32 8f ab 3d
       0.09671055 0.08935483 -0.15763833 0.08376922
0002e0 26 34 b3 bd 08 a9 57 3d e7 75 30 3d 00 73 d5 bd
       -0.08750181 0.052651435 0.04308119 -0.10422325
0002f0 96 8d 54 bd 21 6e 1c bd 34 79 cd 3d db c1 8e bd
       -0.05189284 -0.038190965 0.10032883 -0.06970569
000300 45 4c 26 be 13 23 7c bd 5a a3 de bc 26 fb 4c be
       -0.16240032 -0.061556887 -0.027177501 -0.2001768
000310 b2 7a 5d bc f2 f1 57 3d e0 5b 02 be 59 c5 4b 3e
       -0.013518022 0.05272097 -0.1273036 0.19899501
000320 8a 54 9d 3c ad e4 08 be 94 27 25 bd 29 28 ad 3d
       0.01920535 -0.13368483 -0.040320948 0.084549256
000330 da 45 ed 3d 9d cf 53 3d 7a e4 82 3e b6 ff 4b 3d
       0.11585589 0.051711667 0.2556494 0.04980441
000340 20 02 09 3a 66 3e dc bc 97 28 ef bd 98 56 c8 3d
       0.0005226452 -0.026885223 -0.11677664 0.097821414
000350 3e 05 08 3b 75 9b 24 be 03 95 12 bd bf be d8 3c
       0.0020755078 -0.16074927 -0.03578664 0.026458142
000360 4f 53 15 bd fe 9f 1e bd da a5 1a bd 81 51 b3 bc
       -0.036456402 -0.0387268 -0.037755825 -0.02188945
000370 4f cf d9 3d 24 8b 18 3e ec 37 33 3d ac 43 88 bb
       0.10635244 0.14896828 0.043754503 -0.0041584577
000380 38 cd c1 bd f7 ef c5 3c 26 31 17 3d d7 44 e8 bd
       -0.094629705 0.024162276 0.036912106 -0.11341255
000390 66 67 43 3d cd c0 47 be 08 92 28 bd 3e 9f 79 3d
       0.04770603 -0.19507141 -0.04115489 0.06094288
0003a0 54 06 dc 3d dd 39 61 bd 49 8f 65 3c e3 27 e3 bd
       0.107433945 -0.054986823 0.014011213 -0.11091592
0003b0 94 c6 f3 3d fa 6e 26 3d 75 bd 3a bd 55 11 fc bd
       0.1190311 0.04063318 -0.045590837 -0.12307993
0003c0 d4 9e 4a 3c 14 cf e6 bd e0 fa e5 3d 14 28 7e 3c
       0.012366969 -0.11269966 0.11229491 0.015512485
0003d0 b3 c4 bf 3d 6b af b7 3d b7 25 d1 bd b2 8a 92 3d
       0.09363689 0.08969005 -0.10212272 0.0715536
0003e0 f8 d0 63 bb 9d b2 dc bd 1f 71 4b 3e 5a 07 d8 3d
       -0.0034762006 -0.10776255 0.19867371 0.10548277
0003f0 a8 7a 32 3d c1 c3 82 3e 74 ab 5f 3e 09 41 2c 3e
       0.043574005 0.25539973 0.21842748 0.16821684

fc.4.bias f4 [32]
000000 e3 0a d7 3c d8 21 fd 3b 1b b5 e1 bc fd e1 90 3d
       0.026250308 0.0077249818 -0.027552178 0.07074354
000010 78 ee 88 bc 3f 23 1d be e7 31 30 3e 0b 87 af bd
       -0.016715273 -0.15345477 0.17206536 -0.08570679
000020 5a 5b a0 bd 3b 99 27 bc d4 6e da 3d da 7f ec 3d
       -0.07829924 -0.010229404 0.1066567 0.11547823
000030 93 13 ad 3d c3 57 ec 3c 56 ef d8 bc a4 7d ba bd
       0.08450999 0.028850442 -0.026481312 -0.09105995
000040 b2 40 f0 3d ae 51 c4 3c 2c 59 59 be f7 c3 fa bc
       0.1173109 0.02396473 -0.21225423 -0.030611021
000050 25 75 f1 3d 6e 0c 83 bd c5 a6 0b 3e 9b 47 b2 3e
       0.11789922 -0.06398855 0.13637836 0.34820256
000060 00 2d 6a bd ce 58 04 be 12 40 29 be d3 ff ae bd
       -0.05717182 -0.12924501 -0.16528347 -0.08544888
000070 b3 31 06 be fe 04 87 bd 55 0e de 3d 56 9d 71 3e
       -0.13104896 -0.06592749 0.10842577 0.23595175

fc.6.weight f4 [3, 32]
000000 ef 44 3c be a4 3e 83 bd 81 9a 2a be 74 8b 51 3d
       -0.18385671 -0.06408432 -0.16660501 0.051158383
000010 54 5f c3 bd b2 b1 54 3d af 53 98 bd 49 29 f0 bd
       -0.09539667 0.051927276 -0.074378364 -0.117266245
000020 61 b4 d2 bd 7c 57 11 be 9a a4 1d 3e a5 68 05 be
       -0.10288311 -0.14193529 0.15394822 -0.130282
000030 b7 b7 38 be 02 4f 10 bd 68 a8 03 3c a2 6a dd 3d
       -0.18038832 -0.035231598 0.008035757 0.10811354
000040 5d 93 8b 3c 00 fc 4c bd b6 80 f0 bd 2c 5d 0d be
       0.017038042 -0.050045013 -0.117433 -0.13805073
000050 5a 3d 0d be da f9 16 3e 8c 7d cd bd dc 37 9d be
       -0.13792935 0.14743748 -0.10033712 -0.3070668
000060 c2 0a 2e 3d 3e d6 cf bb 9e 09 92 3d c0 d7 f3 3d
       0.04249073 -0.0063426783 0.071307406 0.119063854
000070 bb a6 8d bd 9f 66 05 be 54 3f 7c bd 8b 25 99 be
       -0.06916567 -0.13027428 -0.061583832 -0.29911456
000080 cf db 83 3d 6f 07 d3 bd c9 22 05 3d ab 39 04 be
       0.064384095 -0.10304152 0.032503877 -0.12912624
000090 ad b1 6f 3d 8f ed 22 3c d9 9a 50 3e db 4c 04 be
       0.058519054 0.009944334 0.2037157 -0.12919943
0000a0 2a fc ec bd 54 3a b8 bc 99 98 da 3d f6 ee 77 3e
       -0.11571534 -0.02248875 0.10673637 0.2421225
0000b0 51 eb 40 3e cc 33 15 3e e3 70 39 3e 85 80 02 be
       0.18839766 0.1457054 0.18109469 -0.12744339
0000c0 90 b8 50 3e 84 67 16 3d 56 28 11 be 74 bb 94 bd
       0.20382905 0.036719814 -0.14175543 -0.07262316
0000d0 1a 55 42 bc 93 36 cb 3b 38 31 d1 3d 77 2b 34 3e
       -0.01186111 0.006201574 0.10214466 0.17594706
0000e0 0e a3 07 c0 68 67 04 bf 8c 66 92 be 4d 0d 1b 3e
       -2.119327 -0.51720285 -0.28593862 0.15141793
0000f0 5a e7 09 be a0 be 38 3d 14 c4 13 3e 97 f1 84 3d
       -0.1346716 0.04510367 0.14430267 0.06491392
000100 1b 9e b4 bc 38 1e 4d 3c 9d fe c9 bc f2 50 6b 3e
       -0.022048047 0.012519412 -0.024657542 0.22980097
000110 54 4c 32 be 37 95 9b bd bc 7b 53 3e d8 1a 3c 3e
       -0.1741193 -0.0759682 0.2065267 0.18369615
000120 dc be d3 3d 9c b7 69 3e b4 30 af 3c 35 7a 13 3e
       0.10339138 0.22823948 0.021385528 0.14402087
000130 56 a9 0b be d1 29 22 be b7 f3 c5 bd ae b6 a3 bd
       -0.13638815 -0.15836264 -0.096656255 -0.07993828
000140 12 2c fc 3d b1 66 2a 3e 9c 2a f8 3d 82 93 02 3d
       0.12313093 0.16640736 0.12117502 0.031878956
000150 88 b8 55 bd 39 2f bf bc 86 a1 a9 3c 47 2f 86 bd
       -0.052177936 -0.023337947 0.020706903 -0.06551986
000160 01 dd 92 3e aa db 03 be 10 15 0a 3e e3 5b 27 be
       0.28684238 -0.12876764 0.13484597 -0.16343646
000170 2f 47 05 be 73 e7 b4 3d 53 68 22 bd b6 5d 3e 3e
       -0.13015436 0.08833208 -0.039650273 0.18590435

fc.6.bias f4 [3]
000000 dc 1e dd bd fc 20 8d 3e b1 f0 e0 3d
       -0.107969016 0.27564228 0.10983408
