Genetic_Models/dino_genetic_model71.pth (torch, 48732 bytes, 8 tensors)

fc.0.weight f4 [128, 6]
00000000: 5229 023d 52d8 593e 882e 9bbe 4e94 873e
00000010: ed6c f5bf 036d a9bf d090 7abe 5c24 a53d
00000020: 32ab 543e 9851 5abe 1d83 9a3e cdd6 3f3e
00000030: 40be eabc 3336 67be 3070 a3be edeb 5a3e
00000040: c00d 32c0 8e06 34c0 26cc 6abb 6730 bc3d
00000050: d655 51be bf68 393e e7ce f13f f216 0f40
00000060: dd78 b0be 00f7 57be 2977 4ebd 38ba 22be
00000070: 217c b73e e702 3abe 99ba 933e 960a 34be
00000080: 4e87 a7bd 703f 553e 498c f7bf ccf9 03c0
00000090: 33d2 df3e c280 afbc 37e7 0f3e 04cd c9bd
000000a0: e8a0 2fc0 db2d 3dc0 5ffc ca3d a9fa ac3e
000000b0: cdff 4cbe 3b8b 5ebe ab1b 3dbf 646f 03c0
000000c0: 5ada 03be 458f a4be 59b4 93bd 3861 a33d
000000d0: 2e99 6cbe 6881 fbbd 1ce8 1cbe eb93 263e
000000e0: 9b54 803c ca2b acbe 8d0e c03c e10c 9c3d
000000f0: 9279 413e ea5b 79be 267c 743e f085 9dbe
00000100: 700e 023e 66bd b5bd 76fb f3bd 336e 823e
00000110: 205c 32be f301 343e efc8 e73f 8e25 4fbf
00000120: fccb 163e 46dd 93be 6ecd 883e eb86 31be
00000130: 052d d03d 40e6 c13e 56cf 03be 3e78 663c
00000140: c784 3f3e a805 41be b39b a3bd aedb ce3d
00000150: e0c3 8b3e d906 b93d 8299 fbbd d77e babe
00000160: 2f82 67c0 bdac 66c0 fe2c 8dbb 8484 483e
00000170: f9ef 2dbd cbf4 c6be 816c c53d 7bdc 8fbe
00000180: 34b3 413c 4f70 6ebe ff7b c83d d4b4 5c3e
00000190: e35d 0940 856a e8be 4a70 d43e f493 aebe
000001a0: 7808 0cbb 8abf d8bd 6b7f f53f e88c 4b3f
000001b0: c88c 93bc 839a 17be 2bc8 18be dfc4 683e
000001c0: 1afa 0d40 f523 6d3f 7474 dbbd cbd1 a83e
000001d0: adb0 aa3d 9af4 f8bd ac3e 17c0 233e 29c0
000001e0: 20d8 db3e f720 9a3e 76ac 1f3d ee1f 9a3e
000001f0: 551f 67bf db0f c13f edc1 09be 8ae6 d8be
00000200: 68f4 883e 733d a53d 5af8 8a3e 5f05 5cbe
00000210: a54d c03e dc62 4cbe 7e17 063f 2ea5 c4be
00000220: f4da ad3f 854f ad3f a180 343e d6a2 083e
00000230: 121a c63e 324d 31be 76f7 1bc0 964c 29c0
00000240: 0edc 913e 01a5 883d 7157 babd b1a5 833e
00000250: a4b6 e2bf ba3e 23bd 003a 9cbe d50d 833e
00000260: bc22 c3be 1b3c c23d 2dff ce3f 458b f43f
00000270: 54fe 333e 63fb f8bd 1aeb 47be c795 f43d
00000280: 8ecb 30c0 3792 14c0 e27e 913d 9bae d73e
00000290: ea18 27be 59e7 e2be 315e 10bf 894e c23f
000002a0: 5a56 bfbd e5c4 8a3e 46f9 b0bd d873 22bc
000002b0: bbb3 0840 598b b03f ebb8 9fbe 99e5 2ebe
000002c0: 1917 5f3e f4fe 2e3d 1166 b03d f7c2 f1bd
000002d0: 23d2 90be 95a6 2bbd 2fa6 b33e 9e30 a9be
000002e0: 5bb7 9c3e d035 bf3d a12d c5bd 4c2b 853d
000002f0: 5c8a ed3d 7664 f53c 11c8 db3f fc9b fdbf
00000300: cd3c 98bd 9129 513e 6537 9a3e e28e 10be
00000310: 94db 2740 4e19 b23e 7362 15be 12d0 8e3e
00000320: 8c92 74be ed5b 263e bdc4 40be c5fb 19c0
00000330: bf8c 1bbe f21e 4cbe 5289 babd 20f1 033e
00000340: 32cf 08c0 2b12 2540 7fdb 86be b5d8 7fbe
00000350: c725 8b3e d143 e33e 8d37 fa3f 8545 c7bf
00000360: 7be8 43bf 2622 62be 4555 a63d 7d8c 3c3e
00000370: 5aa7 71c0 7699 fcbf f025 103e 5de7 d13d
00000380: de81 c7be ad70 723e e467 843f 899b d93f
00000390: 53b6 ea3e 0d95 9b3d 1a9a 6abf b70f d3be
000003a0: 2099 8a3f 6826 e73f cc60 e83c 6737 6cbe
000003b0: 44de 9fbe 1847 ec3d 2610 ba3f 83e1 f9bf
000003c0: b392 8f3e 7876 a23d b415 6cbd b70e 923d
000003d0: 0688 e83e 9d22 18c0 6d05 8fbe 156f ec3d
000003e0: 060a 11be f6ae a33d 7290 20c0 ecc7 d2bf
000003f0: 5d6c 873e e6af d33d 7452 c6be e6c3 233e
0.031777687 0.21273926 -0.30308938 0.26480335 -1.9173867 -1.3236393 -0.24469304 0.080635756
0.20768431 -0.21320188 0.30178156 0.18734284 -0.028655171 -0.22579269 -0.3192153 0.21379061
-2.7820892 -2.8129 -0.0035827248 0.091889195 -0.204429 0.18106364 1.8891267 2.2357755
-0.3446721 -0.21090317 -0.05040661 -0.1589135 0.3583689 -0.1816517 0.288533 -0.17582163
-0.08180104 0.2082498 -1.9339687 -2.0621214 0.43715057 -0.021423701 0.14053045 -0.09853557
-2.744196 -2.9559238 0.09911417 0.3378499 -0.20019455 -0.217328 -0.7387034 -2.0536737
-0.12876263 -0.32140556 -0.07212133 0.079775274 -0.23105308 -0.12280542 -0.15322918 0.16267364
0.015665343 -0.33627158 0.023444438 0.07619644 0.18894032 -0.24351469 0.23875484 -0.3076625
0.1270082 -0.088740155 -0.11913197 0.254747 -0.17417955 0.17578869 1.8108195 -0.8091668
0.14726251 -0.28879756 0.2671923 -0.17336623 0.10164837 0.3787098 -0.12872061 0.014066754
0.18702994 -0.18849814 -0.07988682 0.10100494 0.27297878 0.09034509 -0.12285139 -0.36424896
-3.6173208 -3.604293 -0.004308342 0.195818 -0.042465184 -0.38858637 0.09639836 -0.280979
0.0118225105 -0.2328503 0.097892754 0.21553355 2.1463554 -0.45393768 0.4149192 -0.34097254
-0.0021367352 -0.10583408 1.917951 0.7951188 -0.018011466 -0.14805035 -0.14920108 0.2273135
2.21839 0.9263299 -0.10715571 0.3297256 0.083344795 -0.12156029 -2.3632002 -2.6444175
0.42938328 0.30103275 0.03898283 0.30102485 -0.90282184 1.5082964 -0.13452883 -0.42363387
0.26748967 0.08068361 0.27142602 -0.21486424 0.37559238 -0.19959587 0.52379596 -0.38407272
1.3582444 1.3539892 0.17627193 0.13343367 0.38691765 -0.17314604 -2.4369788 -2.6452994
0.284882 0.06672097 -0.090987094 0.2571235 -1.7711987 -0.039854743 -0.30513 0.2559649
-0.38112438 0.094841205 1.6171623 1.9105002 0.17577487 -0.12157323 -0.19523278 0.1194263
-2.762424 -2.3214242 0.07104279 0.421254 -0.16318098 -0.4431713 -0.56393725 1.5180217
-0.09342642 0.27103344 -0.08641295 -0.009915315 2.1359699 1.3792526 -0.3119577 -0.17079772
0.21786155 0.04272361 0.086132176 -0.11804765 -0.28285322 -0.041906912 0.35087726 -0.33044904
0.3060864 0.09336436 -0.09627844 0.06502399 0.115986556 0.02995513 1.717043 -1.9813228
-0.07433472 0.20426013 0.30120388 -0.14117005 2.622777 0.3478493 -0.14588337 0.2789312
-0.23884028 0.16246004 -0.1882505 -2.4059918 -0.15190409 -0.1993368 -0.09108223 0.1288495
-2.1376462 2.579234 -0.26339337 -0.24985011 0.2717726 0.44387677 1.9548203 -1.5568091
-0.7652661 -0.22083339 0.081217326 0.18412967 -3.7758393 -1.9734333 0.14076972 0.10249207
-0.38966268 0.23675795 1.0344205 1.700059 0.45842227 0.075967886 -0.9164139 -0.41222927
1.082798 1.8058596 0.028366469 -0.2306801 -0.31224263 0.115369976 1.4536178 -1.9521946
0.2804161 0.07932752 -0.057637885 0.07131713 0.45416278 -2.3771126 -0.27933827 0.11544625
-0.1416398 0.079923555 -2.5088162 -1.6467261 0.26449862 0.10336284 -0.38734782 0.15992698

fc.0.bias f4 [128]
00000000: 3b35 453e 5b64 2bbe b110 833e 0074 ec3d
00000010: 9115 ba3e 20a5 ff3d 3fdf 21bf d139 2bbf
00000020: 357a a7be 4571 5a3e 3cb9 a63d 96b4 dbbe
00000030: 3fbb 8dbd 0a65 763e 7cd5 073f 7302 9d3e
00000040: 216c d7be 8dd2 79be 12f7 0e3d 108d 91bd
00000050: ded3 e1bb 64f9 26be e3dc d4bc 298d 4dbe
00000060: 8d39 283e cb21 bcbe d8c0 6c3d 48d3 88bd
00000070: 3062 b93c de96 93bd 355f a0bd f827 a1be
00000080: d6db b53d 9a20 d7be c6bf 673e 067b abbc
00000090: e44d 2c3f a6c2 bebe c4a5 15bf a468 bfbe
000000a0: 8524 0ebf 6f0f 263d 1df3 fe3d 84f1 b13e
000000b0: 0fd6 6cbe 00af c9bd 6f39 223e a568 943e
000000c0: aad1 59be f266 01be ebe8 b33d 4cfb 0e3e
000000d0: b32b 9e3e 67f6 4bbe abd4 cabd 37e8 a5be
000000e0: 52ef 5dbe e059 20bf b106 d83d 874e 163e
000000f0: c416 2abd a6b3 1a3c 36a2 643d 79df 9a3e
00000100: 5e34 d83d 5cdd d3be 7561 263e 6099 94be
00000110: 5ec3 fb3e bbdc a83e 20f9 12bf 5f56 a63e
00000120: baa7 00bd 352b 1dbd eb60 503e 56af 18bf
00000130: 16b3 debe 3bc0 d8be 3754 c0be 66bf a43e
00000140: c4b1 773e 4194 c8bd b27c a9be b796 88be
00000150: 6673 febd f3ed fa3e fc59 6dbe a46c 13bd
00000160: 1758 ecbe d50c 8e3e bfdf a93e 8454 8dbe
00000170: 7082 b73d fd8b 833c d657 8a3e a4f8 0bbf
00000180: 6c60 473b fc5a d1bd b9fd 6cbe 994a 1fbf
00000190: 1242 113f 992c b53e 72a4 30bc 3692 1dbe
000001a0: 172e c83d a29a 0d3d dbc8 a9be 6f14 d6bc
000001b0: 07dd 203e 6376 24be f34d 483e 3126 99bd
000001c0: 1c44 cebd 86d3 fbbd fc3b bf3c e5c8 2b3e
000001d0: 8ee0 5abe f82a 95be 126a 283e f75c 26bd
000001e0: e407 83be e88a bf3e 8b1e b9be 5328 153e
000001f0: 0592 323e 5f0c 103f 298b c6be 3468 b43e
0.19258587 -0.16737501 0.25598672 0.11545563 0.3634458 0.12482667 -0.6323127 -0.66885096
-0.32710424 0.21332271 0.081407994 -0.42911214 -0.0692048 0.24061981 0.53060126 0.3066593
-0.42074683 -0.24396725 0.034903593 -0.07106984 -0.0068917116 -0.16306072 -0.025984233 -0.2007338
0.16428204 -0.36744532 0.057801098 -0.06680924 0.022629827 -0.0720651 -0.07830659 -0.31475806
0.08879821 -0.4201706 0.2263175 -0.020932686 0.6730635 -0.3725788 -0.58456063 -0.37384522
-0.55524474 0.040542062 0.12448714 0.34754574 -0.23128532 -0.09847832 0.15842222 0.28986087
-0.21271387 -0.12636927 0.0878466 0.1396305 0.30892715 -0.19918214 -0.099038444 -0.32403728
-0.21673325 -0.6263714 0.10548151 0.14678393 -0.041525617 0.009442246 0.05581876 0.3024862
0.10556863 -0.4137982 0.16248114 -0.29023266 0.4917249 0.32980904 -0.57411385 0.3248777
-0.031409957 -0.038371284 0.20349471 -0.5964254 -0.43496007 -0.4233416 -0.3756425 0.32177275
0.24188906 -0.09793902 -0.33102947 -0.26677486 -0.12424354 0.49009666 -0.23178858 -0.03599228
-0.46160957 0.27744165 0.33178517 -0.27603543 0.08960426 0.016057963 0.27020139 -0.5467627
0.0030422462 -0.10222432 -0.23143663 -0.622232 0.5674144 0.35385588 -0.010781394 -0.15387806
0.09774416 0.034571297 -0.33161053 -0.02613279 0.15709315 -0.16060786 0.19560985 -0.074779876
-0.100715846 -0.12296204 0.023344032 0.16775854 -0.21374723 -0.29134345 0.16446713 -0.040616002
-0.25591958 0.37410665 -0.36156115 0.14566164 0.17438515 0.56268877 -0.38778046 0.3523575

fc.2.weight f4 [64, 128]
00000000: 4728 cebc ef08 883d 87af 00be 3926 e03c
00000010: 94a1 a3bc 6b87 f9bd 407d 153e 9e67 793d
00000020: b484 b63c 1f86 c83d b89d af3a e322 cc3d
00000030: c6e1 d63d 76dd 6fbd 1ae7 29bf 41a4 27bd
00000040: e020 0e3e 7d8c 98be 3de0 9e3d b829 0f3b
00000050: 277f 98bd ab4f 2bbd 2921 2240 f054 0dbe
00000060: f246 8fbd d2fc 47bc d4ee 22bd 8390 3bbe
00000070: 5f17 383d b84f 50bd b599 ca3d 1f87 0e3e
00000080: aea5 af3d d32c 183d bc3c d3be cec9 2fbd
00000090: 7ebb 953e bc34 403c 84b1 613d 9bc0 b9bd
000000a0: 919d c13d 66a0 b2bd 7429 38bd 2497 963b
000000b0: ca0d 3fbd c75a 913c b32c 163d 7a5f 8ebd
000000c0: a504 a4bf 5a93 a43d d00c 0cbe 8740 f4bc
000000d0: 4dcf 483c 6ede c5bc ec5f ac3d 8937 b33d
000000e0: 943a b3bc 27a7 473d 443f 2bbd 508a 843d
000000f0: 8c44 163d 9a66 0dbd 8e3c a9bd 2975 02bd
00000100: 44a9 333d 252b c93c f2ed d33b ba9c ccbc
00000110: 5efc 2abd 6db8 39bc 5105 6a3e 1bb7 86bd
00000120: 6078 3d3b b245 4ebd e223 a9be b884 df3c
00000130: d1b0 413c 1c86 053e b72f 933d 0872 7ebe
00000140: faff 1abd 50a5 463d cf96 423e c4d8 64bd
00000150: 2ac0 d9bc 6084 9bbd dd26 6ebd 214b 0f3d
00000160: 4ef2 d23c 78f1 e6bc 03b3 9f3d f238 323c
00000170: c7e7 95bd 1a16 903e 662c 0a3d e849 843d
00000180: 892b 5dbc a173 32be 4cc7 5abc c971 ca3d
00000190: 5992 a83e c6d2 933c d4cd acbc 3972 20bd
000001a0: 5f1e ed3e bdb4 443d 0043 cdb7 1014 80be
000001b0: d4d8 1a3d 9963 a23c ef7f d23c c5cb 8e3e
000001c0: 8273 833d 0323 f3bd 12b8 c83c d44b c1bc
000001d0: a4f9 7b3b 9b62 03be 1717 f13d f9cb 0ebe
000001e0: b8ad acbc ca5e 1fbd 001f bab9 d941 0a3e
000001f0: 9469 183d 6a5e 563d c33a a13d 3d6b 033d
00000200: 802a cb3d 2008 0bbd f053 15bd 78be 0cbe
00000210: 6ca2 b4bd 1b1b 623c 0110 ecbd 5f07 a8bc
00000220: 60bc 663b 5087 50bc c3b2 bc3d 30fa 09be
00000230: d8c9 213b 6007 4ebd a1cd f93d 7007 b73d
00000240: 6256 5abd 72ae bc3d 922b e1bd 1c28 323c
00000250: 49be 403d 089d 973d 7676 86bd deb8 8cbb
00000260: abbf 88bd 1a5c a2bd 789a eeba a2e0 debc
00000270: 98f9 77bd e074 a2b9 9b11 8a3d b8ed d83d
00000280: dbcc 0dbe 8a78 f4bd d014 b5bd d28d 29bc
00000290: 7646 803d d765 533d dfe7 313d 5346 3dbc
000002a0: 2d4e e63c 7482 663c 5e61 603c 3327 6dbd
000002b0: 67ac 4bbd 7f04 0fbd 4d7c 023e f217 823d
000002c0: 2807 303d a94e 8cbd 02fb 7cbd 606c 5bbd
000002d0: 8056 c537 ed53 04bd b1a6 a9bd aa61 8cbd
000002e0: d09e 913d 5449 cabc 7eb7 d8bd ab26 053c
000002f0: 43ab 7c3d be0e d03d 1a53 843d 56dc 563d
00000300: 3e49 c03d e70f 82bd 29c9 423c 9d0b 16bd
00000310: 9033 f4bc dab7 0bbd 4bf6 13bd 7211 a03d
00000320: bc57 b6bc b7a2 0e3c a43e eb3d 642d 503d
00000330: 64c6 f43a 1396 9ebd 4049 493c 7234 9bbd
00000340: 8c7a 253d a326 12bd db17 193d 827a 07bd
00000350: e860 ed3c 5cc3 c03d 72b7 883c 7752 86bd
00000360: decc 473d c75c 773d cfa1 7abc 750d c2bd
00000370: 98f5 69bd 4c57 483d c88a f63c 6ca4 b1bc
00000380: 8bab bdbd 075c 0dbd d1c0 b3bd 43cb b1bd
00000390: a9bf 1f3d 0a46 283d 86b0 863d c891 35bd
000003a0: d5b6 9dbd e95d 64bd 282c 94bd bd14 0abd
000003b0: 40fa 8eba f929 ca3d d97e c0bd afc2 4fbd
000003c0: 5ca8 873d 2150 33bd 615d 0cbd f86a 353d
000003d0: c0d0 853d a477 cc3d 3323 b5bd 166a 863d
000003e0: 337a 343d c574 d4bc 24ea 1d3d 074d 0e3c
000003f0: daff 8bbb c487 ee3d 2c2d a3bd 90ab ed3c
-0.02516569 0.06642329 -0.12566958 0.027361976 -0.019974507 -0.12184032 0.1459856 0.060889833
0.022280075 0.097912066 0.0013398444 0.099675916 0.104922816 -0.05856081 -0.6636826 -0.04092813
0.13879728 -0.29794684 0.07757614 0.0021844935 -0.074461274 -0.041824024 2.533274 -0.13801932
-0.069959536 -0.012206273 -0.039778545 -0.18316846 0.044944163 -0.050857276 0.098925985 0.13918732
0.08576523 0.037152123 -0.41257274 -0.042917065 0.29244608 0.011731323 0.055100933 -0.0906994
0.094538815 -0.08722 -0.044961408 0.004595654 -0.04664401 0.017743481 0.036663722 -0.069518045
-1.2813917 0.080359176 -0.13676763 -0.029815925 0.012256456 -0.024153914 0.08416733 0.08750827
-0.021878518 0.048743393 -0.04180838 0.064716935 0.036686465 -0.034521677 -0.08263503 -0.031850014
0.043862596 0.024556706 0.0064675743 -0.024977077 -0.041744582 -0.011335474 0.2285359 -0.06577893
0.002891086 -0.050359435 -0.3303519 0.027284965 0.0118219415 0.1303944 0.07186835 -0.24848187
-0.037841775 0.048497498 0.19002841 -0.055870786 -0.026580889 -0.07593608 -0.05814253 0.034983758
0.025750306 -0.028191313 0.07797816 0.010877835 -0.07319599 0.28141862 0.033733748 0.06459409
-0.013499149 -0.17426921 -0.01335318 0.09884984 0.32924154 0.01804484 -0.02109424 -0.03917143
0.46312234 0.048023928 -2.4469104e-05 -0.25015306 0.03780444 0.019822882 0.02569577 0.2788984
0.06418516 -0.11871912 0.024501834 -0.023595728 0.0038448358 -0.12830584 0.11771982 -0.13944997
-0.02107893 -0.038908757 -0.0003549978 0.13501681 0.037210062 0.052336134 0.07872536 0.032084692
0.099202156 -0.033943295 -0.036457002 -0.13744533 -0.08820042 0.013800408 -0.1152649 -0.020511327
0.0035207495 -0.0127275735 0.092137836 -0.13474345 0.0024686959 -0.050300002 0.12197424 0.089369655
-0.053305037 0.0921296 -0.109946385 0.010873821 0.04705647 0.07402998 -0.065655634 -0.004294499
-0.06677183 -0.07927723 -0.0018203994 -0.027206723 -0.060540766 -0.00030986127 0.06741639 0.10592216
-0.13847677 -0.119370535 -0.0884186 -0.010348754 0.06263439 0.051610794 0.04343402 -0.011552411
0.028113449 0.014069188 0.013695089 -0.05789871 -0.049724963 -0.034916397 0.1274273 0.063522235
0.042975575 -0.06850941 -0.061762817 -0.05357015 2.352451e-05 -0.0323066 -0.08283747 -0.068545654
0.07110369 -0.024693169 -0.10581873 0.008126895 0.061686765 0.10159062 0.06461163 0.052456222
0.0938897 -0.063506894 0.011888781 -0.03663217 -0.029809743 -0.03411088 -0.036123555 0.078158274
-0.022258632 0.008705786 0.11486557 0.050824538 0.0018674848 -0.07743468 0.012285531 -0.075783625
0.040400073 -0.035681378 0.037376266 -0.033075817 0.028976873 0.09412262 0.016689036 -0.06558698
0.04877936 0.060391214 -0.015297367 -0.09475223 -0.057118982 0.048911378 0.030095473 -0.021684848
-0.09261235 -0.034511592 -0.08777011 -0.08681347 0.03900114 0.04108242 0.06576638 -0.04432848
-0.07700888 -0.055753622 -0.07234985 -0.033711184 -0.001090832 0.09871287 -0.09399194 -0.050722774
0.06623909 -0.04377759 -0.03426874 0.044291466 0.065339565 0.09983757 -0.08844604 0.06563203
0.04406185 -0.025934586 0.038553372 0.008685357 -0.0042724432 0.11646989 -0.079676 0.029012471

fc.2.bias f4 [64]
00000000: 5b71 5dbe d408 5abb 6d10 3cbc 8877 21bc
00000010: 0b1f 94bc 8a32 dc3c cc7a dfbc 19cb b2be
00000020: dec0 5a3d 5bf4 28bd c39b 543c 942e ac3d
00000030: d667 a3be 30da dd3c 2462 d8bd bf3d a7bc
00000040: d7e8 9fbd 759b 3d3d 9eb2 4cbc 732a 92bd
00000050: 3fea 2e3e 4158 8f3e e894 75bd 3428 413d
00000060: 76f0 a43d 742e d7bd 9cb2 ffbc ebae 35bc
00000070: c0ec c03d 23a9 bf3d e5a6 00be 7993 bdbd
00000080: 6aaa e53c 39f4 83be e68f 213c 575c 113c
00000090: 57d6 f83c c410 36be 18df 3e3b ca74 8a3d
000000a0: 2b63 2e3e 65bd c9bc 1cb6 dc3c a62f acbd
000000b0: 3896 103c 89bc 5d3d bc72 21be 3993 30be
000000c0: 3cca ecbc c23b c83c a6eb 8e3d 2662 113d
000000d0: 7346 c23c 0f91 af3e ceee 903d 5240 673d
000000e0: 0c62 533b ceb8 653d 99d1 b2be 1ee3 0abc
000000f0: 8944 803c 8a8d 223e f72c b83c df5d 26be
-0.21625273 -0.0033269422 -0.011478526 -0.009855159 -0.018081209 0.026879568 -0.027280234 -0.34920576
0.05340659 -0.04124866 0.01297659 0.084073216 -0.31915158 0.027081579 -0.10565594 -0.020415185
-0.078080826 0.046290834 -0.0124937575 -0.07137003 0.17081545 0.2799702 -0.05995646 0.04715748
0.08053677 -0.10506907 -0.031213097 -0.011089067 0.094201565 0.09358432 -0.12563665 -0.09256644
0.028035361 -0.25772265 0.009860968 0.008872113 0.030375643 -0.17779833 0.0029124673 0.06760557
0.17030017 -0.024626443 0.026942305 -0.08407526 0.008824877 0.05413488 -0.15766424 -0.17243661
-0.028905027 0.024442557 0.0697854 0.035493992 0.023715233 0.34290358 0.070767984 0.056457825
0.0032254485 0.056084447 -0.34925535 -0.0084770005 0.01565768 0.15874305 0.022482378 -0.16246746

fc.4.weight f4 [32, 64]
00000000: 04d7 92bb d28c 7fbd 9223 a0bd 6694 f63d
00000010: 3da6 063c e30a 2abd 40f3 69b9 b0cd 73bd
00000020: 3514 673d d6cd a2bd c784 bf3e 0071 063b
00000030: e236 69bd c266 3fbd feee 1dbf e2cd 923d
00000040: cf57 903c 1e1f e0bd e09d 43bd 7653 05be
00000050: 7ff4 38bd 94c1 6f3c 4784 c23d 0b7d 9f3d
00000060: 3b0b 95bc 7e08 683c 22c2 afbb 9562 81bd
00000070: e33f 20bd 1a84 253e b24b 8ebd fef8 9c3a
00000080: 27a7 49bd 174a 2ebd c989 0e3e 2506 14bc
00000090: 62eb e1bb e671 113d 9da9 fbbc fed8 233e
000000a0: d908 73bd 4079 f93d 623d b73c 5967 14bd
000000b0: 5a19 efbd a72a 0a3d 49f0 99bd 3d26 debd
000000c0: c604 d0bc 43dd d5bd 129e 17bd 42ff 613d
000000d0: a47a ddbd 9d04 b9bd f681 8d3d 2d83 d9bd
000000e0: 88cd 8f3d 3549 40bc b58c 42be e249 db3d
000000f0: be35 e3bd aebb 2e3e d02c db3d 6e9c c7bd
00000100: d5fa 653d b026 c3bd 7823 963d 28a9 78bd
00000110: 9cd7 db3c 7ee8 b33d b846 2cbd 53e1 433d
00000120: 2318 1b3d add4 a63d 3f1b 413d a909 f6bd
00000130: 51f3 38bd dd8c 62bd ef95 19bd 6d98 bdbd
00000140: df5e d83d 6888 aebc b371 f9bd 6f76 fc3d
00000150: 0f7b 8c3d c3d6 dabd a925 9fbd cb00 253d
00000160: 72fa 363b dcd9 883d e326 e7bd 8a76 a3bd
00000170: 406f 5bbd a551 bc3d 9cd7 c1bd 4db1 cfbd
00000180: a4be 01be 8ea3 a83d 9a9f c6bd 245e 8b3d
00000190: d2f8 a4bd c8d6 25bc 445e 173e 2fa2 803d
000001a0: 7043 a2bd 43c2 7b3d fdcf c83d 5547 2fbd
000001b0: 0562 f33c 6cb9 ee3d dcea bf3c cec2 29bc
000001c0: ddcd 5bbd af06 b43c 6392 67bd b61f d83c
000001d0: 72e0 e6bc 502c bebd 7307 60bd f07b 09be
000001e0: 788b 183e fe6a 743c 5715 6f3d f8d9 0bbe
000001f0: 9894 8c3d 68d5 1cbe 1177 14bc 1188 bb3d
00000200: eef0 c3bd 0d31 ecbd 74b3 a93d 2624 02bd
00000210: 6cd6 61bd 3f22 e6bc e4bc 263d 4a86 1cbe
00000220: ecd5 07be d7d5 833d 940a 0ebc e1a2 a83d
00000230: 818d 8fbd 90be f7bc 94f4 96bd 6b74 e6bd
00000240: 6c4c bdbd df4f 22bd 6434 983d 85b6 a0bd
00000250: 8c33 06be a03f bbba e5c7 2bbe e4e6 61bc
00000260: 0104 ca3d 0ea6 91bd af28 193d 9d9e bd3c
00000270: 7509 ec3d a1dd 0ebe cab6 49bd 3600 64bd
00000280: 591d 1bbd c5c3 0f3c bf77 a53d d8f0 18be
00000290: 3438 d2bd cc22 05be 8693 0b3e cc47 d4bc
000002a0: 062e a83c c7ca bcbc 0208 da3d b8a8 e33c
000002b0: afa2 983d 608c e939 c644 13bd 795b dabd
000002c0: 5e53 34bc 27aa 22bd 556c 19be c37f c83d
000002d0: 1b0c bc3d 058c b13d f16b 21be 328f ab3d
000002e0: 1ed4 adbd b21e 843d 28c5 873d 0073 d5bd
000002f0: ec6d 53bd 68e5 03bd 3479 cd3d c2fc a6bd
00000300: 454c 26be 1323 7cbd 2aec a7bc 9509 4abe
00000310: 023b 1d3b f2f1 573d 59e7 11be 58eb 553e
00000320: 0056 40ba ade4 08be 28fa a3bc 7ea0 b13d
00000330: bb9d 023e 9dcf 533d 7ae4 823e b6ff 4b3d
00000340: 2002 093a 663e dcbc 9728 efbd 9856 c83d
00000350: 3e05 083b 759b 24be fd6e 04bd 5a97 123d
00000360: 4f53 15bd 5825 3fbd a5c3 f1bc 8151 b3bc
00000370: d77d d83d 2779 173e 70a1 183d 1d4a a3bc
00000380: 38cd c1bd f7ef c53c 2631 173d d744 e8bd
00000390: 6fc8 313d cdc0 47be 0892 28bd 3e9f 793d
000003a0: 5406 dc3d e6e7 6fbd 498f 653c e327 e3bd
000003b0: bb6e f23d c65d 4c3d 75bd 3abd 5511 fcbd
000003c0: d49e 4a3c 14cf e6bd e0fa e53d a0df 193d
000003d0: b3c4 bf3d 6baf b73d b725 d1bd 0d3f 823d
000003e0: f8d0 63bb 736e d4bd a685 553e 9f41 dc3d
000003f0: 403c 593d 08f7 803e 318b 643e 0529 233e
-0.0044811983 -0.062390156 -0.078192845 0.120400235 0.008218345 -0.04151429 -0.00022311229 -0.05952233
0.056415755 -0.07949416 0.3740599 0.002051413 -0.056937106 -0.046728857 -0.616928 0.07168175
0.017619995 -0.10943435 -0.047757983 -0.13020119 -0.045155045 0.014633555 0.09497886 0.07787522
-0.018193832 0.014162181 -0.0053637186 -0.06317631 -0.039123427 0.16163674 -0.069480315 0.0011976061
-0.049231675 -0.042551126 0.13919748 -0.009034668 -0.006894515 0.035509013 -0.030720526 0.16000745
-0.05933461 0.1218133 0.022368137 -0.036231373 -0.11674757 0.033732083 -0.07516534 -0.10847137
-0.025392901 -0.10442593 -0.037015982 0.055175073 -0.108144075 -0.09034083 0.06909554 -0.10620723
0.07021624 -0.011736204 -0.18998988 0.107074514 -0.11094235 0.17063782 0.10701907 -0.097466335
0.056147415 -0.095288634 0.07330984 -0.060708195 0.026836209 0.08784579 -0.04205963 0.047822308
0.037864815 0.081460334 0.047145125 -0.12013561 -0.04515392 -0.05531012 -0.037496503 -0.092575885
0.1056497 -0.021305278 -0.121798895 0.12327277 0.06859409 -0.10685494 -0.07770855 0.04028396
0.0027920273 0.066821784 -0.11286714 -0.07981594 -0.053572893 0.0919526 -0.09464952 -0.10141239
-0.1267038 0.082343206 -0.0969841 0.06805065 -0.08055271 -0.010122009 0.14782053 0.06280934
-0.07923019 0.06146456 0.098052956 -0.042792637 0.029709825 0.1165646 0.02342742 -0.010361386
-0.053663123 0.021975843 -0.05653609 0.026382308 -0.028183196 -0.09285796 -0.054694604 -0.13426185
0.14896953 0.014918087 0.05836996 -0.13657367 0.068642795 -0.15315783 -0.009061591 0.09156812
-0.09567438 -0.11532793 0.08286181 -0.031772755 -0.05513613 -0.028092502 0.040707484 -0.15285602
-0.13265198 0.06437271 -0.008669514 0.08234192 -0.070094116 -0.030242234 -0.07370868 -0.11252674
-0.09243092 -0.039626952 0.07431868 -0.07847313 -0.13105601 -0.001428593 -0.16775472 -0.013787959
0.09864045 -0.071117505 0.037392315 0.023146922 0.11525241 -0.13951732 -0.049246587 -0.055664264
-0.037869785 0.008774702 0.080794804 -0.14935625 -0.10264626 -0.13001555 0.13630494 -0.025913142
0.020529758 -0.02304591 0.106460586 0.027790412 0.074529044 0.0004454581 -0.03595426 -0.10661978
-0.011006204 -0.03971305 -0.14982732 0.097899936 0.091819964 0.08669285 -0.15763833 0.08376922
-0.08487724 0.06451167 0.066294014 -0.10422325 -0.0516185 -0.0322012 0.10032883 -0.081536785
-0.16240032 -0.061556887 -0.020498354 -0.19730218 0.002399147 0.05272097 -0.14248408 0.20890558
-0.0007337034 -0.13368483 -0.020016745 0.086731896 0.12755482 0.051711667 0.2556494 0.04980441
0.0005226452 -0.026885223 -0.11677664 0.097821414 0.0020755078 -0.16074927 -0.03233241 0.03578887
-0.036456402 -0.046666473 -0.029512236 -0.02188945 0.10570877 0.1479231 0.037263334 -0.0199328
-0.094629705 0.024162276 0.036912106 -0.11341255 0.04340404 -0.19507141 -0.04115489 0.06094288
0.107433945 -0.058570765 0.014011213 -0.11091592 0.118375264 0.049894117 -0.045590837 -0.12307993
0.012366969 -0.11269966 0.11229491 0.03756678 0.09363689 0.08969005 -0.10212272 0.06359682
-0.0034762006 -0.10372629 0.20851764 0.10754704 0.053035975 0.2518847 0.22318722 0.15933616

fc.4.bias f4 [32]
00000000: 42a9 343d 1d1d 5c3c 1bb5 e1bc c383 af3d
00000010: 925b b2bc 878e 20be bb42 1f3e 011a c2bd
00000020: 5a5b a0bd 76db b53b 6f56 e23d 8656 f33d
00000030: b1bf ac3d ead2 ce3c 56ef d8bc a47d babd
00000040: b240 f03d ae51 c43c f45a 4ebe 857f 0bbd
00000050: 2732 ee3d 444d 66bd a172 033e 9b47 b23e
00000060: 002d 6abd ce58 04be 8ff1 1bbe d3ff aebd
00000070: b331 06be bc92 87bd 550e de3d 569d 713e
0.04410673 0.0134346755 -0.027552178 0.085700534 -0.02177218 -0.1567937 0.155528 -0.09477616
-0.07829924 0.0055498434 0.11051642 0.118817374 0.08435 0.025247056 -0.026481312 -0.09105995
0.1173109 0.02396473 -0.20151883 -0.03405716 0.116306596 -0.05622603 0.12836696 0.34820256
-0.05717182 -0.12924501 -0.15228866 -0.08544888 -0.13104896 -0.06619784 0.10842577 0.23595175

fc.6.weight f4 [3, 32]
00000000: 64ff 32be a43e 83bd 819a 2abe 748b 513d
00000010: 545f c3bd b2b1 543d af53 98bd ceb8 06be
00000020: 93ce c9bd 7c57 11be 4299 0e3e a568 05be
00000030: 3836 3bbe 87a7 0ebd 8e98 ab3c c2fc ec3d
00000040: 9fcb 2cbc 00fc 4cbd b680 f0bd 2c5d 0dbe
00000050: 98ef 12be daf9 163e 0c7b 9ebd 6e43 98be
00000060: 26e7 243d e56d b5bb 9e09 923d 8f1b c13d
00000070: 97b0 43bd b276 01be 3586 8bbd 0615 9dbe
00000080: cfdb 833d 6f07 d3bd c922 053d ab39 04be
00000090: adb1 6f3d 1876 cb3c 2f14 473e db4c 04be
000000a0: 0a86 f2bd 543a b8bc 30ee ce3d f6ee 773e
000000b0: 56af 483e 0ca0 0f3e e370 393e 8580 02be
000000c0: 9016 543e 4923 163d 5628 11be a83d 86bd
000000d0: 1a55 42bc 9336 cb3b 4cc8 ec3d 52d1 2d3e
000000e0: 1ad9 05c0 d1ac 04bf 8c66 92be abf4 193e
000000f0: 11c4 1cbe a0be 383d 14c4 133e c72b 903d
00000100: 1b9e b4bc 381e 4d3c 9576 3fbd d886 6d3e
00000110: 308b 2cbe 3795 9bbd bc7b 533e d81a 3c3e
00000120: dcbe d33d 9cb7 693e caf8 4a3d 457f 163e
00000130: 742e febd f38d 21be 180d bbbd aeb6 a3bd
00000140: 6949 ee3d 67ab 313e 9c2a f83d dd3b dc3c
00000150: d960 44bd 4cdf ecbc 86a1 a93c 8972 88bd
00000160: 01dd 923e 9b36 f9bd d791 193e e35b 27be
00000170: 2f47 05be 90fc c83d 5368 22bd f6bb 363e
-0.17480236 -0.06408432 -0.16660501 0.051158383 -0.09539667 0.051927276 -0.074378364 -0.13156435
-0.09853854 -0.14193529 0.1392565 -0.130282 -0.18282402 -0.034827735 0.020946767 0.11571647
-0.010546594 -0.050045013 -0.117433 -0.13805073 -0.1434921 0.14743748 -0.07738313 -0.29738945
0.040259503 -0.005536782 0.071307406 0.094290845 -0.04777583 -0.12642935 -0.06812707 -0.30680102
0.064384095 -0.10304152 0.032503877 -0.12912624 0.058519054 0.024836585 0.19441293 -0.12919943
-0.11841972 -0.02248875 0.101040244 0.2421225 0.19598135 0.14025897 0.18109469 -0.12744339
0.20711732 0.036654744 -0.14175543 -0.06554729 -0.01186111 0.006201574 0.11561641 0.1697438
-2.0913758 -0.51826197 -0.28593862 0.1503474 -0.15309168 0.04510367 0.14430267 0.070396
-0.022048047 0.012519412 -0.046743948 0.2319597 -0.16849971 -0.0759682 0.2065267 0.18369615
0.10339138 0.22823948 0.04955367 0.14696987 -0.12411204 -0.15776806 -0.09133357 -0.07993828
0.116350956 0.17350541 0.12117502 0.026884014 -0.047943924 -0.02891507 0.020706903 -0.06662471
0.28684238 -0.12168618 0.1499704 -0.16343646 -0.13015436 0.098137975 -0.039650273 0.17845139

fc.6.bias f4 [3]
00000000: dc1e ddbd 0fb6 903e 2f91 c93d
-0.107969016 0.282639 0.09842145
