Genetic_Models/dino_genetic_model66.pth (torch, 48732 bytes, 8 tensors)

fc.0.weight f4 [128, 6]
0.038172748 0.19990478 -0.30308938 0.26480335 -1.9265444 -1.3236393 -0.24068365 0.06715934
0.19411294 -0.21320188 0.3071922 0.18734284 -0.027534187 -0.22334652 -0.30458364 0.2112242
-2.776303 -2.804419 1.1709286e-05 0.091889195 -0.2040023 0.16831993 1.8822604 2.2357755
-0.3509041 -0.216582 -0.05040661 -0.1589135 0.35072497 -0.18236694 0.2867648 -0.1739683
-0.10362117 0.1984784 -1.9261906 -2.0674808 0.43715057 -0.021423701 0.1309287 -0.1020127
-2.744196 -2.9559238 0.09911417 0.3378499 -0.2010236 -0.217328 -0.74660075 -2.0536737
-0.11477953 -0.32105717 -0.081054114 0.079775274 -0.23603225 -0.11929954 -0.15322918 0.17075333
0.015665343 -0.32907715 0.023444438 0.07619644 0.20193048 -0.24351469 0.23875484 -0.3205975
0.13352767 -0.10942758 -0.108797565 0.254747 -0.17417955 0.16438843 1.8388183 -0.8102538
0.14726251 -0.2957225 0.26573065 -0.1758394 0.10164837 0.38272786 -0.14464411 0.014066754
0.19573168 -0.19465819 -0.07271754 0.10100494 0.28732568 0.09034509 -0.14570117 -0.37957326
-3.6173208 -3.6014187 -0.004308342 0.195818 -0.05690182 -0.38858637 0.10003905 -0.29460332
0.017072573 -0.2341027 0.093099445 0.21553355 2.137835 -0.4780065 0.41964763 -0.34966573
-0.023221165 -0.10583408 1.917951 0.7951188 -0.025389139 -0.14805035 -0.14920108 0.22951244
2.227419 0.9443194 -0.12520078 0.32128936 0.08018002 -0.11662047 -2.3773248 -2.6330442
0.42683604 0.30066338 0.03898283 0.30102485 -0.89605814 1.5082964 -0.13452883 -0.39660856
0.26748967 0.073641144 0.27142602 -0.21486424 0.37371045 -0.18796945 0.5172264 -0.38407272
1.3582444 1.3596864 0.16282666 0.15161416 0.3934793 -0.17028315 -2.4546955 -2.6562574
0.284882 0.06672097 -0.09322399 0.2571235 -1.787077 -0.0578136 -0.28990644 0.25263
-0.38112438 0.13308638 1.6243404 1.9159617 0.18346828 -0.13463858 -0.19523278 0.1194263
-2.775559 -2.3301666 0.06525631 0.421254 -0.17501132 -0.4449172 -0.56393725 1.5107055
-0.09342642 0.27103344 -0.08641295 0.0012556608 2.1352425 1.3810215 -0.32894555 -0.17079772
0.1932648 0.052740358 0.10304482 -0.12360191 -0.28285322 -0.041906912 0.3725995 -0.32672366
0.3060864 0.098233484 -0.10577593 0.08108698 0.115986556 0.0327865 1.717043 -1.9842156
-0.07433472 0.20426013 0.30120388 -0.14117005 2.622777 0.3478493 -0.14588337 0.28901628
-0.23884028 0.16534334 -0.18752068 -2.4104345 -0.15190409 -0.21355258 -0.086138405 0.1445474
-2.1620255 2.5844235 -0.26302853 -0.24985011 0.27917865 0.44387677 1.9548203 -1.5484241
-0.76557976 -0.22168209 0.081217326 0.17375897 -3.779319 -1.9740306 0.13404371 0.10249207
-0.39430514 0.23675795 1.034337 1.700059 0.46541357 0.075967886 -0.9155071 -0.41222927
1.0795699 1.7997587 0.028366469 -0.25451872 -0.31403333 0.11483418 1.4536178 -1.9539866
0.29363054 0.08893878 -0.053508274 0.05523155 0.45416278 -2.3771126 -0.27933827 0.13261339
-0.1416398 0.081986 -2.516859 -1.6467261 0.28216532 0.083900586 -0.38734782 0.15251128
00000000: 075b 1c3d d7b3 4c3e 882e 9bbe 4e94 873e
00000010: 0299 f6bf 036d a9bf c675 76be d68a 893d
00000020: 8bc5 463e 9851 5abe 4c48 9d3e cdd6 3f3e
00000030: 608f e1bc f3b4 64be 63f2 9bbe 284b 583e
00000040: f3ae 31c0 9a7b 33c0 0073 4437 6730 bc3d
00000050: fbe5 50be 0f5c 2c3e e9ed f03f f216 0f40
00000060: b4a9 b3be acc7 5dbe 2977 4ebd 38ba 22be
00000070: 3992 b33e 66be 3abe d6d2 923e bf24 32be
00000080: 5637 d4bd ec3d 4b3e 6a8d f6bf 9b51 04c0
00000090: 33d2 df3e c280 afbc 2c12 063e 09ec d0bd
000000a0: e8a0 2fc0 db2d 3dc0 5ffc ca3d a9fa ac3e
000000b0: 21d9 4dbe 3b8b 5ebe 3a21 3fbf 646f 03c0
000000c0: 8811 ebbd 9b61 a4be b3ff a5bd 3861 a33d
000000d0: 70b2 71be 5153 f4bd 1ce8 1cbe f6d9 2e3e
000000e0: 9b54 803c cd7c a8be 8d0e c03c e10c 9c3d
000000f0: ddc6 4e3e ea5b 79be 267c 743e 5b25 a4be
00000100: 7abb 083e 911b e0bd 42d1 debd 336e 823e
00000110: 205c 32be 7155 283e 665e eb3f cb6c 4fbf
00000120: fccb 163e f168 97be d90d 883e 3e0f 34be
00000130: 052d d03d e8f4 c33e 961d 14be 3e78 663c
00000140: e36d 483e 7a54 47be efec 94bd aedb ce3d
00000150: 5a1c 933e d906 b93d b032 15be 6d57 c2be
00000160: 2f82 67c0 a57d 66c0 fe2c 8dbb 8484 483e
00000170: e211 69bd cbf4 c6be 46e1 cc3d 3fd6 96be
00000180: c8db 8b3c 9eb8 6fbe ecaa be3d d4b4 5c3e
00000190: 4ad2 0840 45bd f4be 0edc d63e 6307 b3be
000001a0: 503a bebc 8abf d8bd 6b7f f53f e88c 4b3f
000001b0: e2fc cfbc 839a 17be 2bc8 18be 4f05 6b3e
000001c0: 088e 0e40 ebbe 713f a234 00be 0a80 a43e
000001d0: 6c35 a43d b7d6 eebd 1726 18c0 cc83 28c0
000001e0: 418a da3e 8df0 993e 76ac 1f3d ee1f 9a3e
000001f0: 1164 65bf db0f c13f edc1 09be 4710 cbbe
00000200: 68f4 883e 2bd1 963d 5af8 8a3e 5f05 5cbe
00000210: fa56 bf3e 107b 40be f368 043f 2ea5 c4be
00000220: f4da ad3f 340a ae3f 08bc 263e be40 1b3e
00000230: 1e76 c93e b55e 2ebe bb19 1dc0 1f00 2ac0
00000240: 0edc 913e 01a5 883d 38ec bebd b1a5 833e
00000250: f0be e4bf f4cd 6cbd 9e6e 94be b858 813e
00000260: bc22 c3be cc47 083e 63ea cf3f 3c3e f53f
00000270: 1cdf 3b3e b2de 09be 1aeb 47be c795 f43d
00000280: c2a2 31c0 7321 15c0 1aa5 853d 9bae d73e
00000290: 2b36 33be 30cc e3be 315e 10bf cc5e c13f
000002a0: 5a56 bfbd e5c4 8a3e 46f9 b0bd fc94 a43a
000002b0: d0a7 0840 50c5 b03f 8d6b a8be 99e5 2ebe
000002c0: 35e7 453e 4606 583d 2a09 d33d 0023 fdbd
000002d0: 23d2 90be 95a6 2bbd 5dc5 be3e 5348 a7be
000002e0: 5bb7 9c3e a32e c93d 0da1 d8bd ee10 a63d
000002f0: 5c8a ed3d 234b 063d 11c8 db3f c7fa fdbf
00000300: cd3c 98bd 9129 513e 6537 9a3e e28e 10be
00000310: 94db 2740 4e19 b23e 7362 15be f1f9 933e
00000320: 8c92 74be c44f 293e 6c05 40be 8f44 1ac0
00000330: bf8c 1bbe 87ad 5abe 5569 b0bd 3c04 143e
00000340: a05e 0ac0 3267 2540 adab 86be b5d8 7fbe
00000350: 81f0 8e3e d143 e33e 8d37 fa3f c332 c6bf
00000360: 09fd 43bf a100 63be 4555 a63d dfed 313e
00000370: 5de0 71c0 09ad fcbf c142 093e 5de7 d13d
00000380: 5de2 c9be ad70 723e 2865 843f 899b d93f
00000390: b04a ee3e 0d95 9b3d ac5e 6abf b70f d3be
000003a0: 592f 8a3f 7e5e e63f cc60 e83c 4750 82be
000003b0: fac8 a0be 2f2e eb3d 2610 ba3f 3c1c fabf
000003c0: be56 963e 8925 b63d 7e2b 5bbd 7a3a 623d
000003d0: 0688 e83e 9d22 18c0 6d05 8fbe cecb 073e
000003e0: 060a 11be 47e8 a73d 3814 21c0 ecc7 d2bf
000003f0: f977 903e 12d4 ab3d 7452 c6be eb2b 1c3e

fc.0.bias f4 [128]
0.19258587 -0.14657733 0.25598672 0.10736232 0.3634458 0.11937792 -0.6356909 -0.66885096
-0.32710424 0.21332271 0.09594524 -0.42911214 -0.056276686 0.24061981 0.53060126 0.3066593
-0.42074683 -0.261693 0.0379971 -0.074595384 -0.020840768 -0.16468205 -0.020087587 -0.19123907
0.16428204 -0.37056088 0.04951872 -0.06680924 0.013673225 -0.0720651 -0.07830659 -0.31475806
0.08879821 -0.42671815 0.2263175 -0.036089532 0.6760253 -0.3725788 -0.61112726 -0.3763516
-0.5496489 0.04521232 0.13795969 0.33793864 -0.25760525 -0.082743816 0.16435379 0.28986087
-0.21429835 -0.12636927 0.07138352 0.1396305 0.30892715 -0.19918214 -0.099038444 -0.3202654
-0.21673325 -0.6032672 0.079048365 0.14678393 -0.041525617 0.0032266462 0.06325182 0.3024862
0.10261554 -0.44491673 0.14728571 -0.28648978 0.49008694 0.32090616 -0.57411385 0.3186242
-0.031409957 -0.041236475 0.20349471 -0.5964254 -0.4046006 -0.4233416 -0.3756425 0.32177275
0.22551307 -0.11137404 -0.31826234 -0.26677486 -0.11615424 0.49009666 -0.25376934 -0.033105366
-0.4866996 0.27744165 0.31662974 -0.27603543 0.08610455 0.056208983 0.31244594 -0.54107237
0.003977228 -0.10667106 -0.23143663 -0.642018 0.585887 0.3509198 -0.020171702 -0.16752319
0.09774416 0.044400528 -0.33430904 -0.02613279 0.16045962 -0.16060786 0.19560985 -0.074779876
-0.100715846 -0.1087216 0.016077464 0.16775854 -0.21274182 -0.2954911 0.16446713 -0.03214387
-0.25591958 0.37410665 -0.35719812 0.14052567 0.17307825 0.56065005 -0.38778046 0.3523575
00000000: 3b35 453e 5e18 16be b110 833e c7e0 db3d
00000010: 9115 ba3e 697c f43d a4bc 22bf d139 2bbf
00000020: 357a a7be 4571 5a3e f07e c43d 96b4 dbbe
00000030: 6282 66bd 0a65 763e 7cd5 073f 7302 9d3e
00000040: 216c d7be a0fc 85be d9a2 1b3d 77c5 98bd
00000050: 42ba aabc 69a2 28be b98e a4bc 2dd4 43be
00000060: 8d39 283e 28ba bdbe 24d4 4a3d 48d3 88bd
00000070: aa05 603c de96 93bd 355f a0bd f827 a1be
00000080: d6db b53d cd7a dabe c6bf 673e 9ed2 13bd
00000090: fe0f 2d3f a6c2 bebe d672 1cbf 28b1 c0be
000000a0: cab5 0cbf 8e30 393d 4e45 0d3e 4b06 ad3e
000000b0: d6e4 83be 9775 a9bd 5c4c 283e a568 943e
000000c0: 0771 5bbe f266 01be 8631 923d 4cfb 0e3e
000000d0: b32b 9e3e 67f6 4bbe abd4 cabd d4f9 a3be
000000e0: 52ef 5dbe b86f 1abf 1ce4 a13d 874e 163e
000000f0: c416 2abd 2476 533b 2c8a 813d 79df 9a3e
00000100: 1928 d23d 20cc e3be 11d2 163e caae 92be
00000110: adec fa3e d04d a43e 20f9 12bf b622 a33e
00000120: baa7 00bd 94e7 28bd eb60 503e 56af 18bf
00000130: cf27 cfbe 3bc0 d8be 3754 c0be 66bf a43e
00000140: e6ec 663e 1318 e4bd 48f3 a2be b796 88be
00000150: 46e2 edbd f3ed fa3e 0eee 81be 7e99 07bd
00000160: b130 f9be d50c 8e3e 4b1d a23e 8454 8dbe
00000170: 9557 b03d 643b 663d eaf8 9f3e b883 0abf
00000180: 6853 823b 5b76 dabd b9fd 6cbe 4b5b 24bf
00000190: b1fc 153f c3ab b33e 203f a5bc 338b 2bbe
000001a0: 172e c83d 54dd 353d 8e2a abbe 6f14 d6bc
000001b0: 874f 243e 6376 24be f34d 483e 3126 99bd
000001c0: 1c44 cebd 6ea9 debd e3b4 833c e5c8 2b3e
000001d0: fed8 59be 9c4a 97be 126a 283e 4aa9 03bd
000001e0: e407 83be e88a bf3e ace2 b6be f6e5 0f3e
000001f0: 6d3b 313e c386 0f3f 298b c6be 3468 b43e

fc.2.weight f4 [64, 128]
-0.02516569 0.06642329 -0.14156851 0.05922915 -0.030980717 -0.11111038 0.1459856 0.06887153
0.03199708 0.097912066 0.0013398444 0.09245905 0.09801092 -0.062197607 -0.6834621 -0.04350413
0.11518556 -0.29794684 0.07757614 0.0021844935 -0.071725205 -0.0455871 2.533274 -0.15040278
-0.069959536 -0.013571429 -0.04052052 -0.17128462 0.044944163 -0.04891507 0.098925985 0.13918732
0.08576523 0.048897102 -0.40855396 -0.042917065 0.29244608 0.0065838797 0.052835286 -0.0906994
0.07826179 -0.08128555 -0.044961408 -0.002662938 -0.04664401 0.0066213533 0.036663722 -0.077592134
-1.2813917 0.080359176 -0.12713403 -0.029815925 0.016920215 -0.023330158 0.09382347 0.09378274
-0.027996894 0.048743393 -0.04180838 0.06894207 0.04313404 -0.051642746 -0.08150955 -0.02236919
0.043862596 0.033767838 0.009743742 -0.0041845758 -0.039582513 -0.020189475 0.2285359 -0.06577893
-0.00760563 -0.049083993 -0.3303519 0.027284965 0.00072926935 0.14189686 0.0422782 -0.27418178
-0.037841775 0.048497498 0.20277654 -0.043753386 -0.026580889 -0.055510778 -0.050684385 0.022515781
0.025750306 -0.028191313 0.07191195 0.029528018 -0.07319599 0.27261457 0.038553312 0.06701799
-0.011976716 -0.15681706 -0.012459912 0.09884984 0.3190491 0.030710474 -0.02109424 -0.034411844
0.4448023 0.050821226 -0.0063397093 -0.26022065 0.03780444 -0.0005025845 0.02202987 0.2788984
0.062677145 -0.11871912 0.028548595 -0.056934595 0.015964922 -0.13172019 0.11608302 -0.13944997
-0.0060526235 -0.038908757 -0.0003549978 0.15275425 0.04584398 0.052336134 0.07910128 0.01444147
0.099202156 -0.020525008 -0.020018674 -0.12851314 -0.08820042 0.013800408 -0.1152649 -0.008463446
0.025489643 -0.004393508 0.092137836 -0.11854701 -0.0019398686 -0.042873185 0.12197424 0.07402408
-0.076021716 0.09245724 -0.12668309 0.01964089 0.038722172 0.07402998 -0.065655634 0.014032709
-0.058690708 -0.07927723 0.008004533 -0.009850883 -0.0661867 -0.00030986127 0.06741639 0.10592216
-0.12391638 -0.119370535 -0.0884186 -0.010348754 0.06263439 0.054754805 0.03934865 -0.018456638
0.028113449 0.0026263818 0.020500977 -0.044992086 -0.049724963 -0.017842457 0.1274273 0.059980594
0.041496098 -0.06599877 -0.061762817 -0.05357015 -0.003300034 -0.0323066 -0.084859 -0.068545654
0.107721865 -0.024693169 -0.09535601 -0.00014226884 0.072743826 0.099857315 0.06461163 0.027127106
0.096183024 -0.047803473 0.003365323 -0.03663217 -0.012296613 -0.03411088 -0.036123555 0.05629925
-0.022258632 0.0043470515 0.1129518 0.06229836 0.0018674848 -0.088719964 0.012285531 -0.059842084
0.040400073 -0.037106425 0.025706355 -0.011423392 0.05051869 0.089616016 0.013893759 -0.06766858
0.04877936 0.061126456 0.001114455 -0.08929369 -0.055363722 0.044835534 0.030095473 -0.014416672
-0.0533848 -0.030182905 -0.091058 -0.107046224 0.03900114 0.039559633 0.06404161 -0.043507744
-0.07700888 -0.057489146 -0.073879674 -0.033711184 0.008124916 0.09871287 -0.09399194 -0.050941292
0.06623909 -0.039335813 -0.03426874 0.051053055 0.06371821 0.09983757 -0.09376855 0.06563203
0.059794687 -0.013455211 0.022028413 0.009285213 -0.0042724432 0.11646989 -0.078675814 0.029012471
00000000: 4728 cebc ef08 883d 56f7 10be 449a 723d
00000010: 46cb fdbc d78d e3bd 407d 153e 840c 8d3d
00000020: 5f0f 033d 1f86 c83d b89d af3a 2c5b bd3d
00000030: f3b9 c83d ebc2 7ebd 5ff7 2ebf 6331 32bd
00000040: 68e6 eb3d 7d8c 98be 3de0 9e3d b829 0f3b
00000050: aae4 92bd 8ab9 3abd 2921 2240 3003 1abe
00000060: f246 8fbd b35a 5ebc d8f8 25bd 3c65 2fbe
00000070: 5f17 383d 2b5b 48bd b599 ca3d 1f87 0e3e
00000080: aea5 af3d 5448 483d fc2d d1be cec9 2fbd
00000090: 7ebb 953e 96bd d73b d069 583d 9bc0 b9bd
000000a0: b847 a03d 0a79 a6bd 7429 38bd b084 2ebb
000000b0: ca0d 3fbd f0f7 d83b b32c 163d a0e8 9ebd
000000c0: a504 a4bf 5a93 a43d 6c2f 02be 8740 f4bc
000000d0: 439c 8a3c e31e bfbc 8526 c03d 2a11 c03d
000000e0: be59 e5bc 27a7 473d 443f 2bbd 8031 8d3d
000000f0: 52ad 303d 5887 53bd 7bee a6bd 973f b7bc
00000100: 44a9 333d 2550 0a3d 37a4 1f3c c41e 89bb
00000110: 4621 22bd 6664 a5bc 5105 6a3e 1bb7 86bd
00000120: a638 f9bb 4c0c 49bd e223 a9be b884 df3c
00000130: 702c 3f3a 694d 113e e82b 2d3d 8e61 8cbe
00000140: faff 1abd 50a5 463d a7a4 4f3e c036 33bd
00000150: 2ac0 d9bc 455f 63bd 6e9a 4fbd 0473 b83c
00000160: 4ef2 d23c 78f1 e6bc 9346 933d bee4 f13c
00000170: c7e7 95bd 2394 8b3e 14ea 1d3d ba40 893d
00000180: fd39 44bc a794 20be a924 4cbc c971 ca3d
00000190: 675a a33e 8894 fb3c d4cd acbc 6ff3 0cbd
000001a0: 21bd e33e eb29 503d 56bd cfbb a43b 85be
000001b0: d4d8 1a3d e0bf 03ba fc77 b43c c5cb 8e3e
000001c0: e05c 803d 0323 f3bd bede e93c 4034 69bd
000001d0: dec8 823c a8e1 06be efbc ed3d f9cb 0ebe
000001e0: 1655 c6bb ca5e 1fbd 001f bab9 9c6b 1c3e
000001f0: e6c6 3b3d 6a5e 563d daff a13d ea9b 6c3c
00000200: 802a cb3d 1024 a8bc 34fe a3bc f398 03be
00000210: 6ca2 b4bd 1b1b 623c 0110 ecbd 44aa 0abc
00000220: a8cf d03c 6bf7 8fbb c3b2 bc3d c6c8 f2bd
00000230: 3043 feba cb9b 2fbd a1cd f93d f099 973d
00000240: 46b1 9bbd 395a bd3d 36b9 01be efe5 a03c
00000250: 249b 1e3d 089d 973d 7676 86bd 73e9 653c
00000260: ab65 70bd 1a5c a2bd 7225 033c 9965 21bc
00000270: e48c 87bd e074 a2b9 9b11 8a3d b8ed d83d
00000280: dfc7 fdbd 8a78 f4bd d014 b5bd d28d 29bc
00000290: 7646 803d 9346 603d 0d2c 213d 6032 97bc
000002a0: 2d4e e63c 601f 2c3b aaf1 a73c 9f49 38bd
000002b0: 67ac 4bbd 582a 92bc 4d7c 023e 36ae 753d
000002c0: d0f7 293d 5d2a 87bd 02fb 7cbd 606c 5bbd
000002d0: 6245 58bb ed53 04bd 8eca adbd aa61 8cbd
000002e0: 489d dc3d 5449 cabc 034a c3bd 002e 15b9
000002f0: b7fa 943d fe81 cc3d 1a53 843d aa39 de3c
00000300: 9bfb c43d 93cd 43bd c08c 5c3b 9d0b 16bd
00000310: bc77 49bc dab7 0bbd 4bf6 13bd 0b9a 663d
00000320: bc57 b6bc b671 8e3b 4653 e73d 912c 7f3d
00000330: 64c6 f43a d0b2 b5bd 4049 493c f91c 75bd
00000340: 8c7a 253d e8fc 17bd 2296 d23c 2e29 3bbc
00000350: b0ec 4e3d 9a88 b73d a6a2 633c d395 8abd
00000360: decc 473d bc5f 7a3d e812 923a 9cdf b6bd
00000370: 12c5 62bd 77a5 373d c88a f63c e833 6cbc
00000380: 05aa 5abd 2442 f7bc 9e7c babd 0d3b dbbd
00000390: a9bf 1f3d 4809 223d 3f28 833d 2d35 32bd
000003a0: d5b6 9dbd bd79 6bbd 3a4e 97bd bd14 0abd
000003b0: 5e1e 053c f929 ca3d d97e c0bd d1a7 50bd
000003c0: 5ca8 873d 971e 21bd 615d 0cbd 021d 513d
000003d0: b17e 823d a477 cc3d ba09 c0bd 166a 863d
000003e0: 46eb 743d 3f73 5cbc ee74 b43c 0221 183c
000003f0: daff 8bbb c487 ee3d c920 a1bd 90ab ed3c

fc.2.bias f4 [64]
-0.22272326 -0.0051948866 -0.011478526 0.0011888593 -0.0020123199 0.027472017 -0.01745587 -0.34920576
0.039343137 -0.04124866 0.024335008 0.07773411 -0.32224005 0.017894858 -0.10043793 -0.020415185
-0.078080826 0.046290834 -0.0029130513 -0.0731058 0.16654648 0.2799702 -0.05995646 0.040757578
0.08659101 -0.10506907 -0.037037656 -0.011089067 0.094201565 0.09358432 -0.1381051 -0.093833186
0.037289448 -0.25772265 0.021814922 0.007827483 0.030375643 -0.17779833 0.021972958 0.07609758
0.17030017 -0.024626443 0.026942305 -0.083922826 -0.00061127264 0.05413488 -0.15884964 -0.17243661
-0.03309378 0.007540022 0.08478671 0.035493992 0.023715233 0.33822957 0.070767984 0.049914617
0.034451015 0.056084447 -0.3305608 -0.0084770005 0.032363534 0.15874305 0.022482378 -0.15394428
00000000: 9111 64be de39 aabb 6d10 3cbc 80d3 9b3a
00000010: 20e1 03bb ff0c e13c 9dff 8ebc 19cb b2be
00000020: 4526 213d 5bf4 28bd 365a c73c 1033 9f3d
00000030: a6fc a4be 3d98 923c 67b2 cdbd bf3d a7bc
00000040: d7e8 9fbd 759b 3d3d e4e8 3ebb 7eb8 95bd
00000050: 298b 2a3e 4158 8f3e e894 75bd 6bf1 263d
00000060: a156 b13d 742e d7bd ccb4 17bd ebae 35bc
00000070: c0ec c03d 23a9 bf3d 6c6b 0dbe 9d2b c0bd
00000080: d2bc 183d 39f4 83be 35b5 b23c d83e 003c
00000090: 57d6 f83c c410 36be a200 b43c 0cd9 9b3d
000000a0: 2b63 2e3e 65bd c9bc 1cb6 dc3c bbdf abbd
000000b0: d03d 20ba 89bc 5d3d 7ba9 22be 3993 30be
000000c0: 588d 07bd 4a12 f73b a8a4 ad3d 2662 113d
000000d0: 7346 c23c 6d2c ad3e ceee 903d 4573 4c3d
000000e0: 821c 0d3d ceb8 653d 443f a9be 1ee3 0abc
000000f0: a08f 043d 8a8d 223e f72c b83c 92a3 1dbe

fc.4.weight f4 [32, 64]
-0.025219714 -0.072626814 -0.078192845 0.120400235 0.008218345 -0.04151429 0.0007193284 -0.05952233
0.056415755 -0.0891336 0.3740599 0.013425598 -0.05916138 -0.05796816 -0.616928 0.064199775
0.014665673 -0.104720235 -0.047757983 -0.13020119 -0.043752648 0.014633555 0.09497886 0.08759151
-0.014827505 0.014162181 0.012377259 -0.06317631 -0.02543028 0.16163674 -0.05176408 -0.0038309814
-0.049231675 -0.042551126 0.13969925 -0.0065429937 -0.012923857 0.035509013 -0.04180309 0.15472303
-0.05933461 0.117478795 0.013769865 -0.036231373 -0.11328524 0.040306434 -0.07516534 -0.097636014
-0.019102242 -0.07070826 -0.050227966 0.055175073 -0.12115938 -0.08261467 0.073135875 -0.10620723
0.060209077 -0.011736204 -0.19503938 0.107074514 -0.09932031 0.18445082 0.1128411 -0.097466335
0.07261012 -0.093741596 0.072646506 -0.055968016 0.021743713 0.09767917 -0.039747402 0.047822308
0.031343646 0.081182316 0.059961908 -0.13560209 -0.040547006 -0.066122375 -0.02576992 -0.08802999
0.10438688 -0.021305278 -0.121798895 0.12657285 0.083688065 -0.12251928 -0.04573329 0.034336224
0.009365297 0.09076763 -0.102715716 -0.081859425 -0.03798987 0.0919526 -0.09464952 -0.10271435
-0.1267038 0.082343206 -0.072385855 0.073486626 -0.08055271 -0.010122009 0.14782053 0.06916189
-0.075314924 0.06146456 0.12085276 -0.06962828 0.026056185 0.111990206 0.02342742 -0.023950696
-0.043327324 0.021975843 -0.05653609 0.011607222 -0.019349577 -0.097023554 -0.054230466 -0.13426185
0.14199933 0.042732198 0.053521346 -0.13394515 0.06447444 -0.15315783 0.0042957924 0.1007256
-0.09039366 -0.12911716 0.08634809 -0.030355187 -0.05513613 -0.030461842 0.049688935 -0.13789447
-0.13265198 0.06437271 -0.026337933 0.0848094 -0.05480992 -0.030242234 -0.07370868 -0.11252674
-0.09243092 -0.039626952 0.07431868 -0.07847313 -0.13105601 -0.001428593 -0.14581077 -0.009850116
0.09864045 -0.071117505 0.037392315 0.025958288 0.12312245 -0.13951732 -0.049246587 -0.055664264
-0.046832107 0.00015038997 0.080794804 -0.14935625 -0.11060876 -0.11794639 0.11363155 -0.025913142
0.025900993 -8.868612e-05 0.106460586 0.026155349 0.06869714 0.014924908 -0.018359168 -0.11382327
-0.011287151 -0.03971305 -0.1451866 0.07701164 0.091819964 0.08935483 -0.15283008 0.08376922
-0.08145058 0.053695723 0.054079603 -0.10422325 -0.061960332 -0.031031312 0.10032883 -0.081536785
-0.15129514 -0.061556887 -0.0166199 -0.20029968 -0.0015810886 0.05272097 -0.14302135 0.20890558
-0.0007337034 -0.14047177 -0.03919628 0.06424335 0.11609488 0.051711667 0.2556494 0.050010547
-0.023966633 -0.026885223 -0.11922747 0.097821414 -0.004538077 -0.1622353 -0.024779603 0.026458142
-0.036456402 -0.03991145 -0.029512236 -0.02188945 0.10551874 0.1485955 0.051446684 -0.031065242
-0.094629705 0.034387384 0.03158169 -0.12572344 0.04770603 -0.20349067 -0.04115489 0.07188657
0.10641199 -0.051242046 0.014011213 -0.11091592 0.12882239 0.047800403 -0.015046056 -0.12307993
0.012366969 -0.11875594 0.11229491 0.015512485 0.09363689 0.08969005 -0.10212272 0.06359682
-0.0034762006 -0.08949844 0.18936618 0.09158124 0.06894438 0.26173404 0.22318722 0.15933616
00000000: 9399 cebc 5ebd 94bd 9223 a0bd 6694 f63d
00000010: 3da6 063c e30a 2abd 5091 3c3a b0cd 73bd
00000020: 3514 673d ad8b b6bd c784 bf3e 0af7 5b3c
00000030: 3453 72bd 0570 6dbd feee 1dbf 2c7b 833d
00000040: 4a48 703c 9077 d6bd e09d 43bd 7653 05be
00000050: fa35 33bd 94c1 6f3c 4784 c23d 2d63 b33d
00000060: 10ef 72bc 7e08 683c fdc9 4a3c 9562 81bd
00000070: 2a53 d0bc 1a84 253e 9206 54bd 3411 7bbb
00000080: 27a7 49bd 174a 2ebd 520d 0f3e 9c66 d6bb
00000090: 96be 53bc e671 113d b839 2bbd b76f 1e3e
000000a0: d908 73bd b998 f03d 009b 613c 5967 14bd
000000b0: 1802 e8bd 5c18 253d 49f0 99bd 64f5 c7bd
000000c0: 4e7c 9cbc 7ecf 90bd d7bb 4dbd 42ff 613d
000000d0: 6922 f8bd e131 a9bd 43c8 953d 2d83 d9bd
000000e0: cb9d 763d 3549 40bc 67b8 47be e249 db3d
000000f0: 7268 cbbd ade0 3c3e 3c19 e73d 6e9c c7bd
00000100: 9db4 943d 98fb bfbd b1c7 943d b83e 65bd
00000110: df1f b23c 040c c83d 2cce 22bd 53e1 433d
00000120: 3262 003d ea42 a63d 9e9a 753d 46db 0abe
00000130: 9e14 26bd 2b6b 87bd 701b d3bc 1149 b4bd
00000140: cac8 d53d 6888 aebc b371 f9bd 509c 013e
00000150: a664 ab3d 63eb fabd d552 3bbd 24a4 0c3d
00000160: e770 193c 61e4 b93d 9e5c d2bd eaa5 a7bd
00000170: 449b 1bbd a551 bc3d 9cd7 c1bd e75b d2bd
00000180: a4be 01be 8ea3 a83d 093f 94bd 2880 963d
00000190: d2f8 a4bd c8d6 25bc 445e 173e c0a4 8d3d
000001a0: b63e 9abd 43c2 7b3d a781 f73d 4699 8ebd
000001b0: c873 d53c 1f5b e53d dcea bf3c 4034 c4bc
000001c0: fe77 31bd af06 b43c 6392 67bd 382c 3e3c
000001d0: 0183 9ebc 49b4 c6bd c420 5ebd f07b 09be
000001e0: 4668 113e f507 2f3d 3339 5b3d eb28 09be
000001f0: 2d0b 843d 68d5 1cbe b8c3 8c3b 3949 ce3d
00000200: 5020 b9bd 4a37 04be 44d7 b03d 71ab f8bc
00000210: 6cd6 61bd 1d8b f9bc a086 4b3d 3534 0dbe
00000220: ecd5 07be d7d5 833d a6c2 d7bc 8db0 ad3d
00000230: 5e80 60bd 90be f7bc 94f4 96bd 6b74 e6bd
00000240: 6c4c bdbd df4f 22bd 6434 983d 85b6 a0bd
00000250: 8c33 06be a03f bbba 6b4f 15be 6262 21bc
00000260: 0104 ca3d 0ea6 91bd af28 193d 7aa6 d43c
00000270: a027 fc3d a1dd 0ebe cab6 49bd 3600 64bd
00000280: 06d3 3fbd 00b2 1d39 bf77 a53d d8f0 18be
00000290: d886 e2bd e08d f1bd a8b7 e83d cc47 d4bc
000002a0: 522e d43c 00fd b9b8 0208 da3d be43 d63c
000002b0: 16b1 8c3d 9a87 743c f765 96bc 2d1c e9bd
000002c0: beed 38bc 27aa 22bd ccab 14be 47b8 9d3d
000002d0: 1b0c bc3d aaff b63d 7d7f 1cbe 328f ab3d
000002e0: 90cf a6bd 0cf0 5b3d 9382 5d3d 0073 d5bd
000002f0: 1eca 7dbd 6135 febc 3479 cd3d c2fc a6bd
00000300: 1ded 1abe 1323 7cbd 7526 88bc 5c1b 4dbe
00000310: 883c cfba f2f1 573d 3074 12be 58eb 553e
00000320: 0056 40ba d5d7 0fbe 478c 20bd 0492 833d
00000330: 27c3 ed3d 9dcf 533d 7ae4 823e dcd7 4c3d
00000340: ac55 c4bc 663e dcbc 882d f4bd 9856 c83d
00000350: 26b4 94bb 0321 26be 98fe cabc bfbe d83c
00000360: 4f53 15bd 307a 23bd a5c3 f1bc 8151 b3bc
00000370: 361a d83d 6b29 183e c2b9 523d 897c febc
00000380: 38cd c1bd c9d9 0c3d cd5b 013d a5bd 00be
00000390: 6667 433d dc5f 50be 0892 28bd 4439 933d
000003a0: 88ee d93d 2ee3 51bd 498f 653c e327 e3bd
000003b0: 04ea 033e 5bca 433d bc83 76bc 5511 fcbd
000003c0: d49e 4a3c 5036 f3bd e0fa e53d 1428 7e3c
000003d0: b3c4 bf3d 6baf b73d b725 d1bd 0d3f 823d
000003e0: f8d0 63bb f54a b7bd 35e9 413e f28e bb3d
000003f0: b632 8d3d 0102 863e 318b 643e 0529 233e

fc.4.bias f4 [32]
0.049937773 0.009344358 -0.033678614 0.10006431 -0.02177218 -0.16440625 0.18294655 -0.08570679
-0.065945856 -0.0018493589 0.1066567 0.118817374 0.08435 0.0539323 -0.03118028 -0.09719657
0.1173109 0.02396473 -0.20151883 -0.027255557 0.116306596 -0.06398855 0.10850048 0.33990458
-0.052122306 -0.12588458 -0.16384012 -0.08544888 -0.128227 -0.057049073 0.10842577 0.23595175
00000000: 8d8b 4c3d 1419 193c 96f2 09bd 84ee cc3d
00000010: 925b b2bc 1d5a 28be 5756 3b3e 0b87 afbd
00000020: 9f0e 87bd 3066 f2ba d46e da3d 8656 f33d
00000030: b1bf ac3d 1ee8 5c3d c96d ffbc ff0e c7bd
00000040: b240 f03d ae51 c43c f45a 4ebe 0c47 dfbc
00000050: 2732 ee3d 6e0c 83bd 8035 de3d f907 ae3e
00000060: 337e 55bd e3e7 00be b4c5 27be d3ff aebd
00000070: f04d 03be 4aac 69bd 550e de3d 569d 713e

fc.6.weight f4 [3, 32]
-0.17480236 -0.06408432 -0.16660501 0.051158383 -0.08701884 0.051927276 -0.074378364 -0.11728356
-0.12358509 -0.13911554 0.13269126 -0.115957916 -0.18837206 -0.034827735 0.0117617985 0.11571647
-0.009762739 -0.045720525 -0.1094535 -0.13640851 -0.15401024 0.14743748 -0.08198094 -0.29738945
0.04673476 -0.008252155 0.07472401 0.09423046 -0.04777583 -0.11976035 -0.061583832 -0.30527103
0.064384095 -0.10304152 0.022178687 -0.14968432 0.050719596 0.015273468 0.19441293 -0.12919943
-0.10102748 -0.06445688 0.101040244 0.2421225 0.19598135 0.14218551 0.16756976 -0.12391825
0.1938517 0.036719814 -0.14175543 -0.06554729 -0.01186111 0.006201574 0.10214466 0.1697438
-2.090613 -0.53082484 -0.28029814 0.13771412 -0.1453642 0.06695538 0.14254752 0.070396
-0.022048047 0.019341536 -0.052009173 0.22980097 -0.17611055 -0.0759682 0.2065267 0.18369615
0.110655695 0.22823948 0.046960868 0.14696987 -0.12411204 -0.16760905 -0.087160036 -0.08221019
0.116350956 0.16213296 0.116867274 0.026884014 -0.047943924 -0.028049443 0.020706903 -0.08995201
0.28369066 -0.12168618 0.13498126 -0.16343646 -0.13015436 0.080512024 -0.039650273 0.19222406
00000000: 64ff 32be a43e 83bd 819a 2abe 748b 513d
00000010: ef36 b2bd b2b1 543d af53 98bd 5d32 f0bd
00000020: 2e1a fdbd 4e74 0ebe 38e0 073e 587b edbd
00000030: 9be4 40be 87a7 0ebd 8fb4 403c c2fc ec3d
00000040: e5f3 1fbc 7245 3bbd 2829 e0bd acae 0bbe
00000050: dcb4 1dbe daf9 163e a0e5 a7bd 6e43 98be
00000060: f36c 3f3d 0c34 07bc e708 993d e6fb c03d
00000070: 97b0 43bd ea44 f5bd 543f 7cbd 7c4c 9cbe
00000080: cfdb 833d 6f07 d3bd 14b0 b53c d946 19be
00000090: 5abf 4f3d 913d 7a3c 2f14 473e db4c 04be
000000a0: 7fe7 cebd f801 84bd 30ee ce3d f6ee 773e
000000b0: 56af 483e 1499 113e 6897 2b3e dac8 fdbd
000000c0: 0f81 463e 8467 163d 5628 11be a83d 86bd
000000d0: 1a55 42bc 9336 cb3b 3831 d13d 52d1 2d3e
000000e0: 9acc 05c0 23e4 07bf 3d83 8fbe ee04 0d3e
000000f0: 5ada 14be e71f 893d faf7 113e c72b 903d
00000100: 1b9e b4bc 2472 9e3c 9207 55bd f250 6b3e
00000110: 5356 34be 3795 9bbd bc7b 533e d81a 3c3e
00000120: 749f e23d 9cb7 693e 0a5a 403d 457f 163e
00000130: 742e febd b5a1 2bbe f680 b2bd d15d a8bd
00000140: 6949 ee3d 2f06 263e 1c58 ef3d dd3b dc3c
00000150: d960 44bd f2c7 e5bc 86a1 a93c c238 b8bd
00000160: e73f 913e 9b36 f9bd 8738 0a3e e35b 27be
00000170: 2f47 05be 7de3 a43d 5368 22bd 62d6 443e

fc.6.bias f4 [3]
-0.107969016 0.28341302 0.09842145
00000000: dc1e ddbd 831b 913e 2f91 c93d
