Genetic_Models/dino_genetic_model17.pth (torch, 184558 bytes, 10 tensors)

fc.0.weight f4 [256, 6]
0	0xbcb8ec93	-0.022573745
1	0x3dc52c5d	0.09627602
2	0xbf171ac5	-0.5902522
3	0xbd1ec490	-0.038761675
4	0xc09d9687	-4.924625
5	0xc0840c38	-4.1264915
6	0xbea80c12	-0.3282171
7	0x3e806392	0.25075966
8	0xbf20ccd7	-0.6281256
9	0xbca08599	-0.019594954
10	0x3fd65f6f	1.6747874
11	0xbfa98d5c	-1.3246264
12	0xbeabf2f6	-0.33583802
13	0xbdd056b5	-0.10172788
14	0xbeea98c2	-0.4581967
15	0x3e8b3b92	0.27193886
16	0x3e3a92b7	0.1822003
17	0xbf7409c5	-0.9532741
18	0xbec7b09d	-0.39001933
19	0xbe62a271	-0.22132279
20	0x3e9bbaba	0.304159
21	0x3ea16e3e	0.3152942
22	0x401e9045	2.4775555
23	0xbf413726	-0.75474775
24	0xbcfabeb1	-0.030608507
25	0xbe1b7e01	-0.15184785
26	0x3f02e724	0.5113394
27	0x3e022f90	0.12713456
28	0xbe157038	-0.1459359
29	0xbffa2b3e	-1.9544446
30	0xbe8c8935	-0.2744843
31	0x3dc954f3	0.09830656
32	0xbe86f93a	-0.2636202
33	0xbe1a5a83	-0.1507359
34	0xbe541dc6	-0.20714483
35	0xbc7408dc	-0.01489469
36	0xbe42bc8e	-0.1901724
37	0x3d74bab1	0.059748355
38	0x3f092531	0.53572375
39	0xbc98fa8e	-0.018674161
40	0x3ec931f0	0.39295912
41	0xbf7a493a	-0.97767985
42	0x3e9330f2	0.2874828
43	0xbdf501e9	-0.11963255
44	0x3ec203b0	0.37893438
45	0xbe6aa0bc	-0.22912878
46	0x405fad83	3.4949653
47	0x4021d200	2.5284424
48	0x3e83e0c1	0.2575741
49	0x3d7701b3	0.060304355
50	0xbdff2474	-0.12458125
51	0xbdb761c9	-0.08954198
52	0x3f84a98c	1.0364242
53	0xbff7ca65	-1.9358641
54	0xbe483d71	-0.19554688
55	0xbf03c07b	-0.51465577
56	0xbe06b244	-0.1315394
57	0x3e96726a	0.29384166
58	0xbdc3c826	-0.0955966
59	0x3f893210	1.0718403
60	0xbda0102e	-0.07815586
61	0xbc4a5cb2	-0.012351202
62	0x3dc721f3	0.09723272
63	0x3c8a963a	0.016917337
64	0xc0140050	-2.312519
65	0xc03a6a68	-2.9127445
66	0xbeb13254	-0.3460871
67	0xbe12bfe2	-0.1433101
68	0xbf1eae6e	-0.6198491
69	0x3e3cb1b4	0.18427163
70	0x4071a0c1	3.7754366
71	0x40076203	2.1153572
72	0x3e7f50d9	0.24933185
73	0xbe77c540	-0.24196339
74	0xbf63f241	-0.89041525
75	0x3db358b8	0.08757156
76	0x4016d594	2.3567858
77	0xbf455778	-0.7708659
78	0xbf10cee5	-0.56565696
79	0x3e85e55a	0.26151544
80	0x3e45ab81	0.19303705
81	0x3cbf1ec5	0.023330102
82	0xbfe03792	-1.7516959
83	0x3fffa8be	1.9973371
84	0xbdda5f2b	-0.10662683
85	0x3d2a4299	0.04156742
86	0xbf071fd0	-0.5278292
87	0x3d7dba6c	0.061945364
88	0xbf2ddcb7	-0.6791491
89	0xbfe7def0	-1.811491
90	0x3e7f1573	0.24910526
91	0xbe7176ab	-0.23580424
92	0x3e9c73ed	0.30557194
93	0xbe5a6968	-0.21329272
94	0xbec2d4fb	-0.38053116
95	0x3aa83c08	0.0012835274
96	0xbe57c7c7	-0.21072303
97	0xbe2722eb	-0.16321914
98	0xbe00023b	-0.12500851
99	0xbca097f0	-0.0196037
100	0x3e8a2cf0	0.2698741
101	0x3d907c09	0.07054908
102	0xbf14cf91	-0.5812922
103	0x3e55a4eb	0.20863692
104	0xbecbd98e	-0.3981442
105	0x3cb88392	0.022523675
106	0xbfa132fc	-1.2593684
107	0x3e4013eb	0.18757598
108	0x3b405794	0.0029349076
109	0x3e0c6186	0.13709077
110	0xbec520b1	-0.38501504
111	0xbd19f35d	-0.037585605
112	0xbe8ae65c	-0.27128875
113	0xbf989475	-1.1920305
114	0x3e387760	0.18014288
115	0x3e333eec	0.17504472
116	0xbed5ad5e	-0.4173383
117	0xbe1b2fd1	-0.1515496
118	0x3f6f6863	0.93518656
119	0xbfa561f7	-1.2920521
120	0x3ea3c3af	0.31985232
121	0xbe9b5900	-0.3034134
122	0xbf20ec73	-0.6286079
123	0xbe2335c6	-0.15938482
124	0x40901af5	4.5032907
125	0x4069acf8	3.6511822
126	0xbda18d0d	-0.078882314
127	0x3e0820ed	0.1329381
128	0x3cc6d53e	0.024271604
129	0xbd509f78	-0.05093333
130	0x406bc241	3.6837313
131	0x40744758	3.8168545
132	0x3dd698c3	0.10478356
133	0x3e7b5ecf	0.24547885
134	0x3e53ef2d	0.20696707
135	0xbe60b024	-0.21942192
136	0xbe8f2487	-0.27957556
137	0xc02e0377	-2.7189615
138	0x3ecfe3cc	0.40603483
139	0x3d4cb1a5	0.049974103
140	0xbeda5666	-0.42644042
141	0xbeda42db	-0.42629132
142	0xbf5cb99f	-0.86220735
143	0xc0361867	-2.8452394
144	0x3d8c7953	0.06859078
145	0xbd54c0ae	-0.051941566
146	0x3e22a223	0.15882163
147	0xbea1a1a3	-0.31568632
148	0xbea38a9d	-0.3194169
149	0xbe832a47	-0.25618193
150	0xbe973b97	-0.2953765
151	0xbe4cc0e1	-0.19995452
152	0xbc7ee82a	-0.015558282
153	0xbe6308d2	-0.22171333
154	0x3e2871f9	0.16449727
155	0x3e6bb340	0.23017597
156	0xbe2cede7	-0.16887628
157	0xbd80003c	-0.06250045
158	0x3da27693	0.079327725
159	0xbe6a6bbf	-0.22892664
160	0x3e32f136	0.17474827
161	0x3e1aab0a	0.15104309
162	0x3d8f9656	0.07011096
163	0x3da39f4a	0.07989366
164	0xbda7510f	-0.081697576
165	0xbde8ccf1	-0.113672145
166	0x409a001f	4.812515
167	0x409967e5	4.7939324
168	0xbe5d1f7f	-0.21594046
169	0x3ed43f63	0.4145461
170	0xbe31f53a	-0.17378703
171	0xbe2ada69	-0.1668488
172	0xbe69d8d1	-0.22836615
173	0xbfcc68ce	-1.5969484
174	0x3daa2138	0.08307117
175	0x3e839b21	0.2570429
176	0xbedd404e	-0.43213123
177	0xbe3591b4	-0.17731363
178	0x400244b0	2.0354424
179	0xbf471232	-0.7776214
180	0xbc0c4898	-0.00856223
181	0xbea66d92	-0.3250547
182	0xbdaf20b9	-0.08551163
183	0xbe7437f1	-0.23849465
184	0xbcf9e526	-0.030504774
185	0x3e03dffb	0.1287841
186	0xbd29b6d0	-0.04143411
187	0x3e86752f	0.2626128
188	0x3e10fb1b	0.14158289
189	0xbdedcc98	-0.11611289
190	0x3f95af87	1.1694192
191	0xbfeeb1c4	-1.8648
192	0x3d31d7c6	0.04341867
193	0xbda8b168	-0.082369626
194	0xbeb77334	-0.3583008
195	0xbe9a836b	-0.3017839
196	0xbea21441	-0.31656078
197	0x3d73d118	0.05952558
198	0xbeafdcad	-0.3434805
199	0x3e0e0726	0.13869914
200	0xbef2971d	-0.47380915
201	0x3dd37987	0.10325914
202	0x3eb77c82	0.3583718
203	0xbfb2a233	-1.3955749
204	0xbd6df159	-0.058091495
205	0x3dc5df17	0.09661692
206	0xbf67e8a8	-0.9058938
207	0x3d3a2516	0.045445524
208	0x3ec9c4ea	0.39408046
209	0xbf2e75c0	-0.6814842
210	0xbd72fbec	-0.059322283
211	0xbeac5d2d	-0.33664837
212	0xbf5d1e61	-0.8637448
213	0x3e518420	0.20460558
214	0xbe7fd67c	-0.24984163
215	0x4005e11a	2.091864
216	0x3d0f59bc	0.034997687
217	0x3deb6b8a	0.11495121
218	0xbf335879	-0.70056874
219	0xbcdc5a71	-0.026898595
220	0xbde690d0	-0.112580895
221	0xbfbfcc62	-1.4984248
222	0xbe822545	-0.2541906
223	0xbe70a8e7	-0.23501931
224	0x3e91b837	0.28460857
225	0xbcbd853c	-0.02313482
226	0x3e499e19	0.19689216
227	0xbe9a49bc	-0.3013438
228	0x3e54b267	0.2077118
229	0xbeeeb36a	-0.46621257
230	0x3e1c7a25	0.1528097
231	0x3e3cd9e2	0.1844249
232	0x3f0a5f78	0.54051924
233	0xc02509a5	-2.5787137
234	0xbeb41ddb	-0.35179028
235	0x3e903b64	0.2817031
236	0x3d8dbbaa	0.0692056
237	0xbcc4093c	-0.023930185
238	0xc002ea02	-2.0455327
239	0x3fde01f8	1.7344351
240	0xbe824127	-0.25440332
241	0x3d9edee6	0.07757358
242	0x3f25bd01	0.6474152
243	0x3c65a1e0	0.014015645
244	0x3e8c9199	0.27454832
245	0xbfe1c31b	-1.7637666
246	0xbd540b02	-0.05176831
247	0x3d1d222a	0.03836266
248	0xbebe9c24	-0.372285
249	0xbe0ce495	-0.13759072
250	0xbe0d5917	-0.13803516
251	0xbe9c739f	-0.30556962
252	0xbe444f20	-0.19170809
253	0xbedcf60a	-0.43156463
254	0xbec5afd2	-0.38610703
255	0x3e66e02c	0.22546452

fc.0.bias f4 [256]
0	0xbf2b2c10	-0.6686411
1	0xbe7abddc	-0.24486488
2	0x3e062f5e	0.13104007
3	0x3d54e59a	0.051976778
4	0xbf032d63	-0.5124113
5	0x3eb8773c	0.3602847
6	0xbdd8f78a	-0.10594089
7	0xbd87ee41	-0.0663724
8	0xbe30aec5	-0.1725417
9	0xbe20a7f1	-0.15689065
10	0xbf28fe60	-0.66013145
11	0xbef1f967	-0.4726059
12	0xbd732c8a	-0.059368648
13	0x3f12e4bb	0.57380265
14	0xbf1a1e8c	-0.6020286
15	0xbe9baced	-0.3040537
16	0x3ec0a3d6	0.37624997
17	0x3dc53ad0	0.09630358
18	0xbe80f94b	-0.25190195
19	0xbd1a98fe	-0.03774356
20	0x3e96d409	0.29458645
21	0xbed1d491	-0.40982488
22	0xbddf9a76	-0.10918133
23	0xbeae53d6	-0.34048337
24	0x3e17c8a8	0.14822638
25	0x3e757a31	0.23972394
26	0xbe731e43	-0.23742013
27	0xbd244562	-0.04010523
28	0xbe3656af	-0.17806505
29	0xbe6ae3fc	-0.22938532
30	0x3ead1b1a	0.3380974
31	0xbefa3bf3	-0.48873863
32	0x3d9644fa	0.07337375
33	0xbf246c58	-0.6422782
34	0xbe8b61b8	-0.2722299
35	0xbef4f439	-0.47842577
36	0xbe2e4bd7	-0.17021118
37	0xbe8e43d3	-0.2778612
38	0x3deee0b8	0.116639555
39	0xbe19da2a	-0.15024629
40	0x3c18f983	0.009336832
41	0xbe790ab9	-0.24320497
42	0xbe25b48a	-0.16182151
43	0xbf47e99b	-0.7809083
44	0x3ec98d9e	0.39365858
45	0xbf0eb5ee	-0.5574635
46	0xbf5fe62d	-0.87460595
47	0x3dbc2b58	0.09187955
48	0x3ddc4512	0.107553616
49	0x3e69221e	0.22766921
50	0x3df23e5e	0.11828302
51	0x3e5b0530	0.21388698
52	0xbefd725f	-0.4950132
53	0xbe38f440	-0.18061924
54	0x3b87cccc	0.0041442867
55	0xbec6233e	-0.38698763
56	0xbec36db6	-0.3816964
57	0x3d45f1e4	0.048326388
58	0xb9467980	-0.00018928014
59	0xbd843160	-0.0645473
60	0xbdfdd3d6	-0.1239392
61	0x3e954961	0.29157546
62	0x3e30d474	0.17268544
63	0xbed77e79	-0.42088678
64	0x3e7025e1	0.2345195
65	0xbe35cdf9	-0.17754354
66	0xbe17df4d	-0.14831276
67	0x3eafde60	0.34349346
68	0xbdc7de1f	-0.09759163
69	0xbed5efdb	-0.41784558
70	0x3e3b2136	0.18274388
71	0xbea6c12b	-0.3256925
72	0xbe627622	-0.22115377
73	0x3e52a5cc	0.20571059
74	0x3ea2fef7	0.31835148
75	0xbec76d89	-0.38950756
76	0xbe46a39b	-0.19398348
77	0x3cd17bfc	0.025571816
78	0xbecf42a1	-0.4048052
79	0xbeec7acf	-0.46187446
80	0xbce2b451	-0.027673872
81	0xbec7c1ef	-0.39015147
82	0xbebf5996	-0.37373036
83	0x3ed0f65e	0.40812963
84	0xbe700f6f	-0.23443387
85	0xbf18a707	-0.59629864
86	0x3f19f313	0.60136527
87	0xbec2fb9f	-0.38082597
88	0xbf091828	-0.53552485
89	0x3eb4e159	0.35328177
90	0xbed2bacd	-0.41158143
91	0x3eddeff2	0.43347126
92	0x3e63e98e	0.22257063
93	0x3cf25982	0.029583696
94	0xbe17beec	-0.14818925
95	0xbd0ce68a	-0.034399547
96	0xbdb23c4f	-0.08702909
97	0xbe57d6ea	-0.21078077
98	0xbf0f3b67	-0.55950016
99	0x3af84438	0.0018941229
100	0x3cbe5444	0.02323354
101	0x3e493bbc	0.19651693
102	0xbed305ce	-0.41215366
103	0x3e86bc5e	0.26315588
104	0xbec1f0ce	-0.37879032
105	0xbdba0b51	-0.0908419
106	0x3e7d0e29	0.24712433
107	0xbdfd5ba4	-0.12370995
108	0x3e077496	0.13228068
109	0xbefc2b38	-0.49251723
110	0x3db88995	0.09010617
111	0x3ea65924	0.32489884
112	0xbe8996e2	-0.26872927
113	0x3f5ae3d1	0.8550387
114	0x3e0c166a	0.13680425
115	0xbea047f9	-0.3130491
116	0xbe9ed8af	-0.3102469
117	0xbe2b9db2	-0.16759375
118	0x3d12fe69	0.035887156
119	0x3ebd2b5b	0.3694714
120	0xbe101b91	-0.14073016
121	0xbee7c5a7	-0.45267984
122	0xbca957be	-0.020671722
123	0x3e9382d7	0.2881076
124	0x3f3b1713	0.73082083
125	0x3d86cf2f	0.06582486
126	0x3ebd288e	0.36945003
127	0xbcbfadb6	-0.023398262
128	0xbd476447	-0.048679616
129	0x3da9dc30	0.082939506
130	0xbf17da47	-0.5931744
131	0xbe59d994	-0.21274406
132	0xbe94c1f6	-0.2905423
133	0xbe968e29	-0.29405335
134	0x3f237a2d	0.638583
135	0xbf20e976	-0.62856233
136	0x3ea9d1f0	0.33167982
137	0xbf1526e1	-0.5826245
138	0x3ebc1940	0.36738014
139	0xbec88e4b	-0.3917106
140	0xbf2aaec4	-0.6667292
141	0xbec43446	-0.3832113
142	0xbd962f9a	-0.07333298
143	0x3f09c65d	0.53818303
144	0xbf188cdf	-0.5958995
145	0x3d456105	0.04818823
146	0x3ed01687	0.40642187
147	0x3ec89e8c	0.39183462
148	0x3f155e25	0.5834678
149	0x3ea35d20	0.31906986
150	0x3e141852	0.14462402
151	0x3d8bdacd	0.06828842
152	0xbc67987c	-0.014135476
153	0xbe4e3665	-0.20137937
154	0x3d7a8c98	0.061169237
155	0x3e70c2ff	0.23511885
156	0xbe7d1646	-0.24715528
157	0xbc586ba0	-0.013209254
158	0x3d01402f	0.03155535
159	0xbc3b6eda	-0.011440003
160	0x3d065676	0.0327973
161	0xbea8131e	-0.32827085
162	0x3ea9d90e	0.33173412
163	0xbe904cdc	-0.2818364
164	0xbe02981b	-0.12753336
165	0xbe2e7253	-0.17035799
166	0xbf4369a7	-0.7633309
167	0xbf12c83b	-0.5733678
168	0xbdbb3510	-0.0914098
169	0x3ea590fb	0.32337174
170	0x3e95f7e0	0.29290676
171	0xbc5126a7	-0.012765563
172	0xbef0a3b9	-0.4699991
173	0x3dbbe40c	0.09174356
174	0xbf020782	-0.50792706
175	0x3f324ed4	0.6965153
176	0x3ec2abb4	0.38021624
177	0x3e805af4	0.25069392
178	0xbe1c99ee	-0.15293095
179	0xbf049a1d	-0.5179766
180	0xbf599350	-0.84990406
181	0xbefbe484	-0.4919778
182	0x3e7a4c5e	0.24443194
183	0xbed3d149	-0.4137061
184	0xbde3d941	-0.11125422
185	0xbadc47e4	-0.0016806093
186	0x3e1c53cb	0.1526634
187	0x3e52629a	0.20545426
188	0xbedba100	-0.4289627
189	0xbbb18b09	-0.0054181856
190	0x3d276100	0.04086399
191	0xbe0ba6c0	-0.13637829
192	0xbe53f3ca	-0.20698467
193	0xbf01e5d6	-0.50741327
194	0x3eb0ae4d	0.3450798
195	0x3e5f060e	0.21779653
196	0x3df5f9e1	0.12010551
197	0x3ddc5566	0.10758476
198	0x3e7736dd	0.24142022
199	0xbeb35aed	-0.35030308
200	0x3e8948d4	0.26813376
201	0xbf03f528	-0.51545954
202	0xbf1f6dfd	-0.62277204
203	0x3ddc7021	0.107635744
204	0x3d883c74	0.066521555
205	0xbd706628	-0.058691174
206	0xbebf7dd6	-0.37400693
207	0x3e96db5b	0.2946423
208	0x3d840e61	0.06448055
209	0xbf164a9d	-0.587076
210	0x3e46cbaf	0.19413637
211	0x3ddbcb64	0.10732153
212	0xbe14b56f	-0.14522336
213	0xbeb5f501	-0.35538486
214	0x3e55b03d	0.20868011
215	0xbf14b058	-0.5808158
216	0xbf2eb649	-0.68246895
217	0xbefc1cf2	-0.49240834
218	0xbefff9d6	-0.49995297
219	0xbea02e26	-0.31285208
220	0xbef39ade	-0.47579092
221	0x3e88a45c	0.26687896
222	0xbe609659	-0.21932353
223	0x3dfc88fe	0.12330817
224	0x3d75b5d3	0.059987854
225	0x3f087b4c	0.53313136
226	0x3ec6ecac	0.3885244
227	0xbd3a3160	-0.045457244
228	0x3e859a56	0.2609431
229	0xbe924945	-0.28571525
230	0xbe9580ba	-0.29199773
231	0xbcfffa7d	-0.031247372
232	0xbeb97f1e	-0.36229795
233	0xbeaf5e1f	-0.34251496
234	0xbe6b848f	-0.22999786
235	0x3e59cc01	0.21269228
236	0xbd55e0d0	-0.05221635
237	0xbe556c7c	-0.20842165
238	0xbebd1014	-0.3692633
239	0xbcf43629	-0.029810982
240	0xbe2a05ae	-0.16603729
241	0xbdac897d	-0.08424661
242	0xbe56c110	-0.20972085
243	0xbea3e9ec	-0.32014406
244	0x3d7bf216	0.061510168
245	0x3e9b180c	0.30291784
246	0xbd5f38fe	-0.05449771
247	0xbe0e93a8	-0.13923514
248	0xbe24ea38	-0.16104972
249	0x3eade1b1	0.3396125
250	0xbec4552c	-0.3834623
251	0x3e7e01d6	0.24805388
252	0xbe86017a	-0.26173002
253	0x3e313b64	0.17307812
254	0xbe3f9547	-0.18709289
255	0xbefecc9f	-0.49765489

fc.3.weight f4 [128, 256]
0	0x3e3c95d4	0.1841653
1	0x3e42f31a	0.19038048
2	0xbdce1076	-0.100617334
3	0xbe00107b	-0.12506287
4	0xbd236598	-0.03989181
5	0xbae4a158	-0.0017443104
6	0x3d1621d5	0.03665336
7	0xbd8959ba	-0.06706567
8	0x3d6c4d91	0.05769116
9	0xbce91c04	-0.028455742
10	0x3d1aabb3	0.0377614
11	0xbf6e4d2b	-0.930865
12	0xbd3ea479	-0.046543572
13	0x3dea1739	0.114302106
14	0x3d6b8f26	0.057509564
15	0xbc890c1a	-0.016729403
16	0x3d001cea	0.031277575
17	0x3e1323bd	0.14369102
18	0x3d7269fe	0.059183113
19	0x3d300326	0.042971753
20	0x3d96ddd3	0.07366528
21	0x3d858e9d	0.06521342
22	0x3dec700d	0.115448095
23	0xbdab8ae1	-0.083760984
24	0x3d4cafa9	0.04997221
25	0x3b2ee902	0.0026689176
26	0x3cb7fc19	0.022459077
27	0x3e1b7744	0.15182215
28	0x3de7d1ac	0.113192886
29	0x3d9edc73	0.07756891
30	0xbd6ecf8c	-0.0583034
31	0x3dd6c98c	0.10487661
32	0x3c966a4e	0.018361237
33	0x3c83b6c2	0.016078357
34	0x3c45ed27	0.012080467
35	0xbf021aaa	-0.50821936
36	0x3dab5ed1	0.08367694
37	0x3d847740	0.06468058
38	0x3caa2225	0.020768235
39	0xbb180b2c	-0.0023200018
40	0x3d22c245	0.03973605
41	0xbd03875a	-0.032111503
42	0xbd1b0acc	-0.037852094
43	0x3e4ac2ae	0.19800827
44	0xbd84ce3a	-0.06484647
45	0xbe77919f	-0.24176644
46	0x3d63e0cd	0.05563431
47	0xbd5b2786	-0.05350449
48	0xbcd2feb5	-0.02575622
49	0x3c2661d6	0.010155162
50	0xbdb0187c	-0.0859842
51	0x3d21bdc4	0.039487615
52	0xbd9c666c	-0.07636723
53	0xbdd5c909	-0.10438735
54	0x3b3a0cd3	0.0028388991
55	0xbd36a00e	-0.044586234
56	0x37b95400	2.2092834e-05
57	0x3d946389	0.07245547
58	0xbd0424e7	-0.032261755
59	0x3d60378f	0.054740485
60	0x3e2f2201	0.17102815
61	0xbd0ffb44	-0.035151735
62	0x3d5f681d	0.05454265
63	0xbcc508de	-0.02405208
64	0xbd8f3fa4	-0.0699456
65	0x3e291a63	0.16513972
66	0xbd6250aa	-0.05525271
67	0xbcdee839	-0.027210342
68	0x3d7567dc	0.0599135
69	0xbe8ae5c4	-0.27128422
70	0xbe996a69	-0.29963997
71	0xbced2780	-0.0289495
72	0xbd81075f	-0.06300234
73	0xbe821882	-0.25409323
74	0x3d5508b8	0.052010268
75	0x3d172db3	0.036908817
76	0x3d77e736	0.060523234
77	0x3d60fa35	0.054926116
78	0xbd1743c4	-0.03692986
79	0x3deff40c	0.1171647
80	0xbc53024c	-0.012878966
81	0x3c1129d7	0.008860073
82	0x3cde06c9	0.027102845
83	0xbc91a448	-0.01777853
84	0x3db8896c	0.09010586
85	0xbe9bc91d	-0.30426875
86	0x3dcfae4a	0.10140665
87	0x3d013d50	0.031552613
88	0xbdc87e01	-0.09789658
89	0xbe010a04	-0.12601477
90	0x3cf1da1a	0.029522944
91	0xbf0a373b	-0.53990525
92	0x3e669531	0.2251785
93	0x3d89a0de	0.06720136
94	0xbdea74d7	-0.11448067
95	0xbd034092	-0.032044
96	0x3db035f2	0.08604039
97	0x3ca4fb23	0.020139283
98	0x3daba53a	0.08381124
99	0x3e231de3	0.1592937
100	0xbce703ac	-0.028199993
101	0xbb907fb8	-0.0044097565
102	0xbd098482	-0.033573635
103	0x3b8fa5ba	0.00438377
104	0x3e369f32	0.17834166
105	0x3c1fa662	0.009744259
106	0xbcbe4d35	-0.023230175
107	0x3d2ba372	0.04190392
108	0xbecfd217	-0.40589973
109	0xbe9fdfaa	-0.3122533
110	0x3cadd037	0.021217449
111	0x3d30632a	0.04306332
112	0x3d361758	0.044455856
113	0xbf5b7fb9	-0.85741764
114	0xbca552dc	-0.020181112
115	0x3cb856b5	0.022502283
116	0xbd8bfce8	-0.068353474
117	0x3d19a698	0.03751239
118	0xbd0efb78	-0.034907788
119	0xbcd7ad09	-0.026327627
120	0x3d9e5799	0.07731552
121	0xbd7e3df3	-0.062070798
122	0xbd83f62c	-0.06443438
123	0x3dedc357	0.11609524
124	0xbf196bc5	-0.5993007
125	0x3e5ec0e8	0.21753275
126	0x3c62a9aa	0.013834396
127	0xbcba8a39	-0.022770988
128	0x3d23f801	0.040031437
129	0xbc03699e	-0.008020787
130	0x3d3507ad	0.044196773
131	0x3d4f79cf	0.050653275
132	0x3d4af938	0.04955408
133	0xbe08d04c	-0.13360709
134	0x3d471c45	0.048610944
135	0x3d8ac890	0.067765355
136	0xbf19e234	-0.60110784
137	0x3e1919d2	0.14951256
138	0xbeb08b4a	-0.3448127
139	0x3d7e2bcf	0.062053498
140	0x3dfdd170	0.12393463
141	0x3b1bda20	0.0023781136
142	0xbcb5bc74	-0.022184588
143	0x3c2f2048	0.010688849
144	0xbe11144b	-0.14167897
145	0x3c19d6e2	0.009389611
146	0xbdbebbf6	-0.093131945
147	0xbd241aee	-0.040064745
148	0xbe3801a0	-0.1796937
149	0xbc900e9e	-0.017585095
150	0xbf292767	-0.6607575
151	0xbeebf07f	-0.4608192
152	0x3c32ad40	0.010905564
153	0x3d904b75	0.07045642
154	0x3c95cff8	0.018287644
155	0x3c4595c7	0.0120596355
156	0x3dc31f66	0.09527473
157	0xbe623641	-0.22091009
158	0x3cf54288	0.029938951
159	0xbf250466	-0.64459836
160	0x3d51a006	0.051178
161	0x3e0c6b34	0.1371277
162	0xbd7169e0	-0.05893886
163	0xbebe94be	-0.37222856
164	0x3d585a55	0.052820522
165	0xbefdfb4e	-0.49605793
166	0x3d160a12	0.036630698
167	0xbcf33bdb	-0.029691627
168	0xbd0d49d7	-0.034494247
169	0xbe09a209	-0.13440718
170	0x3d8a5c90	0.06755936
171	0x3d6d6afd	0.05796336
172	0x3ce5304d	0.027977133
173	0xbc9c63dc	-0.019090585
174	0xbeb4d84a	-0.35321265
175	0xbf0d8b6a	-0.55290854
176	0xbe048a9a	-0.12943497
177	0xbd55fbcb	-0.05224208
178	0x3da2d211	0.07950223
179	0x3d565fef	0.052337583
180	0x3e8cf649	0.2753165
181	0x3e694468	0.22780001
182	0xbda48940	-0.08033991
183	0xbc00ac03	-0.007853511
184	0x3dafb3a3	0.08579185
185	0xbdf34c1e	-0.118797526
186	0x3c191f10	0.009345785
187	0xbd32e170	-0.043672025
188	0x3dd28094	0.102784306
189	0x3d1a8ef6	0.037733994
190	0x3d72e0ca	0.059296407
191	0xbab190f8	-0.0013547232
192	0xbd806598	-0.062693775
193	0xbd86da99	-0.06584663
194	0xbda18bcb	-0.078879915
195	0xbd22566a	-0.039633192
196	0x3cf1945e	0.029489692
197	0x3bc89930	0.006121777
198	0xbcddc730	-0.027072519
199	0x3d153b2a	0.036433376
200	0x3d2b8e53	0.041883778
201	0xbda0fa28	-0.078602135
202	0x3d2f892c	0.042855427
203	0xbd12f9a6	-0.035882615
204	0xbbeee5de	-0.007290586
205	0xbd1bc616	-0.038030706
206	0x3c5058b2	0.012716459
207	0xbc983a50	-0.018582493
208	0xbc0ed575	-0.008717884
209	0x3fab2a8a	1.3372357
210	0x3fd76c41	1.6829911
211	0xbccf7e7e	-0.02532887
212	0xbfad1126	-1.3520858
213	0xbe094cd9	-0.13408221
214	0x3cbd640c	0.023118995
215	0xb9b90604	-0.00035290432
216	0xbcc80f94	-0.02442149
217	0x3d465046	0.0484164
218	0xbcd72708	-0.026263729
219	0x3d28daa2	0.04122413
220	0x3cb6859e	0.02228051
221	0xbe9854ef	-0.297523
222	0x3c434444	0.011918131
223	0xbfa8acb8	-1.317771
224	0xbee945a7	-0.45560953
225	0x3da23add	0.079213835
226	0xbd15281c	-0.036415204
227	0xbd576bf9	-0.052593205
228	0x3c93bb03	0.01803351
229	0x3d62a6d4	0.05533488
230	0x3d6a520c	0.057207152
231	0xbd044ee0	-0.032301784
232	0xbdacc416	-0.08435838
233	0x3d687a0a	0.05675701
234	0x3ea66f4a	0.32506782
235	0xbcd252ce	-0.02567425
236	0x3d8bafb1	0.0682062
237	0x3cbf116a	0.023323733
238	0xbe9d3cd9	-0.30710486
239	0x3e21b703	0.1579247
240	0x3be450d5	0.0069676437
241	0x3d8f3ba0	0.069937944
242	0xbd69166a	-0.05690614
243	0xbcee1681	-0.029063465
244	0xbd1531a7	-0.036424305
245	0xbd418b5c	-0.047252044
246	0x3d48e667	0.049047854
247	0xbbfd6e47	-0.0077340933
248	0x3d13690d	0.035988856
249	0x3d03d88b	0.032188933
250	0xbdc4ffc4	-0.09619096
251	0x3d30e4f2	0.04318709
252	0x3c2f5204	0.010700706
253	0x3d4853dc	0.0489081
254	0xbcf52432	-0.029924486
255	0x3b1f02d4	0.002426316

fc.3.bias f4 [128]
0	0x3d007dca	0.03136996
1	0x3c4c1754	0.012456734
2	0xbd57c46e	-0.052677564
3	0x3e72b313	0.23701124
4	0xbd21453e	-0.039372675
5	0xbcf0485c	-0.029331379
6	0x3be63694	0.007025549
7	0xbe27cbda	-0.16386357
8	0x3e946947	0.2898657
9	0xbcb779bc	-0.022396915
10	0xbd85b750	-0.06529105
11	0x3c8f994a	0.017529149
12	0xbd2f4b4f	-0.04279643
13	0xbc4b08c0	-0.012392223
14	0xbd7f6c46	-0.062359117
15	0xbe81bdf6	-0.2534024
16	0xbbc1a5b4	-0.005909646
17	0x3e4a5912	0.1976054
18	0xbcf12a9b	-0.029439261
19	0x3de4e757	0.11176937
20	0xbd943630	-0.07236898
21	0x3e53b345	0.20673855
22	0xbc4401c7	-0.011963314
23	0xbd9693fb	-0.07352444
24	0x3c2e5e0a	0.010642538
25	0x3e75c008	0.23999035
26	0xbdeae829	-0.11470062
27	0xbbc08c24	-0.005876081
28	0x3e7ab9b2	0.244849
29	0x3c192ba0	0.00934878
30	0x3e8c2fce	0.27380222
31	0x3e257142	0.16156486
32	0xbee32e81	-0.44371417
33	0xbd3dea49	-0.04636601
34	0xbd88d0ae	-0.066804275
35	0x3ea876c1	0.32903102
36	0x3c9e3a54	0.019314922
37	0x3c957dd0	0.018248469
38	0x3b5111c6	0.0031901463
39	0xbdf0c643	-0.117565654
40	0xbe8a14f2	-0.26969105
41	0xbe9d1e27	-0.30687067
42	0x3ed05071	0.40686372
43	0xbe85d528	-0.26139188
44	0xbe6617f6	-0.22470078
45	0xbcb15af9	-0.021649824
46	0xbc889856	-0.016674202
47	0x3eb9c39a	0.36282045
48	0xbdbce8c2	-0.092240825
49	0x3af1b4e0	0.0018440746
50	0xbcc759f0	-0.024334878
51	0xbca1e5eb	-0.019762954
52	0xbcc52858	-0.024067089
53	0xbda233d1	-0.079200394
54	0x3b412242	0.0029469882
55	0xbddc0c29	-0.10744507
56	0x3e682976	0.22672066
57	0xbe37d2cd	-0.17951508
58	0xbcfdda2f	-0.030987827
59	0xbce67bbe	-0.028135177
60	0xbdc4d3b0	-0.09610689
61	0xbea1fee1	-0.3163977
62	0xbd5a1045	-0.053238172
63	0xbc2ac8fa	-0.010423893
64	0xbd867667	-0.06565552
65	0xbb98815f	-0.004654094
66	0x3caf69c7	0.021412743
67	0x3bf25342	0.007395179
68	0x3a753938	0.00093545346
69	0xbd0f4afb	-0.034983616
70	0xbeea53f7	-0.45767185
71	0xbdd17cfc	-0.10228917
72	0xbdcd5c47	-0.10027366
73	0xbc8a330f	-0.01687005
74	0x3c1ea8e0	0.009683818
75	0x3c852e1a	0.016257335
76	0xbe3811f5	-0.179756
77	0x3c9b0c24	0.018926688
78	0xbeb2026d	-0.34767476
79	0x3ec74909	0.3892291
80	0xbd01d7b5	-0.031699855
81	0xbc360dbb	-0.011111672
82	0xbee38e0c	-0.4444431
83	0x3bdcbc98	0.0067363493
84	0x3e88efe4	0.26745522
85	0x3d4cb7ac	0.04997985
86	0x3d25ad9a	0.040448762
87	0xbb442732	-0.0029930589
88	0x3e4ce279	0.20008267
89	0xbdd262ed	-0.10272775
90	0xbb9d230e	-0.0047954386
91	0x3c201928	0.009771623
92	0xbd5cbaae	-0.05388897
93	0x3ef6d95e	0.48212713
94	0x3baaf2b1	0.0052169194
95	0xbdec5b2e	-0.11540829
96	0xbe1783bd	-0.14796348
97	0x3ec1192b	0.37714514
98	0xbdf5d608	-0.12003714
99	0x3d050572	0.032475896
100	0x3e038601	0.12844087
101	0x3dfce09d	0.12347529
102	0xbe5883d4	-0.21144038
103	0x3e57c8e2	0.21072724
104	0xbc69383b	-0.014234598
105	0x3d0224df	0.031773444
106	0xbcae1aaa	-0.021252949
107	0x3e357b68	0.17722857
108	0xbc1b0967	-0.009462691
109	0xbb6ce890	-0.003614936
110	0xbd530d15	-0.051526148
111	0x3efd0c72	0.49423558
112	0x3e9fe758	0.3123119
113	0x3aac84d4	0.0013162144
114	0x3ad2ae80	0.0016073734
115	0xbe4ec7e3	-0.20193438
116	0xbd26119c	-0.040544137
117	0x3c9944ce	0.018709566
118	0xbca1f47e	-0.019769903
119	0xbdb52fd6	-0.088470146
120	0x3ee461a2	0.44605738
121	0xbda2ab54	-0.079428345
122	0x3bd40ab5	0.006471003
123	0xbe973d02	-0.29538733
124	0xbdbe04fa	-0.09278293
125	0xbd367629	-0.04454628
126	0xbd73d79f	-0.059531804
127	0xbdd7d914	-0.10539451

fc.5.weight f4 [64, 128]
0	0x399c7615	0.00029842617
1	0x3d3bddaf	0.04586571
2	0xbe871984	-0.26386654
3	0x3ccd21a8	0.025040463
4	0xbd5979c3	-0.053094637
5	0x3d0b5481	0.034016136
6	0x3d8b2a7d	0.06795213
7	0xbcf0cfc4	-0.029395945
8	0xbda8051e	-0.08204101
9	0xbd8129ca	-0.06306799
10	0xbd8ca9c9	-0.068683214
11	0x3d2209c3	0.03956009
12	0x3d80027c	0.06250474
13	0x3d88e529	0.06684334
14	0xbd15fb7d	-0.03661679
15	0xbc9a1120	-0.018806994
16	0x3d40f93e	0.047112696
17	0xbd8fcd8a	-0.07021625
18	0x3d5053ea	0.050861277
19	0x3cd7a39a	0.026323128
20	0x3c9ee77a	0.019397486
21	0xbbca49a1	-0.006173328
22	0xbca9aaa7	-0.020711256
23	0xbcd9bcb1	-0.026579233
24	0xbd357254	-0.044298485
25	0x3cc844e6	0.024446916
26	0xbbb29e96	-0.005451034
27	0x3d855574	0.065104395
28	0xbdbc65d4	-0.0919911
29	0x3cc71d56	0.02430598
30	0x3d567c54	0.052364662
31	0xbbcab010	-0.006185539
32	0xbd3d816a	-0.046265997
33	0xbd8cea63	-0.06880643
34	0xbd90d885	-0.07072548
35	0x3db23603	0.08701708
36	0x3d40fe8b	0.04711775
37	0xbc02d6e8	-0.007985808
38	0x3d076afd	0.033061016
39	0xbd62e2e3	-0.055392157
40	0x3d14e16d	0.036347795
41	0xbd50cdb3	-0.05097742
42	0x3c40c0be	0.011764703
43	0x3bf6a4d2	0.0075269723
44	0xbdfe40fa	-0.12414737
45	0x3d369aee	0.044581346
46	0xbd5fc0c5	-0.0546272
47	0xbd52263a	-0.051305987
48	0xbb822dda	-0.003972751
49	0x3bd62b06	0.0065358905
50	0xbb46cd00	-0.0030334592
51	0x3dc3b3df	0.09555792
52	0xbd67e430	-0.0566141
53	0xbcf09ab0	-0.029370636
54	0xbd8c2273	-0.06842508
55	0xbc6f9130	-0.014622018
56	0xbd51f3b7	-0.051257815
57	0x3d6acc2e	0.057323627
58	0x3cfd4753	0.0309178
59	0x3d20760e	0.039175086
60	0x3c67dd1f	0.0141518405
61	0x3cf8bb51	0.030362757
62	0xbd8aad53	-0.0677134
63	0x3c1107f3	0.008851993
64	0x3dabfe8a	0.08398159
65	0x3d11da22	0.03560842
66	0xbd77fac1	-0.060541872
67	0xbd3ea25a	-0.04654155
68	0xbd5288ce	-0.0514
69	0x3c282c28	0.010264434
70	0xbcd70938	-0.026249513
71	0x3d4f2d18	0.050580114
72	0xbd3cf09c	-0.0461279
73	0xbd55429a	-0.05206547
74	0xbd488776	-0.04895731
75	0x3d8c258d	0.068431
76	0xbd45b25b	-0.048265796
77	0xbda54352	-0.08069481
78	0xbe12435c	-0.14283508
79	0x3d0031b8	0.031297415
80	0x3cc35174	0.02384255
81	0x3cbf80c7	0.023376836
82	0xbd344aef	-0.044016775
83	0x3c508a1e	0.012728242
84	0xbc495c9c	-0.012290146
85	0xbccaad2a	-0.024740774
86	0x3d670716	0.056403242
87	0xbc992dad	-0.018698538
88	0xbd6cd743	-0.057822477
89	0xbcd0aba8	-0.025472477
90	0xbd789b1c	-0.0606948
91	0x3d60d705	0.05489256
92	0xbd64281e	-0.05570232
93	0x3aa9e398	0.0012961505
94	0x3d62a96f	0.055337366
95	0x3d68acd5	0.05680545
96	0x3d82212e	0.06353985
97	0x3d7213ec	0.05910103
98	0x3d2fde74	0.042936757
99	0xbcfd36ba	-0.030909885
100	0x3c99eb94	0.01878909
101	0xbd788179	-0.06067035
102	0xbd6fba8b	-0.05852751
103	0x3cb51753	0.022105848
104	0x3cf1e364	0.029527374
105	0xbd858918	-0.06520289
106	0xbd8053f5	-0.062660135
107	0x3d4c6807	0.049903896
108	0xbd8438bc	-0.06456134
109	0xbd82a594	-0.06379238
110	0x3c3c9fec	0.011512738
111	0xbc201b19	-0.009772086
112	0x3b944176	0.004524405
113	0xbd949f1e	-0.07256912
114	0x3d9119b9	0.07084984
115	0x3d63a473	0.055576753
116	0xbc626a9b	-0.013819362
117	0xbaf92da8	-0.0019010799
118	0x3cbc5c8b	0.022993347
119	0x3d2df7f3	0.04247279
120	0x3c3d73f2	0.011563288
121	0xbd97dda8	-0.074153244
122	0x3d283661	0.041067485
123	0xbd2d4095	-0.04229792
124	0xbb4a0dea	-0.0030831047
125	0x3cd7ee93	0.026358878
126	0xbcbb5372	-0.022866938
127	0x3c8658c5	0.01639975
128	0xbca233c5	-0.019800076
129	0xbd204c2c	-0.039135143
130	0x3d2cc011	0.042175356
131	0xbd1ad829	-0.037803803
132	0x3cb3f07c	0.021965258
133	0x3d31329c	0.043261155
134	0x3d295413	0.041339945
135	0xbce91694	-0.028453149
136	0x3d786cfe	0.060650818
137	0x3d5f1022	0.054458745
138	0xbd90cf6b	-0.07070812
139	0xbd94eb87	-0.07271486
140	0xbdad2253	-0.084538125
141	0xbd316f7e	-0.043319218
142	0xbdab6ea1	-0.0837071
143	0xbd2bba79	-0.04192588
144	0xbd5780c8	-0.05261305
145	0x3cc34912	0.023838554
146	0xbd083e50	-0.03326255
147	0xbdc38916	-0.095476314
148	0x3d58b93a	0.05291102
149	0x3d97061b	0.073742114
150	0xbd3cb8d4	-0.046074703
151	0x3d6e0d7c	0.05811833
152	0x3d82f86b	0.06395038
153	0xbd725278	-0.05916068
154	0xbbaf9c9e	-0.0053592464
155	0x3d53f78a	0.051749744
156	0xbdbc53a0	-0.09195638
157	0x3d1f8e24	0.038953915
158	0xbd135d20	-0.035977483
159	0xbd204e8e	-0.039137416
160	0x3d2deb63	0.04246081
161	0x3d94ec5d	0.07271645
162	0x3d9cbe71	0.07653511
163	0x3cd62a73	0.026143288
164	0xbd3df790	-0.046378672
165	0xbdb1f0a3	-0.08688476
166	0xbd537201	-0.051622394
167	0x3bebc3fe	0.007194995
168	0xbd11f256	-0.0356315
169	0xbd8758fd	-0.0660877
170	0xbd9092a6	-0.07059221
171	0x3cd40a41	0.025883796
172	0xbc34b82d	-0.011030239
173	0xbd19ebb9	-0.03757832
174	0xbd968f6c	-0.07351574
175	0xbd2c85ca	-0.04211978
176	0x3d9fa488	0.07795054
177	0x3d445eac	0.04794185
178	0x3d61299d	0.054971326
179	0x3db99aa7	0.09062701
180	0x3c794ad7	0.015215597
181	0xbd9defc1	-0.07711745
182	0x3cae497d	0.021275276
183	0xbd0752a5	-0.0330378
184	0x3d3dc97e	0.046334736
185	0xbda6a780	-0.08137417
186	0x3c2e0a80	0.010622621
187	0x3d48c44f	0.04901534
188	0xbc468cd5	-0.012118538
189	0x3cfe9330	0.031076044
190	0x3d301e7c	0.042997822
191	0xbd2ada74	-0.04171224
192	0x3c0923fc	0.008370396
193	0x3c8b9c22	0.017042223
194	0x3d93e13e	0.07220696
195	0xbda945fe	-0.08265303
196	0x3c6277db	0.013822521
197	0xbcb8b5da	-0.022547651
198	0xbdac4206	-0.084110305
199	0x3d2900d5	0.04126056
200	0xbd15f305	-0.036608715
201	0x3d84cb73	0.06484117
202	0xbd54b648	-0.05193165
203	0xbd504142	-0.050843485
204	0x3c5b9300	0.013401747
205	0x3c0df282	0.008663775
206	0xbd031933	-0.032006454
207	0x3d8f7dc2	0.07006408
208	0xbd1c1597	-0.038106527
209	0xbd9d29da	-0.07673998
210	0x3dafa6f1	0.085767634
211	0x3c07e90d	0.00829531
212	0xbc78d233	-0.015186834
213	0x3c80549a	0.015665341
214	0x3b8a7ba9	0.004226167
215	0x3d94e7b2	0.07270755
216	0xbc7cfb83	-0.015440824
217	0xbd8b68fb	-0.06807133
218	0xbd1d693b	-0.038430434
219	0xbd71ca72	-0.059030958
220	0x3c8edfa7	0.01744063
221	0xbde54647	-0.11195045
222	0x3d22ae55	0.039717037
223	0xbd35c797	-0.044379797
224	0xbd4ac3be	-0.04950308
225	0xbda7d4db	-0.08194896
226	0xbd5831e3	-0.05278195
227	0xbd6686a5	-0.05628075
228	0xbd8432b3	-0.064549826
229	0x3ccb858b	0.024843952
230	0xbde0c64e	-0.109753236
231	0x3d173451	0.036915127
232	0xbcc9fa20	-0.024655402
233	0xbd82ab8f	-0.063803785
234	0xbd136997	-0.03598937
235	0x3d008ce7	0.031384375
236	0xbdc7f6e2	-0.09763886
237	0x3d3049cd	0.043039132
238	0xbd6ed768	-0.058310896
239	0x3d46fe0f	0.048582133
240	0xbda1dd38	-0.07903522
241	0x3c796b7f	0.015223383
242	0x3d01c984	0.03168632
243	0xbd0dcf96	-0.034621798
244	0x3d250e43	0.040296804
245	0xbda033fd	-0.07822416
246	0x3d812f28	0.063078225
247	0x3cc92261	0.024552526
248	0xbd6da1e8	-0.058015734
249	0x3db145cd	0.086558916
250	0xbd8b7e93	-0.068112515
251	0xbd657e58	-0.056028694
252	0xbd17bcf0	-0.03704542
253	0x3da264d4	0.07929388
254	0x3dc71f74	0.09722796
255	0x3d22da7e	0.03975915

fc.5.bias f4 [64]
0	0x3d973dd8	0.07384843
1	0x3d8ca530	0.068674445
2	0xbd059a72	-0.032617994
3	0xbd730df4	-0.05933948
4	0x3c056b89	0.008143314
5	0xbe4729e6	-0.19449577
6	0x3da3998b	0.0798827
7	0x3c3966f1	0.011316047
8	0xbc262231	-0.010139988
9	0xbd865c7d	-0.065606095
10	0xbde4beff	-0.11169242
11	0x3e449d76	0.19200692
12	0xbf18c45d	-0.59674627
13	0x3e0ad427	0.13557492
14	0x3dda2d2b	0.10653146
15	0xbddfc428	-0.10926086
16	0xbe9c0c03	-0.30477914
17	0x3e5e7d70	0.21727538
18	0x3de6e516	0.112741634
19	0xbd84617b	-0.064639054
20	0xbd7a61ce	-0.06112843
21	0x3d344c68	0.04401818
22	0x3d8cc8ed	0.06874261
23	0x3d911c5f	0.070854895
24	0x3e8b9f03	0.27269754
25	0xb9fa5060	-0.000477436
26	0x3cecffa0	0.028930485
27	0xbe4ef588	-0.2021085
28	0x3e736b34	0.23771363
29	0xbde87cfd	-0.113519646
30	0x3d51301d	0.051071275
31	0x3db366ba	0.08759828
32	0xbe546619	-0.20742072
33	0xbe5ca4aa	-0.2154719
34	0xbc9a5033	-0.01883707
35	0x3f2ac6fa	0.66709864
36	0xbd3e73d4	-0.04649718
37	0xbcc6a2f0	-0.024247617
38	0xbe3829f1	-0.1798475
39	0x3d86654a	0.06562288
40	0x3dacbab7	0.084340505
41	0xbd9b0e8d	-0.07571135
42	0xbc295908	-0.010336168
43	0x3d95dc74	0.07317439
44	0xbe042577	-0.12904917
45	0x3e5b6536	0.21425328
46	0x3ea548cf	0.3228211
47	0x3d0a1f61	0.03372133
48	0x3d9f9a48	0.07793099
49	0x3cf25e04	0.029585846
50	0xbe752051	-0.23938109
51	0x3c28f30f	0.010311856
52	0x3dcdd010	0.100494504
53	0xbe6d0adc	-0.23148674
54	0xbe3581af	-0.17725252
55	0x3ddb3036	0.10702555
56	0xbf69c6d5	-0.9131902
57	0xbe2b5956	-0.16733298
58	0x3d24a5a0	0.040197015
59	0xbd095690	-0.033529818
60	0xbec5fa9b	-0.3866776
61	0x3e4d4686	0.20046434
62	0x3d7df9b7	0.062005725
63	0xbd2207de	-0.039558284

fc.7.weight f4 [32, 64]
0	0xbdd0e199	-0.10199279
1	0x3e04852d	0.12941428
2	0x3d850281	0.06494618
3	0x3dcff5b2	0.101542845
4	0xbc7d672c	-0.015466493
5	0x3c922ebe	0.017844554
6	0x3ce93cfe	0.028471466
7	0xbe04bb3d	-0.1296205
8	0xbd773ac8	-0.060358793
9	0x3df0f002	0.11764528
10	0xbde31b86	-0.11089234
11	0xbda6d9c6	-0.08147006
12	0x3dbda242	0.09259464
13	0xbd2a12ea	-0.041521944
14	0xbd7dc799	-0.06195793
15	0xbe2557fc	-0.16146845
16	0x3dd01332	0.10159911
17	0xbe00e26a	-0.1258637
18	0xbd42a0e7	-0.04751673
19	0xbdb4b04d	-0.08822689
20	0x3d806cc1	0.06270743
21	0xbdab9810	-0.08378613
22	0x3d96d4bc	0.073647946
23	0x3d5f1901	0.054467205
24	0xbda0b2ae	-0.078465804
25	0x3da7d68a	0.08195217
26	0x3daaaa52	0.08333267
27	0xbc512aca	-0.012766549
28	0x3b06fcec	0.002059753
29	0x3d3ecbc4	0.046581045
30	0xbde040d2	-0.109498635
31	0x3b05790a	0.0020366334
32	0xbd86708b	-0.065644346
33	0x3ba6ec60	0.005094096
34	0x3d9e4e3f	0.07729768
35	0xbd256efe	-0.040389054
36	0xbd8e18c8	-0.069383204
37	0xbd40116a	-0.046891607
38	0x3d8f9cb0	0.07012308
39	0xbdf4ca74	-0.11952677
40	0xbd83b903	-0.064317726
41	0x3d92c00c	0.07165536
42	0xbcac4eb7	-0.021033628
43	0xbd505a65	-0.050867457
44	0xbc02a3c6	-0.007973617
45	0xbc274238	-0.010208659
46	0xbd82cac3	-0.0638633
47	0x3d9aaa10	0.07551968
48	0xbd3b92e8	-0.045794398
49	0x3de82c58	0.11336583
50	0xbd35a690	-0.0443483
51	0x3d81d227	0.063389115
52	0xbd9d93b8	-0.07694191
53	0xbde71509	-0.11283309
54	0xbd13c8f9	-0.036080334
55	0xbd2a7593	-0.041616034
56	0xbd9bbc12	-0.07604231
57	0xbd69ca72	-0.057077833
58	0xbe173e27	-0.14769803
59	0x3c823abc	0.015897147
60	0xbc5d8d3b	-0.0135224415
61	0x3e0999fd	0.13437648
62	0xbc025fa2	-0.007957371
63	0xbda51de7	-0.08062344
64	0xbde409d6	-0.111346886
65	0x3da50d72	0.08059205
66	0x3ca77f34	0.020446397
67	0x3ddd32be	0.10800694
68	0x3de14a7c	0.11000535
69	0x3d86f33f	0.06589364
70	0xbde8f330	-0.11374509
71	0x3d62cd3b	0.055371504
72	0x3cdcd22d	0.026955688
73	0xbd7bbbb8	-0.06145832
74	0x3dbbf241	0.09177066
75	0x3d7bdbfb	0.061489087
76	0x3da95e7f	0.08269977
77	0x3d102a2c	0.03519647
78	0x3dc9fa2e	0.09862171
79	0xbd367704	-0.044547096
80	0x3df094f0	0.117471576
81	0xbdd1b7b6	-0.10240118
82	0xbe2a4d92	-0.16631153
83	0x3dc1cf16	0.09463327
84	0x3ddcbf15	0.107786335
85	0x3f179940	0.59218216
86	0x3e0280f2	0.12744501
87	0x3d29e8be	0.041481726
88	0xbf873408	-1.0562754
89	0xbc1ce647	-0.009576387
90	0x3ddb2aa3	0.10701492
91	0x3b3099c1	0.0026947113
92	0x3d06c46d	0.03290217
93	0x3d4b6a32	0.049661823
94	0x3deeedc8	0.11666447
95	0x3d6a9294	0.057268694
96	0x3d50af82	0.050948627
97	0xbdad073d	-0.08448646
98	0x3cd15b6b	0.025556287
99	0x3d4fd14e	0.050736718
100	0x3d3be546	0.04587295
101	0xbd9295a9	-0.07157452
102	0x3e661172	0.22467592
103	0x3b1d4763	0.0023998849
104	0xbcf5ea64	-0.030018993
105	0xbded666d	-0.11591802
106	0x3d662766	0.056189917
107	0x3b76ff21	0.003768869
108	0x3e9599bf	0.2921886
109	0x3d362d82	0.044476993
110	0xbad3aac8	-0.0016148919
111	0xbcebe2a8	-0.028794602
112	0x3e1653c1	0.14680387
113	0x3eb97f41	0.362299
114	0x3e083b20	0.13303804
115	0xbde9e081	-0.11419774
116	0xbd104ed8	-0.03523144
117	0xbdb26f52	-0.08712639
118	0x3c821372	0.015878413
119	0xbe8fd095	-0.28088823
120	0x3e827086	0.25476474
121	0xbe85ce29	-0.2613385
122	0xbe22bb38	-0.15891731
123	0xbe0fa4ce	-0.14027712
124	0xbe89876b	-0.26861128
125	0xbd515d64	-0.051114455
126	0x3dc4076f	0.0957173
127	0xbce3ec7a	-0.027822722
128	0xbdebbb47	-0.1151033
129	0xbdc248ec	-0.09486565
130	0x3dc29623	0.095012926
131	0x3d9c3011	0.076263554
132	0x3d82dcbf	0.0638976
133	0xbd6073b3	-0.05479784
134	0xbdf02205	-0.11725239
135	0x3dd7be28	0.10534316
136	0xbc659e58	-0.014014803
137	0xbde057c6	-0.109542415
138	0x3d4a36a0	0.0493685
139	0xbe208521	-0.15675785
140	0x3ce56fa5	0.028007338
141	0xbc7bdb31	-0.0153720835
142	0xbd144010	-0.036193907
143	0x3d9422eb	0.072332226
144	0x3d87aade	0.06624387
145	0x3c15305e	0.00910577
146	0xbd40f29a	-0.047106363
147	0x3dbebb19	0.0931303
148	0xbcb2658d	-0.021776939
149	0x3de90dea	0.11379607
150	0xbde8624e	-0.11346875
151	0x3d8e1e66	0.06939392
152	0xbc67384a	-0.014112541
153	0x3dea877e	0.11451624
154	0x3d000795	0.03125723
155	0x3d45f26c	0.048326895
156	0xbe37701a	-0.17913857
157	0x3c7033c0	0.014660776
158	0x3d805550	0.06266272
159	0x3d3cc36e	0.046084814
160	0xbd348ef2	-0.044081636
161	0x3cc9da59	0.02464025
162	0xbc08af05	-0.008342509
163	0xbe037324	-0.12836891
164	0x3dfeba53	0.12437882
165	0x3dadffde	0.084960684
166	0x3d4ff798	0.050773233
167	0xbdbaff9a	-0.091307834
168	0x3d33fe0c	0.04394345
169	0x3dca0948	0.098650515
170	0xbe071f30	-0.13195491
171	0x3e077f00	0.1323204
172	0x3e07b08a	0.13250938
173	0x3d983190	0.07431328
174	0xbb9053ac	-0.0044045057
175	0x3c998fba	0.018745292
176	0xbd8de6c6	-0.06928782
177	0xbde9c483	-0.11414435
178	0x3d13de88	0.036100894
179	0x3d83265d	0.064038016
180	0xbe027310	-0.12739205
181	0xbe258234	-0.1616295
182	0xbcbd61cf	-0.023117928
183	0x3daa9a52	0.083302155
184	0x3d891389	0.06693179
185	0xbd4f2418	-0.05057153
186	0xbe1a2ce7	-0.15056191
187	0x3d8b23fa	0.06793971
188	0x3d5f8051	0.05456573
189	0xbe0a17e2	-0.13485673
190	0xbcf1b687	-0.029505981
191	0xbded8899	-0.115983196
192	0xbdc63f0d	-0.09679995
193	0xbd2edcb3	-0.042690944
194	0x3dea58c8	0.11442715
195	0xbd04b3d6	-0.032398067
196	0x3db8aa91	0.09016908
197	0xbc9bd725	-0.019023487
198	0x3dc45ee2	0.0958841
199	0xbd51b53b	-0.051198225
200	0x3d6d0a73	0.057871293
201	0xbde39227	-0.11111861
202	0x3df59796	0.11991803
203	0x3da99571	0.08280457
204	0x3dff5b21	0.12468553
205	0xbb2db7c0	-0.0026507229
206	0x3dcf38ff	0.10118293
207	0xbde0b50e	-0.109720334
208	0x3e0eae1f	0.1393361
209	0xbe1052f2	-0.14094141
210	0xbe15e98c	-0.14639872
211	0x3cf0bc0e	0.029386546
212	0x3e30db35	0.17271121
213	0xbec6dafb	-0.38838944
214	0xbc43d30a	-0.011952171
215	0xbd4aadd5	-0.049482185
216	0xbe22e421	-0.15907337
217	0x3df0f0fe	0.117647156
218	0xbf2f2567	-0.68416446
219	0x3e18160e	0.14852163
220	0x3cf53849	0.029934065
221	0x3e3d57fd	0.18490596
222	0xbd68c25c	-0.05682598
223	0xbd899ced	-0.06719384
224	0xbde94174	-0.11389437
225	0x3d9f9519	0.0779211
226	0xbcf2e963	-0.029652303
227	0x3c7fc13e	0.015610037
228	0xbdc7cfba	-0.097564176
229	0x3d84dc58	0.0648734
230	0xbe3c840a	-0.18409744
231	0x3dcc6c94	0.09981647
232	0xbd6a44df	-0.057194587
233	0xbd968408	-0.07349402
234	0x3d93f8a6	0.0722516
235	0x3dc9c5da	0.0985219
236	0x3f0c20aa	0.5473734
237	0x3dcad1aa	0.099032715
238	0x3d34d39a	0.04414711
239	0xbbb9294e	-0.005650676
240	0xbdb98216	-0.09058015
241	0xbdd9f534	-0.10642472
242	0x3c16d961	0.009207101
243	0x3d97631a	0.07391949
244	0x3c923f2b	0.017852386
245	0x3df22acb	0.11824568
246	0xbcd2916a	-0.025704104
247	0x3e16231f	0.14661835
248	0x3e304dbb	0.17217152
249	0xbd9b0fc1	-0.07571364
250	0xbe584318	-0.21119344
251	0xbe80bebb	-0.25145516
252	0x3e7aff0e	0.24511358
253	0x3d54ffe5	0.052001853
254	0xbb825e03	-0.003978492
255	0xbdd86503	-0.105661415

fc.7.bias f4 [32]
0	0xbb217888	-0.0024638493
1	0x3cf9919c	0.03046494
2	0x3c55c0a0	0.013046414
3	0x3d2e0f1c	0.04249488
4	0x3db88786	0.09010224
5	0xbe4f90e5	-0.20270117
6	0xbaaf720d	-0.001338543
7	0xbed79436	-0.42105263
8	0xbe4b3d86	-0.19847688
9	0x3e552382	0.20814326
10	0xbe7774c5	-0.24165638
11	0xbe3cefeb	-0.18450896
12	0x3df12947	0.11775451
13	0x3e573003	0.21014409
14	0xbe25c0da	-0.16186848
15	0xbe71a48c	-0.23597926
16	0x3d929ade	0.07158445
17	0x3de7da90	0.11320984
18	0x3cdf7756	0.027278583
19	0x3e46113d	0.19342513
20	0x3dc54e36	0.09634058
21	0xbdca0325	-0.09863881
22	0xbdc95d58	-0.09832257
23	0xbda89565	-0.0823162
24	0x3d792448	0.060825616
25	0xbdd97c64	-0.10619429
26	0xbe3c19c4	-0.18369204
27	0x3deef0bd	0.11667011
28	0x3e578e00	0.21050262
29	0xbe7c15a8	-0.24617636
30	0x3e04f06c	0.12982339
31	0xbe077326	-0.1322752

fc.9.weight f4 [3, 32]
0	0xbe38fcc8	-0.18065178
1	0xbe930176	-0.28712052
2	0x3d49b3a3	0.04924358
3	0xbf080f6c	-0.5314853
4	0x3e252212	0.16126278
5	0x3e94b95a	0.29047662
6	0x3e14fd6e	0.14549801
7	0x3f16f7cf	0.58971876
8	0x3db19d7d	0.08672617
9	0x3e1022e1	0.14075805
10	0x3ba7e2f5	0.005123491
11	0xbdb4e524	-0.088327676
12	0xbf61bef8	-0.8818202
13	0xbe212bd7	-0.1573938
14	0xbd9b1094	-0.075715214
15	0x3f6f2921	0.9342213
16	0x3e46c6d7	0.19411789
17	0xbda30a12	-0.07960905
18	0xbd002075	-0.031280953
19	0xbecd56a9	-0.4010518
20	0x3e22bdd5	0.15892728
21	0xbe17c412	-0.14820889
22	0x3e18a3d9	0.14906253
23	0xbdab37d3	-0.08360257
24	0xbda93875	-0.082627214
25	0xbe3607b3	-0.17776375
26	0xbd2da975	-0.042397935
27	0xbbbdb880	-0.0057898164
28	0xbb4cb198	-0.0031233784
29	0x3e21152b	0.15730731
30	0x3df984c5	0.12183527
31	0x3ee8ade4	0.45445168
32	0x3e11845c	0.14210647
33	0x3c6e5b54	0.0145481415
34	0x3daafa88	0.08348566
35	0xbd9a0270	-0.07519996
36	0x3d51be22	0.051206715
37	0xbefccbde	-0.49374288
38	0x3d4db058	0.050217003
39	0xbe3fd818	-0.18734777
40	0xbf063481	-0.52423865
41	0x3eab0d68	0.33408666
42	0xbf83ab5e	-1.0286672
43	0x3e09bb15	0.13450272
44	0x3dbdc9ff	0.09267043
45	0x3e062364	0.13099438
46	0xbdaeaec7	-0.0852943
47	0x3e03c84c	0.12869376
48	0x3df4ace6	0.1194704
49	0x3e17b223	0.14814048
50	0xbd6482c0	-0.055788755
51	0xbe93cf39	-0.28869036
52	0xbe9db2c5	-0.30800453
53	0xbe437112	-0.19086102
54	0x3e18274f	0.14858745
55	0xbcded64d	-0.027201796
56	0xbd44b4c4	-0.048023954
57	0xbe1aa2b2	-0.15101126
58	0x3cf2cc2c	0.029638372
59	0x3dd2c5c9	0.10291631
60	0x3eb29c17	0.34884712
61	0xbe3f47de	-0.18679759
62	0x3e755785	0.23959167
63	0xbb3a7ef0	-0.0028457008
64	0xbd99dd9e	-0.07512973
65	0x3e90e6e2	0.2830115
66	0xbe2cbc40	-0.16868687
67	0x3e5bb933	0.21457367
68	0xbd8ae6ed	-0.06782327
69	0x3d4abb02	0.04949475
70	0xbdc68244	-0.09692815
71	0xbe8c8c61	-0.2745085
72	0x3cac6cf4	0.021048047
73	0xbe4845f4	-0.19557935
74	0x3e156820	0.14590502
75	0xbac3f2cc	-0.0014949678
76	0x3d094bc9	0.03351954
77	0x3e053b3a	0.13010874
78	0x3e85fed4	0.2617098
79	0x3b5629a6	0.0032678633
80	0xbd9c7bf8	-0.07640833
81	0x3d51ba3a	0.05120299
82	0x3e1635de	0.14668986
83	0x3ebec075	0.37256208
84	0x3e5a8567	0.21339951
85	0x3e064d59	0.13115443
86	0x3dfbd097	0.12295645
87	0x3d8dccf5	0.06923858
88	0x3cf713f0	0.030160874
89	0x3eba1ebb	0.3635157
90	0xbc8c4ff1	-0.017127963
91	0x3d2baaec	0.04191105
92	0x3ba5d1e8	0.005060423
93	0x3c60a2ca	0.013710687
94	0xbe1aeb60	-0.15128851
95	0xbebe7525	-0.3719875

fc.9.bias f4 [3]
0	0xbdd4c264	-0.103886396
1	0x3e22882a	0.15872255
2	0x3d727f8a	0.059203662
