Genetic_Models/dino_genetic_model91.pth (torch, 48732 bytes, 8 tensors)

fc.0.weight f4 [128, 6]
00000000: 2f5e 2d3d 52d8 593e 280c a3be ad84 893e
00000010: 87cf f4bf c52a a9bf 077e 71be 7222 4a3d
00000020: a10f 3f3e 3fbd 55be 8d4f 943e fcdf 313e
00000030: ba38 01bd ff63 65be 4507 9bbe ced9 573e
00000040: e198 31c0 f0cc 35c0 cc84 47bc 5fc5 cb3d
00000050: 9e1e 5ebe ffb2 273e 2c7c eb3f f216 0f40
00000060: 89de b8be 8da4 47be 43db 49bd bcf8 38be
00000070: e8b2 b43e 69a2 2dbe 4b6c 913e 20fe 1ebe
00000080: 53ed b8bd 166a 633e 1bb3 f5bf 0255 03c0
00000090: cf2d e13e 9ecc 08bd 228f 223e f40b a1bd
000000a0: 14ce 2fc0 bf10 3dc0 4b80 d23d 7b25 a53e
000000b0: f6c4 60be 945b 4ebe b9f0 38bf 41df 02c0
000000c0: 8daa dbbd 2bbf 88be b23f 7cbd 489a ad3d
000000d0: fafa 67be 19a9 eabd 05ec 0ebe a320 f23d
000000e0: dfd2 9c3c 766a a9be 4184 cc3c e10c 9c3d
000000f0: 2e9c 1f3e 9560 76be 267c 743e a66f 9cbe
00000100: 9dc3 053e b578 d1bd f238 cebd 55e2 7f3e
00000110: c11a 3abe 1306 443e edc9 e43f c047 4cbf
00000120: e73b 133e f8dc 98be f3e1 903e 1b9e 43be
00000130: 27aa ad3d ab64 cc3e 4dec e3bd 478c 86bb
00000140: ed15 383e fb48 35be 82d4 f2bd d947 133e
00000150: 8451 8c3e 7632 ad3d 679c e9bd 6d90 b0be
00000160: 3277 6ac0 e4fe 66c0 f424 02bd d9e0 373e
00000170: 4a88 26bd 4790 c0be 816c c53d e157 8ebe
00000180: 55b9 e53b 9c2e 61be 1f26 cb3d 9720 4c3e
00000190: 9be1 0940 966e f3be e2bd d23e 3f7e acbe
000001a0: 40ae 47b8 f3bf 9cbd d198 f43f 48ae 4c3f
000001b0: 8e01 63bd 108b 21be 5c27 1ebe 7b4e 5f3e
000001c0: dedb 0c40 13ff 6e3f da47 f2bd 4593 b23e
000001d0: cb7d 6e3d 0325 b7bd 979c 17c0 7e64 2ac0
000001e0: 47fa e13e a4c2 993e 46a0 133d 7d88 943e
000001f0: 75b9 68bf 0bdc c23f 9b2e 1ebe 6bb8 e2be
00000200: 2f0a 8e3e 19ad a63d 4241 883e 5f05 5cbe
00000210: bf47 c83e 95ce 3fbe a5a5 063f 33fb b9be
00000220: c444 b23f d6be af3f fc2e 253e f4c4 0c3e
00000230: eb0c c73e c7df 45be 9143 1dc0 fbd4 28c0
00000240: 0edc 913e 2a1f a13d f129 b5bd b1a5 833e
00000250: d1b8 e5bf f298 ccbc 4040 93be fa91 853e
00000260: fe4b d3be 3606 ca3d 0bf0 ca3f 7fc5 f43f
00000270: f6be 3e3e 0c00 b0bd ccc0 54be c795 f43d
00000280: 8f9b 30c0 b5ec 15c0 0345 a13d 5318 df3e
00000290: 67ec 22be 7159 dabe 315e 10bf 313d c03f
000002a0: 419f e5bd 249b 973e b913 8cbd 6ccb 4ebb
000002b0: 381b 0840 be10 ad3f 0023 9fbe e9ad 2ebe
000002c0: 8ade 503e 89d7 963d 3498 d23d b732 04be
000002d0: 3438 88be 95a6 2bbd 9288 a53e 9c73 a8be
000002e0: 5bb7 9c3e cb7d a63d a3c8 b0bd 704c ae3d
000002f0: 5c8a ed3d 8132 0c3d d551 da3f b70f fdbf
00000300: 7246 b1bd f26f 5c3e f715 903e e28e 10be
00000310: 7b11 2a40 640d b53e 3cec 1ebe 12d0 8e3e
00000320: 20b3 78be ed5b 263e bdc4 40be d2a1 1ac0
00000330: 6b65 f1bd 2635 40be e0ff a0bd e1d8 033e
00000340: eca5 08c0 7d6d 2640 7ec3 85be e9df 60be
00000350: d70e 8d3e e6f0 e23e 262e f93f e46e c8bf
00000360: 0c5d 43bf 2622 62be ddd1 973d 6e80 3b3e
00000370: 499a 70c0 f062 fcbf 5e9f 1a3e c48b c53d
00000380: 5451 babe dc4b 803e 3247 853f 59dc d93f
00000390: 928e f43e 473d b23d d521 6dbf b70f d3be
000003a0: 6cfb 8b3f 4163 e63f 9d38 7f3c 8e5f 6abe
000003b0: f67e a0be 9e2a d33d 2cc1 bb3f bfc7 fabf
000003c0: 4e37 8f3e f5cc 443d 4eef 28bd 4181 b23c
000003d0: 2312 e33e ee38 17c0 fea3 83be 5666 013e
000003e0: 4d8c 0fbe 2ae0 a73d 7290 20c0 ecc7 d2bf
000003f0: 8f6d 833e e6af d33d aac6 b5be f05b 2a3e
0.04232615 0.21273926 -0.31845212 0.26859036 -1.9125832 -1.3216177 -0.23583232 0.049349256
0.18658306 -0.20872973 0.28966942 0.173706 -0.03154824 -0.22401427 -0.30278984 0.2107918
-2.774956 -2.8406334 -0.012177657 0.09949755 -0.21691367 0.16376875 1.8397269 2.2357755
-0.3610728 -0.19496365 -0.04928137 -0.18063635 0.35292745 -0.16956486 0.28402933 -0.15526628
-0.09029641 0.22208437 -1.9195284 -2.0520635 0.43980262 -0.033398263 0.15874913 -0.07863608
-2.746953 -2.954147 0.10278376 0.32255158 -0.21950135 -0.20152122 -0.72242314 -2.0448763
-0.10725889 -0.2670835 -0.061584182 0.084766924 -0.22654334 -0.11458034 -0.13957222 0.11822631
0.01914352 -0.33089036 0.024965407 0.07619644 0.15586922 -0.2406028 0.23875484 -0.3055393
0.13062902 -0.10228101 -0.10069455 0.24988683 -0.18174268 0.19142942 1.7874123 -0.7979698
0.1437832 -0.29856086 0.28297386 -0.19103281 0.084797196 0.39920554 -0.11129055 -0.004106078
0.17977114 -0.17703621 -0.11856939 0.14382876 0.2740594 0.0845689 -0.114067845 -0.34485188
-3.663525 -3.6093073 -0.031773522 0.17956866 -0.04065732 -0.37610075 0.09639836 -0.2780142
0.0070106187 -0.21990436 0.099193804 0.19934307 2.1543949 -0.47545308 0.41160494 -0.33690068
-4.760758e-05 -0.07653799 1.9109136 0.7995343 -0.055421405 -0.15775704 -0.15444702 0.21807282
2.2009196 0.9335796 -0.11830111 0.34877983 0.058225434 -0.08942606 -2.3689325 -2.6623836
0.4413626 0.30031312 0.03604152 0.29010382 -0.90907985 1.5223402 -0.15447466 -0.44281325
0.27742144 0.081384845 0.26612288 -0.21486424 0.39117238 -0.18731149 0.52596503 -0.36324462
1.3927236 1.3730114 0.16131204 0.13747007 0.38877043 -0.19323646 -2.457249 -2.6379993
0.284882 0.07867272 -0.0884589 0.2571235 -1.7947026 -0.024975274 -0.28759956 0.26087934
-0.41268915 0.09864466 1.5854505 1.9122771 0.18627533 -0.08593759 -0.20776671 0.1194263
-2.7594945 -2.3425725 0.07874491 0.43573245 -0.15910493 -0.42646363 -0.56393725 1.5018674
-0.11212016 0.2961055 -0.06839699 -0.0031554354 2.1266613 1.3520734 -0.3108139 -0.17058529
0.20397392 0.07365329 0.10282937 -0.12909971 -0.2660538 -0.041906912 0.32330757 -0.32900703
0.3060864 0.08129462 -0.086320184 0.08510673 0.115986556 0.03422785 1.7056223 -1.9770421
-0.086560145 0.21527079 0.28141758 -0.14117005 2.657317 0.3536178 -0.15519804 0.2789312
-0.24287081 0.16246004 -0.1882505 -2.4161267 -0.11786922 -0.18770275 -0.07861304 0.12875701
-2.135127 2.6004326 -0.2612571 -0.21960415 0.27550384 0.44324416 1.9467208 -1.5658841
-0.76313853 -0.22083339 0.07413075 0.18310711 -3.7594168 -1.9717693 0.15099856 0.09645799
-0.36390173 0.25057876 1.0412352 1.702037 0.47765023 0.08703094 -0.9262975 -0.41222927
1.0936103 1.799904 0.0155774625 -0.22888014 -0.31346864 0.10310863 1.4668326 -1.9592208
0.27971882 0.048047025 -0.041243844 0.021790149 0.44349775 -2.3628497 -0.25711054 0.12636694
-0.14018364 0.08197053 -2.5088162 -1.6467261 0.25669524 0.10336284 -0.3550313 0.16636634

fc.0.bias f4 [128]
00000000: 9669 313e 70bd 16be 987b 813e e548 da3d
00000010: f1f6 b93e 7cac ff3d 9970 22bf bb5d 29bf
00000020: f94c aebe 5d43 543e 02d8 853d 13da d6be
00000030: 1e27 e4bd 5a27 6c3e 2c15 0a3f 6217 a43e
00000040: 216c d7be 6689 80be 28f5 3f3d b7c3 b3bd
00000050: 45d3 3abd 1dda 1dbe 08d7 4bbd 3944 5abe
00000060: 7c8f 2c3e 67f5 b6be 80b3 893d 58b7 8dbd
00000070: cc5c 2d3d dd07 adbd f145 94bd 04f0 a4be
00000080: bc0f d33d a8f2 c3be 7ee2 723e aa7c ebbc
00000090: 9e5f 2a3f 2480 bcbe 05b2 12bf d3b8 c7be
000000a0: 8524 0ebf 8705 453d 103d 023e 9c7b b03e
000000b0: 5540 88be 494f b9bd 12f0 253e 3e35 903e
000000c0: 1a61 5bbe f266 01be 0bfd b93d b27f 143e
000000d0: 6532 9b3e 2c63 44be a68d b5bd 13c4 b2be
000000e0: f533 40be 016d 1cbf 21b4 fb3d 700c 143e
000000f0: aa7d 3abd a6b3 1a3c e0a0 3e3d ca00 9f3e
00000100: a42b f63d 9187 d7be 1079 313e 20b9 8dbe
00000110: 6183 ec3e 008a a13e 96a1 06bf 6d9e 9e3e
00000120: de44 f9bc 7a25 5abd 3d7e 5a3e 377f 18bf
00000130: 1c2b ddbe f5bf d5be 7096 c6be 1190 ae3e
00000140: db50 693e 63c3 b7bd dd83 a3be 53dc 8fbe
00000150: df6a eebd e222 083f bf8d 6ebe 4e30 b1bc
00000160: b130 f9be 52ed 933e 5863 ae3e c7bf 85be
00000170: 7931 ac3d 2db0 673c a85a 803e d845 07bf
00000180: e381 933c 9dc9 b6bd 9652 4cbe 4837 21bf
00000190: 2f6e 133f 3dad cd3e 72a4 30bc 8e1e 1dbe
000001a0: c6e3 d23d fc44 d93c b255 a5be 915a 35bd
000001b0: 52ad 2c3e 6104 1cbe 623d 403e fa55 8fbd
000001c0: c17b cfbd ce69 03be fc3b bf3c 77e7 263e
000001d0: 0e2e 58be f4a5 90be a5e4 383e f75c 26bd
000001e0: 885c 7ebe a5f0 c33e e03e bbbe 8412 163e
000001f0: d597 523e e80f 043f 19db cebe 1c6d a53e
0.17325434 -0.14720702 0.25289607 0.10658435 0.36321214 0.12484071 -0.6345306 -0.66158646
-0.340431 0.20728822 0.06535341 -0.41963252 -0.111402735 0.23061886 0.53938556 0.3204909
-0.42074683 -0.25104827 0.04686466 -0.08777564 -0.04561164 -0.15415235 -0.049765617 -0.21315087
0.1685161 -0.35734102 0.0672369 -0.06919736 0.042324826 -0.084487654 -0.07239903 -0.32214367
0.103057355 -0.3827107 0.23719212 -0.028745968 0.6655215 -0.36816514 -0.57302886 -0.39008197
-0.55524474 0.048100974 0.12718606 0.34469306 -0.2661158 -0.090483256 0.16204861 0.2816562
-0.2142376 -0.12636927 0.09081467 0.14501837 0.30311885 -0.19178456 -0.08864908 -0.34915218
-0.1876982 -0.61103827 0.12290216 0.1445787 -0.04553 0.009442246 0.04654014 0.3105529
0.120200425 -0.42095616 0.17331338 -0.27680302 0.46193984 0.31550598 -0.5259031 0.30980244
-0.030428346 -0.053258397 0.21337219 -0.59569114 -0.43196952 -0.41748014 -0.3878665 0.3409429
0.2278475 -0.08972814 -0.3193654 -0.28097782 -0.11641478 0.53178227 -0.2329626 -0.021629479
-0.4866996 0.28892 0.34060168 -0.26122877 0.08407874 0.014141125 0.25069165 -0.5284095
0.01800627 -0.089251734 -0.19953379 -0.6297498 0.5759 0.40171233 -0.010781394 -0.15343687
0.102973506 0.026522152 -0.32291943 -0.044275824 0.16862991 -0.15236045 0.18773416 -0.069988206
-0.10131026 -0.1283333 0.023344032 0.16299234 -0.21111318 -0.28251612 0.18055971 -0.040616002
-0.24839985 0.38269535 -0.36571407 0.146555 0.20565732 0.5158677 -0.40401533 0.32309806

fc.2.weight f4 [64, 128]
00000000: a00c 17bc 8982 9f3d a4dc 13be 6d67 2fbc
00000010: 311c c1bc 0e2f 0ebe b523 003e 8caa 7f3d
00000020: efaf 8a3c f5fd ce3d f417 2cbc 5535 cf3d
00000030: 09da 083e b424 95bd 5e06 2dbf ecc7 6bbd
00000040: c827 fe3d 9da0 95be 7029 8b3d a41e 5e3d
00000050: 8269 8ebd c26d 16bd 0cb6 2140 7e69 eebd
00000060: f246 8fbd 00d6 deb8 7035 16bd c351 3cbe
00000070: 95f6 0c3d 86f5 adbc 0908 a83d 0390 233e
00000080: ee75 803d f203 5a3d 2f38 d2be fe2a f7bc
00000090: 53fe 973e 0df9 923b 9c99 8a3d 80a6 dbbd
000000a0: d961 c13d 2680 a6bd def6 38bd 62e0 a63c
000000b0: c454 6abd b2a0 233d 1ce5 623d a5c3 a1bd
000000c0: d433 a0bf d80b bd3d d00c 0cbe 4437 90bd
000000d0: ca39 db3c 559d b5bc 6bda dd3d 8937 b33d
000000e0: 98c4 46bc 4c7d 763d 9492 50bd 503c a03d
000000f0: ab44 4c3d 7c61 62bd 6bef b2bd 44d9 d1bc
00000100: 9145 dc3c 4433 b83b 8882 c33c 025a ccbc
00000110: 42e7 33bd c8a8 0dbd fdd9 7a3e eb75 77bd
00000120: c6f2 9cbc bd41 5fbd 5310 b0be a692 aa3b
00000130: dd2c ff3c 29a2 fc3d 08c6 d33c f457 82be
00000140: d09f 60bd 50a5 463d abfc 3e3e 896e 38bd
00000150: 9ebf 0fbd 3092 9bbd af09 91bd 78ad 3a3d
00000160: 4ef2 d23c 514c 82bd 0f59 803d bee4 f13c
00000170: 4f09 b9bd 399d 983e e599 233d 63c8 793d
00000180: 7131 b0bc a173 32be a924 4cbc ee01 de3d
00000190: ee04 a93e 024b 803c ac88 dcbc c581 7ebd
000001a0: 9585 e03e 3867 6b3d ace0 2dbc bdd2 75be
000001b0: f71b 2c3d 304d c63b ffc8 f33c 13bc 9a3e
000001c0: bf12 a33d 7037 01be 86bd 2b3c 45d9 d8bc
000001d0: 2c90 f33b e6dd e6bd b0d8 fc3d b3b1 23be
000001e0: b8ad acbc d4ea e4bc 04e9 973b 53c6 eb3d
000001f0: b273 143d 0709 1c3d c33a a13d 3d6b 033d
00000200: 092f 983d ae94 29bd b3bb 6cbd 78be 0cbe
00000210: 7fbe c5bd 0408 3f3d 7f04 f2bd f0cc 593b
00000220: e262 d13c 7636 6abc e3e7 bd3d 8856 16be
00000230: ec2e 1cbc 55b3 3fbd a359 f13d a64a de3d
00000240: 37bb 7ebd 6463 d23d 000c d1bd 1c28 323c
00000250: 7f55 e43b d351 e33d 52e9 98bd 7ab8 253c
00000260: 6fe1 a1bd aefb bfbd 962b 86bb e02f ffbc
00000270: d805 5ebd fac2 d9bc 6dd2 993d 4a5d e43d
00000280: 5ffe 03be 7990 0bbe f74a 85bd 0239 e4ba
00000290: 5553 8f3d 02f6 9c3d 5825 223d 94ae 67bc
000002a0: 12d6 913b ce7d 203d 6a66 89bc e04f 44bd
000002b0: 65da 4dbd f161 2fbd 3ad9 e83d 7747 783d
000002c0: 4bda 373d d906 86bd 02fb 7cbd 3cbd 56bd
000002d0: faee 0f3c 1c87 0abd fe23 99bd 2eca 7bbd
000002e0: f219 b43d 5449 cabc fca1 bdbd e392 b43c
000002f0: 52f3 2f3d 0ca9 bb3d 1a53 843d 7857 c63c
00000300: 03f4 e73d 08eb b4bd ac0f 25bb 939a 5bbd
00000310: 0f59 53bd 0d72 efbc 3e71 89bc 5710 463d
00000320: 60b4 65bd 56f9 29bd 2fee be3d f537 8d3d
00000330: 8056 843b 5dbb 98bd 2043 203b b209 9fbd
00000340: c1bb 173d 41b0 61bd 92af 273d cf31 92bc
00000350: 3cae a53c 9516 d43d 4051 b73a d912 a4bd
00000360: 5c9a 543d a3c9 883d 6bb3 e8bc 8c86 afbd
00000370: a022 99bd db06 6e3d 90dd cc3a e03f a9bc
00000380: 1c1b d8bd bd66 bcbc 9bef aabd 4764 ccbd
00000390: 46eb de3c e992 303d 863f 6b3d f610 01bd
000003a0: e1a6 61bd afd3 7bbd 214e afbd 3f78 4abd
000003b0: 404b 4cbc 6be2 df3d ac83 a0bd 897b 78bd
000003c0: 1102 af3d 2150 33bd 2f3f 2dbd 35ae 9a3c
000003d0: 00b9 df3d 126a ec3d b365 bdbd d48d 9f3d
000003e0: 0b31 4a3d 0e88 cfbc 24ea 1d3d d700 273c
000003f0: a5e7 94bb a57e ee3d b65f 98bd 784d f23c
-0.009219319 0.077885695 -0.14439636 -0.010705811 -0.023573013 -0.13885137 0.12513621 0.062418506
0.016929595 0.10107032 -0.010503758 0.10117594 0.13364424 -0.07282391 -0.6758784 -0.057563707
0.124099314 -0.292241 0.06795013 0.05422844 -0.06953718 -0.036725767 2.5267363 -0.11641215
-0.069959536 -0.000106256455 -0.036672056 -0.18390565 0.034414846 -0.021235239 0.082046576 0.15972905
0.06272493 0.05322642 -0.4105849 -0.030171867 0.2968622 0.0044852556 0.0676758 -0.10725117
0.09442491 -0.08129911 -0.045157306 0.020370666 -0.057209745 0.039948173 0.055394277 -0.07898644
-1.2515817 0.09230775 -0.13676763 -0.07041791 0.026760954 -0.022169748 0.108326755 0.08750827
-0.012131833 0.060178086 -0.050921038 0.07824004 0.049870174 -0.05526875 -0.087370716 -0.025616296
0.02688864 0.0056213457 0.023865953 -0.024945263 -0.043921717 -0.03458479 0.24497218 -0.06041519
-0.019158732 -0.054506052 -0.34387454 0.00520547 0.031149322 0.12335617 0.025851265 -0.25457728
-0.05483991 0.048497498 0.18651073 -0.04502729 -0.03509485 -0.075962424 -0.07081925 0.04557559
0.025750306 -0.063622124 0.062669866 0.029528018 -0.090349786 0.2980745 0.039941687 0.06098212
-0.02150795 -0.17426921 -0.012459912 0.10840212 0.33011574 0.015660767 -0.026920639 -0.062135477
0.43851915 0.057471484 -0.010612648 -0.24006172 0.042018857 0.006051682 0.029758928 0.30221614
0.0796256 -0.12618804 0.010482198 -0.02647079 0.007432958 -0.112727925 0.12346017 -0.15985756
-0.02107893 -0.027944006 0.004635932 0.11512437 0.03624315 0.038094547 0.07872536 0.032084692
0.07430846 -0.041401558 -0.05779619 -0.13744533 -0.09655475 0.046638504 -0.11817264 0.0033233725
0.025559846 -0.014295211 0.092727445 -0.14681447 -0.009532671 -0.046801884 0.11784675 0.10854082
-0.06219026 0.102728635 -0.10207367 0.010873821 0.0069681997 0.11099591 -0.07466377 0.010114783
-0.07904326 -0.09374176 -0.0040945513 -0.031150758 -0.05420479 -0.02658223 0.07510839 0.11150606
-0.12890004 -0.1362933 -0.06508439 -0.0017412009 0.06998316 0.0766411 0.039586395 -0.014140744
0.004450568 0.039182477 -0.016772468 -0.047927737 -0.050257105 -0.042818014 0.11369558 0.06061503
0.044885915 -0.06544275 -0.061762817 -0.05242656 0.008785004 -0.033820257 -0.07477568 -0.06147211
0.08794011 -0.024693169 -0.09259412 0.022042697 0.042956658 0.091631025 0.06461163 0.02421163
0.113258384 -0.08833891 -0.0025186343 -0.05361421 -0.051598605 -0.029229188 -0.01677763 0.048355427
-0.056080222 -0.04149755 0.09322774 0.068954386 0.004038632 -0.07457612 0.0024454072 -0.07765521
0.03704429 -0.05509973 0.04093892 -0.017846016 0.020224683 0.1035587 0.0013986006 -0.080114074
0.05190502 0.06679084 -0.028405866 -0.08570585 -0.07477307 0.058112007 0.0015629996 -0.02066034
-0.10552046 -0.022998208 -0.08346482 -0.09980064 0.027211796 0.043108854 0.057433628 -0.031510316
-0.05509079 -0.061481174 -0.08559824 -0.04943108 -0.012469113 0.10931858 -0.078376144 -0.060664687
0.08545316 -0.04377759 -0.042296585 0.018881897 0.10923958 0.11543669 -0.09247913 0.077907234
0.049363177 -0.02533343 0.038553372 0.010193071 -0.0045442157 0.11645249 -0.074401304 0.029577956

fc.2.bias f4 [64]
00000000: 5b71 5dbe c322 1fbc 8456 00bd cc4b a0bb
00000010: 157f 38bc d981 0f3d a81a 96bc 5d0c b5be
00000020: f82a 773d debc 29bd 5068 6fbc f83d bb3d
00000030: 19df a2be ed09 583c b454 d6bd e71e cdbc
00000040: 3da9 babd 5f6a 8f3d 2097 8dbc 732a 92bd
00000050: ec9c 303e d65f 933e b46c 80bd 3428 413d
00000060: e716 fa3d 58a6 14be fc8f f4bc 0d46 a9bc
00000070: 0075 573d f864 b23d 1dbf e9bd 4d9a acbd
00000080: cdbb 093d 4eeb 94be 0a34 ed3b f8f0 76bb
00000090: cd69 de3c 4edd 2ebe ebdf ad3c 2142 943d
000000a0: 03b2 4c3e 65bd c9bc be91 333c c1d3 e6bd
000000b0: e4cf 27ba 04cb 0e3d b80e 37be 71cd 48be
000000c0: 0d10 063c eee0 b83b f29c cc3d 1e49 c33c
000000d0: 7346 c23c 2cda a73e 2306 733d a252 873d
000000e0: d641 b73b 2c08 f43c 99d1 b2be 0e52 d4bb
000000f0: 14e4 c23b fb39 303e ae15 773c b775 13be
-0.21625273 -0.009712878 -0.031332508 -0.004891848 -0.0112607675 0.03503594 -0.018323258 -0.35360995
0.060343713 -0.041439883 -0.014612272 0.09142679 -0.31810835 0.01318596 -0.104653746 -0.02503915
-0.09114311 0.070027106 -0.017283976 -0.07137003 0.17247361 0.28784055 -0.062707335 0.04715748
0.122113995 -0.1451658 -0.029853813 -0.020663286 0.052601814 0.087106645 -0.11413405 -0.08427868
0.033626366 -0.29085773 0.0072388696 -0.003768025 0.02715006 -0.17076609 0.021224936 0.072391756
0.19989781 -0.024626443 0.010960041 -0.112708576 -0.00064015226 0.03486158 -0.17876709 -0.1960962
0.008182538 0.005642048 0.099908724 0.023838576 0.023715233 0.3278364 0.059332024 0.06607558
0.005592565 0.029789053 -0.34925535 -0.0064795082 0.005947599 0.17209618 0.015080852 -0.14400373

fc.4.weight f4 [32, 64]
00000000: 78f9 24bd 2f61 9cbd 652d c0bd 5b02 013e
00000010: bd41 223c bfcb 42bd 4ec3 703b 72d1 9ebd
00000020: 30a4 923d 7a63 bdbd 8813 be3e 6613 553b
00000030: 6e56 febc d709 ffbc 59c3 1cbf 2c7b 833d
00000040: da87 e93c 0bb8 c2bd 114d 63bd d098 04be
00000050: 8a7c 35bd 52c8 8c3c b134 d53d eafd a33d
00000060: 3b0b 95bc 7e08 683c 22c2 afbb 62e1 83bd
00000070: eebf a5bc 695c 2d3e b24b 8ebd 2d01 2b3c
00000080: 2ac5 a5bd 0c32 6abd cdea 073e e144 e5bc
00000090: b4d5 b8bc 7f30 673c eb35 efbc b76f 1e3e
000000a0: 29f0 55bd 73bc fe3d 3b49 57bb b068 2ebd
000000b0: 8bc5 fcbd 6c24 433d 787d 8fbd 155e cebd
000000c0: f873 29bd 2201 88bd 07fc 67bc 2ee2 603d
000000d0: 5e9a 04be 8409 dbbd 6370 be3d 2d83 d9bd
000000e0: 832c 613d cc64 66bb 67b8 47be 0088 b03d
000000f0: ed14 13be 44a6 2d3e ae70 e73d 6e9c c7bd
00000100: af2c 4e3d f925 bbbd 77a1 943d 68cc 99bd
00000110: e694 793d 1396 a33d 9ccf 1ebd ff38 583d
00000120: 86a9 193d 157a 9d3d 6532 933c 4eda eebd
00000130: 5471 18bd a1af 1abd cbbe 46bc a553 cdbd
00000140: df5e d83d 2903 edbc 869f ddbd ac43 023e
00000150: d21a b33d c6ce e3bd 0a22 76bd 85c2 1e3d
00000160: 661a 8ebc 6e76 a13d b11f a8bd 8c24 a4bd
00000170: b5b5 39bd 8951 af3d ab0f c9bd ae1d ccbd
00000180: 4394 0dbe ff16 a03d acea b2bd 6613 b43d
00000190: 2c29 c3bd 3604 07bd bbd9 113e 1fbb c33d
000001a0: ad95 aebd fe6a de3c 8202 673d 09e4 12bd
000001b0: 5c10 243d 942d b93d 7538 ad3c 8863 703b
000001c0: cd18 5dbd 8123 363c 4acc 04bd 0151 ce3c
000001d0: 4bfe c1bc 1032 afbd 1c48 86bd 66c9 06be
000001e0: 64fc 083e 1d68 323c ca39 653d 6977 0cbe
000001f0: 5043 9c3d a820 06be e809 8ebb d09e ba3d
00000200: b9e1 ebbd f192 f5bd 0e8a 113d 2624 02bd
00000210: 6cd6 61bd 761b a2bc 4a55 213d b3e5 11be
00000220: e5a6 06be daf6 9c3d 052b b0bc 9b4d ad3d
00000230: c314 86bd e791 56bd a53a 96bd 07f6 aebd
00000240: d5d8 93bd 2a57 cfbc 6434 983d 81d6 adbd
00000250: 1667 07be a03f bbba 8c29 fbbd 4358 9dbc
00000260: 77f0 c63d 0ea6 91bd af28 193d 9d9e bd3c
00000270: 3749 0e3e a1dd 0ebe 45b7 73bd c632 47bd
00000280: c5f0 34bd 2c86 ae3c 8dd3 053e 2e09 1bbe
00000290: a29b c3bd d6c4 f6bd 992e 023e 4e25 debc
000002a0: ea6c 1d3c 887d 203b 96d9 b83d 8ab0 0a3d
000002b0: f012 a83d 3dea 933c a102 fdbc a1e4 08be
000002c0: c300 7dbc 8726 5ebd d608 06be c78a b43d
000002d0: 575d e23d d1b6 083e 8b57 24be 328f ab3d
000002e0: f659 97bd 0012 863d fb82 853d 3aae d5bd
000002f0: c8d0 84bd dba8 57bd 7894 ba3d 1087 82bd
00000300: 8b05 2abe aa51 42bd 2aec a7bc 848a 40be
00000310: 1e1c 50bc c36e 603d 8c1b edbd 7b5d 553e
00000320: b638 f43c 82df 2abe c42f 23bd 2c67 aa3d
00000330: 3c85 fe3d 8b7c 693d 3f47 843e a885 773d
00000340: 38be 323a 7663 0dbd d1bd 07be 1401 ce3d
00000350: 15eb f6bc a3b8 1bbe b17a 4ebd 1981 0d3d
00000360: d719 2cbd 42bf dfbc c963 31bd 4834 b6bc
00000370: 0b11 063e 9908 313e c020 433d ac43 88bb
00000380: c45b aabd b1fd c93c 4c62 e93c 5803 e3bd
00000390: ca01 663d a9c9 3cbe 0892 28bd 5aac 243d
000003a0: 5406 dc3d e0af 6ebd aac4 dabb b22d b8bd
000003b0: 5735 f03d f59a 6b3d 8e17 82bd 2fb8 e8bd
000003c0: 04f8 413c e067 73bd b1a1 0e3e 135c 0f3d
000003d0: 3bba c23d 6baf b73d 2c72 c8bd b28a 923d
000003e0: 0ae8 a03c 9db2 dcbd 21e1 4c3e be57 da3d
000003f0: f19e 813d f7e2 7d3e 985d 6f3e 8951 163e
-0.040276974 -0.07635724 -0.09383658 0.12598555 0.009903369 -0.04755759 0.0036737504 -0.07754792
0.071602225 -0.09247489 0.37124276 0.0032512783 -0.031047072 -0.031132622 -0.61235577 0.064199775
0.028507162 -0.0950776 -0.055493418 -0.12948918 -0.044308223 0.017185364 0.10410441 0.08007415
-0.018193832 0.014162181 -0.0053637186 -0.06439473 -0.02023312 0.16929783 -0.069480315 0.010437292
-0.08094247 -0.057176635 0.13273163 -0.027986946 -0.02256284 0.014110683 -0.029200515 0.15472303
-0.052230988 0.124382876 -0.0032850045 -0.042580307 -0.12342366 0.047642156 -0.07006353 -0.100765385
-0.041370362 -0.06640841 -0.014159209 0.0549032 -0.12949511 -0.10695174 0.0929878 -0.10620723
0.05497409 -0.0035155294 -0.19503938 0.0861969 -0.14363451 0.16957957 0.11300789 -0.097466335
0.050335582 -0.09138102 0.072573595 -0.075096905 0.060933016 0.07987609 -0.03877221 0.05278873
0.037515186 0.07689301 0.017968366 -0.11662732 -0.037217453 -0.03776515 -0.0121304495 -0.100257196
0.1056497 -0.028932171 -0.10821442 0.12721127 0.0874535 -0.11123423 -0.060091056 0.038759727
-0.017346572 0.07883917 -0.0820917 -0.08014783 -0.045339305 0.085604735 -0.098174416 -0.099665985
-0.13826089 0.07816886 -0.08736166 0.087927625 -0.09529337 -0.032963 0.14243214 0.09557175
-0.08524642 0.027150627 0.056398876 -0.035862003 0.040054664 0.090418965 0.021145085 0.003668042
-0.05397873 0.011116863 -0.032421388 0.02518511 -0.023680827 -0.085544705 -0.065567225 -0.13162765
0.1337753 0.01088908 0.055963315 -0.13717426 0.07630026 -0.13098395 -0.004334677 0.09112322
-0.115176626 -0.119909175 0.03553205 -0.031772755 -0.05513613 -0.019788485 0.03938798 -0.1424778
-0.13149603 0.07664271 -0.021504888 0.08462068 -0.06546929 -0.052385237 -0.07335404 -0.0854302
-0.07219092 -0.025310118 0.07431868 -0.08488179 -0.13222918 -0.001428593 -0.12263784 -0.019207126
0.09713834 -0.071117505 0.037392315 0.023146922 0.13895117 -0.13951732 -0.05950095 -0.048632406
-0.04417493 0.021304213 0.13068981 -0.1514022 -0.09551169 -0.12049262 0.12713088 -0.027117398
0.009608487 0.0024488885 0.09025876 0.033859767 0.08206737 0.01805603 -0.030885043 -0.13368465
-0.015442076 -0.05423596 -0.13089308 0.08815532 0.110529594 0.13350989 -0.1604902 0.08376922
-0.073902056 0.06546402 0.06519123 -0.10433622 -0.06485134 -0.052651267 0.091103494 -0.063734174
-0.16603677 -0.047441162 -0.020498354 -0.1880284 -0.012702016 0.05479313 -0.1157752 0.20836441
0.029812198 -0.16686824 -0.039840475 0.0832046 0.12427756 0.05700354 0.25835606 0.0604302
0.0006818506 -0.03451868 -0.13256003 0.100587994 -0.030141393 -0.15207152 -0.050409976 0.034546945
-0.04201683 -0.027312879 -0.043308053 -0.022241727 0.13092439 0.17288436 0.047638655 -0.0041584577
-0.08318284 0.024657102 0.028489254 -0.11084622 0.05615405 -0.18436302 -0.04115489 0.04020343
0.107433945 -0.058273196 -0.006676276 -0.08993091 0.11728924 0.057520825 -0.06352149 -0.11363255
0.011838917 -0.059425235 0.13928868 0.03499992 0.09508177 0.08969005 -0.097874016 0.0715536
0.019641895 -0.10776255 0.20007755 0.10661267 0.06329144 0.24793611 0.23375547 0.1467954

fc.4.bias f4 [32]
00000000: 91de 383d 14ce 5a3b 0f8b 82bd 7d88 9a3d
00000010: 78ee 88bc 61d0 28be 1278 223e 900e 99bd
00000020: 14bc 8ebd 5c5a e8bb 0698 bc3d 8656 f33d
00000030: c5e1 c93d defe f33c 3e8c 0dbd 5435 96bd
00000040: b240 f03d ae51 c43c f45a 4ebe 70e4 c7bb
00000050: 5901 ee3d 7048 8bbd fd0c 0c3e 9b47 b23e
00000060: 219e 77bd ce58 04be 1240 29be b9ae 9cbd
00000070: d74b f0bd aa5e 57bd 56ae 9c3d f886 763e
0.04513413 0.0033386992 -0.063741796 0.07545564 -0.016715273 -0.1648574 0.15866116 -0.07473481
-0.06969467 -0.00709085 0.09208684 0.118817374 0.09857515 0.029784616 -0.034557573 -0.0733439
0.1173109 0.02396473 -0.20151883 -0.00610023 0.11621351 -0.06800926 0.1367683 0.34820256
-0.060453538 -0.12924501 -0.16528347 -0.07650513 -0.11733215 -0.052580513 0.076504394 0.24074924

fc.6.weight f4 [3, 32]
00000000: e91a 3cbe 504b 74bd 819a 2abe 7753 933d
00000010: 93a4 a0bd b2b1 543d 38c2 8abd 3a19 d7bd
00000020: 8f31 b3bd 9f1d 10be faef 1f3e 5423 e7bd
00000030: 228b 37be 7f65 fabc be4a 4d3c 3dc4 eb3d
00000040: 54c7 7c3c 2866 92bd b680 f0bd 8392 0ebe
00000050: e80f 0bbe c53f 173e a2ea ddbd 6e43 98be
00000060: f95c 143d 526f 59bc 20d1 b43d d458 ea3d
00000070: fe9f 83bd 7289 f5bd 0f99 8ebd 9799 a1be
00000080: e5cf 863d c41f e2bd 4236 1b3d ab39 04be
00000090: 013b 673d 5ceb a33c b791 5e3e 457b 11be
000000a0: 53b3 05be 604e d9ba b794 cf3d d9a2 753e
000000b0: 51eb 403e 5d68 183e ab3a 3d3e 2246 ffbd
000000c0: b807 503e 0873 753d f416 07be e640 8fbd
000000d0: 7805 0cbd b022 efbc 8d7c b73d 7c69 223e
000000e0: 128b 06c0 7f3a 01bf 4232 92be e239 183e
000000f0: b574 04be 3247 713d 14c4 133e 8e02 903d
00000100: 8705 28bd 50f6 81ba 97c2 adbc de30 703e
00000110: 8b71 2fbe 3a72 d1bd 0880 763e 630a 3b3e
00000120: dcbe d33d a51f 5a3e b670 613d 1fc3 0d3e
00000130: 1855 03be 9765 18be f0c0 d0bd 86b1 a0bd
00000140: 122c fc3d b166 2a3e 35af ff3d e2a1 133d
00000150: 5c62 73bd 00ad d4bc c4de a53b 472f 86bd
00000160: 91be 923e b40e 04be 1015 0a3e e35b 27be
00000170: a5ff 9fbd 9b96 873d b2a6 dfbc 1217 3a3e
-0.1836964 -0.059642136 -0.16660501 0.07193654 -0.0784389 0.051927276 -0.067753255 -0.105028585
-0.08749687 -0.140738 0.15618888 -0.11286035 -0.17924169 -0.030565975 0.012530027 0.11512039
0.015428383 -0.07148391 -0.117433 -0.13923077 -0.13580287 0.1477042 -0.10835768 -0.29738945
0.036221478 -0.01327117 0.0882895 0.11442724 -0.064270005 -0.11989106 -0.06962787 -0.31562492
0.065826215 -0.11041215 0.03789354 -0.12912624 0.056452755 0.020009689 0.21735273 -0.1420718
-0.13056688 -0.0016579144 0.10135787 0.23987903 0.18839766 0.14883561 0.18479411 -0.12464549
0.20315444 0.059924155 -0.1319235 -0.069948 -0.034184903 -0.029191345 0.08959303 0.15860552
-2.1022382 -0.5047988 -0.2855397 0.1486583 -0.12935145 0.058905788 0.14430267 0.07031737
-0.041020896 -0.0009915326 -0.021210952 0.23456141 -0.17133157 -0.10226865 0.24072278 0.18265681
0.10339138 0.21301134 0.05503913 0.13843964 -0.1282543 -0.14882503 -0.1019305 -0.0784636
0.12313093 0.16640736 0.1248459 0.036043055 -0.059419975 -0.0259614 0.005061956 -0.06551986
0.28661016 -0.12896234 0.13484597 -0.16343646 -0.07812432 0.066205226 -0.027301166 0.18172863

fc.6.bias f4 [3]
00000000: dc6d f7bd 72a0 8a3e 3d13 ab3d
-0.12081501 0.27075535 0.08353279
