Genetic_Models/dino_genetic_model61.pth (torch, 48732 bytes, 8 tensors)

fc.0.weight f4 [128, 6]
0.038172748 0.22375952 -0.30308938 0.26480335 -1.9265444 -1.3236393 -0.23986723 0.07249167
0.19411294 -0.21526149 0.31177908 0.1763505 -0.027534187 -0.23496185 -0.30458364 0.21379061
-2.776303 -2.8072498 1.1709286e-05 0.07875376 -0.21200441 0.16831993 1.8840594 2.2335558
-0.35362852 -0.22122367 -0.05040661 -0.18137372 0.35072497 -0.18137734 0.28985757 -0.1739683
-0.10362117 0.20914792 -1.9261906 -2.0627005 0.43715057 -0.017092854 0.1309287 -0.09018034
-2.744196 -2.9477532 0.09911417 0.32142702 -0.19741772 -0.217328 -0.74660075 -2.0631313
-0.11422499 -0.31928745 -0.081054114 0.088652365 -0.22170413 -0.09400566 -0.15322918 0.1740893
0.030248828 -0.33960614 0.023444438 0.073497176 0.20193048 -0.22242478 0.23875484 -0.31588206
0.12386802 -0.111686274 -0.108797565 0.254747 -0.17417955 0.17569317 1.8108195 -0.8091668
0.15664986 -0.28847328 0.2583192 -0.17336623 0.0923462 0.38493285 -0.121207334 0.020773496
0.19573168 -0.19465819 -0.07271754 0.07124804 0.3085248 0.095856346 -0.12250363 -0.3815809
-3.6321099 -3.5949109 -0.004308342 0.19505404 -0.057373594 -0.40121916 0.1152367 -0.29460332
0.017072573 -0.2341027 0.093099445 0.21553355 2.137835 -0.48268637 0.41052273 -0.34349138
-0.023221165 -0.11214714 1.9001925 0.7951188 -0.025389139 -0.15095517 -0.14920108 0.22951244
2.2303624 0.9354 -0.12520078 0.3297256 0.0549872 -0.115217604 -2.3828511 -2.6457787
0.42499387 0.30066338 0.031097427 0.31797177 -0.89605814 1.5082964 -0.12792374 -0.39660856
0.27528718 0.08068361 0.27142602 -0.21379061 0.37559238 -0.19102743 0.5172264 -0.38810638
1.3582444 1.3539892 0.16450274 0.1393578 0.3958034 -0.18231682 -2.4546955 -2.6534197
0.284882 0.06313802 -0.10588761 0.24086364 -1.7683231 -0.0571212 -0.29169217 0.2559649
-0.36702186 0.13308638 1.633975 1.9059749 0.17889619 -0.13179985 -0.17188194 0.1194263
-2.782307 -2.3372743 0.06525631 0.41100484 -0.18912506 -0.4431713 -0.56891006 1.5007626
-0.09342642 0.28098506 -0.088992804 -0.0051994594 2.1353402 1.3810215 -0.30933073 -0.17079772
0.19492467 0.052740358 0.10304482 -0.12360191 -0.28285322 -0.035679027 0.3725995 -0.32672366
0.3060864 0.098233484 -0.08723027 0.0888635 0.115986556 0.0327865 1.7292587 -1.9926815
-0.07433472 0.20426013 0.30120388 -0.12906744 2.6228871 0.3432076 -0.14588337 0.28901628
-0.23884028 0.16246004 -0.17867194 -2.4059918 -0.15190409 -0.21355258 -0.07498389 0.15242006
-2.1633499 2.5593352 -0.27148515 -0.24985011 0.29757985 0.44962344 1.9548203 -1.5484241
-0.75710136 -0.22168209 0.086992465 0.18412967 -3.7640405 -1.9740306 0.13404371 0.10249207
-0.39430514 0.23999275 1.0344205 1.7124214 0.4695906 0.07927155 -0.9155071 -0.41222927
1.0795699 1.7772615 0.016887851 -0.23674387 -0.31403333 0.1110652 1.4470958 -1.9591525
0.2809432 0.08893878 -0.053508274 0.07193108 0.45416278 -2.3771126 -0.27933827 0.118059546
-0.1416398 0.079923555 -2.525746 -1.6467261 0.26449862 0.08845933 -0.38734782 0.15992698
00000000: 075b 1c3d 3721 653e 882e 9bbe 4e94 873e
00000010: 0299 f6bf 036d a9bf c19f 75be 8376 943d
00000020: 8bc5 463e 826d 5cbe 82a1 9f3e 3a95 343e
00000030: 608f e1bc d799 70be 63f2 9bbe edeb 5a3e
00000040: f3ae 31c0 fba9 33c0 0073 4437 a749 a13d
00000050: af17 59be 0f5c 2c3e dc28 f13f 94f2 0e40
00000060: cc0e b5be 7588 62be 2977 4ebd 08ba 39be
00000070: 3992 b33e fbba 39be 3668 943e bf24 32be
00000080: 5637 d4bd df2a 563e 6a8d f6bf 4903 04c0
00000090: 33d2 df3e 5006 8cbc 2c12 063e 78b0 b8bd
000000a0: e8a0 2fc0 fda7 3cc0 5ffc ca3d 1592 a43e
000000b0: df27 4abe 3b8b 5ebe 3a21 3fbf 580a 04c0
000000c0: cbee e9bd a579 a3be b3ff a5bd 5f8f b53d
000000d0: 6806 63be 0a86 c0bd 1ce8 1cbe 7744 323e
000000e0: 64cc f73c dbe0 adbe 8d0e c03c b085 963d
000000f0: ddc6 4e3e 52c3 63be 267c 743e 4bbb a1be
00000100: 84ae fd3d c6bb e4bd 42d1 debd 336e 823e
00000110: 205c 32be e9e8 333e efc8 e73f 8e25 4fbf
00000120: d268 203e c5b2 93be 6a42 843e eb86 31be
00000130: 0120 bd3d eb15 c53e 8d3b f8bd 2e2d aa3c
00000140: e36d 483e 7a54 47be efec 94bd 7eea 913d
00000150: f6f6 9d3e 5550 c43d 2fe3 fabd 925e c3be
00000160: 7d74 68c0 0513 66c0 fe2c 8dbb 3fbc 473e
00000170: 9300 6bbd 996c cdbe 3801 ec3d 3fd6 96be
00000180: c8db 8b3c 9eb8 6fbe ecaa be3d d4b4 5c3e
00000190: 4ad2 0840 ab22 f7be 0930 d23e 1ade afbe
000001a0: 503a bebc 66ad e5bd 8239 f33f e88c 4b3f
000001b0: e2fc cfbc fe93 1abe 2bc8 18be 4f05 6b3e
000001c0: 42be 0e40 6076 6f3f a234 00be cbd1 a83e
000001d0: 423a 613d 35f7 ebbd a280 18c0 7054 29c0
000001e0: cc98 d93e 8df0 993e 08c0 fe3c 32cd a23e
000001f0: 1164 65bf db0f c13f 71fe 02be 4710 cbbe
00000200: 71f2 8c3e 733d a53d 5af8 8a3e edeb 5abe
00000210: a54d c03e b29c 43be f368 043f e1b5 c6be
00000220: f4da ad3f 854f ad3f 6873 283e d0b3 0e3e
00000230: bea6 ca3e 43b1 3abe bb19 1dc0 a1d1 29c0
00000240: 0edc 913e 824e 813d 9adb d8bd f5a4 763e
00000250: 6958 e2bf ebf7 69bd ad58 95be d50d 833e
00000260: 4aea bbbe cc47 083e 1826 d13f fcf6 f33f
00000270: 9030 373e 8af6 06be d201 30be c795 f43d
00000280: 5111 32c0 e795 15c0 1aa5 853d 3a6f d23e
00000290: 00aa 41be 59e7 e2be 17a4 11bf fd18 c03f
000002a0: 5a56 bfbd 46dd 8f3e dc41 b6bd 3a60 aabb
000002b0: 6aa9 0840 50c5 b03f 9960 9ebe 99e5 2ebe
000002c0: 559a 473e 4606 583d 2a09 d33d 0023 fdbd
000002d0: 23d2 90be 2c24 12bd 5dc5 be3e 5348 a7be
000002e0: 5bb7 9c3e a32e c93d c9a5 b2bd 11fe b53d
000002f0: 5c8a ed3d 234b 063d 5958 dd3f 3010 ffbf
00000300: cd3c 98bd 9129 513e 6537 9a3e 412a 04be
00000310: 62dd 2740 e8b8 af3e 7362 15be f1f9 933e
00000320: 8c92 74be ed5b 263e c7f5 36be c5fb 19c0
00000330: bf8c 1bbe 87ad 5abe 2791 99bd 0114 1c3e
00000340: 5374 0ac0 26cc 2340 1a00 8bbe b5d8 7fbe
00000350: 635c 983e 0b35 e63e 8d37 fa3f c332 c6bf
00000360: 65d1 41bf a100 63be 1b29 b23d 7d8c 3c3e
00000370: 0ae6 70c0 09ad fcbf c142 093e 5de7 d13d
00000380: 5de2 c9be a9c0 753e e467 843f a030 db3f
00000390: 2e6e f03e 1f59 a23d ac5e 6abf b70f d3be
000003a0: 592f 8a3f 4e7d e33f 6458 8a3c fc6c 72be
000003b0: fac8 a0be 2776 e33d 6f3a b93f 82c5 fabf
000003c0: cad7 8f3e 8925 b63d 7e2b 5bbd 9a50 933d
000003d0: 0688 e83e 9d22 18c0 6d05 8fbe 34c9 f13d
000003e0: 060a 11be f6ae a33d d3a5 21c0 ecc7 d2bf
000003f0: 5d6c 873e 2a2a b53d 7452 c6be e6c3 233e

fc.0.bias f4 [128]
0.1663367 -0.14064717 0.25183684 0.10173282 0.3557428 0.11937792 -0.62602687 -0.681395
-0.34857017 0.18065746 0.08035718 -0.44159773 -0.06000787 0.24061981 0.53060126 0.3069537
-0.40509233 -0.261693 0.0306083 -0.08525312 -0.020840768 -0.16069022 -0.020087587 -0.19123907
0.16428204 -0.37056088 0.04951872 -0.026533829 0.013673225 -0.0720651 -0.094142616 -0.30703765
0.10580121 -0.41601318 0.26194778 -0.036089532 0.70142955 -0.3725788 -0.60787535 -0.37069774
-0.5568203 0.04521232 0.12448714 0.32767385 -0.25760525 -0.107221454 0.16435379 0.28986087
-0.21429835 -0.12636927 0.065473795 0.13561657 0.30448896 -0.19918214 -0.08622056 -0.32403728
-0.21673325 -0.6032672 0.068067655 0.14678393 -0.041525617 0.0032266462 0.08427569 0.28860882
0.10076978 -0.45192707 0.14150572 -0.27201715 0.49008694 0.32090616 -0.57896495 0.32463706
-0.031409957 -0.051348075 0.20941982 -0.5964254 -0.41041434 -0.41665426 -0.3756425 0.32915103
0.24987736 -0.11819959 -0.32713783 -0.26677486 -0.12110984 0.49009666 -0.25376934 -0.033105366
-0.46651906 0.27744165 0.337708 -0.2877846 0.09205166 0.031237008 0.30341026 -0.5426676
0.013189364 -0.10667106 -0.23143663 -0.642018 0.57168627 0.3417096 -0.010781394 -0.16817889
0.09774416 0.01888557 -0.33430904 -0.01601359 0.16277115 -0.15171199 0.19771625 -0.09940797
-0.100715846 -0.1087216 -0.001297228 0.16775854 -0.2090295 -0.29134345 0.1614769 -0.048678353
-0.2750705 0.4072473 -0.35719812 0.138778 0.16654654 0.5645503 -0.39055642 0.35241422
00000000: 2b54 2a3e d005 10be c2f0 803e 4c59 d03d
00000010: ec23 b63e 697c f43d 4c43 20bf e76f 2ebf
00000020: ca77 b2be 45fe 383e 4e92 a43d 1919 e2be
00000030: d0ca 75bd 0a65 763e 7cd5 073f 0929 9d3e
00000040: 4368 cfbe a0fc 85be 42be fa3c 3099 aebd
00000050: 42ba aabc fa8b 24be b98e a4bc 2dd4 43be
00000060: 8d39 283e 28ba bdbe 24d4 4a3d 795d d9bc
00000070: aa05 603c de96 93bd d8cd c0bd 0a34 9dbe
00000080: 4eae d83d aeff d4be 051e 863e 9ed2 13bd
00000090: e390 333f a6c2 bebe b89d 1bbf 18cc bdbe
000000a0: c68b 0ebf 8e30 393d 1df3 fe3d dec4 a73e
000000b0: d6e4 83be ec96 dbbd 5c4c 283e a568 943e
000000c0: 0771 5bbe f266 01be 2017 863d 12df 0a3e
000000d0: fae5 9b3e 67f6 4bbe 6894 b0bd 37e8 a5be
000000e0: 52ef 5dbe b86f 1abf 0e67 8b3d 874e 163e
000000f0: c416 2abd 2476 533b bc98 ac3d 89c4 933e
00000100: 6360 ce3d fc62 e7be e0e6 103e d545 8bbe
00000110: adec fa3e d04d a43e 0c37 14bf d436 a63e
00000120: baa7 00bd 5c52 52bd 2672 563e 56af 18bf
00000130: d421 d2be b553 d5be 3754 c0be 7c86 a83e
00000140: dadf 7f3e a012 f2bd 9c7e a7be b796 88be
00000150: 7008 f8bd f3ed fa3e 0eee 81be 7e99 07bd
00000160: 96db eebe d50c 8e3e 10e8 ac3e 8158 93be
00000170: 9585 bc3d c1e4 ff3c 9758 9b3e 44ec 0abf
00000180: 3418 583c 5b76 dabd b9fd 6cbe 4b5b 24bf
00000190: 085a 123f 90f4 ae3e 72a4 30bc 1637 2cbe
000001a0: 172e c83d e9b5 9a3c 8e2a abbe ef2e 83bc
000001b0: 7bad 263e 635a 1bbe 2176 4a3e 6896 cbbd
000001c0: 1c44 cebd 6ea9 debd c007 aaba e5c8 2b3e
000001d0: d40b 56be f82a 95be 335a 253e f462 47bd
000001e0: 0ad6 8cbe b882 d03e ace2 b6be d21b 0e3e
000001f0: 2d8b 2a3e 5e86 103f 03f7 c7be a36f b43e

fc.2.weight f4 [64, 128]
-0.039359268 0.058393467 -0.15187071 0.028600402 -0.030917205 -0.114032835 0.13932875 0.06887153
0.038270146 0.116350204 0.0013398444 0.091309555 0.09801092 -0.062197607 -0.6834621 -0.04092813
0.11518556 -0.30118984 0.061717104 0.0021844935 -0.056226976 -0.0455871 2.533274 -0.1261419
-0.07657531 -0.017803837 -0.04052052 -0.17922385 0.044944163 -0.04891507 0.098925985 0.13918732
0.08576523 0.048897102 -0.39832905 -0.03872291 0.29244608 0.00414377 0.045353007 -0.0906994
0.07664614 -0.08128555 -0.0570403 -0.003100236 -0.030815605 0.015676353 0.036663722 -0.043958552
-1.2817516 0.08259499 -0.12792957 -0.027836911 0.010882589 -0.01779321 0.10200772 0.09715554
-0.021878518 0.048743393 -0.041791417 0.05615175 0.04313404 -0.051642746 -0.0885942 -0.02236919
0.05193083 0.034551017 0.009743742 -0.023255952 -0.039582513 -0.032757338 0.22126806 -0.06577893
-0.009239995 -0.055198446 -0.3289973 0.027284965 -0.0108389035 0.13908237 0.0422782 -0.2853372
-0.037841775 0.048497498 0.19489747 -0.04741431 -0.026580889 -0.055510778 -0.050434355 0.04149852
0.025750306 -0.028191313 0.07191195 0.017505992 -0.07319599 0.26809904 0.038553312 0.06246753
-0.016429067 -0.15681706 -0.012459912 0.10825155 0.3190491 0.030710474 -0.02257248 -0.034411844
0.45676732 0.048023928 0.012075928 -0.21987113 0.012536462 0.019822882 0.02202987 0.28050336
0.062677145 -0.11633249 0.026575169 -0.056934595 -0.0032250145 -0.1303718 0.100573264 -0.13449982
-0.015542813 -0.03950775 -0.020466845 0.15275425 0.039306436 0.049385358 0.07910128 0.032084692
0.09082495 -0.020525008 -0.020018674 -0.13325118 -0.07686565 0.02852722 -0.11509958 -0.008463446
0.0136758145 -0.004393508 0.09641311 -0.13168722 0.010802611 -0.050300002 0.12197424 0.0973622
-0.076021716 0.0951227 -0.109946385 0.022951173 0.027676163 0.07402998 -0.060080934 0.014032709
-0.058690708 -0.07927723 0.008004533 -0.01367317 -0.0661867 -0.00030986127 0.061058104 0.09742462
-0.106014125 -0.12636459 -0.07650654 -0.021087604 0.05176862 0.051610794 0.03934865 -0.027830575
0.027012061 0.0026263818 0.03157828 -0.044992086 -0.048079543 -0.031427238 0.11900412 0.059980594
0.035654675 -0.06599877 -0.046305075 -0.054672197 -0.003300034 -0.029050123 -0.084859 -0.06834755
0.092561275 -0.024693169 -0.089488715 0.020651225 0.07718555 0.099857315 0.06461163 0.027127106
0.096183024 -0.047803473 -0.013574116 -0.046292618 -0.012296613 -0.03411088 -0.036123555 0.06398526
-0.022258632 -0.0068864953 0.086908184 0.06229836 0.00724945 -0.09159936 0.012285531 -0.059611496
0.05279772 -0.037106425 0.025706355 -0.020461056 0.05051869 0.090045065 0.013893759 -0.06766858
0.038972132 0.07300791 -0.0058658225 -0.08765756 -0.06493042 0.05389916 0.033950977 -0.014416672
-0.0754791 -0.03968068 -0.091058 -0.09575099 0.044145163 0.04108242 0.06404161 -0.0512331
-0.07700888 -0.057489146 -0.06800335 -0.033711184 0.01786921 0.09221459 -0.09994253 -0.065786935
0.06623909 -0.034651108 -0.03426874 0.05126994 0.065339565 0.07601483 -0.08805202 0.06563203
0.05883737 -0.013455211 -0.0030462113 0.009285213 -0.009152189 0.108264945 -0.068455696 0.018495504
00000000: 2f37 21bd fd2d 6f3d ff83 1bbe 644b ea3c
00000010: 1446 fdbc 0c8a e9bd 32ac 0e3e 840c 8d3d
00000020: 28c1 1c3d 0449 ee3d b89d af3a 8100 bb3d
00000030: f3b9 c83d ebc2 7ebd 5ff7 2ebf 41a4 27bd
00000040: 68e6 eb3d 8e35 9abe 13cb 7c3d b829 0f3b
00000050: 424e 66bd 8ab9 3abd 2921 2240 582b 01be
00000060: 84d3 9cbd 5ad9 91bc d8f8 25bd 7586 37be
00000070: 5f17 383d 2b5b 48bd b599 ca3d 1f87 0e3e
00000080: aea5 af3d 5448 483d c9f1 cbbe ea9b 1ebd
00000090: 7ebb 953e 76c8 873b 13c4 393d 9bc0 b9bd
000000a0: a7f8 9c3d 0a79 a6bd 17a3 69bd 542d 4bbb
000000b0: 0271 fcbc b26b 803c b32c 163d e20d 34bd
000000c0: 7010 a4bf 9027 a93d f8ff 02be 3c0a e4bc
000000d0: e34c 323c 11c3 91bc 6ce9 d03d 7cf9 c63d
000000e0: 943a b3bc 27a7 473d 7a2d 2bbd 61ff 653d
000000f0: 52ad 303d 5887 53bd e070 b5bd 973f b7bc
00000100: 6cb5 543d 5e85 0d3d 37a4 1f3c 4483 bebc
00000110: 4621 22bd 8f2c 06bd 1894 623e 1bb7 86bd
00000120: 5963 17bc c417 62bd 5672 a8be b884 df3c
00000130: a895 31bc 9c6b 0e3e e82b 2d3d b817 92be
00000140: faff 1abd 50a5 463d 3493 473e 8235 42bd
00000150: 2ac0 d9bc 455f 63bd 4194 4ebd 5afa 293d
00000160: 4ef2 d23c 78f1 e6bc 9346 933d ba68 8f3c
00000170: c7e7 95bd 4744 893e 14ea 1d3d f4dd 7f3d
00000180: 4096 86bc a794 20be a924 4cbc fdb2 dd3d
00000190: 675a a33e 8894 fb3c ece9 b8bc 6ff3 0cbd
000001a0: 68dd e93e bdb4 443d 1dda 453c e625 61be
000001b0: bc65 4d3c 9963 a23c fc77 b43c 239e 8f3e
000001c0: e05c 803d bb3f eebd 2bb4 d93c 4034 69bd
000001d0: c45a 53bb 2f80 05be 5bf9 cd3d 52ba 09be
000001e0: 48a7 7ebc e1d2 21bd 16aa a7bc 9c6b 1c3e
000001f0: c9ff 203d 4d48 4a3d daff a13d 3d6b 033d
00000200: 6e02 ba3d 1024 a8bc 34fe a3bc ff72 08be
00000210: bd6b 9dbd ebb1 e93c 54b9 ebbd 44aa 0abc
00000220: 8610 603c 6bf7 8fbb 3d74 c53d 04d9 06be
00000230: 6ffd 303c 6007 4ebd a1cd f93d d565 c73d
00000240: 46b1 9bbd b1cf c23d 922b e1bd 1904 bc3c
00000250: 1fb9 e23c 089d 973d 6d17 76bd 73e9 653c
00000260: ab65 70bd 1a5c a2bd 7225 033c 6e05 60bc
00000270: e48c 87bd e074 a2b9 1018 7a3d 8f86 c73d
00000280: ef1d d9bd b865 01be 76af 9cbd e9bf acbc
00000290: 550b 543d d765 533d 0d2c 213d f2fc e3bc
000002a0: 6648 dd3c 601f 2c3b 3a58 013d 9f49 38bd
000002b0: 0eef 44bd d9b9 00bd 6fb8 f33d 36ae 753d
000002c0: a30a 123d 5d2a 87bd 64aa 3dbd f4ef 5fbd
000002d0: 6245 58bb 86fa edbc 8eca adbd cdf9 8bbd
000002e0: c490 bd3d 5449 cabc dc45 b7bd c22c a93c
000002f0: 7513 9e3d fe81 cc3d 1a53 843d aa39 de3c
00000300: 9bfb c43d 93cd 43bd f865 5ebc 549d 3dbd
00000310: bc77 49bc dab7 0bbd 4bf6 13bd b40a 833d
00000320: bc57 b6bc 1ca8 e1bb ebfc b13d 912c 7f3d
00000330: cb8c ed3b 7298 bbbd 4049 493c 2f2b 74bd
00000340: 6c42 583d e8fc 17bd 2296 d23c f29d a7bc
00000350: b0ec 4e3d 8c69 b83d a6a2 633c d395 8abd
00000360: 3ea1 1f3d 2c85 953d 1636 c0bb cf85 b3bd
00000370: 3dfa 84bd 5ec5 5c3d 2e10 0b3d e833 6cbc
00000380: c994 9abd 3588 22bd 9e7c babd 1819 c4bd
00000390: 8fd1 343d 0a46 283d 3f28 833d cdd9 51bd
000003a0: d5b6 9dbd bd79 6bbd 5745 8bbd bd14 0abd
000003b0: 7362 923c 01db bc3d abae ccbd 4dbb 86bd
000003c0: 5ca8 873d 52ee 0dbd 615d 0cbd 6e00 523d
000003d0: c0d0 853d aaad 9b3d 9e54 b4bd 166a 863d
000003e0: 74ff 703d 3f73 5cbc f2a2 47bb 0221 183c
000003f0: 10f3 15bc 03ba dd3d 8032 8cbd e283 973c

fc.2.bias f4 [64]
-0.22272326 -0.0051948866 -0.0108563285 -0.00963771 -0.018081209 0.019275045 -0.01745587 -0.34920576
0.039343137 -0.029112812 0.024335008 0.07413782 -0.3258993 0.015258467 -0.10043793 -0.016452972
-0.078080826 0.053165358 -0.025610587 -0.0725606 0.16654648 0.2799702 -0.08012812 0.04783819
0.08053677 -0.10506907 -0.03243802 -0.011089067 0.094201565 0.09657532 -0.12855218 -0.093833186
0.016295396 -0.25772265 0.018992301 0.007827483 0.030375643 -0.17779833 0.021972958 0.07687173
0.17030017 -0.024626443 0.029601313 -0.083922826 0.015651202 0.05413488 -0.14970712 -0.17243661
-0.03309378 0.007540022 0.069941126 0.05464548 0.023715233 0.34290358 0.06985576 0.066265374
0.021830164 0.04985977 -0.3305608 -0.0084770005 0.026197497 0.16517498 0.017193783 -0.14483999
00000000: 9111 64be de39 aabb bede 31bc 7ce7 1dbc
00000010: 0b1f 94bc b3e6 9d3c 9dff 8ebc 19cb b2be
00000020: 4526 213d fe7d eebc 365a c73c 92d5 973d
00000030: 46dc a6be a6fe 793c 67b2 cdbd 62c8 86bc
00000040: d7e8 9fbd ebc3 593d 4bcd d1bc a79a 94bd
00000050: 298b 2a3e 4158 8f3e 361a a4bd faf1 433d
00000060: 76f0 a43d 742e d7bd bbdd 04bd ebae 35bc
00000070: c0ec c03d 48c9 c53d 2fa3 03be 9d2b c0bd
00000080: ec7d 853c 39f4 83be be95 9b3c d83e 003c
00000090: 57d6 f83c c410 36be a200 b43c ed6e 9d3d
000000a0: 2b63 2e3e 65bd c9bc 747e f23c bbdf abbd
000000b0: f336 803c 89bc 5d3d d34c 19be 3993 30be
000000c0: 588d 07bd 4a12 f73b 4b3d 8f3d f0d3 5f3d
000000d0: 7346 c23c 0f91 af3e 8910 8f3d 24b6 873d
000000e0: 2cd5 b23c c239 4c3d 443f a9be 1ee3 0abc
000000f0: 229c d63c a123 293e fad9 8c3c ef50 14be

fc.4.weight f4 [32, 64]
-0.025219714 -0.072626814 -0.08855009 0.12878476 0.0055176243 -0.026128463 -0.008825978 -0.06040232
0.052278038 -0.0891336 0.37504002 0.0014886139 -0.06556677 -0.06310697 -0.616928 0.06110535
0.018771831 -0.10371395 -0.03208482 -0.11367939 -0.043752648 0.0040215924 0.105704315 0.08290486
-0.014827505 0.0005570841 -0.0076025864 -0.06317631 -0.02543028 0.15769096 -0.06625781 0.004443004
-0.049231675 -0.03138481 0.13969925 0.01623619 -0.031221826 0.035509013 -0.050252397 0.15472303
-0.034733713 0.13333437 0.013769865 -0.035733365 -0.11674757 0.027893275 -0.07516534 -0.092752516
-0.025579344 -0.07070826 -0.050227966 0.055175073 -0.11210459 -0.09118322 0.08184426 -0.10620723
0.046492472 -0.011736204 -0.19503938 0.10354859 -0.11226447 0.17419952 0.11716567 -0.112706736
0.07261012 -0.093741596 0.07726302 -0.055968016 0.013943825 0.09728981 -0.039747402 0.04943724
0.031343646 0.05284821 0.059961908 -0.11621461 -0.035374515 -0.05531012 -0.03609109 -0.08802999
0.10438688 -0.008060759 -0.12427393 0.12159916 0.083688065 -0.10621978 -0.04573329 0.038238
0.009365297 0.086599 -0.09968346 -0.10606061 -0.06923516 0.07536298 -0.08687336 -0.09590514
-0.08684771 0.082343206 -0.072385855 0.049843978 -0.087003455 -0.021840207 0.11778174 0.08571328
-0.075314924 0.050064716 0.12085276 -0.060793653 0.023169655 0.111990206 0.02342742 -0.0059044873
-0.053663123 0.030578773 -0.05653609 0.0165671 -0.020316305 -0.097023554 -0.028304307 -0.117789924
0.14727297 0.042732198 0.053521346 -0.13394515 0.068642795 -0.14567238 0.0012740521 0.1007256
-0.0755185 -0.12531443 0.08634809 -0.018732617 -0.06425346 -0.022250257 0.049688935 -0.12300471
-0.13265198 0.06437271 -0.011769388 0.08001141 -0.048687987 -0.04547119 -0.061868932 -0.11252674
-0.10677714 -0.030710084 0.07431868 -0.05841526 -0.13105601 -0.001428593 -0.15182099 -0.009850116
0.11174934 -0.071117505 0.037392315 0.0035697408 0.120910525 -0.13332541 -0.044271056 -0.055664264
-0.046832107 0.00015038997 0.06681184 -0.16320738 -0.10969424 -0.11794639 0.11363155 -0.032267626
0.025900993 -8.868612e-05 0.09236366 0.024250291 0.07103737 0.014924908 -0.018359168 -0.11382327
-0.011006204 -0.03971305 -0.14471239 0.040607564 0.091819964 0.08609968 -0.15763833 0.082947396
-0.09002814 0.053695723 0.054079603 -0.11666202 -0.06663573 -0.024072185 0.09960779 -0.086281694
-0.15595971 -0.061556887 -0.03861229 -0.20029968 0.0038457476 0.05272097 -0.13347924 0.20890558
0.028008025 -0.116831526 -0.03919628 0.06424335 0.11609488 0.051711667 0.25543302 0.04980441
-0.02760081 -0.03184514 -0.11922747 0.097821414 -0.022264017 -0.1622353 -0.029658848 0.026458142
-0.022137266 -0.03991145 -0.029512236 -0.02188945 0.11355977 0.15627624 0.04282663 -0.005984824
-0.10417867 0.0093026245 0.025344886 -0.11483327 0.04770603 -0.21999536 -0.048525244 0.07188657
0.08876327 -0.023960339 0.014011213 -0.11348776 0.12882239 0.047313333 -0.031519756 -0.12307993
0.0084154215 -0.12154047 0.11229491 0.015512485 0.09087649 0.08969005 -0.10144891 0.072234884
0.012170316 -0.10372629 0.18936618 0.09158124 0.055624355 0.24555244 0.199241 0.15460269
00000000: 9399 cebc 5ebd 94bd c059 b5bd 27e0 033e
00000010: 30cd b43b 5c0b d6bc d69a 10bc 6c68 77bd
00000020: 7f21 563d ad8b b6bd 3f05 c03e 981d c33a
00000030: df47 86bd 3a3e 81bd feee 1dbf 9a49 7a3d
00000040: 62c7 993c fb67 d4bd 5f6b 03bd bdd0 e8bd
00000050: fa35 33bd 90c7 833b 817b d83d 06ca a93d
00000060: 10ef 72bc 4809 123a 1e1f f9bb 9562 81bd
00000070: 2a53 d0bc bd79 213e 2db2 87bd 9e96 913b
00000080: 27a7 49bd 5c8d 00bd 520d 0f3e c201 853c
00000090: eac4 ffbc e671 113d 75d5 4dbd b76f 1e3e
000000a0: f044 0ebd ce88 083e 009b 613c 265d 12bd
000000b0: 5a19 efbd 7080 e43c 49f0 99bd 08f5 bdbd
000000c0: c68b d1bc 7ecf 90bd d7bb 4dbd 42ff 613d
000000d0: 1797 e5bd 45be babd f79d a73d 2d83 d9bd
000000e0: e46e 3e3d 3549 40bc 67b8 47be 4811 d43d
000000f0: eaea e5bd 5c61 323e 8ef4 ef3d cad2 e6bd
00000100: 9db4 943d 98fb bfbd 133c 9e3d b83e 65bd
00000110: a474 643c e13f c73d 2cce 22bd b47e 4a3d
00000120: 3262 003d 5d77 583d 9e9a 753d ed01 eebd
00000130: dee4 10bd dd8c 62bd 40d4 13bd 1149 b4bd
00000140: cac8 d53d 4611 04bc 5583 febd fb08 f93d
00000150: a664 ab3d c289 d9bd d552 3bbd 739f 1c3d
00000160: e770 193c d15a b13d d826 ccbd 4e36 d9bd
00000170: 2acb 8dbd e857 9a3d a9ea b1bd ea69 c4bd
00000180: 36dd b1bd 8ea3 a83d 093f 94bd 3329 4c3d
00000190: de2e b2bd 3cea b2bc 8e37 f13d 728a af3d
000001a0: b63e 9abd a910 4d3d a781 f73d c402 79bd
000001b0: 4ace bd3c 1f5b e53d dcea bf3c 6e7a c1bb
000001c0: ddcd 5bbd 5680 fa3c 6392 67bd bab7 873c
000001d0: 616e a6bc 49b4 c6bd 6fde e7bc d83b f1bd
000001e0: bace 163e f507 2f3d 3339 5b3d eb28 09be
000001f0: 9894 8c3d 242b 15be 18fe a63a 3949 ce3d
00000200: 71a9 9abd 6d52 00be 44d7 b03d 2575 99bc
00000210: 5197 83bd 2c46 b6bc a086 4b3d e5e9 fbbd
00000220: ecd5 07be d7d5 833d 64d4 40bc 06dd a33d
00000230: 0e6d 47bd 0040 3abd 476a 7dbd 6b74 e6bd
00000240: f9ad dabd b793 fbbc 6434 983d d744 6fbd
00000250: 8c33 06be a03f bbba f676 1bbe 6262 21bc
00000260: d7dc e43d 0ea6 91bd af28 193d 50f2 693b
00000270: f09f f73d 7586 08be 9155 35bd 3600 64bd
00000280: 06d3 3fbd 00b2 1d39 a5d4 883d d61f 27be
00000290: 60a7 e0bd e08d f1bd a8b7 e83d 0f2b 04bd
000002a0: 522e d43c 00fd b9b8 2929 bd3d 8ca8 c63c
000002b0: 0a7c 913d 9a87 743c f765 96bc 2d1c e9bd
000002c0: 5e53 34bc 27aa 22bd 7c2f 14be 1e54 263d
000002d0: 1b0c bc3d 0755 b03d f16b 21be 53e0 a93d
000002e0: ac60 b8bd 0cf0 5b3d 9382 5d3d 7fec eebd
000002f0: 5078 88bd 0833 c5bc 2bff cb3d 75b4 b0bd
00000300: e7b3 1fbe 1323 7cbd ec27 1ebd 5c1b 4dbe
00000310: f008 7c3b f2f1 573d c8ae 08be 58eb 553e
00000320: 1671 e53c 5e45 efbd 478c 20bd 0492 833d
00000330: 27c3 ed3d 9dcf 533d 1ec8 823e b6ff 4b3d
00000340: 181b e2bc 0d70 02bd 882d f4bd 9856 c83d
00000350: 0763 b6bc 0321 26be 1df7 f2bc bfbe d83c
00000360: 3659 b5bc 307a 23bd a5c3 f1bc 8151 b3bc
00000370: 0692 e83d e106 203e fa6a 2f3d 581c c4bb
00000380: a05b d5bd 096a 183c 14a0 cf3c b52d ebbd
00000390: 6667 433d 7746 61be 68c2 46bd 4439 933d
000003a0: 84c9 b53d 7948 c4bc 498f 653c 456c e8bd
000003b0: 04ea 033e a0cb 413d dc1a 01bd 5511 fcbd
000003c0: d6e0 093c 36ea f8bd e0fa e53d 1428 7e3c
000003d0: 741d ba3d 6baf b73d 72c4 cfbd e2ef 933d
000003e0: 0166 473c 736e d4bd 35e9 413e f28e bb3d
000003f0: 5dd6 633d 1972 7b3e d505 4c3e 2b50 1e3e

fc.4.bias f4 [32]
0.04242021 0.009344358 -0.033678614 0.10006431 -0.008922523 -0.1676352 0.17300719 -0.08570679
-0.06020332 0.020781849 0.105526455 0.118817374 0.08435 0.042862635 -0.04733685 -0.08681806
0.1173109 0.02396473 -0.17310418 -0.027255557 0.116306596 -0.06398855 0.10850048 0.35396874
-0.052122306 -0.14124043 -0.16384012 -0.08544888 -0.128227 -0.06398325 0.100614816 0.24232645
00000000: d0c0 2d3d 1419 193c 96f2 09bd 84ee cc3d
00000010: c62f 12bc 90a8 2bbe cc28 313e 0b87 afbd
00000020: c297 76bd b23e aa3c 411e d83d 8656 f33d
00000030: b1bf ac3d bb90 2f3d 49e4 41bd abcd b1bd
00000040: b240 f03d ae51 c43c 3942 31be 0c47 dfbc
00000050: 2732 ee3d 6e0c 83bd 8035 de3d 643b b53e
00000060: 337e 55bd 55a1 10be b4c5 27be d3ff aebd
00000070: f04d 03be a609 83bd 240f ce3d 6d24 783e

fc.6.weight f4 [3, 32]
-0.17653021 -0.06408432 -0.15781707 0.051158383 -0.09284048 0.051927276 -0.067696035 -0.11938725
-0.111463115 -0.14193529 0.13269126 -0.12351975 -0.18837206 -0.034827735 0.0063935313 0.12703891
-0.0019277623 -0.050045013 -0.09897687 -0.13636968 -0.1434921 0.14829037 -0.08481731 -0.28629178
0.054105926 -0.015257189 0.071307406 0.0903225 -0.04777583 -0.11976035 -0.05649588 -0.30527103
0.06839316 -0.110664636 0.022178687 -0.16577524 0.050719596 0.0128819235 0.20418136 -0.11113381
-0.102496736 -0.073465325 0.09268183 0.2421225 0.19598135 0.12744598 0.16756976 -0.12744339
0.20294881 0.02840156 -0.14175543 -0.07300398 -0.01186111 0.006201574 0.09654065 0.17141175
-2.090613 -0.53253794 -0.28029814 0.13771412 -0.1453642 0.05056478 0.14430267 0.070396
-0.022048047 0.007567331 -0.03731174 0.23579398 -0.18048456 -0.0759682 0.20164858 0.18369615
0.09334497 0.22095147 0.05340199 0.14045767 -0.12411204 -0.15039082 -0.087160036 -0.073908255
0.116350956 0.17427705 0.104672775 0.026884014 -0.042243734 -0.02891507 0.029914651 -0.10683775
0.29227433 -0.12168618 0.14296554 -0.16044287 -0.1312914 0.07894687 -0.039650273 0.1928829
00000000: 56c4 34be a43e 83bd cc9a 21be 748b 513d
00000010: 2623 bebd b2b1 543d 38a4 8abd 4d81 f4bd
00000020: c646 e4bd 7c57 11be 38e0 073e ecf7 fcbd
00000030: 9be4 40be 87a7 0ebd d480 d13b 7d16 023e
00000040: f8ac fcba 00fc 4cbd 63b4 cabd 7ea4 0bbe
00000050: 98ef 12be 6ed9 173e b3b4 adbd d694 92be
00000060: 2d9e 5d3d 4af9 79bc 9e09 923d 01fb b83d
00000070: 97b0 43bd ea44 f5bd 3968 67bd 7c4c 9cbe
00000080: b711 8c3d 24a4 e2bd 14b0 b53c fcc0 29be
00000090: 5abf 4f3d b40e 533c eb14 513e 1f9a e3bd
000000a0: cfe9 d1bd fd74 96bd f9cf bd3d f6ee 773e
000000b0: 56af 483e 3381 023e 6897 2b3e 8580 02be
000000c0: d0d1 4f3e 63aa e83c 5628 11be 1c83 95bd
000000d0: 1a55 42bc 9336 cb3b 1bb7 c53d 9086 2f3e
000000e0: 9acc 05c0 6854 08bf 3d83 8fbe ee04 0d3e
000000f0: 5ada 14be 041d 4f3d 14c4 133e c72b 903d
00000100: 1b9e b4bc 60f7 f73b 32d4 18bd fa73 713e
00000110: f2d0 38be 3795 9bbd f77c 4e3e d81a 3c3e
00000120: a62b bf3d 1a41 623e 0cbc 5a3d 23d4 0f3e
00000130: 742e febd 0d00 1abe f680 b2bd 365d 97bd
00000140: 6949 ee3d af75 323e ae5e d63d dd3b dc3c
00000150: c407 2dbd 4cdf ecbc 920f f53c c0cd dabd
00000160: fba4 953e 9b36 f9bd 8f65 123e 234b 24be
00000170: 4171 06be e6ae a13d 5368 22bd 1883 453e

fc.6.bias f4 [3]
-0.107969016 0.2949486 0.08126745
00000000: dc1e ddbd 8103 973e 8c6f a63d
