Genetic_Models/dino_genetic_model94.pth (torch, 48732 bytes, 8 tensors)

fc.0.weight f4 [128, 6]
0.04232615 0.21495482 -0.31845212 0.263612 -1.9073082 -1.3216177 -0.22964226 0.049349256
0.18658306 -0.20872973 0.28584477 0.16474813 -0.030068608 -0.22401427 -0.30278984 0.2107918
-2.7440429 -2.82131 -0.012177657 0.0925998 -0.21691367 0.14487433 1.8418707 2.2270331
-0.3610728 -0.199382 -0.050396673 -0.18188547 0.37772527 -0.16866443 0.28402933 -0.15090346
-0.09029641 0.22208437 -1.9195284 -2.0520635 0.43715057 -0.033398263 0.1591388 -0.07863608
-2.786304 -2.954147 0.10278376 0.32134125 -0.23162441 -0.2011493 -0.7383537 -2.048498
-0.10725889 -0.27061766 -0.074669704 0.084766924 -0.22081202 -0.12554686 -0.13957222 0.11348222
0.0118302815 -0.33089036 0.024965407 0.07619644 0.16300648 -0.2406028 0.23591292 -0.30478078
0.13062902 -0.10228101 -0.108312465 0.25511497 -0.18174268 0.19142942 1.7874123 -0.7979698
0.12422416 -0.28785956 0.28297386 -0.16795258 0.084797196 0.39920554 -0.11129055 0.0006488818
0.17977114 -0.17873323 -0.102540396 0.1546275 0.2740594 0.0845689 -0.114067845 -0.35261577
-3.640082 -3.6093073 -0.031773522 0.17956866 -0.04065732 -0.37610075 0.09639836 -0.2552184
0.009728428 -0.23193653 0.099193804 0.19934307 2.1543949 -0.47545308 0.42128927 -0.33690068
-4.760758e-05 -0.07653799 1.9155363 0.7985945 -0.055421405 -0.14901899 -0.15444702 0.22431883
2.2009196 0.9372619 -0.1328435 0.34877983 0.058225434 -0.08942606 -2.368115 -2.6623836
0.43090862 0.30031312 0.037742198 0.2884496 -0.9136126 1.5008118 -0.15046483 -0.43694738
0.28271607 0.081384845 0.26612288 -0.21486424 0.35369945 -0.18803418 0.51851976 -0.36959848
1.392112 1.3730114 0.16131204 0.14062302 0.38877043 -0.1859341 -2.4639342 -2.6379993
0.28083444 0.07867272 -0.0884589 0.2571235 -1.7785347 -0.024975274 -0.28759956 0.25343078
-0.41268915 0.09853719 1.582627 1.8990264 0.18627533 -0.08593759 -0.21730578 0.1221469
-2.7594945 -2.3425725 0.06655244 0.43500927 -0.15910493 -0.4329764 -0.56843686 1.5008287
-0.054213505 0.2961055 -0.06839699 -0.0031554354 2.1266613 1.3601056 -0.31555215 -0.17058529
0.20397392 0.06396701 0.10282937 -0.12909971 -0.2660538 -0.04285333 0.33954352 -0.31726706
0.3060864 0.0859154 -0.096995376 0.07864905 0.115986556 0.042408906 1.717043 -1.9770421
-0.080106385 0.22590029 0.28141758 -0.12989111 2.65218 0.34561434 -0.15519804 0.2789312
-0.24855989 0.16246004 -0.1882505 -2.4198358 -0.11786922 -0.18770275 -0.07861304 0.1394797
-2.1413012 2.6049664 -0.2612571 -0.18947995 0.27550384 0.44324416 1.9467208 -1.5658841
-0.76313853 -0.22083339 0.07413075 0.18126036 -3.7594168 -1.9717693 0.1571694 0.09645799
-0.37741905 0.25057876 1.0521958 1.7067348 0.48104584 0.08703094 -0.9086344 -0.390462
1.0928583 1.799904 -0.0032562464 -0.22888014 -0.3012987 0.100328304 1.4668326 -1.9592208
0.27485424 0.059970077 -0.041243844 0.021790149 0.44349775 -2.3628497 -0.25183964 0.11962018
-0.14018364 0.08197053 -2.5088162 -1.6467261 0.25669524 0.114860065 -0.36949918 0.12357783
00000000: 2f5e 2d3d 1e1d 5c3e 280c a3be 27f8 863e
00000010: ad22 f4bf c52a a9bf 5727 6bbe 7222 4a3d
00000020: a10f 3f3e 3fbd 55be 3f5a 923e bcb3 283e
00000030: 7152 f6bc ff63 65be 4507 9bbe ced9 573e
00000040: 669e 2fc0 5890 34c0 cc84 47bc f7a4 bd3d
00000050: 9e1e 5ebe f059 143e 6bc2 eb3f b687 0e40
00000060: 89de b8be cc2a 4cbe be6c 4ebd 2f40 3abe
00000070: 3565 c13e 5eb6 2cbe 4b6c 913e 7086 1abe
00000080: 53ed b8bd 166a 633e 1bb3 f5bf 0255 03c0
00000090: 33d2 df3e 9ecc 08bd 48f5 223e f40b a1bd
000000a0: ce52 32c0 bf10 3dc0 4b80 d23d d786 a43e
000000b0: f32e 6dbe 15fa 4dbe c004 3dbf 971a 03c0
000000c0: 8daa dbbd 668e 8abe 6eec 98bd 489a ad3d
000000d0: 8c1c 62be 5b8f 00be 05ec 0ebe 5e69 e83d
000000e0: ccd3 413c 766a a9be 4184 cc3c e10c 9c3d
000000f0: 2ceb 263e 9560 76be 2893 713e 3a0c 9cbe
00000100: 9dc3 053e b578 d1bd edd2 ddbd 6e9e 823e
00000110: c11a 3abe 1306 443e edc9 e43f c047 4cbf
00000120: 3d69 fe3d 5462 93be f3e1 903e c3fb 2bbe
00000130: 27aa ad3d ab64 cc3e 4dec e3bd b819 2a3a
00000140: ed15 383e d805 37be b300 d2bd ac56 1e3e
00000150: 8451 8c3e 7632 ad3d 679c e9bd 0e8a b4be
00000160: 1af7 68c0 e4fe 66c0 f424 02bd d9e0 373e
00000170: 4a88 26bd 4790 c0be 816c c53d fcab 82be
00000180: fc63 1f3c c580 6dbe 1f26 cb3d 9720 4c3e
00000190: 9be1 0940 966e f3be 3ab3 d73e 3f7e acbe
000001a0: 40ae 47b8 f3bf 9cbd 4b30 f53f b070 4c3f
000001b0: 8e01 63bd 6f98 18be 5c27 1ebe d6b3 653e
000001c0: dedb 0c40 65f0 6f3f 2008 08be 4593 b23e
000001d0: cb7d 6e3d 0325 b7bd 328f 17c0 7e64 2ac0
000001e0: 0ea0 dc3e a4c2 993e 9097 1a3d aaaf 933e
000001f0: 84e2 69bf 9a1a c03f 7413 1abe 91b7 dfbe
00000200: 29c0 903e 19ad a63d 4241 883e 5f05 5cbe
00000210: 1818 b53e 088c 40be b6bd 043f 033c bdbe
00000220: ba30 b23f d6be af3f fc2e 253e 7bff 0f3e
00000230: eb0c c73e 8265 3ebe 19b1 1dc0 fbd4 28c0
00000240: 88c9 8f3e 2a1f a13d f129 b5bd b1a5 833e
00000250: 06a7 e3bf f298 ccbc 4040 93be aec1 813e
00000260: fe4b d3be decd c93d 8693 ca3f 4c13 f33f
00000270: f6be 3e3e 0c00 b0bd 6885 5ebe 2728 fa3d
00000280: 8f9b 30c0 b5ec 15c0 a54c 883d 89b9 de3e
00000290: 67ec 22be 15af ddbe 1485 11bf 281b c03f
000002a0: fb0e 5ebd 249b 973e b913 8cbd 6ccb 4ebb
000002b0: 381b 0840 f117 ae3f 0d90 a1be e9ad 2ebe
000002c0: 8ade 503e 2301 833d 3498 d23d b732 04be
000002d0: 3438 88be f986 2fbd a6d8 ad3e d470 a2be
000002e0: 5bb7 9c3e 6af4 af3d 83a5 c6bd c112 a13d
000002f0: 5c8a ed3d f6b4 2d3d 11c8 db3f b70f fdbf
00000300: d10e a4bd 6852 673e f715 903e 2d02 05be
00000310: 51bd 2940 5df4 b03e 3cec 1ebe 12d0 8e3e
00000320: 7c86 7ebe ed5b 263e bdc4 40be 97de 1ac0
00000330: 6b65 f1bd 2635 40be e0ff a0bd c4d3 0e3e
00000340: 140b 09c0 c5b7 2640 7ec3 85be 0807 42be
00000350: d70e 8d3e e6f0 e23e 262e f93f e46e c8bf
00000360: 0c5d 43bf 2622 62be ddd1 973d 519c 393e
00000370: 499a 70c0 f062 fcbf 04f1 203e c48b c53d
00000380: 123d c1be dc4b 803e 5aae 863f 4976 da3f
00000390: a44b f63e 473d b23d 449c 68bf a3ea c7be
000003a0: c8e2 8b3f 4163 e63f c066 55bb 8e5f 6abe
000003b0: d343 9abe ed78 cd3d 2cc1 bb3f bfc7 fabf
000003c0: b2b9 8c3e 2fa3 753d 4eef 28bd 4181 b23c
000003d0: 2312 e33e ee38 17c0 20f1 80be 6dfb f43d
000003e0: 4d8c 0fbe 2ae0 a73d 7290 20c0 ecc7 d2bf
000003f0: 8f6d 833e c13b eb3d ff2e bdbe 6016 fd3d

fc.0.bias f4 [128]
0.1965192 -0.16121088 0.25289607 0.10658435 0.36723587 0.11876036 -0.6345306 -0.66562545
-0.340431 0.21043858 0.06870594 -0.41963252 -0.111402735 0.2564048 0.53938556 0.32925874
-0.42074683 -0.24642392 0.04686466 -0.08777564 -0.038891513 -0.15415235 -0.040917333 -0.21315087
0.1685161 -0.36612022 0.05594381 -0.06344589 0.042324826 -0.096379496 -0.07239903 -0.32214367
0.103057355 -0.40150633 0.2263175 -0.017311947 0.6655215 -0.36816514 -0.58454776 -0.38468066
-0.5381303 0.048100974 0.12917262 0.3445416 -0.2661158 -0.090483256 0.15953901 0.29802272
-0.2142376 -0.13339159 0.10040905 0.14501837 0.2968775 -0.19178456 -0.08864908 -0.34915218
-0.19744575 -0.6130613 0.12290216 0.12768607 -0.04553 0.009442246 0.025163596 0.31541896
0.120200425 -0.40601933 0.17331338 -0.2797681 0.46193984 0.3161033 -0.54199517 0.30523154
-0.030428346 -0.053258397 0.21337219 -0.61036474 -0.4263999 -0.4160201 -0.3878665 0.3346674
0.22352782 -0.08096431 -0.31017384 -0.26759824 -0.10926929 0.5002008 -0.2329626 -0.021447454
-0.4858957 0.28892 0.3432097 -0.28001222 0.08407874 0.014141125 0.2536709 -0.5284095
-0.004035595 -0.08838128 -0.20308512 -0.6297498 0.5759 0.43988883 0.005786527 -0.15343687
0.102973506 0.026522152 -0.3246564 -0.044275824 0.16862991 -0.15236045 0.18127519 -0.069988206
-0.10359384 -0.11871099 0.023344032 0.16299234 -0.22243078 -0.28089237 0.18055971 -0.055214677
-0.25883946 0.3686941 -0.37888446 0.146555 0.21941829 0.5158677 -0.40401533 0.31347275
00000000: 543c 493e 7714 25be 987b 813e e548 da3d
00000010: 5706 bc3e a238 f33d 9970 22bf 6e66 2abf
00000020: f94c aebe 367d 573e b3b5 8c3d 13da d6be
00000030: 1e27 e4bd 7d47 833e 2c15 0a3f 9a94 a83e
00000040: 216c d7be 8d56 7cbe 28f5 3f3d b7c3 b3bd
00000050: b54c 1fbd 1dda 1dbe ef98 27bd 3944 5abe
00000060: 7c8f 2c3e 1c74 bbbe 5625 653d ebef 81bd
00000070: cc5c 2d3d 9d62 c5bd f145 94bd 04f0 a4be
00000080: bc0f d33d 3d92 cdbe c6bf 673e c9d1 8dbc
00000090: 9e5f 2a3f 2480 bcbe eca4 15bf ddf4 c4be
000000a0: e8c2 09bf 8705 453d d445 043e c267 b03e
000000b0: 5540 88be 494f b9bd 325e 233e 6f96 983e
000000c0: 1a61 5bbe ce97 08be 43a3 cd3d b27f 143e
000000d0: 5400 983e 2c63 44be a68d b5bd 13c4 b2be
000000e0: 382f 4abe 96f1 1cbf 21b4 fb3d 23c0 023e
000000f0: aa7d 3abd a6b3 1a3c e323 ce3c 987e a13e
00000100: a42b f63d c4e1 cfbe 1079 313e c43d 8fbe
00000110: 6183 ec3e 4bd8 a13e 32c0 0abf 4f47 9c3e
00000120: de44 f9bc 7a25 5abd 3d7e 5a3e dd40 1cbf
00000130: 1651 dabe 9600 d5be 7096 c6be 8759 ab3e
00000140: 7ae4 643e 9ed0 a5bd 1bcf 9ebe a302 89be
00000150: 94c8 dfbd 290d 003f bf8d 6ebe 92b2 afbc
00000160: 52c7 f8be 52ed 933e 2fb9 af3e c35d 8fbe
00000170: 7931 ac3d 2db0 673c 27e1 813e d845 07bf
00000180: 063d 84bb 3f01 b5bd 8cf5 4fbe 4837 21bf
00000190: 2f6e 133f 1c39 e13e e89c bd3b 8e1e 1dbe
000001a0: c6e3 d23d fc44 d93c 5d39 a6be 915a 35bd
000001b0: 52ad 2c3e 6104 1cbe 34a0 393e fa55 8fbd
000001c0: 0229 d4bd bf1e f3bd fc3b bf3c 77e7 263e
000001d0: e5c4 63be 20d1 8fbe a5e4 383e c928 62bd
000001e0: 9b86 84be 79c5 bc3e 25fd c1be 8412 163e
000001f0: 30af 603e e80f 043f 19db cebe 807f a03e

fc.2.weight f4 [64, 128]
-0.019830473 0.08125619 -0.15333895 -0.0031012837 -0.011669318 -0.12993914 0.15269318 0.062418506
0.016929595 0.117854126 -0.010503758 0.10117594 0.14232059 -0.07282391 -0.6758784 -0.057563707
0.124099314 -0.292241 0.06795013 0.048062254 -0.08154825 -0.028172791 2.5365806 -0.1137863
-0.069959536 -0.011257 -0.036672056 -0.18390565 0.048140988 -0.024458446 0.08694603 0.15972905
0.065732755 0.05322642 -0.4105849 -0.0314023 0.2968622 0.0042880713 0.06286301 -0.10725117
0.09442491 -0.08129911 -0.054450132 0.020370666 -0.050949883 0.039948173 0.055394277 -0.069518045
-1.2616407 0.09230775 -0.13732529 -0.06566657 0.026760954 -0.022169748 0.09967164 0.08750827
-0.012131833 0.048363596 -0.050921038 0.07824004 0.041730206 -0.03949429 -0.087370716 -0.019782253
0.02688864 0.026519354 0.023865953 -0.024977077 -0.043921717 -0.011335474 0.24497218 -0.06577893
0.019390922 -0.05004351 -0.34484118 0.00520547 0.015722476 0.12335617 0.027451064 -0.25457728
-0.05483991 0.048497498 0.18823351 -0.038813032 -0.029917445 -0.075962424 -0.07908523 0.04557559
0.025750306 -0.027764129 0.060413435 0.029528018 -0.087064706 0.2838528 0.0491293 0.061559882
-0.02150795 -0.17426921 -0.018727774 0.1154953 0.33011574 0.015660767 -0.026920639 -0.062135477
0.42796418 0.057471484 -0.010612648 -0.23095328 0.042018857 0.020092174 0.029758928 0.30221614
0.0796256 -0.12685426 0.017540667 -0.020323033 0.007432958 -0.121870555 0.12346017 -0.16806534
-0.02107893 -0.051261567 -0.012257153 0.13275674 0.03559787 0.059838355 0.08458574 0.020048266
0.09478591 -0.040320527 -0.05779619 -0.14401919 -0.09655475 0.033122536 -0.11817264 0.013651364
0.025559846 -0.022839207 0.10774101 -0.13355254 -0.009532671 -0.064273186 0.12511338 0.104441196
-0.054347694 0.102728635 -0.10207367 0.00911872 0.027157567 0.11099591 -0.07466377 0.010114783
-0.06835286 -0.09374176 0.007927596 -0.032278977 -0.056164797 -0.00030986127 0.07510839 0.11150606
-0.12890004 -0.1362933 -0.0895049 -0.0017412009 0.06998316 0.08239023 0.039586395 -0.014140744
0.004450568 0.039182477 -0.016772468 -0.047927737 -0.058876604 -0.042818014 0.121299356 0.053850703
0.044885915 -0.06544275 -0.061762817 -0.05242656 -0.0061091753 -0.033820257 -0.08283747 -0.06147211
0.10409211 -0.024693169 -0.09259412 0.022042697 0.042956658 0.07098837 0.06461163 0.02421163
0.112320796 -0.08833891 0.036550146 -0.05361421 -0.051598605 -0.029229188 -0.01677763 0.05341239
-0.04780411 -0.04149755 0.08582542 0.068954386 0.004038632 -0.07842841 0.0024454072 -0.07765521
0.028588202 -0.041029714 0.039307892 -0.017846016 0.013045536 0.1035587 0.0013986006 -0.080114074
0.05190502 0.06099528 -0.028405866 -0.07787184 -0.07477307 0.058112007 0.0015629996 -0.02066034
-0.10552046 -0.022998208 -0.08346482 -0.09718587 0.027211796 0.043108854 0.057433628 -0.031510316
-0.05935132 -0.06076993 -0.08559824 -0.04679472 0.005877966 0.10931858 -0.06572345 -0.04055113
0.07470719 -0.04377759 -0.042296585 0.012601029 0.09224738 0.11543669 -0.09247913 0.077907234
0.0502181 -0.02533343 0.042835794 0.003063364 -0.0045442157 0.12612376 -0.09011194 0.029577956
00000000: 8473 a2bc a569 a63d e304 1dbe e83e 4bbb
00000010: ab30 3fbc c40e 05be 9a5b 1c3e 8caa 7f3d
00000020: efaf 8a3c 815d f13d f417 2cbc 5535 cf3d
00000030: 7dbc 113e b424 95bd 5e06 2dbf ecc7 6bbd
00000040: c827 fe3d 9da0 95be 7029 8b3d eddc 443d
00000050: c502 a7bd a0ca e6bc 5657 2240 cb08 e9bd
00000060: f246 8fbd 486f 38bc 7035 16bd c351 3cbe
00000070: 7c2f 453d 145d c8bc c310 b23d 0390 233e
00000080: e59e 863d f203 5a3d 2f38 d2be b39f 00bd
00000090: 53fe 973e f382 8c3b 52be 803d 80a6 dbbd
000000a0: d961 c13d 2680 a6bd 1a07 5fbd 62e0 a63c
000000b0: d3b0 50bd b2a0 233d 1ce5 623d 7a5f 8ebd
000000c0: 717d a1bf d80b bd3d 009f 0cbe 327c 86bd
000000d0: ca39 db3c 559d b5bc a520 cc3d 8937 b33d
000000e0: 98c4 46bc e818 463d 9492 50bd 503c a03d
000000f0: 4bed 2a3d c4c4 21bd 6bef b2bd 640e a2bc
00000100: 9145 dc3c 1e3f d93c 8882 c33c ba9c ccbc
00000110: 42e7 33bd 6db8 39bc fdd9 7a3e 1bb7 86bd
00000120: b6d9 9e3c 6cfa 4cbd 068f b0be a692 aa3b
00000130: 6ccc 803c 29a2 fc3d 0ee1 e03c f457 82be
00000140: d09f 60bd 50a5 463d 49c0 403e 6afa 1ebd
00000150: 6e15 f5bc 3092 9bbd 70f7 a1bd 78ad 3a3d
00000160: 4ef2 d23c 9971 e3bc 1474 773d bee4 f13c
00000170: fb4e b2bd 2755 913e ce3b 493d 3726 7c3d
00000180: 7131 b0bc a173 32be fd6a 99bc cd88 ec3d
00000190: ee04 a93e 024b 803c ac88 dcbc c581 7ebd
000001a0: 1f1e db3e 3867 6b3d ace0 2dbc 047f 6cbe
000001b0: f71b 2c3d 5898 a43c ffc8 f33c 13bc 9a3e
000001c0: bf12 a33d 15e6 01be 72b1 8f3c 7d7c a6bc
000001d0: 2c90 f33b 4597 f9bd b0d8 fc3d 5219 2cbe
000001e0: b8ad acbc a6f7 51bd 3ad2 48bc 62f1 073e
000001f0: 12cf 113d 1019 753d 4a3b ad3d 433c a43c
00000200: 1d1f c23d 2327 25bd b3bb 6cbd c479 13be
00000210: 7fbe c5bd 7fab 073d 7f04 f2bd f8a9 5f3c
00000220: e262 d13c 4a19 bbbc 52a7 dc3d ffc1 08be
00000230: ec2e 1cbc a9a1 83bd b91d 003e 44e5 d53d
00000240: b09b 5ebd 6463 d23d 000c d1bd af66 153c
00000250: 8c79 de3c d351 e33d 52e9 98bd 7ab8 253c
00000260: 96fc 8bbd aefb bfbd bfe2 013c f636 04bd
00000270: 0f0d 66bd e074 a2b9 6dd2 993d 4a5d e43d
00000280: 5ffe 03be 7990 0bbe 584e b7bd 0239 e4ba
00000290: 5553 8f3d 35bc a83d 5825 223d 94ae 67bc
000002a0: 12d6 913b ce7d 203d 6a66 89bc e04f 44bd
000002b0: 9828 71bd f161 2fbd cc6b f83d 8e92 5c3d
000002c0: 4bda 373d d906 86bd 02fb 7cbd 3cbd 56bd
000002d0: 7a2f c8bb 1c87 0abd b1a6 a9bd 2eca 7bbd
000002e0: 3f2e d53d 5449 cabc fca1 bdbd e392 b43c
000002f0: 52f3 2f3d 5a62 913d 1a53 843d 7857 c63c
00000300: 7208 e63d 08eb b4bd 9bb5 153d 939a 5bbd
00000310: 0f59 53bd 0d72 efbc 3e71 89bc f3c6 5a3d
00000320: 3ece 43bd 56f9 29bd 3dc5 af3d f537 8d3d
00000330: 8056 843b 139f a0bd 2043 203b b209 9fbd
00000340: ce31 ea3c c60e 28bd 5001 213d cf31 92bc
00000350: f2bc 553c 9516 d43d 4051 b73a d912 a4bd
00000360: 5c9a 543d 30d6 793d 6bb3 e8bc 457b 9fbd
00000370: a022 99bd db06 6e3d 90dd cc3a e03f a9bc
00000380: 1c1b d8bd bd66 bcbc 9bef aabd 6309 c7bd
00000390: 46eb de3c e992 303d 863f 6b3d f610 01bd
000003a0: 5f1a 73bd e4e9 78bd 214e afbd d2ab 3fbd
000003b0: f49b c03b 6be2 df3d 049a 86bd f118 26bd
000003c0: 1500 993d 2150 33bd 2f3f 2dbd 8c74 4e3c
000003d0: 32ec bc3d 126a ec3d b365 bdbd d48d 9f3d
000003e0: 7fb1 4d3d 0e88 cfbc 9674 2f3d b8c2 483b
000003f0: a5e7 94bb 9626 013e 9c8c b8bd 784d f23c

fc.2.bias f4 [64]
-0.21625273 -0.010969616 -0.031332508 -0.004891848 -0.0030177664 0.025561582 -0.01826828 -0.34920576
0.060343713 -0.034202382 -0.0009382053 0.08354801 -0.32389215 0.028993651 -0.104653746 -0.02503915
-0.09114311 0.07651065 -0.017283976 -0.07137003 0.17998062 0.28784055 -0.062707335 0.043774456
0.12985869 -0.1451658 -0.029853813 -0.020663286 0.052601814 0.087106645 -0.104977004 -0.08076331
0.033626366 -0.29085773 0.006967695 -0.007605067 0.02715006 -0.17519855 -0.0033371523 0.072391756
0.19989781 -0.024626443 -0.03172524 -0.112708576 -0.02549168 0.01887925 -0.17876709 -0.1960962
0.008182538 0.008700239 0.09058788 0.012732262 0.0025594316 0.3490023 0.059332024 0.06607558
0.005592565 0.025247578 -0.34925535 -0.0064795082 0.01565768 0.16334537 0.015080852 -0.14137818
00000000: 5b71 5dbe e7b9 33bc 8456 00bd cc4b a0bb
00000010: b8c5 45bb 8666 d13c 5ca7 95bc 19cb b2be
00000020: f82a 773d cc17 0cbd e4f1 75ba 381b ab3d
00000030: 31d5 a5be 1884 ed3c b454 d6bd e71e cdbc
00000040: 3da9 babd 9eb1 9c3d 2097 8dbc 732a 92bd
00000050: d74c 383e d65f 933e b46c 80bd d84c 333d
00000060: adf9 043e 58a6 14be fc8f f4bc 0d46 a9bc
00000070: 0075 573d f864 b23d 2ffe d6bd 3c67 a5bd
00000080: cdbb 093d 4eeb 94be 4351 e43b ed33 f9bb
00000090: cd69 de3c 4067 33be 20b4 5abb 2142 943d
000000a0: 03b2 4c3e 65bd c9bc 53f2 01bd c1d3 e6bd
000000b0: edd3 d0bc a8a8 9a3c b80e 37be 71cd 48be
000000c0: 0d10 063c 728b 0e3c 2386 b93d fa9a 503c
000000d0: 23bc 273b 6eb0 b23e 2306 733d a252 873d
000000e0: d641 b73b 02d4 ce3c 99d1 b2be 0e52 d4bb
000000f0: 8944 803c 0244 273e ae15 773c 71c5 10be

fc.4.weight f4 [32, 64]
-0.027572002 -0.070555076 -0.09383658 0.12910146 0.009903369 -0.03926984 0.0036737504 -0.07754792
0.071602225 -0.09247489 0.37124276 0.01395477 -0.031047072 -0.03421938 -0.61235577 0.06423236
0.05111186 -0.091428176 -0.04860489 -0.14673078 -0.041162156 0.017185364 0.10410441 0.07287995
-0.018193832 0.0065249293 -0.0053637186 -0.06439473 -0.032667164 0.19026603 -0.069480315 0.005122185
-0.08094247 -0.046301585 0.14264904 -0.021671455 -0.018843481 0.01921302 -0.03535702 0.15472303
-0.04762151 0.13123426 -0.006694231 -0.052163966 -0.12342366 0.047642156 -0.06296631 -0.100765385
-0.041370362 -0.081704214 -0.014159209 0.05453875 -0.12949511 -0.107354335 0.083416596 -0.10620723
0.05529622 0.0027407305 -0.19503938 0.107074514 -0.14363451 0.16033268 0.11300789 -0.097466335
0.050335582 -0.09138102 0.072573595 -0.075096905 0.060933016 0.0712896 -0.04205963 0.05278873
0.045015983 0.07689301 0.023746928 -0.11662732 -0.037217453 -0.018183252 -0.0121304495 -0.09885589
0.09686662 -0.028932171 -0.14279887 0.118693106 0.082909755 -0.09249108 -0.058719624 0.038759727
-0.017346572 0.07883917 -0.0820917 -0.08014783 -0.045339305 0.06991813 -0.10537471 -0.099665985
-0.13074079 0.07816886 -0.07484456 0.07681004 -0.081769444 -0.032963 0.13210876 0.09557175
-0.08524642 0.027150627 0.056398876 -0.041509386 0.03512181 0.090418965 0.021145085 -0.0036797356
-0.048648376 0.011116863 -0.018236188 0.02518511 -0.023680827 -0.092346475 -0.060515895 -0.12847923
0.1337753 0.01088908 0.046053883 -0.13717426 0.07630026 -0.12620218 -0.004334677 0.09520537
-0.115176626 -0.119909175 0.055143245 -0.020974185 -0.056426067 -0.019788485 0.03938798 -0.13530754
-0.13149603 0.096842185 -0.021504888 0.08462068 -0.063848265 -0.052385237 -0.10013535 -0.07545322
-0.08498487 -0.022805724 0.08590979 -0.08488179 -0.124306396 -0.001428593 -0.1269827 -0.019207126
0.09713834 -0.072365075 0.037392315 0.023146922 0.13569678 -0.13951732 -0.05950095 -0.047664348
-0.04417493 0.021304213 0.12402409 -0.1548415 -0.09551169 -0.12049262 0.12713088 -0.021202106
0.009608487 0.0024488885 0.09025876 0.026155349 0.07003697 0.01805603 -0.030885043 -0.13368465
-0.031079616 -0.047185086 -0.13089308 0.070847176 0.110529594 0.114864565 -0.15427388 0.07932168
-0.073902056 0.070349395 0.05934682 -0.10338111 -0.061864637 -0.052651267 0.084041275 -0.063734174
-0.16240032 -0.04800216 0.0021339003 -0.17298017 -0.012702016 0.05479313 -0.12946345 0.19959366
0.029812198 -0.1693604 -0.039840475 0.084644355 0.11896488 0.05700354 0.25835606 0.0604302
0.0006818506 -0.026885223 -0.13256003 0.100587994 -0.021870842 -0.15207152 -0.043963037 0.04869733
-0.036456402 -0.027312879 -0.043308053 -0.022241727 0.1275189 0.14476185 0.047638655 0.024259787
-0.08318284 0.025858916 0.028489254 -0.096857 0.05615405 -0.18436302 -0.04115489 0.04807678
0.10229842 -0.058273196 0.014011213 -0.08993091 0.13858896 0.057520825 -0.060583185 -0.11363255
0.011838917 -0.0741563 0.119249694 0.0407532 0.09929033 0.08969005 -0.084852286 0.0715536
0.021346275 -0.10776255 0.19808282 0.10552068 0.08294849 0.24793611 0.23375547 0.1467954
00000000: aede e1bc 2e7f 90bd 652d c0bd 2c33 043e
00000010: bd41 223c 69d9 20bd 4ec3 703b 72d1 9ebd
00000020: 30a4 923d 7a63 bdbd 8813 be3e 8ca2 643c
00000030: 6e56 febc 9f29 0cbd 59c3 1cbf 418c 833d
00000040: ab5a 513d b23e bbbd ec15 47bd 9840 16be
00000050: a699 28bd 52c8 8c3c b134 d53d 1542 953d
00000060: 3b0b 95bc 13cf d53b 22c2 afbb 62e1 83bd
00000070: 01ce 05bd 19d5 423e b24b 8ebd 01d8 a73b
00000080: 2ac5 a5bd bba6 3dbd 9712 123e 5688 b1bc
00000090: a55d 9abc a064 9d3c 86d2 10bd b76f 1e3e
000000a0: c60e 43bd 4662 063e 485b dbbb e2a9 55bd
000000b0: 8bc5 fcbd 6c24 433d 7bf4 80bd 155e cebd
000000c0: f873 29bd 8a54 a7bd 07fc 67bc 0664 5f3d
000000d0: 5e9a 04be 97dc dbbd 52d6 aa3d 2d83 d9bd
000000e0: 4a7e 623d d49d 333b 67b8 47be e249 db3d
000000f0: ed14 13be 402e 243e ae70 e73d 6e9c c7bd
00000100: af2c 4e3d f925 bbbd 77a1 943d 68cc 99bd
00000110: e694 793d 4800 923d b846 2cbd ff38 583d
00000120: ae62 383d 157a 9d3d eb88 c23c 4eda eebd
00000130: 5471 18bd 0bf5 94bc cbbe 46bc f574 cabd
00000140: 0262 c63d 2903 edbc de39 12be 5f15 f33d
00000150: 97cc a93d f76b bdbd fd83 70bd 85c2 1e3d
00000160: 661a 8ebc 6e76 a13d b11f a8bd 8c24 a4bd
00000170: b5b5 39bd 3d31 8f3d b2ce d7bd ae1d ccbd
00000180: eae0 05be ff16 a03d 1b48 99bd 954e 9d3d
00000190: bd76 a7bd 3604 07bd 8547 073e 1fbb c33d
000001a0: ad95 aebd fe6a de3c 8202 673d bf05 2abd
000001b0: e3db 0f3d 942d b93d 7538 ad3c b827 71bb
000001c0: 8543 47bd 8123 363c 0f64 95bc 0151 ce3c
000001d0: 4bfe c1bc 2620 bdbd 84df 77bd 0f90 03be
000001e0: 64fc 083e 1d68 323c ffa2 3c3d 6977 0cbe
000001f0: 5043 9c3d 253b 01be e809 8ebb 08fb c23d
00000200: b9e1 ebbd f192 f5bd e2dd 613d 0ed2 abbc
00000210: 051f 67bd 761b a2bc 4a55 213d 0f8e 0abe
00000220: e5a6 06be 3255 c63d 052b b0bc 9b4d ad3d
00000230: e1c2 82bd e791 56bd c313 cdbd 3887 9abd
00000240: 8c0c aebd 12d3 babc 79f1 af3d 81d6 adbd
00000250: 5a94 febd a03f bbba c107 02be 4358 9dbc
00000260: 77f0 c63d 2434 94bd af28 193d 9d9e bd3c
00000270: 19f4 0a3e a1dd 0ebe 45b7 73bd b13b 43bd
00000280: c5f0 34bd 2c86 ae3c 5800 fe3d c58e 1ebe
00000290: a29b c3bd d6c4 f6bd 992e 023e 0ab0 adbc
000002a0: ea6c 1d3c 887d 203b 96d9 b83d be43 d63c
000002b0: 8b6f 8f3d 3dea 933c a102 fdbc a1e4 08be
000002c0: ae9a febc 2645 41bd d608 06be 5318 913d
000002d0: 575d e23d 1d3e eb3d f9f9 1dbe 6873 a23d
000002e0: f659 97bd 5813 903d a715 733d 7ab9 d3bd
000002f0: c665 7dbd dba8 57bd d51d ac3d 1087 82bd
00000300: 454c 26be ea9d 44bd e8d8 0b3b b721 31be
00000310: 1e1c 50bc c36e 603d 1192 04be 4862 4c3e
00000320: b638 f43c d06c 2dbe c42f 23bd 055a ad3d
00000330: dca3 f33d 8b7c 693d 3f47 843e a885 773d
00000340: 38be 323a 663e dcbc d1bd 07be 1401 ce3d
00000350: 7b2a b3bc a3b8 1bbe 9612 34bd da76 473d
00000360: 4f53 15bd 42bf dfbc c963 31bd 4834 b6bc
00000370: 5194 023e 733c 143e c020 433d 76bc c63c
00000380: c45b aabd 14d6 d33c 4c62 e93c f65c c6bd
00000390: ca01 663d a9c9 3cbe 0892 28bd 28ec 443d
000003a0: d681 d13d e0af 6ebd 498f 653c b22d b8bd
000003b0: 44ea 0d3e f59a 6b3d 1326 78bd 2fb8 e8bd
000003c0: 04f8 413c 42df 97bd 2f39 f43d d4ec 263d
000003d0: bb58 cb3d 6baf b73d 09c7 adbd b28a 923d
000003e0: 62de ae3c 9db2 dcbd 39d6 4a3e 3a1b d83d
000003f0: e6e0 a93d f7e2 7d3e 985d 6f3e 8951 163e

fc.4.bias f4 [32]
0.04264317 0.008998755 -0.057116855 0.07545564 -0.016715273 -0.16284372 0.15374735 -0.08077089
-0.073991604 -0.00709085 0.09208684 0.10430675 0.09857515 0.042957895 -0.045330152 -0.07415597
0.1173109 0.02396473 -0.2042886 -0.0031400826 0.11621351 -0.07958322 0.1367683 0.34820256
-0.060453538 -0.1446303 -0.15334888 -0.06927405 -0.11733215 -0.052580513 0.098959714 0.23595175
00000000: 9baa 2e3d 846f 133c 5df3 69bd 7d88 9a3d
00000010: 78ee 88bc 81c0 26be f26f 1d3e 356b a5bd
00000020: e988 97bd 5c5a e8bb 0698 bc3d c79e d53d
00000030: c5e1 c93d 9ef4 2f3d 1cac 39bd 16df 97bd
00000040: b240 f03d ae51 c43c 0831 51be d8c9 4dbb
00000050: 5901 ee3d 87fc a2bd fd0c 0c3e 9b47 b23e
00000060: 219e 77bd f719 14be 7d07 1dbe 8edf 8dbd
00000070: d74b f0bd aa5e 57bd 64ab ca3d 569d 713e

fc.6.weight f4 [3, 32]
-0.1836964 -0.07639673 -0.16660501 0.07193654 -0.0784389 0.051927276 -0.067753255 -0.105028585
-0.08749687 -0.15416342 0.15933414 -0.12830938 -0.18452956 -0.030565975 0.012530027 0.11512039
0.015428383 -0.07148391 -0.117433 -0.12457794 -0.13580287 0.1477042 -0.10835768 -0.3152081
0.036221478 -0.01327117 0.064766034 0.11442724 -0.064270005 -0.11989106 -0.0745836 -0.31819272
0.065826215 -0.11041215 0.03789354 -0.12912624 0.056452755 0.01781206 0.22585963 -0.1420718
-0.1320919 -0.008622718 0.10135787 0.23987903 0.18839766 0.15291801 0.18479411 -0.12464549
0.20315444 0.059924155 -0.14175543 -0.069948 -0.034184903 -0.029191345 0.08959303 0.1782624
-2.1096823 -0.5047988 -0.2855397 0.15614846 -0.13215134 0.058905788 0.14430267 0.07031737
-0.038941175 0.027398791 -0.024657542 0.23456141 -0.17133157 -0.13329855 0.2367895 0.18369615
0.09613199 0.23413198 0.058528304 0.14275032 -0.121460326 -0.1783995 -0.10751282 -0.0784636
0.12644622 0.16640736 0.1248459 0.047447927 -0.059419975 -0.0259614 0.005061956 -0.06551986
0.2755253 -0.13677175 0.13054356 -0.16343646 -0.10181259 0.066205226 -0.015065022 0.18172863
00000000: e91a 3cbe e475 9cbd 819a 2abe 7753 933d
00000010: 93a4 a0bd b2b1 543d 38c2 8abd 3a19 d7bd
00000020: 8f31 b3bd 04dd 1dbe 7d28 233e 8963 03be
00000030: 51f5 3cbe 7f65 fabc be4a 4d3c 3dc4 eb3d
00000040: 54c7 7c3c 2866 92bd b680 f0bd b822 ffbd
00000050: e80f 0bbe c53f 173e a2ea ddbd f562 a1be
00000060: f95c 143d 526f 59bc 0ea4 843d d458 ea3d
00000070: fe9f 83bd 7289 f5bd 49bf 98bd 28ea a2be
00000080: e5cf 863d c41f e2bd 4236 1b3d ab39 04be
00000090: 013b 673d 99ea 913c bf47 673e 457b 11be
000000a0: 1943 07be 4d46 0dbc b794 cf3d d9a2 753e
000000b0: 51eb 403e 8a96 1c3e ab3a 3d3e 2246 ffbd
000000c0: b807 503e 0873 753d 5628 11be e640 8fbd
000000d0: 7805 0cbd b022 efbc 8d7c b73d 6b8a 363e
000000e0: 0905 07c0 7f3a 01bf 4232 92be 62e5 1f3e
000000f0: ae52 07be 3247 713d 14c4 133e 8e02 903d
00000100: c880 1fbd 6e73 e03c 9dfe c9bc de30 703e
00000110: 8b71 2fbe 6a7f 08be f278 723e d81a 3c3e
00000120: d9e0 c43d 4bc0 6f3e 60bb 6f3d 242d 123e
00000130: 31c0 f8bd 5cae 36be ae2f dcbd 86b1 a0bd
00000140: 1e7b 013e b166 2a3e 35af ff3d c258 423d
00000150: 5c62 73bd 00ad d4bc c4de a53b 472f 86bd
00000160: a711 8d3e e50d 0cbe 36ad 053e e35b 27be
00000170: 1f83 d0bd 9b96 873d 48d3 76bc 1217 3a3e

fc.6.bias f4 [3]
-0.10745645 0.27075535 0.08353279
00000000: 2112 dcbd 72a0 8a3e 3d13 ab3d
