Genetic_Models/dino_genetic_model12.pth (torch, 184558 bytes, 10 tensors)

fc.0.weight f4 [256, 6]
0	0x3c2fa8b5	0.010721375
1	0x3d9bdbd8	0.07610291
2	0xbf1c19a6	-0.60976636
3	0xbc7b86c8	-0.015351959
4	0xc09d9687	-4.924625
5	0xc0840c38	-4.1264915
6	0xbea28947	-0.3174536
7	0x3e7d9537	0.24763952
8	0xbf20ccd7	-0.6281256
9	0xbb6e5028	-0.0036363695
10	0x3fd629d1	1.6731511
11	0xbfa9ffd6	-1.32812
12	0xbeb09f4e	-0.3449654
13	0xbdd056b5	-0.10172788
14	0xbeea98c2	-0.4581967
15	0x3e87d661	0.26530746
16	0x3e3a92b7	0.1822003
17	0xbf7409c5	-0.9532741
18	0xbecc5f25	-0.3991634
19	0xbe602196	-0.21887812
20	0x3e88856a	0.26664287
21	0x3ea16e3e	0.3152942
22	0x401e3928	2.4722385
23	0xbf3f5ec4	-0.74753976
24	0xbcc5fe58	-0.024169132
25	0xbe093b66	-0.13401565
26	0x3f01d03b	0.5070836
27	0x3e022f90	0.12713456
28	0xbe157038	-0.1459359
29	0xbff9f592	-1.9528067
30	0xbe85827f	-0.26076123
31	0x3db5e114	0.08880821
32	0xbe909d4c	-0.28245008
33	0xbe2c86fe	-0.1684837
34	0xbe437926	-0.19089183
35	0xbc60b040	-0.013713896
36	0xbe3a8847	-0.18216048
37	0x3d48e867	0.04904976
38	0x3f092531	0.53572375
39	0xbbf51bdc	-0.0074801277
40	0x3ec96cd7	0.3934085
41	0xbf7b4228	-0.9814782
42	0x3e9885ab	0.2978948
43	0xbe01b732	-0.1266754
44	0x3ebd864d	0.37016526
45	0xbe6aa0bc	-0.22912878
46	0x405fad83	3.4949653
47	0x4021d200	2.5284424
48	0x3e890c75	0.26767316
49	0x3d5d3761	0.05400789
50	0xbdff2474	-0.12458125
51	0xbdb761c9	-0.08954198
52	0x3f84a98c	1.0364242
53	0xbff731ab	-1.9312032
54	0xbe482d78	-0.19548595
55	0xbf03c07b	-0.51465577
56	0xbe06b244	-0.1315394
57	0x3e9c1869	0.30487373
58	0xbdc05ab4	-0.093923
59	0x3f893210	1.0718403
60	0xbdb08f4d	-0.086210825
61	0xbc4a5cb2	-0.012351202
62	0x3dbdf950	0.09276068
63	0x3c8a963a	0.016917337
64	0xc013f2b9	-2.3116896
65	0xc03a6a68	-2.9127445
66	0xbeb13254	-0.3460871
67	0xbe01afc6	-0.12664708
68	0xbf214378	-0.62993574
69	0x3e3cb1b4	0.18427163
70	0x4071eaa8	3.7799473
71	0x40076203	2.1153572
72	0x3e7f50d9	0.24933185
73	0xbe80c277	-0.25148365
74	0xbf640010	-0.89062595
75	0x3db358b8	0.08757156
76	0x401700e9	2.3594306
77	0xbf41902e	-0.75610626
78	0xbf17cdaf	-0.59298223
79	0x3e85e55a	0.26151544
80	0x3e45ab81	0.19303705
81	0x3c05b42c	0.008160632
82	0xbfdb8f22	-1.7153056
83	0x3ffdf32a	1.9839833
84	0xbdda5f2b	-0.10662683
85	0x3d2a02f5	0.041506726
86	0xbf0c96e6	-0.5491775
87	0x3d6c452c	0.057683155
88	0xbf2ddcb7	-0.6791491
89	0xbfe79bbd	-1.8094403
90	0x3e796590	0.2435515
91	0xbe837730	-0.2567687
92	0x3e9c73ed	0.30557194
93	0xbe5a6968	-0.21329272
94	0xbec2d4fb	-0.38053116
95	0xbac44d74	-0.0014976696
96	0xbe57c7c7	-0.21072303
97	0xbe23ee57	-0.16008888
98	0xbe00023b	-0.12500851
99	0xbc988e88	-0.018622652
100	0x3e8d58e4	0.2760688
101	0x3d907c09	0.07054908
102	0xbf133f16	-0.57518137
103	0x3e55a4eb	0.20863692
104	0xbed07097	-0.407109
105	0x3c6b47b2	0.014360355
106	0xbfa132fc	-1.2593684
107	0x3e449672	0.19198015
108	0x3ace1ea9	0.001572569
109	0x3e047754	0.12936145
110	0xbebf1783	-0.37322626
111	0xbd5a4451	-0.053287808
112	0xbe8f4e1f	-0.2798929
113	0xbf991fc2	-1.1962817
114	0x3e387760	0.18014288
115	0x3e3576ac	0.17721051
116	0xbed5ad5e	-0.4173383
117	0xbe1c80ff	-0.15283583
118	0x3f6f4e19	0.9347854
119	0xbfa561f7	-1.2920521
120	0x3ea71c81	0.32638934
121	0xbe9b5900	-0.3034134
122	0xbf2a47d3	-0.66515845
123	0xbe2335c6	-0.15938482
124	0x408f3191	4.4748006
125	0x406a2878	3.65872
126	0xbdb72707	-0.08942991
127	0x3e0d2df5	0.13787062
128	0x3cc6d53e	0.024271604
129	0xbcef82d5	-0.02923719
130	0x406aff65	3.671838
131	0x40744758	3.8168545
132	0x3ddbf9e8	0.10741025
133	0x3e819bf8	0.25314307
134	0x3e53ef2d	0.20696707
135	0xbe60b024	-0.21942192
136	0xbe8f2487	-0.27957556
137	0xc02e0377	-2.7189615
138	0x3eccca78	0.3999822
139	0x3d6bb88a	0.057549037
140	0xbeda5666	-0.42644042
141	0xbed3337e	-0.41250223
142	0xbf5cb99f	-0.86220735
143	0xc036bb00	-2.8551636
144	0x3d9d6e0f	0.07687008
145	0xbd7a7ce5	-0.061154265
146	0x3e22a223	0.15882163
147	0xbea1a1a3	-0.31568632
148	0xbea38a9d	-0.3194169
149	0xbe832a47	-0.25618193
150	0xbe973b97	-0.2953765
151	0xbe523314	-0.20527297
152	0xbc7ee82a	-0.015558282
153	0xbe6308d2	-0.22171333
154	0x3e220760	0.15823126
155	0x3e7a8d67	0.24468003
156	0xbe22e5bc	-0.15907949
157	0xbdbc1b82	-0.09184934
158	0x3da27693	0.079327725
159	0xbe6a6bbf	-0.22892664
160	0x3e24f3fc	0.16108698
161	0x3e26a67c	0.16274446
162	0x3d9a2e4f	0.07528364
163	0x3d892fc8	0.06698567
164	0xbdcefcff	-0.10106849
165	0xbdf892fd	-0.12137411
166	0x4099d625	4.8073907
167	0x40998e81	4.7986455
168	0xbe5d1f7f	-0.21594046
169	0x3ed43f63	0.4145461
170	0xbe31f53a	-0.17378703
171	0xbe293b58	-0.16526544
172	0xbe778129	-0.24170364
173	0xbfce61cd	-1.6123596
174	0x3daa2138	0.08307117
175	0x3e861193	0.26185283
176	0xbedd404e	-0.43213123
177	0xbe3591b4	-0.17731363
178	0x4001c653	2.0277297
179	0xbf4472dc	-0.7673776
180	0xbc167f00	-0.009185553
181	0xbeaca9bf	-0.33723256
182	0xbdc9affe	-0.09848021
183	0xbe7437f1	-0.23849465
184	0xbc56b779	-0.013105267
185	0x3e13f4c9	0.14448847
186	0xbd30cd8a	-0.043164767
187	0x3e86752f	0.2626128
188	0x3e169fac	0.14709347
189	0xbdedcc98	-0.11611289
190	0x3f967734	1.1755128
191	0xbfef486a	-1.8693974
192	0x3d31d7c6	0.04341867
193	0xbdad5ad7	-0.08464592
194	0xbeb77334	-0.3583008
195	0xbea0d215	-0.3141028
196	0xbea21441	-0.31656078
197	0x3d8d17ca	0.06889303
198	0xbeb0f27b	-0.34559998
199	0x3e2c3e5e	0.16820666
200	0xbef2971d	-0.47380915
201	0x3db7dca1	0.089776285
202	0x3eb60675	0.355518
203	0xbfb1829a	-1.3867981
204	0xbd6df159	-0.058091495
205	0x3dc07c39	0.093986936
206	0xbf6226e1	-0.88340575
207	0x3d3a2516	0.045445524
208	0x3ed3b038	0.41345382
209	0xbf302489	-0.6880575
210	0xbd6fe29f	-0.058565732
211	0xbeb071a2	-0.34461695
212	0xbf609347	-0.8772473
213	0x3e60185c	0.21884292
214	0xbe7e4772	-0.24831942
215	0x40052e06	2.080934
216	0x3d09fe0c	0.033689544
217	0x3deb6b8a	0.11495121
218	0xbf335879	-0.70056874
219	0xbcdc5a71	-0.026898595
220	0xbdf04ea9	-0.11733753
221	0xbfbfcc62	-1.4984248
222	0xbe822545	-0.2541906
223	0xbe70a8e7	-0.23501931
224	0x3e98a344	0.29812062
225	0xbd2742a8	-0.040835053
226	0x3e44e237	0.19226919
227	0xbe9a49bc	-0.3013438
228	0x3e54b267	0.2077118
229	0xbeec411c	-0.46143425
230	0x3e1e6dfd	0.15471645
231	0x3e3cd9e2	0.1844249
232	0x3f047e1a	0.51754916
233	0xc0257113	-2.5850265
234	0xbea1d64e	-0.31608814
235	0x3e97d12b	0.2965177
236	0x3d8dbbaa	0.0692056
237	0xbcf96e08	-0.030447975
238	0xc002ea02	-2.0455327
239	0x3fdd6ad1	1.7298223
240	0xbe84cc48	-0.25937104
241	0x3dab1484	0.083535224
242	0x3f278980	0.65444183
243	0x3c65a1e0	0.014015645
244	0x3e8c9199	0.27454832
245	0xbfdfbda4	-1.7479749
246	0xbd6bc36c	-0.057559416
247	0x3d185a42	0.03719545
248	0xbeca4735	-0.39507452
249	0xbe06152a	-0.13094011
250	0xbe0d5917	-0.13803516
251	0xbe9c739f	-0.30556962
252	0xbe444f20	-0.19170809
253	0xbedb89a0	-0.42878437
254	0xbecb2610	-0.39677477
255	0x3e66e02c	0.22546452

fc.0.bias f4 [256]
0	0xbf2b2c10	-0.6686411
1	0xbe7abddc	-0.24486488
2	0x3e062f5e	0.13104007
3	0x3d4a3649	0.049368177
4	0xbf032d63	-0.5124113
5	0x3eb9cb0c	0.36287725
6	0xbdd8f78a	-0.10594089
7	0xbd868a6a	-0.06569369
8	0xbe2b5627	-0.16732083
9	0xbe20a7f1	-0.15689065
10	0xbf251d1a	-0.6449753
11	0xbef1f967	-0.4726059
12	0xbd732c8a	-0.059368648
13	0x3f135b60	0.575613
14	0xbf112737	-0.5670046
15	0xbe9d1a4c	-0.30684125
16	0x3ec39c6e	0.38205284
17	0x3dc53ad0	0.09630358
18	0xbe80f94b	-0.25190195
19	0xbd1a98fe	-0.03774356
20	0x3e99e41f	0.30056855
21	0xbed4208a	-0.41431075
22	0xbdf10826	-0.11769132
23	0xbeae53d6	-0.34048337
24	0x3e17c8a8	0.14822638
25	0x3e754804	0.23953253
26	0xbe680217	-0.22657047
27	0xbd244562	-0.04010523
28	0xbe3656af	-0.17806505
29	0xbe6ae3fc	-0.22938532
30	0x3ead1b1a	0.3380974
31	0xbf019d4b	-0.50630635
32	0x3d70b398	0.058765024
33	0xbf246c58	-0.6422782
34	0xbe8a3430	-0.2699294
35	0xbef4f439	-0.47842577
36	0xbe2a1ef2	-0.16613367
37	0xbe90f60f	-0.28312728
38	0x3df71167	0.12063866
39	0xbe19da2a	-0.15024629
40	0x3c13140a	0.008976946
41	0xbe790ab9	-0.24320497
42	0xbe25b48a	-0.16182151
43	0xbf4aacd2	-0.7916995
44	0x3ed05495	0.4068953
45	0xbf0d6573	-0.55232924
46	0xbf600c7d	-0.87519056
47	0x3dcc3a23	0.09972026
48	0x3dce4c5d	0.10073159
49	0x3e728a00	0.23685455
50	0x3dd8e11b	0.105898105
51	0x3e5b0530	0.21388698
52	0xbefd725f	-0.4950132
53	0xbe38f440	-0.18061924
54	0x3bba0ac0	0.005677551
55	0xbecb42d4	-0.39699423
56	0xbecbf766	-0.39837188
57	0x3da6fed5	0.08154074
58	0xbc1e7545	-0.009671514
59	0xbd9ade69	-0.075619526
60	0xbe06bfd3	-0.13159113
61	0x3e96bc04	0.2944032
62	0x3e30d474	0.17268544
63	0xbecb4682	-0.3970223
64	0x3e7025e1	0.2345195
65	0xbe2ed7b8	-0.17074478
66	0xbe185037	-0.1487435
67	0x3eafde60	0.34349346
68	0xbda4a9a1	-0.08040167
69	0xbed3c162	-0.41358477
70	0x3e39b4e5	0.18135412
71	0xbea6c12b	-0.3256925
72	0xbe627622	-0.22115377
73	0x3e49ca69	0.1970612
74	0x3ea2fef7	0.31835148
75	0xbed3e831	-0.41388085
76	0xbe532bbf	-0.20622157
77	0x3cc66791	0.024219306
78	0xbed29f10	-0.4113698
79	0xbef112aa	-0.47084552
80	0xbced3b5f	-0.028958974
81	0xbec84ac2	-0.39119536
82	0xbec474ee	-0.3837046
83	0x3ed0f65e	0.40812963
84	0xbe622a9c	-0.22086567
85	0xbf18a707	-0.59629864
86	0x3f1b064b	0.6055648
87	0xbec0b55e	-0.37638372
88	0xbf09c4ec	-0.53816104
89	0x3eb4e159	0.35328177
90	0xbed452b3	-0.41469344
91	0x3eddeff2	0.43347126
92	0x3e63e98e	0.22257063
93	0x3cf25982	0.029583696
94	0xbe17beec	-0.14818925
95	0xbd235092	-0.03987176
96	0xbdb23c4f	-0.08702909
97	0xbe67ca4d	-0.22635765
98	0xbf0fd2ba	-0.5618092
99	0x3af84438	0.0018941229
100	0x3ca372b0	0.019952148
101	0x3e5795ca	0.21053234
102	0xbed3e50a	-0.4138568
103	0x3e7f82b5	0.24952205
104	0xbec3fb57	-0.38277695
105	0xbdcd006f	-0.10009848
106	0x3e7d0e29	0.24712433
107	0xbdd384c0	-0.103280544
108	0x3e077496	0.13228068
109	0xbefec52a	-0.497598
110	0x3da4c2e3	0.08044984
111	0x3ea65924	0.32489884
112	0xbe862e4a	-0.2620719
113	0x3f55de72	0.8354255
114	0x3e0c166a	0.13680425
115	0xbea047f9	-0.3130491
116	0xbe9ed8af	-0.3102469
117	0xbe2b9db2	-0.16759375
118	0x3d12fe69	0.035887156
119	0x3ec1a484	0.37820828
120	0xbe1cf267	-0.15326844
121	0xbee7c5a7	-0.45267984
122	0xbca957be	-0.020671722
123	0x3e920a64	0.28523552
124	0x3f392a23	0.7232992
125	0x3d9120ce	0.07086335
126	0x3ebd288e	0.36945003
127	0xbcbfadb6	-0.023398262
128	0xbd803593	-0.062602185
129	0x3da9dc30	0.082939506
130	0xbf188ca5	-0.59589607
131	0xbe54e40d	-0.2079012
132	0xbe94c1f6	-0.2905423
133	0xbe8a738e	-0.27041286
134	0x3f23b6e0	0.6395092
135	0xbf20e976	-0.62856233
136	0x3ea9d1f0	0.33167982
137	0xbf1526e1	-0.5826245
138	0x3ebc1940	0.36738014
139	0xbece0284	-0.40236294
140	0xbf2aaec4	-0.6667292
141	0xbec655ff	-0.38737485
142	0xbd962f9a	-0.07333298
143	0x3f09eab0	0.5387373
144	0xbf118c76	-0.5685495
145	0x3cc4aa5d	0.024007017
146	0x3ed1456b	0.40873274
147	0x3ec60ed0	0.38683176
148	0x3f155e25	0.5834678
149	0x3ea96a97	0.33089134
150	0x3e141852	0.14462402
151	0x3d918ba3	0.07106712
152	0xbc81c413	-0.015840566
153	0xbe4e3665	-0.20137937
154	0x3d7a8c98	0.061169237
155	0x3e70c2ff	0.23511885
156	0xbe7d1646	-0.24715528
157	0xbc47cb43	-0.012194457
158	0x3d01402f	0.03155535
159	0xbc10df16	-0.00884225
160	0x3d291e10	0.041288435
161	0xbea8131e	-0.32827085
162	0x3ea9d90e	0.33173412
163	0xbe95bcbc	-0.29245555
164	0xbdede6e6	-0.11616306
165	0xbe358b18	-0.17728841
166	0xbf434106	-0.7627109
167	0xbf12c83b	-0.5733678
168	0xbdbb3510	-0.0914098
169	0x3ea590fb	0.32337174
170	0x3e929a40	0.28633308
171	0xbc854072	-0.016266081
172	0xbeecf2e5	-0.46279064
173	0x3dbbe40c	0.09174356
174	0xbf020782	-0.50792706
175	0x3f324ed4	0.6965153
176	0x3ec20a96	0.378987
177	0x3e86a0b0	0.2629447
178	0xbe1c99ee	-0.15293095
179	0xbf0723cd	-0.52789
180	0xbf599350	-0.84990406
181	0xbefbe484	-0.4919778
182	0x3e7a4c5e	0.24443194
183	0xbed2f313	-0.41201076
184	0xbde173fa	-0.11008449
185	0x3bc4f15e	0.0060102185
186	0x3e21f6aa	0.15816751
187	0x3e555c57	0.20836006
188	0xbedba100	-0.4289627
189	0xbbb18b09	-0.0054181856
190	0x3d0e430c	0.03473191
191	0xbe0ba6c0	-0.13637829
192	0xbe50b415	-0.20381196
193	0xbf01e5d6	-0.50741327
194	0x3eae69d1	0.34065107
195	0x3e6cc44f	0.23121761
196	0x3df5f9e1	0.12010551
197	0x3ddc5566	0.10758476
198	0x3e66b358	0.22529352
199	0xbeb4fe72	-0.35350376
200	0x3e817eb0	0.25291967
201	0xbf03f528	-0.51545954
202	0xbf1f6dfd	-0.62277204
203	0x3dc67838	0.09690899
204	0x3d883c74	0.066521555
205	0xbd706628	-0.058691174
206	0xbebe6d43	-0.37192735
207	0x3e8e36eb	0.27776274
208	0x3d840e61	0.06448055
209	0xbf182f1f	-0.594469
210	0x3e4913d0	0.19636464
211	0x3de894b8	0.11356491
212	0xbe1dcedd	-0.15410943
213	0xbeb4b8c1	-0.35297206
214	0x3e55b03d	0.20868011
215	0xbf14b058	-0.5808158
216	0xbf2eb649	-0.68246895
217	0xbefc1cf2	-0.49240834
218	0xbefff9d6	-0.49995297
219	0xbea02e26	-0.31285208
220	0xbeec881c	-0.46197593
221	0x3e864872	0.26227146
222	0xbe630dde	-0.22173259
223	0x3de4cedd	0.111722685
224	0x3d812fe7	0.06307965
225	0x3f087b4c	0.53313136
226	0x3ec73510	0.3890767
227	0xbcd9baf8	-0.026578411
228	0x3e859a56	0.2609431
229	0xbe924945	-0.28571525
230	0xbe93682e	-0.2879042
231	0xbd72d507	-0.05928519
232	0xbeac1235	-0.3360764
233	0xbeb02d51	-0.34409574
234	0xbe69ae5a	-0.22820416
235	0x3e5df2a6	0.21674594
236	0xbd55e0d0	-0.05221635
237	0xbe64e21f	-0.22351883
238	0xbec2393b	-0.37934288
239	0xbb35ba40	-0.0027729422
240	0xbe2a05ae	-0.16603729
241	0xbdac897d	-0.08424661
242	0xbe52887b	-0.20559876
243	0xbea24f1b	-0.31700978
244	0x3d6db21c	0.058031186
245	0x3e9b180c	0.30291784
246	0xbd5f38fe	-0.05449771
247	0xbe0ae8bb	-0.13565342
248	0xbe214238	-0.15747917
249	0x3eb11541	0.34586528
250	0xbec5b27d	-0.38612738
251	0x3e7c3ec6	0.24633321
252	0xbe82da96	-0.25557393
253	0x3e313b64	0.17307812
254	0xbe4c4421	-0.19947864
255	0xbefecc9f	-0.49765489

fc.3.weight f4 [128, 256]
0	0x3e31ef29	0.17376389
1	0x3e46b7ad	0.19406004
2	0xbdbac390	-0.09119332
3	0xbdfe1495	-0.124062695
4	0xbccf4413	-0.025301015
5	0xbc4b6e90	-0.012416497
6	0x3cb7127c	0.022347681
7	0xbd8959ba	-0.06706567
8	0x3d580d57	0.052747097
9	0xbd01885e	-0.03162419
10	0x3cc6e382	0.024278406
11	0xbf6b920a	-0.9201971
12	0xbd3ea479	-0.046543572
13	0x3e0085f6	0.12551102
14	0x3d6b8f26	0.057509564
15	0xbc890c1a	-0.016729403
16	0x3d001cea	0.031277575
17	0x3e1323bd	0.14369102
18	0x3d4f36b9	0.050589297
19	0x3c64e61d	0.013970879
20	0x3d96ddd3	0.07366528
21	0x3d858e9d	0.06521342
22	0x3de675b4	0.11252919
23	0xbd6b2b05	-0.057414073
24	0x3d32761e	0.043569677
25	0x3b2ee902	0.0026689176
26	0x3c4ea7be	0.012613235
27	0x3e1b7744	0.15182215
28	0x3dfd6421	0.12372614
29	0x3db403eb	0.0878981
30	0xbd6ecf8c	-0.0583034
31	0x3dd6c98c	0.10487661
32	0x3c966a4e	0.018361237
33	0x3c83b6c2	0.016078357
34	0xbb1b0338	-0.0023653042
35	0xbf021aaa	-0.50821936
36	0x3d939223	0.07205608
37	0x3d726416	0.05917748
38	0x3c1f4388	0.009720691
39	0x3c66c6a7	0.014085448
40	0x3d22c245	0.03973605
41	0xbd03875a	-0.032111503
42	0xbd33102e	-0.043716602
43	0x3e4ac2ae	0.19800827
44	0xbd3ba2cb	-0.04580955
45	0xbe77919f	-0.24176644
46	0x3d63e0cd	0.05563431
47	0xbd6e2723	-0.058142792
48	0xbcd2feb5	-0.02575622
49	0x3c94e165	0.018173883
50	0xbdb0187c	-0.0859842
51	0x3cace531	0.02110538
52	0xbd9c666c	-0.07636723
53	0xbe04b45e	-0.1295943
54	0x3bb5810a	0.0055390643
55	0xbd472484	-0.04861881
56	0xbc0ccc0d	-0.008593571
57	0x3d946389	0.07245547
58	0xbd0424e7	-0.032261755
59	0x3d247c80	0.040157795
60	0x3e3bfbce	0.18357775
61	0xbd0ffb44	-0.035151735
62	0x3d5f681d	0.05454265
63	0xbcc508de	-0.02405208
64	0xbd8f3fa4	-0.0699456
65	0x3e1f257a	0.1554164
66	0xbd527d74	-0.051389173
67	0xbcb59384	-0.022165067
68	0x3d98fee2	0.0747049
69	0xbe8ae5c4	-0.27128422
70	0xbe996a69	-0.29963997
71	0xbced2780	-0.0289495
72	0xbd81075f	-0.06300234
73	0xbe87f92f	-0.265573
74	0x3d6b293c	0.05741237
75	0x3d13ecd6	0.036114536
76	0x3d7ef9b0	0.06224984
77	0x3d60fa35	0.054926116
78	0xbcb45122	-0.022011343
79	0x3dfb57bb	0.12272593
80	0xbbaf93b0	-0.005358182
81	0x3c1129d7	0.008860073
82	0x3ce77ba0	0.028257191
83	0xbd05f87a	-0.03270767
84	0x3db8896c	0.09010586
85	0xbe9bc91d	-0.30426875
86	0x3def2244	0.116764575
87	0x3d013d50	0.031552613
88	0xbdc87e01	-0.09789658
89	0xbdecbe9b	-0.115597926
90	0x3cbe6d03	0.02324534
91	0xbf0d57d5	-0.55212146
92	0x3e6fd14e	0.23419687
93	0x3d89a0de	0.06720136
94	0xbe008b60	-0.12553167
95	0xbc812b84	-0.01576782
96	0x3db756a3	0.089520715
97	0x3cd64cd0	0.026159674
98	0x3daba53a	0.08381124
99	0x3e11e939	0.14249124
100	0xbcbf2968	-0.023335174
101	0x3c225480	0.009907842
102	0xbd098482	-0.033573635
103	0xbadf332a	-0.0017028798
104	0x3e369f32	0.17834166
105	0x3d04891a	0.032357313
106	0xbc7b7bbc	-0.015349325
107	0x3cf04940	0.029331803
108	0xbecdadcb	-0.40171656
109	0xbe88d0d8	-0.26721835
110	0x3cadd037	0.021217449
111	0x3d30632a	0.04306332
112	0x3d40329c	0.046923265
113	0xbf5b7fb9	-0.85741764
114	0xbca552dc	-0.020181112
115	0x3cb856b5	0.022502283
116	0xbd6059a2	-0.05477298
117	0x3d54b250	0.051927865
118	0xbc9bf406	-0.019037258
119	0xbcd7ad09	-0.026327627
120	0x3d9e5799	0.07731552
121	0xbd77c961	-0.060494784
122	0xbd408d63	-0.047009837
123	0x3de99d9b	0.11407014
124	0xbf1f84cd	-0.6231201
125	0x3e68d45c	0.22737259
126	0x3cf7b51c	0.030237727
127	0xbcdd33cd	-0.02700224
128	0x3cf6823d	0.0300914
129	0xbc03699e	-0.008020787
130	0x3d3507ad	0.044196773
131	0x3d4f79cf	0.050653275
132	0x3d4af938	0.04955408
133	0xbe0199fa	-0.12656394
134	0x3d72e136	0.05929681
135	0x3d8ac890	0.067765355
136	0xbf18fa8a	-0.5975729
137	0x3e1919d2	0.14951256
138	0xbeb46afa	-0.35237867
139	0x3d6f510b	0.058426898
140	0x3e0a8489	0.1352712
141	0x3b1bda20	0.0023781136
142	0xbc7e1228	-0.0155072585
143	0x3c2f2048	0.010688849
144	0xbdec631f	-0.11542343
145	0x3c19d6e2	0.009389611
146	0xbdbebbf6	-0.093131945
147	0xbd241aee	-0.040064745
148	0xbe2b9fa5	-0.16760118
149	0xbca7cc20	-0.020483077
150	0xbf2a8282	-0.6660539
151	0xbeebf07f	-0.4608192
152	0x3c32ad40	0.010905564
153	0x3d98a73b	0.07453772
154	0x3c99203d	0.01869213
155	0x3cbb7ad0	0.02288571
156	0x3dc31f66	0.09527473
157	0xbe623641	-0.22091009
158	0x3cf54288	0.029938951
159	0xbf250466	-0.64459836
160	0x3cd96cb4	0.026541092
161	0x3e0c6b34	0.1371277
162	0xbd7169e0	-0.05893886
163	0xbebd1c4c	-0.3693565
164	0x3d585a55	0.052820522
165	0xbefdfb4e	-0.49605793
166	0x3d1db15f	0.038499232
167	0xbcf33bdb	-0.029691627
168	0xbd04f0d6	-0.03245624
169	0xbe09a209	-0.13440718
170	0x3d73ea40	0.05954957
171	0x3d7b48d2	0.061348744
172	0x3d40b13a	0.047044016
173	0xbc9c63dc	-0.019090585
174	0xbeb4d84a	-0.35321265
175	0xbf0dad74	-0.55342793
176	0xbe048a9a	-0.12943497
177	0xbd47fe0f	-0.048826274
178	0x3da2d211	0.07950223
179	0x3d565fef	0.052337583
180	0x3e8391c5	0.2569715
181	0x3e694468	0.22780001
182	0xbd7e704c	-0.062118813
183	0xbc00ac03	-0.007853511
184	0x3da12c85	0.078698196
185	0xbdd42577	-0.10358708
186	0x3c40c030	0.011764571
187	0xbd7ab048	-0.06120327
188	0x3dd28094	0.102784306
189	0x3d1cb9b4	0.038263038
190	0x3da41c58	0.08013219
191	0xbab190f8	-0.0013547232
192	0xbd806598	-0.062693775
193	0xbd86da99	-0.06584663
194	0xbd9dc0bf	-0.07702779
195	0xbd22566a	-0.039633192
196	0x3d5b91e5	0.053605933
197	0x3caccdec	0.021094285
198	0x3aaf5530	0.0013376828
199	0x3d5e0124	0.054200307
200	0x3d2b8e53	0.041883778
201	0xbda916d6	-0.08256309
202	0x3d2f892c	0.042855427
203	0xbcac0be2	-0.02100176
204	0xbbeee5de	-0.007290586
205	0xbd386c04	-0.045024887
206	0x3cc0ee10	0.023551017
207	0xbc983a50	-0.018582493
208	0xbbb8929c	-0.0056327116
209	0x3fa9fb48	1.327981
210	0x3fd9b1dc	1.7007403
211	0xbccf7e7e	-0.02532887
212	0xbfad8441	-1.3555986
213	0xbe094cd9	-0.13408221
214	0x3b97749d	0.0046220557
215	0xb9b90604	-0.00035290432
216	0xbcc80f94	-0.02442149
217	0x3d408006	0.046997093
218	0xbcd72708	-0.026263729
219	0x3d43a263	0.047762286
220	0x3cb6859e	0.02228051
221	0xbe9854ef	-0.297523
222	0x3b9b82e8	0.00474583
223	0xbfa8acb8	-1.317771
224	0xbee945a7	-0.45560953
225	0x3da23add	0.079213835
226	0xbd15281c	-0.036415204
227	0xbd576bf9	-0.052593205
228	0x3c93bb03	0.01803351
229	0x3d62a6d4	0.05533488
230	0x3d6a520c	0.057207152
231	0xbd044ee0	-0.032301784
232	0xbd858d60	-0.06521106
233	0x3d687a0a	0.05675701
234	0x3ea66f4a	0.32506782
235	0xbcd252ce	-0.02567425
236	0x3d8bafb1	0.0682062
237	0x3cc1b11f	0.023644028
238	0xbe9d3cd9	-0.30710486
239	0x3e1ae982	0.15128139
240	0x3be450d5	0.0069676437
241	0x3d9a9441	0.075478084
242	0xbd093cee	-0.033505373
243	0xbd006f68	-0.031356245
244	0xbd1531a7	-0.036424305
245	0xbcb558c4	-0.022137053
246	0x3d6514dc	0.055928096
247	0xbc239720	-0.0099847615
248	0x3d13690d	0.035988856
249	0x3ce22e7a	0.027610052
250	0xbdc4ffc4	-0.09619096
251	0x3d46e4a2	0.048557885
252	0x3cd90e85	0.026496181
253	0x3d4853dc	0.0489081
254	0xbd0c8cce	-0.03431397
255	0xbc229ebe	-0.009925542

fc.3.bias f4 [128]
0	0x3d007dca	0.03136996
1	0x3b362da2	0.0027798195
2	0xbd57c46e	-0.052677564
3	0x3e69ec4c	0.22844046
4	0xbd5a3ea3	-0.05328239
5	0xbcf0485c	-0.029331379
6	0x3be63694	0.007025549
7	0xbe248b18	-0.16068685
8	0x3e946947	0.2898657
9	0xbc97d285	-0.018533
10	0xbd482ee4	-0.048872843
11	0x3c8f994a	0.017529149
12	0xbd2f4b4f	-0.04279643
13	0xbc4b08c0	-0.012392223
14	0xbd8fb0e2	-0.070161596
15	0xbe81bdf6	-0.2534024
16	0xbc3b3123	-0.011425289
17	0x3e4a5912	0.1976054
18	0xbcf12a9b	-0.029439261
19	0x3de4e757	0.11176937
20	0xbd943630	-0.07236898
21	0x3e43a56d	0.19106074
22	0xbc4401c7	-0.011963314
23	0xbd9693fb	-0.07352444
24	0x3c2e5e0a	0.010642538
25	0x3e75c008	0.23999035
26	0xbdef489d	-0.11683772
27	0xbbc08c24	-0.005876081
28	0x3e7ab9b2	0.244849
29	0x3c192ba0	0.00934878
30	0x3e8f4a58	0.27986407
31	0x3e2e61dd	0.1702952
32	0xbee32e81	-0.44371417
33	0xbd1f451d	-0.03888427
34	0xbd6b7d96	-0.057492815
35	0x3ea72f4d	0.32653275
36	0x3c9e3a54	0.019314922
37	0x3a93adb8	0.0011266982
38	0x3c2135ad	0.009839457
39	0xbdf0c643	-0.117565654
40	0xbe84b596	-0.2591979
41	0xbe9a3301	-0.30117038
42	0x3ed05071	0.40686372
43	0xbe85d528	-0.26139188
44	0xbe67c348	-0.22633088
45	0xbc9dedf6	-0.019278508
46	0xbce7222b	-0.028214535
47	0x3eb3d5a0	0.3512392
48	0xbdbce8c2	-0.092240825
49	0xbc2cd077	-0.010547749
50	0xbcc759f0	-0.024334878
51	0xbd0cb042	-0.03434778
52	0xbcc52858	-0.024067089
53	0xbda233d1	-0.079200394
54	0x3b987ee8	0.0046538003
55	0xbddc0c29	-0.10744507
56	0x3e6bb6e9	0.23018993
57	0xbe3449af	-0.17606233
58	0xbcfdda2f	-0.030987827
59	0xbce67bbe	-0.028135177
60	0xbd7134f2	-0.058888383
61	0xbe9ca63b	-0.30595574
62	0xbd5c73d4	-0.0538214
63	0xbbf18377	-0.007370408
64	0xbd867667	-0.06565552
65	0xbc163f0c	-0.009170305
66	0xba41ac78	-0.00073880656
67	0x3bf25342	0.007395179
68	0x3c940230	0.01806745
69	0xbc806da3	-0.015677279
70	0xbee8bb56	-0.45455426
71	0xbdd17cfc	-0.10228917
72	0xbdb23f39	-0.08703465
73	0xbc8a330f	-0.01687005
74	0x3c1ea8e0	0.009683818
75	0x3ceec516	0.029146712
76	0xbe53cafc	-0.20682901
77	0x3c1309ea	0.008974532
78	0xbeb917bc	-0.3615092
79	0x3ec74909	0.3892291
80	0xbcb3a849	-0.02193083
81	0xbc360dbb	-0.011111672
82	0xbee38e0c	-0.4444431
83	0x3d267b0a	0.040644683
84	0x3e88efe4	0.26745522
85	0x3d4cb7ac	0.04997985
86	0x3d25ad9a	0.040448762
87	0xbb442732	-0.0029930589
88	0x3e4b573e	0.19857499
89	0xbdd890fc	-0.105745286
90	0xbb9d230e	-0.0047954386
91	0x3bf8f323	0.0075973435
92	0xbd35c8f6	-0.044381104
93	0x3f00b454	0.5027516
94	0x3adba988	0.0016758898
95	0xbdec5b2e	-0.11540829
96	0xbe076b2d	-0.13224478
97	0x3ec1192b	0.37714514
98	0xbe00e304	-0.125866
99	0x3d32ac57	0.043621387
100	0x3e138114	0.14404708
101	0x3e05118d	0.12994976
102	0xbe3f6af3	-0.18693142
103	0x3e57c8e2	0.21072724
104	0xbc69383b	-0.014234598
105	0x3d0224df	0.031773444
106	0xbd002e97	-0.03129443
107	0x3e357b68	0.17722857
108	0x3b9cc3ee	0.004784099
109	0xbc2e70ae	-0.010646982
110	0xbd45bccd	-0.048275758
111	0x3efe8c38	0.49716353
112	0x3e9672bd	0.29384413
113	0x3aac84d4	0.0013162144
114	0xbb97b41c	-0.004629625
115	0xbe49c8fa	-0.19705573
116	0xbcc0b160	-0.023522079
117	0x3cc81633	0.024424648
118	0xbca1f47e	-0.019769903
119	0xbdb52fd6	-0.088470146
120	0x3ee461a2	0.44605738
121	0xbda1e222	-0.079044595
122	0x3bd40ab5	0.006471003
123	0xbe973d02	-0.29538733
124	0xbdbe04fa	-0.09278293
125	0xbd0e06c0	-0.034674406
126	0xbd73d79f	-0.059531804
127	0xbdbe6d4f	-0.09298193

fc.5.weight f4 [64, 128]
0	0x399c7615	0.00029842617
1	0x3d3bddaf	0.04586571
2	0xbe7cd919	-0.24692191
3	0xbb08290a	-0.0020776414
4	0xbd5979c3	-0.053094637
5	0x3c91496d	0.017735207
6	0x3d8b2a7d	0.06795213
7	0xbcf0cfc4	-0.029395945
8	0xbd9cf2fd	-0.07663534
9	0xbd8129ca	-0.06306799
10	0xbda5dc67	-0.08098679
11	0x3d1af23c	0.03782867
12	0x3d80027c	0.06250474
13	0x3d88e529	0.06684334
14	0xbd1cc3d6	-0.0382727
15	0xbc1a5780	-0.009420276
16	0x3d40f93e	0.047112696
17	0xbd8ec171	-0.0697049
18	0x3d5053ea	0.050861277
19	0x3bff43cc	0.0077900644
20	0x3c9ee77a	0.019397486
21	0xbb41891e	-0.002953119
22	0xbca9aaa7	-0.020711256
23	0xbcd9bcb1	-0.026579233
24	0xbd357254	-0.044298485
25	0x3cc844e6	0.024446916
26	0xbcc1607e	-0.023605581
27	0x3d569b96	0.052394472
28	0xbdbc65d4	-0.0919911
29	0x3cc71d56	0.02430598
30	0x3d71c523	0.059025895
31	0xbbcab010	-0.006185539
32	0xbd4e0298	-0.050295442
33	0xbd8cea63	-0.06880643
34	0xbd79d164	-0.060990706
35	0x3dc0da3b	0.09416624
36	0x3d3f2121	0.046662454
37	0xbc6925cc	-0.014230203
38	0x3ccc0e9a	0.024909306
39	0xbd62e2e3	-0.055392157
40	0x3d14e16d	0.036347795
41	0xbd50cdb3	-0.05097742
42	0x3d0dcc83	0.034618866
43	0x3c1648d6	0.009172639
44	0xbdfe40fa	-0.12414737
45	0x3d369aee	0.044581346
46	0xbd5898a2	-0.052879937
47	0xbd52263a	-0.051305987
48	0xbb822dda	-0.003972751
49	0x3bd62b06	0.0065358905
50	0x3c9794f4	0.018503644
51	0x3db7c3e5	0.08972911
52	0xbd6bfcc0	-0.057614088
53	0xbcf09ab0	-0.029370636
54	0xbd8feaaa	-0.070271805
55	0xbc13cf21	-0.009021551
56	0xbd51f3b7	-0.051257815
57	0x3d6acc2e	0.057323627
58	0x3cfd4753	0.0309178
59	0x3d2c69b4	0.042092994
60	0x3cd4bf88	0.025970235
61	0x3cf8bb51	0.030362757
62	0xbd8e0f45	-0.06936506
63	0x3c1107f3	0.008851993
64	0x3dabfe8a	0.08398159
65	0x3c71f7d0	0.014768556
66	0xbd77fac1	-0.060541872
67	0xbd3ea25a	-0.04654155
68	0xbd5288ce	-0.0514
69	0x3c282c28	0.010264434
70	0xbd27b35c	-0.040942535
71	0x3d4f2d18	0.050580114
72	0xbd519177	-0.051164117
73	0xbd9bb0a6	-0.076020524
74	0xbd110d15	-0.035412867
75	0x3d95ee9f	0.07320904
76	0xbd9a887c	-0.075455636
77	0xbd6d59ba	-0.057946898
78	0xbe1f6a8f	-0.15567993
79	0x3d3c49b1	0.045968715
80	0x3cc35174	0.02384255
81	0x3c23b51f	0.009991913
82	0xbd344aef	-0.044016775
83	0x3c508a1e	0.012728242
84	0xba329e78	-0.0006813775
85	0xbcdc0560	-0.026858032
86	0x3d670716	0.056403242
87	0xbce60fef	-0.02808377
88	0xbd6cd743	-0.057822477
89	0xbcdeb9e7	-0.027188255
90	0xbd8e3250	-0.0694319
91	0x3d74ef91	0.05979878
92	0xbd8b8ab4	-0.06813565
93	0xbc1360bc	-0.008995231
94	0x3d62a96f	0.055337366
95	0x3d68acd5	0.05680545
96	0x3d82212e	0.06353985
97	0x3d8572e4	0.06516054
98	0x3cf80ba0	0.03027898
99	0xbd1c1ac4	-0.038111463
100	0x3c995310	0.018716365
101	0xbca42e5b	-0.020041635
102	0xbd841f6c	-0.06451306
103	0x3cc2c5ec	0.023776017
104	0x3c726718	0.014795087
105	0xbd97f014	-0.07418838
106	0xbd48b848	-0.04900387
107	0x3d4021e1	0.04690731
108	0xbd86a833	-0.0657505
109	0xbd82a594	-0.06379238
110	0x3c3c9fec	0.011512738
111	0x3c4eb890	0.012617245
112	0x3ce2e7ec	0.02769848
113	0xbd99657f	-0.07490062
114	0x3d9119b9	0.07084984
115	0x3d481ca0	0.048855424
116	0xbca1d4ef	-0.019754855
117	0x3c3e0ded	0.0116
118	0x3cbc5c8b	0.022993347
119	0x3d4b84a8	0.049687058
120	0x3b989775	0.004656727
121	0xbd7a0540	-0.061040163
122	0x3d283661	0.041067485
123	0xbd72ac40	-0.0592463
124	0xbb4a0dea	-0.0030831047
125	0x3cbe68b0	0.023243278
126	0xbcbb5372	-0.022866938
127	0x3c58fa67	0.013243294
128	0xbca233c5	-0.019800076
129	0xbd204c2c	-0.039135143
130	0x3d2cc011	0.042175356
131	0xbc9b7528	-0.018976763
132	0x3bad092e	0.0052806353
133	0x3d4bc51e	0.049748532
134	0x3d295413	0.041339945
135	0xbce91694	-0.028453149
136	0x3d31aa3a	0.04337523
137	0x3d917d25	0.071039476
138	0xbd8cd5ba	-0.068767026
139	0xbd94eb87	-0.07271486
140	0xbdad2253	-0.084538125
141	0xbd3e8f72	-0.04652352
142	0xbdab6ea1	-0.0837071
143	0xbd2bba79	-0.04192588
144	0xbd5780c8	-0.05261305
145	0x3cd3fc4f	0.025877146
146	0xbd083e50	-0.03326255
147	0xbda779c4	-0.08177522
148	0x3d4bd8e6	0.049767397
149	0x3d97061b	0.073742114
150	0xbd3cb8d4	-0.046074703
151	0x3d2d19a8	0.042260796
152	0x3d89847d	0.06714723
153	0xbd725278	-0.05916068
154	0x3bfb9bf8	0.007678505
155	0x3d53f78a	0.051749744
156	0xbd988c1c	-0.07448599
157	0x3d39a2b5	0.045321185
158	0xbb4f1178	-0.0031596106
159	0xbd204e8e	-0.039137416
160	0x3d2deb63	0.04246081
161	0x3d94ec5d	0.07271645
162	0x3d9cbe71	0.07653511
163	0x3cd62a73	0.026143288
164	0xbd4f69d4	-0.050638035
165	0xbdb1f0a3	-0.08688476
166	0xbd6a6aaa	-0.05723063
167	0x3bebc3fe	0.007194995
168	0xbd0da43d	-0.034580458
169	0xbd8758fd	-0.0660877
170	0xbd75d1dc	-0.06001459
171	0x3cc45d8e	0.023970392
172	0xbc34b82d	-0.011030239
173	0xbd19ebb9	-0.03757832
174	0xbd968f6c	-0.07351574
175	0xbd2c85ca	-0.04211978
176	0x3d9fa488	0.07795054
177	0x3d2b8997	0.041879263
178	0x3d03d9fb	0.032190304
179	0x3db99aa7	0.09062701
180	0x3cd2eefe	0.025748726
181	0xbd7b6980	-0.06137991
182	0x3cd951be	0.026528236
183	0xbd0752a5	-0.0330378
184	0x3d4cbdff	0.049985882
185	0xbd8e84c2	-0.06958915
186	0x3c2e0a80	0.010622621
187	0x3d54140e	0.05177694
188	0xbc468cd5	-0.012118538
189	0x3d055cb2	0.032559104
190	0x3d489b12	0.04897601
191	0xbd2ada74	-0.04171224
192	0x3cb128a3	0.021625822
193	0x3c8b9c22	0.017042223
194	0x3d93e13e	0.07220696
195	0xbda945fe	-0.08265303
196	0x3ca0f132	0.01964626
197	0xbcb8b5da	-0.022547651
198	0xbdadb87e	-0.08482455
199	0x3d61c612	0.055120535
200	0xbd15f305	-0.036608715
201	0x3d6a22d9	0.05716214
202	0xbd54b648	-0.05193165
203	0xbd504142	-0.050843485
204	0x3c5b9300	0.013401747
205	0x3c5dc5d6	0.013535937
206	0xbd35232a	-0.04422299
207	0x3d8f7dc2	0.07006408
208	0xbc9b0c09	-0.018926637
209	0xbdaa74c2	-0.08323051
210	0x3dafa6f1	0.085767634
211	0x3c07e90d	0.00829531
212	0xbd00bd1c	-0.03143035
213	0x3cd64006	0.026153576
214	0xbcdb7287	-0.02678801
215	0x3d94e7b2	0.07270755
216	0xbc7cfb83	-0.015440824
217	0xbd87242c	-0.06598696
218	0xbd187e4f	-0.037229832
219	0xbd71ca72	-0.059030958
220	0xbbdfd284	-0.0068305153
221	0xbde54647	-0.11195045
222	0x3d653ce2	0.055966265
223	0xbd35c797	-0.044379797
224	0xbd638303	-0.055544864
225	0xbd970f38	-0.073759496
226	0xbd9de09c	-0.077088565
227	0xbd6686a5	-0.05628075
228	0xbd9cffb1	-0.07665957
229	0x3ccb858b	0.024843952
230	0xbde0c64e	-0.109753236
231	0x3d173451	0.036915127
232	0xbc4d7d56	-0.012542089
233	0xbd82ab8f	-0.063803785
234	0xbd136997	-0.03598937
235	0x3d130629	0.035894547
236	0xbdc7f6e2	-0.09763886
237	0x3d3049cd	0.043039132
238	0xbd6ed768	-0.058310896
239	0x3d46fe0f	0.048582133
240	0xbdaa9f5a	-0.08331175
241	0x3c4bcd2a	0.012439052
242	0x3d01c984	0.03168632
243	0xbd0f582e	-0.034996204
244	0x3d250e43	0.040296804
245	0xbd941d12	-0.07232107
246	0x3d97a537	0.07404559
247	0x3cc92261	0.024552526
248	0xbd6da1e8	-0.058015734
249	0x3db145cd	0.086558916
250	0xbd8b7e93	-0.068112515
251	0xbd657e58	-0.056028694
252	0xbd12d712	-0.03584964
253	0x3d6f6824	0.058448926
254	0x3db7a723	0.08967426
255	0x3d22da7e	0.03975915

fc.5.bias f4 [64]
0	0x3d973dd8	0.07384843
1	0x3d953327	0.07285147
2	0xbcda3203	-0.026635176
3	0xbd9cdf1b	-0.076597415
4	0x3c056b89	0.008143314
5	0xbe4a06c2	-0.1972914
6	0x3d9bf6ff	0.0761547
7	0x3c3966f1	0.011316047
8	0xbb2cd04c	-0.0026369272
9	0xbd865c7d	-0.065606095
10	0xbde4beff	-0.11169242
11	0x3e4be450	0.19911313
12	0xbf180003	-0.5937502
13	0x3e077e72	0.13231829
14	0x3dda2d2b	0.10653146
15	0xbddfc428	-0.10926086
16	0xbe9fdfb2	-0.31225353
17	0x3e5e7d70	0.21727538
18	0x3de6e516	0.112741634
19	0xbd84617b	-0.064639054
20	0xbd7a61ce	-0.06112843
21	0x3d5a41f9	0.053285573
22	0x3d8cc8ed	0.06874261
23	0x3d911c5f	0.070854895
24	0x3e8b9f03	0.27269754
25	0xb9fa5060	-0.000477436
26	0x3d0eb0e0	0.03483665
27	0xbe4ef588	-0.2021085
28	0x3e736b34	0.23771363
29	0xbe082cee	-0.1329839
30	0x3d51301d	0.051071275
31	0x3da12f31	0.07870329
32	0xbe546619	-0.20742072
33	0xbe5ca4aa	-0.2154719
34	0xbc4db856	-0.012556156
35	0x3f2ac6fa	0.66709864
36	0xbd3e73d4	-0.04649718
37	0xbcc6a2f0	-0.024247617
38	0xbe24bb6c	-0.16087121
39	0x3d1e3016	0.038620077
40	0x3d91dde9	0.07122404
41	0xbd8e593c	-0.06950614
42	0xbc2d08cf	-0.010561182
43	0x3d93abcd	0.07210503
44	0xbe042577	-0.12904917
45	0x3e5b6536	0.21425328
46	0x3ea548cf	0.3228211
47	0x3d0a1f61	0.03372133
48	0x3d9f9a48	0.07793099
49	0x3cf04405	0.02932931
50	0xbe752051	-0.23938109
51	0x3c28f30f	0.010311856
52	0x3dcdd010	0.100494504
53	0xbe6d0adc	-0.23148674
54	0xbe3581af	-0.17725252
55	0x3dce8e2d	0.10085712
56	0xbf69c6d5	-0.9131902
57	0xbe2b5956	-0.16733298
58	0x3d7e58ba	0.062096335
59	0xbcdf2f3f	-0.027244208
60	0xbec7cd76	-0.39023942
61	0x3e4bcec1	0.19903089
62	0x3d576110	0.0525828
63	0xbd094f3b	-0.033522826

fc.7.weight f4 [32, 64]
0	0xbdd0e199	-0.10199279
1	0x3e0f704d	0.14007683
2	0x3d80d49a	0.062905505
3	0x3dd2f790	0.10301125
4	0xbc7d672c	-0.015466493
5	0x3b075fe3	0.0020656518
6	0x3ce93cfe	0.028471466
7	0xbddc0009	-0.10742194
8	0xbd85f7e6	-0.065414235
9	0x3df823a5	0.12116174
10	0xbddf55da	-0.10905047
11	0xbda6d9c6	-0.08147006
12	0x3de12d73	0.10994997
13	0xbd2a12ea	-0.041521944
14	0xbd98a44a	-0.07453211
15	0xbe0c213b	-0.13684551
16	0x3dd01332	0.10159911
17	0xbe00e26a	-0.1258637
18	0xbd5f3c0d	-0.05450063
19	0xbdb4b04d	-0.08822689
20	0x3d662290	0.056185305
21	0xbdbb695c	-0.09150955
22	0x3da1abbb	0.07894083
23	0x3d5f1901	0.054467205
24	0xbdb7c584	-0.0897322
25	0x3dbff27f	0.09372424
26	0x3da0cf38	0.07852024
27	0xbc512aca	-0.012766549
28	0x3b06fcec	0.002059753
29	0x3d3ecbc4	0.046581045
30	0xbdc9349f	-0.0982449
31	0x3b05790a	0.0020366334
32	0xbd86708b	-0.065644346
33	0x3b1037e2	0.0022005965
34	0x3da783e0	0.0817945
35	0xbc862290	-0.016373903
36	0xbd8e18c8	-0.069383204
37	0xbd40116a	-0.046891607
38	0x3d8df09c	0.06930658
39	0xbdf3f9fc	-0.11912915
40	0xbd83b903	-0.064317726
41	0x3d92c00c	0.07165536
42	0xbcac4eb7	-0.021033628
43	0xbd82266c	-0.06354985
44	0xbc02a3c6	-0.007973617
45	0xbcd8d6ce	-0.026469614
46	0xbd801f03	-0.06255915
47	0x3d9aaa10	0.07551968
48	0xbccf4988	-0.025303617
49	0x3de439f6	0.11143868
50	0xbd2f84cd	-0.042851258
51	0x3d702060	0.058624625
52	0xbd7ce457	-0.0617412
53	0xbde71509	-0.11283309
54	0xbd13c8f9	-0.036080334
55	0xbd2a7593	-0.041616034
56	0xbd6f6d28	-0.05845371
57	0xbd218a86	-0.039438747
58	0xbe27bbbf	-0.16380213
59	0x3cb2be29	0.021819191
60	0xbcbe2344	-0.023210175
61	0x3df5b973	0.11998262
62	0xbd040004	-0.032226577
63	0xbda51de7	-0.08062344
64	0xbde5acd8	-0.11214608
65	0x3d940f79	0.07229514
66	0x3cb61a0a	0.022229213
67	0x3ded0fd4	0.115752846
68	0x3de14a7c	0.11000535
69	0x3d868a10	0.06569302
70	0xbde8f330	-0.11374509
71	0x3d8a48a9	0.0675214
72	0x3c86fa6a	0.016476829
73	0xbd7bbbb8	-0.06145832
74	0x3dbbf241	0.09177066
75	0x3d7bdbfb	0.061489087
76	0x3da95e7f	0.08269977
77	0x3d102a2c	0.03519647
78	0x3dc9fa2e	0.09862171
79	0xbd296254	-0.04135354
80	0x3e003acb	0.12522428
81	0xbdf10e2b	-0.117702805
82	0xbe09b948	-0.13449585
83	0x3dc1cf16	0.09463327
84	0x3ddcbf15	0.107786335
85	0x3f179940	0.59218216
86	0x3dd76a04	0.10518268
87	0x3d1e20ee	0.038605623
88	0xbf873408	-1.0562754
89	0x3bac84e2	0.0052648643
90	0x3ddb2aa3	0.10701492
91	0x3b3099c1	0.0026947113
92	0x3d06c46d	0.03290217
93	0x3d4736bd	0.048636187
94	0x3deb1622	0.11478831
95	0x3d6a9294	0.057268694
96	0x3d64c387	0.055850532
97	0xbda758e0	-0.081712484
98	0x3cd15b6b	0.025556287
99	0x3d74deca	0.05978278
100	0x3d3be546	0.04587295
101	0xbd8a5c00	-0.06755829
102	0x3e661172	0.22467592
103	0x3b1d4763	0.0023998849
104	0xbcf5ea64	-0.030018993
105	0xbdc0bd2a	-0.0941108
106	0x3d83a382	0.06427671
107	0x3b76ff21	0.003768869
108	0x3e9954a1	0.2994738
109	0x3d81de88	0.063412726
110	0xbad3aac8	-0.0016148919
111	0xbcebe2a8	-0.028794602
112	0x3e20b367	0.15693437
113	0x3ebaa33f	0.36452672
114	0x3e077c1e	0.1323094
115	0xbde9e081	-0.11419774
116	0xbd11f56f	-0.035634454
117	0xbdb26f52	-0.08712639
118	0x3cfa051a	0.03052001
119	0xbe898ce0	-0.26865292
120	0x3e827086	0.25476474
121	0xbe86fe3f	-0.2636585
122	0xbe289ea3	-0.16466765
123	0xbe1755d3	-0.14778833
124	0xbe7c44ec	-0.24635667
125	0xbd3ada0a	-0.045618095
126	0x3dc4076f	0.0957173
127	0xbd0c0569	-0.034184847
128	0xbdebbb47	-0.1151033
129	0xbdb183dd	-0.08667729
130	0x3dc29623	0.095012926
131	0x3d9c3011	0.076263554
132	0x3d6f6462	0.058445342
133	0xbd84c46b	-0.06482776
134	0xbdf02205	-0.11725239
135	0x3dd7be28	0.10534316
136	0xbc6701ee	-0.014099581
137	0xbde057c6	-0.109542415
138	0x3d4a36a0	0.0493685
139	0xbe170621	-0.14748432
140	0x3ce56fa5	0.028007338
141	0xbc7bdb31	-0.0153720835
142	0xbd144010	-0.036193907
143	0x3d79babc	0.0609691
144	0x3d891398	0.0669319
145	0xbb84ec76	-0.0040565087
146	0xbd40f29a	-0.047106363
147	0x3da75038	0.081695974
148	0xbd2692dc	-0.0406674
149	0x3de90dea	0.11379607
150	0xbdd1e295	-0.10248295
151	0x3d8e1e66	0.06939392
152	0xbcbfaa5a	-0.02339666
153	0x3e0f3e9a	0.13988724
154	0x3d3f8428	0.046756893
155	0x3d45f26c	0.048326895
156	0xbe0c6974	-0.13712102
157	0x3ca38aec	0.019963704
158	0x3d8a2eed	0.06747232
159	0x3d17955b	0.03700767
160	0xbd348ef2	-0.044081636
161	0x3ca55cdf	0.020185886
162	0xbc8e4e67	-0.01737137
163	0xbe037324	-0.12836891
164	0x3dbc30d1	0.091889985
165	0x3dadffde	0.084960684
166	0x3d7b2821	0.061317567
167	0xbdbaff9a	-0.091307834
168	0x3d33fe0c	0.04394345
169	0x3dca0948	0.098650515
170	0xbdc7da35	-0.097584166
171	0x3ddc3a3c	0.10753295
172	0x3dfc2558	0.1231181
173	0x3d911cf8	0.070856035
174	0xbb9053ac	-0.0044045057
175	0x3c998fba	0.018745292
176	0xbd8de6c6	-0.06928782
177	0xbde9c483	-0.11414435
178	0x3d483f14	0.04888828
179	0x3d83265d	0.064038016
180	0xbdf31975	-0.1187009
181	0xbe258234	-0.1616295
182	0xbcdf49b1	-0.027256818
183	0x3dacc4a6	0.08435945
184	0x3d64ac68	0.055828482
185	0xbd7f7b88	-0.062373668
186	0xbe1a2ce7	-0.15056191
187	0x3d8b23fa	0.06793971
188	0x3d5f8051	0.05456573
189	0xbdf6bcae	-0.120477065
190	0xbcf1b687	-0.029505981
191	0xbdf6f93f	-0.12059259
192	0xbdd1badb	-0.10240718
193	0xbd282e72	-0.04105992
194	0x3dea58c8	0.11442715
195	0xbd04b3d6	-0.032398067
196	0x3de10fc0	0.10989332
197	0xbc9fcb4a	-0.019506115
198	0x3dc45ee2	0.0958841
199	0xbd51b53b	-0.051198225
200	0x3d6d0a73	0.057871293
201	0xbde39227	-0.11111861
202	0x3dedbfd8	0.11608857
203	0x3dae4dec	0.08510956
204	0x3dfdf1fb	0.1239967
205	0xbb2db7c0	-0.0026507229
206	0x3dcf38ff	0.10118293
207	0xbde0b50e	-0.109720334
208	0x3e0fdee1	0.14049865
209	0xbe1e6fd8	-0.15472353
210	0xbe1188e2	-0.14212373
211	0x3c941bca	0.018079657
212	0x3e235579	0.15950574
213	0xbec6dafb	-0.38838944
214	0xbc43d30a	-0.011952171
215	0xbd01182d	-0.031517196
216	0xbe22e421	-0.15907337
217	0x3e010642	0.12600043
218	0xbf27cb7b	-0.6554486
219	0x3e1e361a	0.15450326
220	0x3d462e7c	0.048384175
221	0x3e34490f	0.17605995
222	0xbd859dcc	-0.06524238
223	0xbda3a3a0	-0.07990193
224	0xbdb58b5c	-0.08864471
225	0x3d9f9519	0.0779211
226	0xbc875570	-0.016520232
227	0x3c7fc13e	0.015610037
228	0xbda17a0f	-0.07884609
229	0x3c8519d8	0.016247675
230	0xbe3c840a	-0.18409744
231	0x3e0101eb	0.12598388
232	0xbd52080b	-0.0512772
233	0xbdb94157	-0.09045666
234	0x3d93f8a6	0.0722516
235	0x3de214cc	0.11039123
236	0x3f0c398a	0.547753
237	0x3db3dd73	0.087824725
238	0x3d171941	0.03688932
239	0xbaa44cf0	-0.0012535136
240	0xbda1cd80	-0.07900524
241	0xbdd9f534	-0.10642472
242	0xbc3345de	-0.010941951
243	0x3d85b433	0.06528511
244	0x3ca61f3a	0.020278562
245	0x3df22acb	0.11824568
246	0xbca2ea18	-0.019887015
247	0x3e16231f	0.14661835
248	0x3e49a30d	0.19691105
249	0xbd9b0fc1	-0.07571364
250	0xbe60a10e	-0.21936437
251	0xbe79f490	-0.244097
252	0x3e770eee	0.24126789
253	0x3d54ffe5	0.052001853
254	0xbb825e03	-0.003978492
255	0xbde7dbfc	-0.113212556

fc.7.bias f4 [32]
0	0xbb217888	-0.0024638493
1	0x3cf9919c	0.03046494
2	0x3d0e1040	0.034683466
3	0x3d0095c6	0.031392835
4	0x3db88786	0.09010224
5	0xbe4f90e5	-0.20270117
6	0xbb564c05	-0.003269912
7	0xbed10701	-0.40825656
8	0xbe4b3d86	-0.19847688
9	0x3e4ece11	0.20195796
10	0xbe86fa8e	-0.26363033
11	0xbe236628	-0.15956938
12	0x3dec7136	0.11545031
13	0x3e573003	0.21014409
14	0xbe26eaad	-0.16300459
15	0xbe5ff8a6	-0.21872196
16	0x3d43f737	0.047843184
17	0x3de7da90	0.11320984
18	0x3d1248e2	0.035714038
19	0x3e370a57	0.17875038
20	0x3dc54e36	0.09634058
21	0xbdca0325	-0.09863881
22	0xbdc06af7	-0.09395402
23	0xbd99d4ec	-0.07511315
24	0x3d5f6091	0.054535452
25	0xbdc26a0d	-0.09492884
26	0xbe1df5ab	-0.15425746
27	0x3e00030d	0.12501164
28	0x3e62f6ee	0.22164509
29	0xbe7c15a8	-0.24617636
30	0x3e04f06c	0.12982339
31	0xbe077326	-0.1322752

fc.9.weight f4 [3, 32]
0	0xbe386f43	-0.18011193
1	0xbe930176	-0.28712052
2	0x3d6fbf5a	0.058532096
3	0xbf080f6c	-0.5314853
4	0x3e300b49	0.17191805
5	0x3e90ad2a	0.28257114
6	0x3e28b240	0.16474247
7	0x3f16f7cf	0.58971876
8	0x3db19d7d	0.08672617
9	0x3e1022e1	0.14075805
10	0x3ba9f0f5	0.005186195
11	0xbdb4e524	-0.088327676
12	0xbf6397ca	-0.88903487
13	0xbe212bd7	-0.1573938
14	0xbd9b1094	-0.075715214
15	0x3f6c7e4f	0.9238023
16	0x3e46c6d7	0.19411789
17	0xbdb7ebe4	-0.089805394
18	0xbd002075	-0.031280953
19	0xbec50aae	-0.3848471
20	0x3e25e247	0.16199599
21	0xbe17c412	-0.14820889
22	0x3e17071f	0.1474881
23	0xbda7d450	-0.08194792
24	0xbdbe306d	-0.0928658
25	0xbe3607b3	-0.17776375
26	0xbd6597f4	-0.056053117
27	0xbaa23ec0	-0.001237832
28	0xbc803b5d	-0.015653307
29	0x3e347285	0.1762181
30	0x3deca84a	0.11555536
31	0x3ee8ade4	0.45445168
32	0x3e1ce660	0.15322256
33	0x3c6e5b54	0.0145481415
34	0x3daafa88	0.08348566
35	0xbd9a0270	-0.07519996
36	0x3d3c3bd1	0.045955483
37	0xbef42aa5	-0.47688785
38	0x3d23e456	0.04001268
39	0xbe4aefc1	-0.19818021
40	0xbf063481	-0.52423865
41	0x3ebe30d3	0.37146625
42	0xbf83ab5e	-1.0286672
43	0x3e05b151	0.13055922
44	0x3dbdc9ff	0.09267043
45	0x3dee89ed	0.11647401
46	0xbdb3571e	-0.08756851
47	0x3e09d1af	0.13458894
48	0x3de26dc4	0.110560924
49	0x3e17b223	0.14814048
50	0xbd6482c0	-0.055788755
51	0xbe8a9106	-0.2706377
52	0xbe9db2c5	-0.30800453
53	0xbe492af0	-0.19645286
54	0x3e142c5c	0.14470047
55	0xbd0cca3c	-0.034372553
56	0xbd5d26d9	-0.053992126
57	0xbe0c01dc	-0.13672584
58	0x3d39f36c	0.04539816
59	0x3dd2c5c9	0.10291631
60	0x3eb77c20	0.35836887
61	0xbe3f47de	-0.18679759
62	0x3e755785	0.23959167
63	0xbc971256	-0.01844136
64	0xbd750814	-0.059822157
65	0x3e90e6e2	0.2830115
66	0xbe25c87d	-0.16189761
67	0x3e5bb933	0.21457367
68	0xbd7636bc	-0.060110793
69	0x3d15d400	0.036579132
70	0xbdc68244	-0.09692815
71	0xbe998011	-0.2998052
72	0x3c5374d8	0.012906276
73	0xbe4845f4	-0.19557935
74	0x3e19a23d	0.15003295
75	0xbac3f2cc	-0.0014949678
76	0x3d094bc9	0.03351954
77	0x3e053b3a	0.13010874
78	0x3e81ee4a	0.25377113
79	0x3b5629a6	0.0032678633
80	0xbd96b995	-0.07359616
81	0x3d33224e	0.043733887
82	0x3e1635de	0.14668986
83	0x3eb5c157	0.3549907
84	0x3e64e765	0.22353895
85	0x3e064d59	0.13115443
86	0x3dfbd097	0.12295645
87	0x3d8dccf5	0.06923858
88	0x3cd1ea06	0.025624286
89	0x3eb3cdbe	0.35117906
90	0xbc8c4ff1	-0.017127963
91	0x3d2baaec	0.04191105
92	0xbbe8242a	-0.007084389
93	0x3cf3cd54	0.029760994
94	0xbe1b8df5	-0.15190871
95	0xbebe7525	-0.3719875

fc.9.bias f4 [3]
0	0xbdf9fbd0	-0.122062325
1	0x3e37c4cf	0.1794617
2	0x3d727f8a	0.059203662
