Genetic_Models/dino_genetic_model34.pth (torch, 48732 bytes, 8 tensors)

fc.0.weight f4 [128, 6]
000000 c2 9c 36 3d b6 90 44 3e 8f 3f 94 be 68 5d 79 3e
       0.04458309 0.19195828 -0.2895474 0.24352038
000010 06 b4 f8 bf ac 02 a7 bf 16 62 57 be 4b 8a 87 3d
       -1.9429939 -1.304769 -0.2103351 0.06618174
000020 ab 95 41 3e 8e d2 76 be 3a ed ae 3e c2 c0 2d 3e
       0.1890475 -0.24103758 0.34165365 0.16968063
000030 89 7b 38 bd 43 46 59 be fd ad 97 be eb 90 64 3e
       -0.045039687 -0.21218209 -0.2962493 0.22320907
000040 06 ec 31 c0 f0 3c 34 c0 44 f9 25 3c 05 74 e4 3d
       -2.7800307 -2.8162193 0.01013023 0.111549415
000050 03 f5 35 be e1 11 3f 3e 7a 7b f4 3f 0e 69 10 40
       -0.17769246 0.18659164 1.9100182 2.256412
000060 10 f7 ba be bb 5d 64 be 6c 6d 01 bd a0 30 2d be
       -0.3651662 -0.2230138 -0.031598493 -0.1691308
000070 e6 d0 be 3e b1 44 0f be 90 4d 95 3e 17 22 32 be
       0.37268752 -0.13991047 0.29160738 -0.17395817
000080 4b 27 c9 bd 0a d3 34 3e 8d 96 f7 bf 88 ef 03 c0
       -0.09821948 0.1765863 -1.934282 -2.0614948
000090 1b d0 e5 3e 08 00 ed bc 56 b7 f4 3d c6 b7 ee bd
       0.44885334 -0.028930679 0.11949031 -0.11656146
0000a0 05 28 30 c0 e6 2e 3d c0 2e f4 c5 3d b2 ac 9d 3e
       -2.7524426 -2.9559875 0.09665714 0.3079582
0000b0 7e 02 69 be ab c5 72 be 39 45 42 bf e1 58 03 c0
       -0.22754857 -0.23708217 -0.75886875 -2.0522997
0000c0 15 6a 04 be 36 a4 9d be 39 20 9c bd e0 c0 c8 3d
       -0.12931092 -0.30789346 -0.076233335 0.09802413
0000d0 e0 9e 4c be 6f c5 cd bd 48 31 26 be ec 56 66 3e
       -0.19982481 -0.10047423 -0.16229737 0.22494096
0000e0 26 d4 ad 3c 65 3e a6 be 4a 9a 78 3c c6 be 66 3d
       0.021219324 -0.32469478 0.015173504 0.05633428
0000f0 c3 67 50 3e a1 16 4f be 5e 3b 71 3e 8b 30 a6 be
       0.20352082 -0.20223476 0.23557803 -0.3245891
000100 2c 9d f8 3d c7 c4 fc bd 6c 69 de bd da 08 7d 3e
       0.12139353 -0.1234222 -0.108599514 0.24710408
000110 2c 63 33 be f4 8d 1b 3e 04 57 e8 3f b8 aa 4c bf
       -0.175183 0.1519087 1.8151555 -0.79947996
000120 41 0d 15 3e 9a 73 81 be 00 24 7b 3e a0 dd 30 be
       0.14555837 -0.2528351 0.24525452 -0.17272043
000130 ac 8c fb 3d e1 8f c7 3e 87 a5 01 be c4 19 87 bb
       0.122826904 0.38976958 -0.126608 -0.0041229445
000140 ef 51 5d 3e 7a 54 47 be 56 cd 82 bd 5b 2e f1 3d
       0.21613286 -0.19465819 -0.06386821 0.1177642
000150 3a 73 9e 3e 71 5d b8 3d 4d 18 e6 bd f2 6c c5 be
       0.30947286 0.090021975 -0.11235104 -0.3855968
000160 2f a8 67 c0 99 96 65 c0 88 b8 a0 3b 19 30 5c 3e
       -3.61964 -3.5873168 0.0049048103 0.21502723
000170 f0 3a c7 bd 1b c1 ca be 3c 46 a5 3d 6e d8 91 be
       -0.09728038 -0.39600453 0.08070037 -0.28485435
000180 24 8d e9 3b 08 fb 63 be a9 91 83 3d 6c 52 53 3e
       0.007127421 -0.2226373 0.06424267 0.2063691
000190 54 a3 08 40 d8 22 f3 be b7 de d9 3e d3 89 a7 be
       2.1349688 -0.4748752 0.4255273 -0.3272234
0001a0 ba 25 1e bd 15 88 08 be 22 c9 f4 3f fe f5 4c 3f
       -0.038610198 -0.13333161 1.9123881 0.80062854
0001b0 4b e7 c8 bc 1f 87 24 be da 5a 50 be 63 7b 74 3e
       -0.024524352 -0.1606717 -0.20347157 0.23875193
0001c0 cf b7 0c 40 fb 90 7c 3f 89 1a fa bd a6 95 a5 3e
       2.1987188 0.9865872 -0.122120924 0.32340735
0001d0 42 3a 61 3d c0 be ca bd 92 37 18 c0 3e bd 28 c0
       0.0549872 -0.09899664 -2.3783917 -2.6365504
0001e0 fd b8 cf 3e a3 d6 a3 3e 1f 8d a8 3c 32 cd a2 3e
       0.40570822 0.31999692 0.020575104 0.31797177
0001f0 03 fe 63 bf c7 39 be 3f 08 9b e8 bd c4 db cc be
       -0.89059466 1.4861382 -0.11357695 -0.40011418
000200 c4 5d 93 3e 40 36 45 3d 3d e2 93 3e 95 b5 74 be
       0.28782475 0.04814744 0.28883544 -0.23897393
000210 2b f1 c6 3e 19 a9 31 be 4f 6d 03 3f d3 a6 cc be
       0.38855872 -0.17349662 0.51338667 -0.39971027
000220 53 72 ae 3f 6e 0b ab 3f 08 bc 26 3e 09 a6 cf 3d
       1.3628639 1.3362863 0.16282666 0.101390906
000230 a1 bd c1 3e 28 13 3c be 9a d8 1d c0 61 33 2b c0
       0.37839988 -0.18366683 -2.4663453 -2.675011
000240 93 0a 7b 3e a2 af 71 3d 98 01 e8 bd f5 a4 76 3e
       0.24515752 0.059005387 -0.11328429 0.24086364
000250 0d f0 e0 bf 4c 3b 49 bd 9e 6e 94 be a7 a0 6a 3e
       -1.7573258 -0.049128816 -0.28990644 0.22912847
000260 15 0e cd be b9 e0 18 3e 34 72 d1 3f 8a 12 f4 3f
       -0.40049806 0.14929475 1.6362977 1.9068158
000270 90 30 37 3e 5c 3d d9 bd 95 bb 30 be c7 95 f4 3d
       0.17889619 -0.106074065 -0.17259057 0.1194263
000280 59 b9 30 c0 9d 25 14 c0 a0 5a a1 3d 52 82 cc 3e
       -2.7613127 -2.3147957 0.078786135 0.39943177
000290 80 be 34 be d5 a4 e2 be 90 a1 0f bf f7 aa c6 3f
       -0.17650795 -0.44266382 -0.561059 1.5520924
0002a0 07 49 8d bd 38 2c 8b 3e 03 4a bb bd 49 cc 0c 3c
       -0.068986945 0.27182174 -0.09144976 0.008593627
0002b0 0b 6c 08 40 43 ab ab 3f a7 7a a6 be 28 b8 18 be
       2.1315944 1.341164 -0.3251545 -0.14914
0002c0 62 d7 45 3e 75 e0 63 3d cd 0b ef 3d d3 db 11 be
       0.19320443 0.05563398 0.11672173 -0.14244013
0002d0 79 de 9b be ac ac 17 bd 1b aa ad 3e 5d 86 a6 be
       -0.3044317 -0.037029907 0.33918843 -0.32524386
0002e0 5b 4b a3 3e 1f a0 b9 3d 7c b5 ec bd 11 fe b5 3d
       0.3189343 0.09063744 -0.11558053 0.0888635
0002f0 5e 00 f5 3d de 06 98 3b 15 d3 dc 3f a6 b5 fe bf
       0.11962961 0.0046394905 1.7251917 -1.9899185
000300 a0 ce 29 bd 62 7b 51 3e 6a 72 a5 3e 33 b6 0e be
       -0.04145682 0.20457223 0.32313854 -0.13936691
000310 b0 7c 27 40 0a 69 c1 3e c1 20 0f be d1 36 90 3e
       2.6169853 0.3777545 -0.13977338 0.28166822
000320 dd de 6e be 95 96 24 3e 23 c6 3a be 45 bf 1a c0
       -0.23327203 0.16073067 -0.18239646 -2.4179242
000330 1a 54 1d be 7e 48 55 be e0 ea 9b bd 34 9f 14 3e
       -0.15364113 -0.20828435 -0.07613158 0.14513856
000340 3b ad 0a c0 ca 21 28 40 66 28 88 be 3a 42 83 be
       -2.1668231 2.6270623 -0.26593322 -0.25636464
000350 ab 35 98 3e 3d fe e5 3e 3e 2d f5 3f 9b 58 c5 bf
       0.29728445 0.4492053 1.9154432 -1.5417665
000360 35 d6 3e bf b5 bc 5f be ed c0 9f 3d e6 a2 3a 3e
       -0.74545604 -0.2184933 0.078004695 0.18226203
000370 4d 34 71 c0 de 28 fb bf de da 03 3e 5d e7 d1 3d
       -3.7688172 -1.9621847 0.1287646 0.10249207
000380 f5 9c c2 be f3 8f 73 3e b4 62 84 3f b5 6b df 3f
       -0.38010374 0.23785381 1.0342622 1.7454745
000390 7c cd df 3e 43 a2 92 3d 65 9e 70 bf 61 5f ca be
       0.4371146 0.07159855 -0.9399169 -0.39525893
0003a0 dd a7 88 3f 72 27 e4 3f 3c 50 27 3c 91 43 61 be
       1.0676228 1.7824538 0.010212 -0.21998431
0003b0 07 2f a2 be a0 7a de 3d 24 55 b9 3f d7 a7 fe bf
       -0.31676504 0.108632326 1.4479108 -1.9894971
0003c0 3d 96 92 3e e5 bb af 3d a4 90 3b bd b6 ec 81 3d
       0.28630248 0.0858076 -0.045792237 0.06343977
0003d0 5e 15 e4 3e fe 27 18 c0 78 12 9b be e4 c5 d4 3d
       0.44547552 -2.377441 -0.30287528 0.10389307
0003e0 58 db bb bd ba 14 b0 3d 91 be 20 c0 9b f8 d1 bf
       -0.09172696 0.08597703 -2.5116313 -1.6403993
0003f0 f0 57 8f 3e c1 8e bb 3d 47 d1 c3 be ca 53 2a 3e
       0.27996778 0.091580875 -0.38245603 0.16633525

fc.0.bias f4 [128]
000000 b0 cc 14 3e fb 75 21 be 6a f1 84 3e c9 5c 85 3d
       0.14531207 -0.15767662 0.25965434 0.06511838
000010 24 45 a9 3e 86 a3 00 3e 06 21 1e bf 61 d7 31 bf
       0.33060563 0.12562379 -0.6176914 -0.6946927
000020 b7 b5 af be 45 fe 38 3e 95 cb b0 3d d7 61 e2 be
       -0.34318325 0.18065746 0.0863258 -0.4421527
000030 4f 60 83 bd 33 df 61 3e 7c d5 07 3f 84 06 9b 3e
       -0.06414854 0.220578 0.53060126 0.3027841
000040 a3 ed d3 be 60 db 79 be d9 a2 1b 3d c2 be 9f bd
       -0.4139224 -0.24400091 0.0379971 -0.07800056
000050 36 87 b7 bc 7a 53 1c be b9 8e a4 bc ba 58 35 be
       -0.02240334 -0.15266219 -0.020087587 -0.17709628
000060 97 ee 07 3e 10 98 b8 be 20 3c 05 3d 59 db 0a bd
       0.13274609 -0.36053514 0.032528043 -0.033900592
000070 44 0b 54 3c 66 35 79 bd 6d 48 cb bd 75 b6 a4 be
       0.012942139 -0.06084194 -0.099259235 -0.32170454
000080 50 04 cf 3d 98 07 db be b5 b5 77 3e 30 b6 8f bd
       0.101082444 -0.4277923 0.2419041 -0.070171714
000090 a9 df 36 3f dc c7 be be 5d 6c 1d bf 3d ab b3 be
       0.7143503 -0.37261856 -0.61493474 -0.35091582
0000a0 f0 2c 0f bf fe d1 3e 3d 42 f5 ca 3d 2a f5 ac 3e
       -0.55927944 0.046586983 0.099100605 0.33780795
0000b0 fa 51 81 be 17 08 e7 bd 11 dc 2b 3e 83 74 80 3e
       -0.25257856 -0.1128084 0.16783167 0.2508889
0000c0 19 19 58 be 27 0a 08 be 32 88 29 3d 95 4d fd 3d
       -0.21103324 -0.13285123 0.04138965 0.12368313
0000d0 ce b5 93 3e 09 1a 50 be 5f 85 d7 bd 7b 9e ac be
       0.28849643 -0.20322432 -0.105234854 -0.3371466
0000e0 a0 bd 5c be 87 6b 1d bf ec 86 a1 3d 87 c5 24 3e
       -0.21556711 -0.614922 0.078870624 0.16090976
0000f0 ef 36 31 bd bd 47 32 bd b5 90 82 3d 7e 7f 89 3e
       -0.04326528 -0.043525446 0.06375257 0.2685508
000100 01 bb b2 3d fc 62 e7 be db 83 1f 3e 3a ca 95 be
       0.087270744 -0.45192707 0.15577643 -0.2925585
000110 d6 2d f9 3e 70 76 af 3e 80 20 12 bf d4 36 a6 3e
       0.48667783 0.34270048 -0.5708084 0.32463706
000120 0d 6e 5d bd 91 97 f7 bc a2 a7 38 3e c4 b3 1a bf
       -0.05406003 -0.03022364 0.18032697 -0.6043055
000130 42 12 d7 be f9 eb c0 be 51 32 bb be 21 38 a1 3e
       -0.42006117 -0.37680033 -0.36561826 0.31488135
000140 be 79 6f 3e 9f a2 0d be e6 75 b0 be 91 8d 79 be
       0.23386285 -0.13831566 -0.3446495 -0.2437041
000150 08 a1 c4 bd 61 4b fd 3e 1d 7a 75 be d8 4d 28 bd
       -0.09601027 0.49471572 -0.23972364 -0.041089863
000160 35 94 f1 be 22 f7 8e 3e 10 1a ab 3e 97 0d 95 be
       -0.47183385 0.27922922 0.33418322 -0.2911193
000170 24 49 b7 3d 73 8a 91 3c 53 32 a4 3e 50 1c 0c bf
       0.08949497 0.017766213 0.32069644 -0.547307
000180 36 ce 15 3c 8e 7d b7 bd 91 6e 5d be 6f 25 1e bf
       0.009143403 -0.089594945 -0.21624209 -0.6177587
000190 ed f7 16 3f d1 20 9d 3e b5 a2 96 bc b2 82 1d be
       0.58972055 0.306891 -0.018388132 -0.15381888
0001a0 0e 14 d2 3d d8 0f 61 3b 84 e3 aa be 1e df dd bc
       0.102577314 0.003434172 -0.33376706 -0.02708393
0001b0 af 4c 2f 3e 70 c8 0a be a8 1b 6d 3e d2 0a 9e bd
       0.17119096 -0.13553023 0.23155081 -0.077169076
0001c0 a3 73 d3 bd 0c fe dd bd 4a f4 d9 3c 05 8d 2a 3e
       -0.1032479 -0.10839471 0.026605744 0.16655357
0001d0 3c 4e 55 be e8 2d 99 be 2a 5b 3d 3e 3a 68 23 bd
       -0.20830625 -0.29917836 0.18491808 -0.03989432
0001e0 54 d7 64 be 18 f5 cb 3e ea 33 b9 be 5e c8 14 3e
       -0.22347766 0.3983543 -0.3617242 0.14529559
0001f0 38 a0 1f 3e 2c 27 12 3f 7b 7a c7 be 36 d2 a2 3e
       0.15588462 0.5709102 -0.38960633 0.31801003

fc.2.weight f4 [64, 128]
000000 ef c5 49 bd ef c4 93 3d a4 ad 1d be b3 2f be 3c
       -0.04926103 0.072152965 -0.1539827 0.023216104
000010 3d c2 c4 bc 14 36 b2 bd 08 cb 0b 3e 31 27 69 3d
       -0.024018401 -0.08701721 0.13651669 0.05692214
000020 68 62 00 3d a1 52 af 3d 77 19 82 3c aa bc cb 3d
       0.031343848 0.08560682 0.015881283 0.09948094
000030 55 f7 b9 3d 81 0a 3b bd 4c 5e 2d bf 64 6f 3e bd
       0.09080378 -0.045664314 -0.6772201 -0.04649295
000040 68 92 06 3e f1 1e 9c be 96 6a 30 3d 20 fb cc b9
       0.13141787 -0.30492356 0.0430704 -0.00039097015
000050 d6 a9 1b bd 0d 63 1a bd 85 d5 22 40 86 78 c3 bd
       -0.038003765 -0.03769212 2.5442822 -0.095444724
000060 00 6a 69 bd d0 26 7d bc 52 c4 57 bd 6f 38 3c be
       -0.056985855 -0.015451148 -0.05267746 -0.18380903
000070 fe 0c 2c 3d 9a 33 a8 bc 13 e2 a0 3d 4c 8f 07 3e
       0.042004578 -0.020532418 0.0785562 0.13238257
000080 05 66 42 3d f4 e0 75 3d 6b 21 d2 be 36 d0 09 bd
       0.047460575 0.060028985 -0.4104112 -0.03364583
000090 c7 8b 86 3e 37 fe bd 3c bf cf 84 3d 9a 0a 60 bd
       0.26278517 0.023192508 0.06484937 -0.05469761
0000a0 41 c8 e7 3d 7f e1 9b bd 1c 77 55 bd 24 41 b7 bc
       0.11317492 -0.07611369 -0.052115545 -0.022369929
0000b0 c0 91 c5 bc 76 2d 4a 3b cc ff 09 3b b7 b8 c1 bc
       -0.02411735 0.003084985 0.0021057008 -0.02364765
0000c0 b8 ea a5 bf de d2 93 3d d8 d4 e5 bd 1c 28 83 bc
       -1.2962255 0.07217954 -0.11222237 -0.016010337
0000d0 0e f0 e6 3c ac 90 36 bb 17 08 a3 3d 1e 44 a3 3d
       0.028190639 -0.0027857227 0.079605274 0.07971977
0000e0 cd d8 d2 bc 80 31 02 3d b0 85 4b bc f4 c0 6c 3d
       -0.025738144 0.031785488 -0.01242201 0.057801202
0000f0 5c 79 2a 3d 2c 9d 9b bd 8c df af bd f4 e6 65 bc
       0.041619644 -0.075983375 -0.0858756 -0.014032114
000100 b5 b5 67 3d 08 ce 04 3d a4 72 57 3c cf 9a f8 bc
       0.056569774 0.03242305 0.013149891 -0.030347256
000110 aa b6 89 bd ab 81 15 bd da d2 79 3e 1a d5 a2 bd
       -0.067242935 -0.036500614 0.2439684 -0.07950802
000120 98 cd 21 bd 30 84 63 bd dc 17 a9 be 20 6d 26 3d
       -0.03950271 -0.055545986 -0.33026016 0.040631413
000130 82 35 89 bc 5a e2 e3 3d 8c 64 29 3d 41 78 8c be
       -0.016749147 0.111271575 0.041355655 -0.27435496
000140 a6 4c bc bc 1f 7f 7e 3d 77 b1 51 3e 48 81 62 bd
       -0.022985768 0.06213295 0.20477854 -0.055299073
000150 fc a3 ec bc 0b 09 64 bd c5 ae 95 bd 24 d3 a5 bc
       -0.028886788 -0.055672687 -0.07308725 -0.020242281
000160 d8 5e fd 3c 56 a1 d8 bc 5a c7 b3 3d c8 54 3a 3c
       0.030929014 -0.026444118 0.08778258 0.0113727525
000170 84 4f 93 bd c8 66 89 3e 92 1b 70 3d 43 e4 63 3d
       -0.07192901 0.26836228 0.058620043 0.05563761
000180 4c 42 a7 ba 0f 75 2a be 04 34 ed bb b1 00 f1 3d
       -0.0012760847 -0.16646217 -0.0072388668 0.1176771
000190 fd 15 96 3e b1 41 1b 3d 95 48 ed bc d2 8b 8d bb
       0.2931365 0.037904445 -0.028965274 -0.0043196464
0001a0 88 3d e5 3e bd b4 44 3d 2b e1 9a 3c 9a 36 53 be
       0.44773507 0.048023928 0.018906197 -0.20626298
0001b0 70 de cf 3c 99 63 a2 3c 6b 38 97 3c 02 ac 92 3e
       0.025374621 0.019822882 0.01845952 0.28646857
0001c0 f2 77 73 3d 10 cf cb bd 36 36 6f 3d 92 03 0f bd
       0.05944056 -0.099516034 0.05840131 -0.034915514
0001d0 92 cb cb bc df 5c 0b be b6 8b c4 3d 28 3d 0d be
       -0.024877343 -0.13609646 0.0959696 -0.1379286
0001e0 4e ad fb bc f5 c5 19 bd da c4 03 bd 40 9d 28 3e
       -0.030722287 -0.037542302 -0.032170154 0.16466236
0001f0 e6 ec 02 3d c8 d3 4f 3c dd 2e 5c 3d d0 91 d5 3c
       0.031964205 0.01268477 0.05375563 0.026070505
000200 37 9e 9a 3d 50 67 bf bb 57 5f 89 bd 4c 56 db bd
       0.07549708 -0.005841173 -0.06707638 -0.10709819
000210 1a 2f 8e bd c0 94 d1 3c dc 82 cf bd b2 b9 e4 bc
       -0.06942578 0.025583625 -0.10132381 -0.027920578
000220 14 8d 63 3c b8 70 60 3b 8a 92 8e 3d 89 2a df bd
       0.013888616 0.0034246873 0.06961544 -0.10896785
000230 34 90 0b bb d7 4b 74 bd 05 10 ac 3d 1e 88 84 3d
       -0.0021295669 -0.05964264 0.08401493 0.06471275
000240 98 6f ad bd 63 de ed 3d a2 a2 d8 bd 12 84 fc 3c
       -0.084685504 0.116146825 -0.10577895 0.030824695
000250 06 33 85 3c 8a 55 a8 3d 6d 17 76 bd 46 5e 84 3b
       0.016259681 0.0821944 -0.060080934 0.0040395586
000260 bc 0c 6e bd 72 c8 6c bd 6c 7e 33 bc a3 f2 90 bc
       -0.058117613 -0.057808347 -0.010955434 -0.017693823
000270 e4 8c 87 bd d1 ba 6c 3c 14 9e 8f 3d 83 9b ab 3d
       -0.0661867 0.014448837 0.07012573 0.08379271
000280 91 de a8 bd 41 2e a8 bd 13 2b 93 bd b5 28 12 bd
       -0.08245576 -0.08211947 -0.0718595 -0.035683353
000290 80 2b 6b 3d d0 01 67 3d fe 37 2a 3d ce c0 74 bc
       0.05741453 0.056398213 0.041557305 -0.014938546
0002a0 90 82 1c 3c 06 af 07 bc eb 7d 6f 3b 9e 8b 07 bd
       0.009552613 -0.008281475 0.0036543559 -0.033092134
0002b0 af 4a 92 bd 6c 79 24 bd b6 a0 ab 3d 36 ae 75 3d
       -0.07143151 -0.04015486 0.083802626 0.059980594
0002c0 38 6b 5e 3d 91 36 b2 bd 08 c2 eb bb 89 4d 3f bd
       0.05430147 -0.08701814 -0.007194761 -0.046704803
0002d0 6c 8b 1c bc 40 e0 6c bd cc c2 a1 bd 34 9d 6f bd
       -0.009554725 -0.05783105 -0.07898483 -0.05849953
0002e0 e9 8a 96 3d 67 97 f2 bc ff c4 4d bd 4e 21 88 3c
       0.07350714 -0.02961321 -0.0502367 0.016617443
0002f0 0e e5 94 3d 91 a2 b5 3d 70 94 a9 3d b8 7a e3 3b
       0.07270251 0.08868898 0.08280265 0.0069421194
000300 02 7f 36 3d e5 ae 1a bd 2c aa ec bb dd f7 4f bd
       0.044554718 -0.03776445 -0.0072224345 -0.05077349
000310 38 64 e1 bb f0 73 e3 bc c9 91 6e bd 61 2c 5f 3d
       -0.006878402 -0.027765244 -0.0582445 0.054485682
000320 06 52 25 bd cf 82 35 bd eb fc b1 3d 1b ff 5a 3d
       -0.040361427 -0.044314202 0.086908184 0.053465944
000330 f1 7c a4 3c 22 12 ba bd 7a 29 01 bd e6 26 70 bd
       0.020079108 -0.0908549 -0.031533696 -0.058630846
000340 2d 88 2b 3d 04 83 ef bc 38 ee 50 3c 24 b4 3b bd
       0.041877914 -0.029237278 0.012752108 -0.045826092
000350 67 ee 5e 3d 93 63 9c 3d 45 a3 e2 3c 7a d8 85 bd
       0.054426577 0.0763618 0.027665744 -0.0653543
000360 70 bb 15 3d 1e 9b a0 3d ff 8e e9 bb fe 39 ac bd
       0.036555707 0.07842086 -0.007127642 -0.08409499
000370 11 08 82 bd 45 4f 34 3d d7 ef 25 3d 89 5d 87 3c
       -0.06349195 0.04402091 0.040511932 0.016524093
000380 c9 94 9a bd 8a 3f 45 bd 06 84 c0 bd 0d f3 8f bd
       -0.0754791 -0.0481563 -0.094001815 -0.0702878
000390 be 7a 4a 3d ea be 1a 3d 4c 95 76 3d d5 ac e6 bc
       0.049433462 0.037779726 0.060200974 -0.028158585
0003a0 d5 b6 9d bd 20 be 7b bd 85 57 94 bd f1 1e 2c bd
       -0.07700888 -0.061460614 -0.072432555 -0.042021696
0003b0 eb 37 b2 3c 66 db 9b 3d 83 e4 ad bd 78 1d a1 bd
       0.02175518 0.07610206 -0.08490851 -0.07866949
0003c0 c1 fa d6 3d f2 91 5f bd d1 e8 f6 bc 62 5a ac 3d
       0.10497046 -0.054582544 -0.030140312 0.08415677
0003d0 e8 b1 7c 3d 7e 47 9d 3d 48 4c c3 bd 5d 90 88 3d
       0.061693102 0.07679652 -0.09536034 0.0666816
0003e0 08 16 13 3d cd c7 c6 bc ef 57 36 3d 05 44 9b 3c
       0.035909683 -0.024265194 0.044517454 0.018953333
0003f0 94 2a 33 bc 36 fa 9c 3d a8 4f 8b bd e2 83 97 3c
       -0.010935444 0.076649114 -0.068023026 0.018495504

fc.2.bias f4 [64]
000000 24 55 77 be d8 83 a9 ba 4a 7f 5f bc 68 0e 6c bb
       -0.24153572 -0.0012932969 -0.013641188 -0.003601933
000010 83 63 99 bc 5a 42 17 3d 22 47 2e bb 13 f7 a0 be
       -0.018724209 0.036928512 -0.0026592691 -0.31438503
000020 38 95 d1 3c c5 4a 0e bd 57 25 63 3c c2 24 ae 3d
       0.025583848 -0.034739275 0.013863883 0.08503105
000030 fb 53 a1 be d4 2a 2c bc 8c 5d e7 bd f1 8b df bc
       -0.31509385 -0.010508258 -0.112971395 -0.027288409
000040 d7 e8 9f bd ab 67 1e 3d 10 af c1 bc 00 cc a3 bd
       -0.078080826 0.038673084 -0.023643047 -0.07997894
000050 62 68 0a 3e 31 b8 8b 3e fc 11 99 bd 44 0c 37 3d
       0.13516381 0.27288964 -0.07474133 0.04468943
000060 ec f5 89 3d 17 2b bb bd 16 cf 34 bd b8 b8 bf bb
       0.06736359 -0.09139078 -0.044142805 -0.0058508776
000070 50 2d c2 3d 55 1e d4 3d 23 16 e0 bd 98 0e 6c bd
       0.09481299 0.10357348 -0.10941722 -0.057631105
000080 54 b7 3e 3d 66 80 7e be ed 4b 06 3d 26 20 2b 3c
       0.046561554 -0.24853668 0.032787252 0.0104446765
000090 92 15 a6 bc d1 c4 5d be 44 b0 dc 3b 27 95 a6 3d
       -0.020273957 -0.21657111 0.0067348797 0.08133917
0000a0 2b 63 2e 3e ef e7 f4 bb 76 7c cb 3c 6f 0a be bd
       0.17030017 -0.0074739377 0.024839621 -0.09279334
0000b0 f3 36 80 3c 4a 10 48 3d e7 a4 28 be 68 d6 39 be
       0.015651202 0.04884366 -0.16469155 -0.18148196
0000c0 38 f3 86 bc 72 9e fc 3b e0 4f 63 3d e2 de ea bc
       -0.016473398 0.007709318 0.055496097 -0.028670732
0000d0 50 2a d3 3c 86 b0 ab 3e be c5 59 3d d6 65 51 3d
       0.025777012 0.33533114 0.053167097 0.05112251
0000e0 30 98 07 3c a6 c2 3e 3d 0d cf 8c be 1e e3 0a bc
       0.00827603 0.04657235 -0.27501717 -0.0084770005
0000f0 10 84 35 3d 50 1d 35 3e 15 dd 0c 3d a2 d7 26 be
       0.044315398 0.17686963 0.034390528 -0.16293195

fc.4.weight f4 [32, 64]
000000 93 99 ce bc b6 94 a1 bd 80 02 6d bd ac da e1 3d
       -0.025219714 -0.078896925 -0.057863712 0.110280365
000010 d1 82 ae bc 32 7a 43 bd 9c 2d 1d bc a5 83 ea bc
       -0.021302612 -0.047723956 -0.009593394 -0.028627226
000020 47 f7 82 3d f8 5e c3 bd 31 4c c6 3e 22 6a fe 3c
       0.06394821 -0.09539598 0.38730004 0.031056467
000030 cc 8a fa bc 50 ee 66 bd ce cc 23 bf 85 75 bc 3d
       -0.030583762 -0.056379616 -0.6398438 0.092021026
000040 62 39 03 3c c2 86 dd bd ca 07 a8 bb 76 53 05 be
       0.008009287 -0.10816719 -0.0051278817 -0.13020119
000050 7a 54 37 bd 58 cb ef 3c 72 da f1 3d 3c e9 9c 3d
       -0.044758298 0.029271767 0.11809243 0.076616734
000060 5a 96 a5 bc fa 44 50 bc c8 76 6d 3b da 52 b1 bd
       -0.020213295 -0.012711758 0.003623413 -0.08658381
000070 10 62 d1 bc a0 18 14 3e 70 86 60 bd 34 11 7b bb
       -0.025559455 0.14462519 -0.05481571 -0.0038309814
000080 f8 c9 68 bd e0 27 3b bd a3 a5 20 3e eb f0 ef 3c
       -0.056833237 -0.045692325 0.15688185 0.029289683
000090 7a b7 4a bd 10 d3 33 3d 12 79 33 bd b7 6f 1e 3e
       -0.049491383 0.043902457 -0.043816634 0.15472303
0000a0 7d e0 cd bc e8 14 cd 3d e3 af 67 3c 04 8c 1e bd
       -0.025131458 0.10013753 0.014141056 -0.038707748
0000b0 45 00 fa bd a9 8f 0e 3d 9f 7e a9 bd 49 af ba bd
       -0.12207083 0.034804974 -0.08276104 -0.09115464
0000c0 c8 74 85 3c 6d 08 a3 bd f1 58 96 bd c7 d2 82 3d
       0.016291037 -0.079605915 -0.07341183 0.06387859
0000d0 ae f8 d7 bd b3 c1 c1 bd 96 2d 9b 3d 12 9e e5 bd
       -0.10545479 -0.09460773 0.07577054 -0.1121179
0000e0 83 6e 18 3d 62 38 e9 3b 67 b8 47 be e0 5e e4 3d
       0.037214767 0.007117317 -0.19503938 0.111509085
0000f0 c0 31 e8 bd 7e b7 02 3e 3a a5 fa 3d db 29 d0 bd
       -0.11337614 0.12765309 0.12238546 -0.10164233
000100 4d 06 88 3d ee 0f a7 bd 37 f0 be 3d 1a 5c 34 bd
       0.06641827 -0.08157335 0.09323161 -0.044033147
000110 3b d3 ea 3b b3 f5 d0 3d ea b2 46 bd e1 c8 9c 3d
       0.007166294 0.102031134 -0.04851047 0.07655502
000120 d5 9c 8d 3d 77 f8 b5 3d 84 00 6a 3d 09 8c 0c be
       0.06914679 0.088852815 0.057129398 -0.13725294
000130 39 13 e2 bc 1f d8 28 bd da f0 7a bc 3d 5e 5d bd
       -0.027597057 -0.041221734 -0.015316213 -0.05404495
000140 2f 8b 0c 3e 55 d9 79 3b 67 b9 01 be 26 4c c5 3d
       0.1372497 0.0038123925 -0.12668382 0.09633665
000150 b5 e9 8d 3d 1c 24 b9 bd d2 0a b9 bc 20 a3 76 3d
       0.06929342 -0.090400904 -0.022588167 0.060214162
000160 61 7b 45 bc 58 56 df 3d d8 26 cc bd 10 47 8a bd
       -0.012053342 0.10905141 -0.09968346 -0.06751835
000170 3e 2a 97 bd 4d ba 98 3d 1b cb 80 bd ea 69 c4 bd
       -0.07381104 0.07457409 -0.06288739 -0.09590514
000180 fd 73 cb bd c7 cc b9 3d 04 d6 92 bd 65 d3 21 3d
       -0.099342324 0.09072261 -0.071697265 0.039508242
000190 e1 47 aa bd d4 65 70 bc 5b 5d ea 3d f8 75 b3 3d
       -0.08314491 -0.014672715 0.114435874 0.08762735
0001a0 8a bd 99 bd 59 cd 11 3d 07 ee f4 3d 68 e8 66 bd
       -0.07506855 0.035596225 0.119594626 -0.056373984
0001b0 c3 5c 07 3d b8 ee f0 3d c8 c3 ed 3c b0 6a ca ba
       0.03304745 0.11764282 0.02902402 -0.0015443172
0001c0 84 49 0f bd 8e bf e6 3c 08 ad 6f bd 0c 86 fc 3b
       -0.03498222 0.028167512 -0.058514625 0.0077064093
0001d0 47 f0 a8 bc 2e 15 89 bd c2 b3 9a bd 47 af e5 bd
       -0.020622386 -0.06693493 -0.07553817 -0.11215072
0001e0 26 12 09 3e de bb 1b 3d 8a ff 98 3d 73 ab 10 be
       0.1338583 0.03802096 0.07470615 -0.14127903
0001f0 4e 6c 8d 3d 1c b5 0d be b7 79 bd 3c 58 f6 c6 3d
       0.06905423 -0.13838619 0.023129327 0.09714955
000200 39 06 9f bd a2 79 cf bd 18 a1 bf 3d 14 01 72 bc
       -0.07764859 -0.101306215 0.09356898 -0.014770765
000210 b0 46 9b bd 80 37 e7 bb 2a d0 05 3d a3 29 15 be
       -0.07581842 -0.0070561767 0.032669224 -0.14566664
000220 41 e5 0a be af 68 6d 3d c6 39 0e bc 6a db 82 3d
       -0.13564016 0.057961162 -0.008680766 0.06389506
000230 0e 6d 47 bd 31 66 68 bd c4 9d 0f bd 7d 47 00 be
       -0.048687987 -0.056738082 -0.035062566 -0.1252727
000240 58 96 c8 bd f0 45 12 bd 44 b4 8c 3d f4 88 7e bd
       -0.09794301 -0.03571123 0.068703204 -0.062142327
000250 0e 49 13 be 55 bc 0e bd 15 0d 1e be 62 62 21 bc
       -0.14383337 -0.034847576 -0.15434678 -0.009850116
000260 7f 41 f1 3d 85 b4 50 bd 7f 14 40 3c b8 28 60 bc
       0.117800705 -0.050953407 0.011723637 -0.013681583
000270 d7 eb dd 3d ae 58 fa bd 4a 59 79 bd c2 41 54 bd
       0.108359985 -0.122239456 -0.06087617 -0.051820524
000280 d9 ce 50 bd 61 00 bf 3c 1e 7e 8c 3d f5 0a 0c be
       -0.050978515 0.02331561 0.068599924 -0.13676055
000290 98 a2 b9 bd 9d 1a 15 be cd 48 c3 3d 9a 4c 17 bd
       -0.090642154 -0.14560933 0.0953537 -0.036938287
0002a0 e4 ef 50 bb 04 62 75 bb 86 7c f4 3d d1 d9 e0 3c
       -0.0031881267 -0.0037442455 0.119378135 0.027447613
0002b0 10 42 a8 3d ca 70 cb 3c ec 85 33 bd ec 12 e3 bd
       0.082157254 0.024834055 -0.04382889 -0.110875934
0002c0 72 90 8e bc d9 b5 08 bd aa 5d dd bd 02 8e 43 3d
       -0.017402861 -0.03337655 -0.108088806 0.04774285
0002d0 59 ba ee 3d 9a 8c 92 3d b0 cb 1a be 24 bb d2 3d
       0.11656637 0.07155724 -0.15116763 0.102896005
0002e0 5c 2e 9b bd b4 6a 45 3d 32 4d 8a 3d ea f2 eb bd
       -0.07577202 0.048197463 0.06753005 -0.115209416
0002f0 3f e0 71 bd be 59 d9 bc 34 79 cd 3d 72 e0 d6 bd
       -0.05905175 -0.02653205 0.10032883 -0.10492028
000300 dc bd 21 be d8 5d 7f bd 08 d5 47 bd 06 d1 69 be
       -0.15795082 -0.062345356 -0.048787147 -0.22833642
000310 28 1b 3b bb 65 8f 87 3d d9 bb fb bd 96 8b 47 3e
       -0.0028550122 0.06619147 -0.122916885 0.19486842
000320 0c 2c 62 ba ca 58 e7 bd 9f 06 20 bd be 57 97 3d
       -0.00086277793 -0.11296232 -0.039068814 0.07389782
000330 57 67 e3 3d ce 22 63 3d 79 f5 81 3e 04 11 82 3d
       0.11103695 0.055453114 0.25382593 0.06350902
000340 ba d1 d1 bc 84 04 1c bb 95 27 08 be f4 98 a2 3d
       -0.0256127 -0.0023806402 -0.1329635 0.0793933
000350 7e 78 a0 bc 5a ef 2c be 1d f7 f2 bc 57 26 c6 3c
       -0.019588705 -0.1688818 -0.029658848 0.024188204
000360 36 80 28 bd 79 46 e5 bc 58 4c ee bc 81 51 b3 bc
       -0.041137896 -0.027987706 -0.029089138 -0.02188945
000370 2a 16 b8 3d 0e 9f 18 3e 4a 1e ed 3b 0a 1d a1 bc
       0.089886025 0.14904425 0.0072362768 -0.019667167
000380 d6 73 b4 bd 40 68 20 3a 7e 51 3b 3d 99 34 de bd
       -0.088111565 0.000611905 0.045732014 -0.10849876
000390 7a 47 be 3c e2 0e 5b be 83 f8 8e bd 52 06 ad 3d
       0.023227442 -0.21392396 -0.069809936 0.08448471
0003a0 22 47 02 3e 47 af d3 bc 3f a7 53 bc 80 13 f4 bd
       0.12722448 -0.025840415 -0.012918293 -0.11917782
0003b0 04 ea 03 3e 7b 8e 1c 3d ae 8e b9 bc 75 a4 d7 bd
       0.12882239 0.038221817 -0.022651043 -0.105294146
0003c0 43 8c 7c 3c 9e e9 b5 bd ad e9 ed 3d 6c eb ca bc
       0.0154143 -0.088824496 0.11616836 -0.024770461
0003d0 92 18 cb 3d 77 86 b9 3d bc 99 ce bd 6d 62 86 3d
       0.09916796 0.0905885 -0.10087916 0.06561742
0003e0 60 6f cf 3b ab 4e b5 bd 1b 40 31 3e 41 75 b9 3d
       0.0063304156 -0.08852895 0.1730961 0.090555675
0003f0 b8 42 43 3d 54 db 81 3e 0a 4f 4b 3e 8b d2 30 3e
       0.04767105 0.25362647 0.1985437 0.17267816

fc.4.bias f4 [32]
000000 48 0c f2 3b c2 44 37 3c 6d c8 f3 bc 05 83 c8 3d
       0.007386718 0.011185827 -0.029758656 0.09790615
000010 96 d6 d1 3b 90 a8 2b be 87 88 19 3e 07 8a da bd
       0.0064037545 -0.1676352 0.14993487 -0.10670858
000020 62 25 a0 bd c1 b0 15 3c 2b 10 df 3d 04 b3 c0 3d
       -0.0781963 0.00913638 0.10891756 0.094091445
000030 f3 9e c8 3d ee 9a 96 3c 95 f7 1f bd a2 3f b8 bd
       0.09795942 0.018384423 -0.039054472 -0.08996512
000040 21 49 d1 3d 05 73 44 3c 28 ec 1d be d0 65 5e bd
       0.10219026 0.011990313 -0.15422118 -0.054296315
000050 27 32 ee 3d 72 b4 87 bd 92 ba d6 3d 36 6d ba 3e
       0.116306596 -0.06626214 0.10484804 0.36411446
000060 56 a4 03 bd 62 54 08 be b4 c5 27 be 90 e3 bd bd
       -0.032139145 -0.1331344 -0.16384012 -0.0927192
000070 c7 5a 05 be 56 50 9d bd 0d a1 d4 3d 15 50 76 3e
       -0.1302291 -0.076813385 0.103822805 0.24053986

fc.6.weight f4 [3, 32]
000000 de a1 34 be fb f8 73 bd a3 39 1c be 70 aa 46 3d
       -0.17639872 -0.05956362 -0.15256362 0.048502386
000010 ad db cc bd 34 1b 32 3d f0 13 c2 bd 82 73 00 be
       -0.10002837 0.043482974 -0.09476459 -0.12544063
000020 97 c5 ae bd 0f 0e ef bd 74 0d 05 3e 88 27 07 be
       -0.08533781 -0.11672603 0.12993413 -0.13198674
000030 9b e4 40 be b8 31 b1 bc 8c 51 98 3b fe 7b fd 3d
       -0.18837206 -0.021630153 0.004648393 0.12377165
000040 93 42 7f bc 42 f9 ce bd f8 79 c4 bd ee 52 0c be
       -0.015579837 -0.10106136 -0.09593576 -0.1370351
000050 63 4d 17 be 07 b0 07 3e e0 71 94 bd db 5e 9e be
       -0.14775614 0.13250743 -0.072482824 -0.30931744
000060 a5 3f 63 3d 10 b9 14 3c 26 2b b9 3d 3c b2 d4 3d
       0.055480618 0.009077325 0.09041433 0.10385558
000070 7a 50 4c bd cb 25 eb bd 0e 46 85 bd cc 84 97 be
       -0.049881436 -0.11481818 -0.065075025 -0.29593503
000080 0c f7 5d 3d 6c 02 01 be fe 9d 27 bc 35 cf 2b be
       0.05419068 -0.1259858 -0.010230539 -0.16778262
000090 dc f5 3d bc 6b 0f 74 3c 81 5e 53 3e 1f 9a e3 bd
       -0.011594262 0.014896254 0.20641519 -0.11113381
0000a0 6c bf ce bd 31 3e 8e bd 30 ee ce 3d f6 ee 77 3e
       -0.100951046 -0.06945456 0.101040244 0.2421225
0000b0 3a 7d 4e 3e bf 31 f5 3d 97 32 29 3e 85 80 02 be
       0.20164958 0.11972379 0.16523205 -0.12744339
0000c0 4d d9 5f 3e 7e d7 1a 3d 0e ae 2a be 1c 83 95 bd
       0.21860237 0.037803166 -0.16667959 -0.07300398
0000d0 8e 7a 38 bc 5c fc 65 3c 87 b5 e2 3d ae 26 56 3e
       -0.011259688 0.014037218 0.1106978 0.20913193
0000e0 bf b2 05 c0 d4 7b 0d bf a2 db 90 be ca 03 fe 3d
       -2.0890348 -0.5526707 -0.28292567 0.124030665
0000f0 ad fc a5 bd 3b dc a6 3d 88 1e c4 3d 01 75 93 3d
       -0.08104835 0.081474744 0.09576136 0.07200051
000100 86 dd 6c bc f8 d1 cb 3c a2 7b 6e bc 16 35 59 3e
       -0.014457112 0.024880394 -0.014555844 0.21211657
000110 f0 a5 29 be c8 e0 b2 bd 3f 80 43 3e 77 61 27 3e
       -0.16567206 -0.0873428 0.19091891 0.16345774
000120 52 38 f9 3d ba 60 5c 3e 83 fb 31 3d ef 29 0b 3e
       0.12168945 0.21521273 0.04345275 0.13590215
000130 d2 25 01 be 52 5c 04 be 5a b6 8f bd 40 f6 8c bd
       -0.12612084 -0.12925842 -0.07017203 -0.06882906
000140 c0 c2 1f 3e 09 07 28 3e b1 d9 c7 3d ce 74 09 3d
       0.15601635 0.16408934 0.09758318 0.03355866
000150 62 2c 8c bd 66 c7 47 bd 02 2e e8 3c 7e ab 9e bd
       -0.06844403 -0.048774146 0.02834225 -0.07747553
000160 77 cb 9a 3e b6 05 d0 bd 9f cc ff 3d 98 b7 1a be
       0.30233356 -0.10157339 0.124902 -0.15109098
000170 7b 36 f9 bd c0 f9 42 3d 10 58 9e bd 19 eb 45 3e
       -0.121685944 0.04760146 -0.0773164 0.19327964

fc.6.bias f4 [3]
000000 d5 56 dd bd b5 32 90 3e df 8f d8 3d
       -0.108075775 0.28163686 0.10574316
