Genetic_Models/dino_genetic_model23.pth (torch, 48732 bytes, 8 tensors)

fc.0.weight f4 [128, 6]
0	0x3d08955a	0.033345558
1	0x3e482e0a	0.19548813
2	0xbeaca697	-0.33720848
3	0x3e795d68	0.24352038
4	0xbff78546	-1.9337547
5	0xbfa78bc8	-1.3089533
6	0xbe5ca962	-0.2154899
7	0x3d8f43ba	0.0699534
8	0x3e4b9634	0.19881517
9	0xbe683cb7	-0.22679411
10	0x3ead70fb	0.3387526
11	0x3e2dc0c2	0.16968063
12	0xbd2c60fa	-0.04208467
13	0xbe6d4ef6	-0.23174652
14	0xbe97f7bd	-0.29681197
15	0x3e6a9125	0.2290693
16	0xc0317f2a	-2.7733865
17	0xc034b8bb	-2.823775
18	0x3c1e2ce3	0.0096542565
19	0x3ddec4f3	0.10877409
20	0xbe35f503	-0.17769246
21	0x3e3f11e1	0.18659164
22	0x3ff68bee	1.9261453
23	0x400ff0fd	2.2490838
24	0xbebcdbc2	-0.36886412
25	0xbe645dbb	-0.2230138
26	0xbd016d6c	-0.031598493
27	0xbe26e052	-0.16296509
28	0x3eba8621	0.36430457
29	0xbdfe9e9b	-0.12432595
30	0x3e9c4189	0.3051875
31	0xbe35d8c1	-0.17758466
32	0xbdc9274b	-0.09821948
33	0x3e42f015	0.19036897
34	0xbff87e5c	-1.9413562
35	0xc0037ce1	-2.054497
36	0x3edbe2e8	0.42946553
37	0xbca0a5d0	-0.019610316
38	0x3de11826	0.10990934
39	0xbdeeb7c6	-0.11656146
40	0xc0302805	-2.7524426
41	0xc03de63f	-2.967178
42	0x3ddcaff0	0.10775745
43	0x3ea19357	0.31557724
44	0xbe69027e	-0.22754857
45	0xbe70fdda	-0.23534337
46	0xbf4173be	-0.75567234
47	0xc003c1a3	-2.0586936
48	0xbdf881e4	-0.1213415
49	0xbe99b039	-0.3001726
50	0xbdadef7e	-0.08492945
51	0x3dbd15a8	0.09232646
52	0xbe3cc917	-0.18436085
53	0xbdc109f7	-0.09425729
54	0xbe2f916c	-0.17145318
55	0x3e703d3a	0.23460856
56	0x3c602410	0.013680473
57	0xbea9eb4f	-0.3318734
58	0xb9cca06c	-0.00039029436
59	0x3d739bbe	0.0594747
60	0x3e6f6010	0.23376489
61	0xbe6333d0	-0.22187734
62	0x3e577687	0.21041308
63	0xbea7b91c	-0.32758415
64	0x3df64f30	0.120268226
65	0xbe137724	-0.14400917
66	0xbdde696c	-0.108599514
67	0x3e8543f7	0.26028416
68	0xbe22e68a	-0.15908256
69	0x3e204d21	0.15654422
70	0x3fe99d24	1.825108
71	0xbf4caab8	-0.79947996
72	0x3e14c467	0.14528047
73	0xbe8e7e68	-0.27830815
74	0x3e7863a2	0.24256757
75	0xbe3186eb	-0.17336623
76	0x3dfb8cac	0.122826904
77	0x3ec5161a	0.38493425
78	0xbdfa6861	-0.1222694
79	0x3bd69180	0.0065481067
80	0x3e5d51ef	0.21613286
81	0xbe44b020	-0.19207811
82	0xbda5b5d4	-0.080913216
83	0x3de8421a	0.11340733
84	0x3e9d1b72	0.30685002
85	0x3d94c4d3	0.07264104
86	0xbdf483c8	-0.11939198
87	0xbed107fb	-0.408264
88	0xc0685b61	-3.6305773
89	0xc0691f0e	-3.6425204
90	0x3cb8494f	0.022495894
91	0x3e5db1ea	0.216499
92	0xbd86286d	-0.06550679
93	0xbec939fa	-0.39302045
94	0x3da870b1	0.08224619
95	0xbe8c7e06	-0.27439898
96	0x3be98d24	0.007127421
97	0xbe686856	-0.22696051
98	0x3d9455f3	0.07242956
99	0x3e4187f9	0.18899526
100	0x400a1ea9	2.1581213
101	0xbef48f5d	-0.47765628
102	0x3ec86dfe	0.39146417
103	0xbea5d7ce	-0.32391208
104	0xbcb07cf0	-0.02154395
105	0xbdded86c	-0.10881123
106	0x3ff57703	1.9176944
107	0x3f4b6654	0.79453015
108	0xbc6f5528	-0.014607705
109	0xbe0adad2	-0.13560036
110	0xbe4e7115	-0.20160325
111	0x3e7b89d2	0.24564293
112	0x400cb7cf	2.1987188
113	0x3f7e5d6e	0.9936131
114	0xbdf82368	-0.12116128
115	0x3ea41f41	0.32055095
116	0x3d3cfacf	0.046137627
117	0xbd9dae7f	-0.07699298
118	0xc01541bd	-2.3321373
119	0xc028bd3e	-2.6365504
120	0x3ebeb9c8	0.37251115
121	0x3ea15225	0.31507984
122	0x3d0c229a	0.034212686
123	0x3eabde13	0.33567867
124	0xbf638d64	-0.8888762
125	0x3fbe39c7	1.4861382
126	0xbdd33a5d	-0.10313866
127	0xbec35174	-0.3814808
128	0x3e935dc4	0.28782475
129	0x3d9269c4	0.071490794
130	0x3e8f9bcc	0.2804855
131	0xbe58c2af	-0.21168016
132	0x3ec6f12b	0.38855872
133	0xbe35083b	-0.17678921
134	0x3f021040	0.50806046
135	0xbecff4f4	-0.40616572
136	0x3fae94a5	1.3639113
137	0x3fab9c52	1.340708
138	0x3e262786	0.16226014
139	0x3deaae79	0.11459059
140	0x3eb989d2	0.3623796
141	0xbe33f7bb	-0.1757497
142	0xc01b0e1d	-2.4227364
143	0xc02c8bf4	-2.696042
144	0x3e75c9ab	0.24002711
145	0x3d502589	0.050817046
146	0xbdf6a5b4	-0.12043324
147	0x3e816f9d	0.25280467
148	0xbfe0f00d	-1.7573258
149	0xbd345402	-0.04402543
150	0xbe978323	-0.29592237
151	0x3e6aa0a7	0.22912847
152	0xbec8b497	-0.3920028
153	0x3e1aeef9	0.15130223
154	0x3fd1726e	1.6363046
155	0x3ff4de82	1.9130404
156	0x3e41f063	0.18939357
157	0xbdd93d5c	-0.106074065
158	0xbe25b372	-0.16181734
159	0x3e06a7c4	0.13149935
160	0xc030b959	-2.7613127
161	0xc0145845	-2.3178875
162	0x3dafb6ff	0.085798256
163	0x3ed0ea7c	0.40803897
164	0xbe34be80	-0.17650795
165	0xbee2a4d5	-0.44266382
166	0xbf0d1a2c	-0.5511806
167	0x3fc3803d	1.527351
168	0xbd920689	-0.07130153
169	0x3e83eb4f	0.25765464
170	0xbda094e8	-0.078409016
171	0xbc2120a5	-0.009834443
172	0x40086c0b	2.1315944
173	0x3fab70a4	1.339375
174	0xbea6c7e8	-0.3257439
175	0xbe2644a0	-0.16237116
176	0x3e3df16d	0.18549128
177	0x3d34a477	0.04410216
178	0x3def0bcd	0.11672173
179	0xbe0c962e	-0.13729164
180	0xbe914c08	-0.2837832
181	0xbd38eae5	-0.045145888
182	0x3e95875c	0.29204834
183	0xbea299d2	-0.3175798
184	0x3ea8a739	0.3294008
185	0x3db2f558	0.08738202
186	0xbdecce0d	-0.115627386
187	0x3da3f134	0.0800499
188	0x3dfa92a8	0.12235004
189	0xbc7da21f	-0.015480547
190	0x3fe25d42	1.768471
191	0xbffa1346	-1.9537132
192	0xbd29cea0	-0.04145682
193	0x3e517b62	0.20457223
194	0x3e9a6a44	0.301592
195	0xbe0d323d	-0.13788696
196	0x40277cb0	2.6169853
197	0x3ebcb08c	0.36853445
198	0xbe18f34f	-0.14936565
199	0x3e9036d1	0.28166822
200	0xbe6ed66e	-0.23323986
201	0x3e1d2264	0.1534515
202	0xbe28191f	-0.16415833
203	0xc01abf45	-2.4179242
204	0xbe182400	-0.14857483
205	0xbe639018	-0.22222936
206	0xbd9beae0	-0.07613158
207	0x3e149f34	0.14513856
208	0xc00aad3b	-2.1668231
209	0x40269ae0	2.6032028
210	0xbe882866	-0.26593322
211	0xbe860dc0	-0.26182365
212	0x3e981481	0.29703143
213	0x3ed4e35f	0.4157972
214	0x3ff62e6b	1.9232916
215	0xbfc3c065	-1.5293089
216	0xbf3ed635	-0.74545604
217	0xbe6ae35e	-0.22938296
218	0x3da114f0	0.07865322
219	0x3e3aa2e6	0.18226203
220	0xc06fe354	-3.74825
221	0xbffbc3b0	-1.9669094
222	0x3dfbdfdf	0.122985594
223	0x3da9da34	0.08293572
224	0xbeb92ba4	-0.36166108
225	0x3e68e250	0.22742581
226	0x3f857ea3	1.0429271
227	0x3fdf9dc7	1.7470025
228	0x3eec6189	0.46168163
229	0x3d8466ff	0.064649574
230	0xbf6b8fca	-0.9201628
231	0xbecdfd63	-0.4023238
232	0x3f84e177	1.0381306
233	0x3fe3f9a3	1.7810558
234	0x3cba3e3b	0.022734752
235	0xbe67992b	-0.22617023
236	0xbea09120	-0.31360722
237	0x3e0b8ab6	0.13627133
238	0x3fb76beb	1.4329809
239	0xbfff22ca	-1.9932492
240	0x3e96f745	0.29485527
241	0x3d882fe1	0.06649757
242	0xbce92dc2	-0.028464202
243	0x3d8bbd58	0.06823224
244	0x3edb4618	0.42826915
245	0xc019a4dc	-2.4006872
246	0xbe9b1278	-0.30287528
247	0x3dbc7126	0.09201269
248	0xbd7c3aa4	-0.06157936
249	0x3db9e6b1	0.09077204
250	0xc020be91	-2.5116313
251	0xbfcf64e9	-1.620267
252	0x3e82ae03	0.25523385
253	0x3dbb8ec1	0.091580875
254	0xbec446a1	-0.38335136
255	0x3e3698ef	0.17831777

fc.0.bias f4 [128]
0	0x3e1aed9b	0.15129702
1	0xbe2d102b	-0.16900699
2	0x3e81dfa1	0.25365928
3	0x3d7445a6	0.059636734
4	0x3ead60be	0.3386287
5	0x3e086b26	0.13322124
6	0xbf1fa8f4	-0.62367177
7	0xbf2857d1	-0.65759
8	0xbeb6fe38	-0.3574083
9	0x3e1a7778	0.15084636
10	0x3db0584f	0.086105935
11	0xbee31fb8	-0.44360137
12	0xbdae5896	-0.0851299
13	0x3e6556a5	0.22396334
14	0x3f047b90	0.5175104
15	0x3e95bbde	0.29244894
16	0xbed0dfde	-0.40795797
17	0xbe750a45	-0.23929699
18	0x3d353142	0.04423643
19	0xbd9fbec2	-0.07800056
20	0xbcb78736	-0.02240334
21	0xbe1cc41d	-0.15309186
22	0xbd12bb23	-0.035823
23	0xbe2fa243	-0.17151742
24	0x3e0a7ad9	0.13523425
25	0xbeb89810	-0.36053514
26	0x3d053c20	0.032528043
27	0xbd163f2d	-0.036681343
28	0x3c8b8d4f	0.017035155
29	0xbd4f0c17	-0.05054864
30	0xbdb1788d	-0.08665571
31	0xbe9a4f53	-0.30138645
32	0x3dcf0450	0.101082444
33	0xbee0003b	-0.43750176
34	0x3e6f841d	0.23390241
35	0xbd5f8db8	-0.054578513
36	0x3f348e2b	0.7052943
37	0xbec35f89	-0.38158825
38	0xbf1d6c5d	-0.61493474
39	0xbeb19b3b	-0.34688744
40	0xbf0f1ad3	-0.55900306
41	0x3d56a23c	0.052400813
42	0x3dd14f1a	0.102201656
43	0x3eacf52a	0.33780795
44	0xbe6efade	-0.23337886
45	0xbddf8560	-0.10914111
46	0x3e1e3aca	0.15452114
47	0x3e807483	0.2508889
48	0xbe48bcb6	-0.19603238
49	0xbe065ef0	-0.13122153
50	0x3d48f5e7	0.049062636
51	0x3e04833c	0.12940687
52	0x3e93b5ce	0.28849643
53	0xbe504cb0	-0.20341754
54	0xbdcbe809	-0.099563666
55	0xbeabbfd4	-0.3354479
56	0xbe5b5219	-0.21418037
57	0xbf206847	-0.62659115
58	0x3d8ac0cf	0.067750566
59	0x3e267119	0.16254081
60	0xbd2cc2ae	-0.04217785
61	0xbd2358c7	-0.039879587
62	0x3d8290b5	0.06375257
63	0x3e8a6a67	0.27034304
64	0x3da7df7e	0.081969246
65	0xbedd77c1	-0.43255427
66	0x3e40b8a3	0.18820433
67	0xbe9ea8ba	-0.30988103
68	0x3efb7bb1	0.49117807
69	0x3eaf7670	0.34270048
70	0xbf122080	-0.5708084
71	0x3ea6ee99	0.3260391
72	0xbd90c7ac	-0.070693344
73	0xbcf79791	-0.03022364
74	0x3e38a7a2	0.18032697
75	0xbf1487b5	-0.5801957
76	0xbed2a3ea	-0.41140682
77	0xbec967c7	-0.39336988
78	0xbeae6166	-0.34058684
79	0x3ea97ce6	0.33103102
80	0x3e7e7667	0.24849854
81	0xbe18aae1	-0.14908935
82	0xbea9276d	-0.33037892
83	0xbe7c31b9	-0.24628343
84	0xbd95b438	-0.073097646
85	0x3efd4b61	0.49471572
86	0xbe5c617b	-0.21521561
87	0xbd0911d5	-0.03346427
88	0xbef197af	-0.47186038
89	0x3e8ef722	0.27922922
90	0x3eb7eca2	0.35922724
91	0xbe950d97	-0.2911193
92	0x3db74924	0.08949497
93	0x3cc3294d	0.023823405
94	0x3ea43253	0.32069644
95	0xbf0c1c50	-0.547307
96	0xbc53737a	-0.01290595
97	0xbdc6bb9e	-0.09703754
98	0xbe5d6f8f	-0.21624587
99	0xbf1e256f	-0.6177587
100	0x3f16483c	0.5870397
101	0x3e959668	0.29216313
102	0x3a919088	0.0011105696
103	0xbe29a046	-0.16565046
104	0x3dc63e14	0.09679809
105	0x3cc88c94	0.024481095
106	0xbea4a10f	-0.32154128
107	0xbcdddf1e	-0.02708393
108	0x3e30324c	0.17206687
109	0xbe0e1a9a	-0.13877335
110	0x3e6bb928	0.2301985
111	0xbdbf6173	-0.09344759
112	0xbdd373a3	-0.1032479
113	0xbdddfe0c	-0.10839471
114	0x3d167fc2	0.036742933
115	0x3e2a8d05	0.16655357
116	0xbe4714d4	-0.19441539
117	0xbe9a946e	-0.30191368
118	0x3e34ebfc	0.17668146
119	0xbd67894a	-0.056527413
120	0xbe60ba27	-0.21946011
121	0x3ed7fa5f	0.42183205
122	0xbebbae2b	-0.36656317
123	0x3e183c7e	0.14866826
124	0x3e29df01	0.16588975
125	0x3f0cd75c	0.5501611
126	0xbec2c95d	-0.38044253
127	0x3e9b5f2a	0.30346042

fc.2.weight f4 [64, 128]
0	0xbd49c5ef	-0.04926103
1	0x3d93c4ef	0.072152965
2	0xbe1dada4	-0.1539827
3	0x3cdeafd2	0.027183447
4	0xbc932510	-0.017962009
5	0xbdb23614	-0.08701721
6	0x3df6d124	0.12051609
7	0x3d8408a4	0.064469606
8	0x3d348ad5	0.044077713
9	0x3dad5371	0.08463181
10	0xbca0c0cf	-0.019623188
11	0x3dec860c	0.11549005
12	0x3db9f755	0.09080378
13	0xbcdb9ea7	-0.02680905
14	0xbf2e44cc	-0.68073726
15	0xbd843a6b	-0.06456455
16	0x3e107808	0.14108288
17	0xbe9a658a	-0.30155593
18	0x3c796818	0.015222572
19	0xb9ccfb20	-0.00039097015
20	0xbd1ba9d6	-0.038003765
21	0xbd1a630d	-0.03769212
22	0x4020f3c1	2.5148776
23	0xbdc1d3b6	-0.09464209
24	0xbce36054	-0.027755894
25	0xbcd33a88	-0.025784746
26	0xbcb391e0	-0.021920145
27	0xbe3c386f	-0.18380903
28	0x3d2c0cfe	0.042004578
29	0xbcfd3468	-0.030908778
30	0x3d87d91c	0.06633207
31	0x3e046e0f	0.12932609
32	0x3d7c6b1b	0.06162558
33	0x3d96238e	0.07331
34	0xbed2216b	-0.4104112
35	0xbd09d036	-0.03364583
36	0x3e868bc7	0.26278517
37	0x3cb24d27	0.021765305
38	0x3d8da242	0.06915714
39	0xbd8d3e4a	-0.06896646
40	0x3daa7a34	0.0832409
41	0xbdb4a32a	-0.088201836
42	0xbd38ec78	-0.04514739
43	0xbcf24db2	-0.029578064
44	0xbd33f4af	-0.04393452
45	0x3b4a2d76	0.003084985
46	0x3b09ffcc	0.0021057008
47	0xbcd557ac	-0.026042782
48	0xbfa5eab8	-1.2962255
49	0x3dc8b505	0.09800152
50	0xbde5d4d8	-0.11222237
51	0xbc039078	-0.0080300495
52	0x3cbc3b37	0.022977455
53	0xbcc16f32	-0.023612592
54	0x3dcef056	0.10104434
55	0x3d9b83cb	0.07593497
56	0xbcd2d8cd	-0.025738144
57	0x3d023180	0.031785488
58	0xbc4b85b0	-0.01242201
59	0x3d48064b	0.048834126
60	0x3d4cbe32	0.049986072
61	0xbd59f35b	-0.053210597
62	0xbdafdf8c	-0.0858756
63	0xbc27adcf	-0.01023431
64	0x3d765a76	0.060144864
65	0x3cf93218	0.030419394
66	0x3d04646a	0.032322325
67	0xbc36db8d	-0.011160743
68	0xbd62ce4a	-0.055372514
69	0xbd1581ab	-0.036500614
70	0x3e8ad49f	0.27115342
71	0xbd763dd3	-0.060117554
72	0xbd21cd98	-0.03950271
73	0xbd74ed4e	-0.059796624
74	0xbeb63b7c	-0.35592258
75	0x3d266d20	0.040631413
76	0xbd254c14	-0.040355757
77	0x3df29f4a	0.11846788
78	0x3d3290f0	0.043595254
79	0xbe79d6a2	-0.24398282
80	0xbce85036	-0.02835856
81	0x3dcc6e4c	0.09981975
82	0x3e5d563a	0.21614924
83	0xbd5a9c1c	-0.053371534
84	0xbceca3fc	-0.028886788
85	0xbd23ab5e	-0.03995835
86	0xbd95aec5	-0.07308725
87	0xbcc37bec	-0.023862801
88	0x3c81018c	0.015747808
89	0xbcc3ad0d	-0.023886228
90	0x3dcbb77c	0.09947106
91	0xbce80c7a	-0.028326262
92	0xbd934f84	-0.07192901
93	0x3e8b127a	0.27162534
94	0x3d701b92	0.058620043
95	0x3d4778aa	0.04869906
96	0xba82b2a3	-0.0009971451
97	0xbe3849eb	-0.17996947
98	0x3b671c10	0.003526453
99	0x3dfbe2ca	0.12299116
100	0x3e992cfe	0.2991714
101	0x3d1b41b1	0.037904445
102	0xbcd35293	-0.02579621
103	0x3c03e0ca	0.008049199
104	0x3ee53d88	0.44773507
105	0x3d523563	0.051320445
106	0x3cbde578	0.023180708
107	0xbe5e091a	-0.2168316
108	0x3c465386	0.0121048745
109	0x3d0fe1ee	0.035127573
110	0x3c97386b	0.01845952
111	0x3e8da54e	0.2766518
112	0x3d3932b3	0.045214366
113	0xbde8efbb	-0.1137385
114	0x3d5d1dd0	0.05398351
115	0xbd0f0392	-0.034915514
116	0xbcc2b68e	-0.02376869
117	0xbe087ecc	-0.13329619
118	0x3dc48bb6	0.0959696
119	0xbe1c45ea	-0.15261045
120	0xbcbef99c	-0.023312382
121	0xbceba788	-0.028766409
122	0xbcf4c8ef	-0.029880969
123	0x3e289d40	0.16466236
124	0x3ce6f078	0.028190836
125	0x3c7a5356	0.015278658
126	0x3d842a10	0.06453335
127	0x3caf10ec	0.021370374
128	0x3da253e6	0.079261586
129	0x3aa9b86c	0.0012948639
130	0xbd958610	-0.07300961
131	0xbdb62e09	-0.08895499
132	0xbd48e056	-0.04904207
133	0x3bb98f7e	0.0056628576
134	0xbdcf82dc	-0.10132381
135	0xbcd23131	-0.025658222
136	0x3cd3888b	0.025821945
137	0x3b6070b8	0.0034246873
138	0x3d64bb2f	0.055842575
139	0xbdb591e3	-0.08865716
140	0x3c949f90	0.018142492
141	0xbd8d919c	-0.069125384
142	0x3d96d16f	0.07364165
143	0x3d95ec97	0.073205166
144	0xbdafcda0	-0.08584142
145	0x3db44e4e	0.08803998
146	0xbdd8a2a2	-0.10577895
147	0x3cd00adb	0.025395801
148	0x3d1a1a92	0.037622996
149	0x3daa47e1	0.08314491
150	0xbd0c10bb	-0.034195643
151	0xbc113026	-0.008861577
152	0xbd52e4a2	-0.051487572
153	0xbd2152ec	-0.03938572
154	0xbc337e6c	-0.010955434
155	0xbc90f2a3	-0.017693823
156	0xbd901959	-0.07036085
157	0x3c071ba0	0.008246332
158	0x3d5bdfc6	0.053680204
159	0x3dab9b83	0.08379271
160	0xbdcdad8d	-0.10042868
161	0xbd80f35c	-0.06296417
162	0xbd932b13	-0.0718595
163	0xbd163e9c	-0.036680803
164	0x3d9eedc0	0.07760191
165	0x3d6701d0	0.056398213
166	0x3ca65945	0.020306239
167	0xbc74c0ce	-0.014938546
168	0x3c1c8290	0.009552613
169	0xbcc3276a	-0.023822505
170	0x3a9b6e60	0.0011858456
171	0xbd2dae5b	-0.042402606
172	0xbda51f14	-0.08062568
173	0xbd40f995	-0.04711302
174	0x3da37c18	0.079826534
175	0x3d41ffcf	0.0473631
176	0x3d4b17da	0.049583293
177	0xbdb101bf	-0.08642911
178	0x3c765a8e	0.015036238
179	0xbd9be2b8	-0.076116025
180	0xbc1c8b6c	-0.009554725
181	0xbd8d198d	-0.06889639
182	0xbdb0e182	-0.08636762
183	0xbda277ff	-0.07933044
184	0x3da6ea7a	0.081501916
185	0xbcbeffca	-0.02331533
186	0xbd34426a	-0.04400865
187	0x3c88214e	0.016617443
188	0x3d94e50e	0.07270251
189	0x3da4bb73	0.080435656
190	0x3d8846f4	0.06654158
191	0x3c869228	0.016427115
192	0x3d553fe4	0.052062884
193	0xbd45f5aa	-0.048329987
194	0xbb98b09d	-0.004659726
195	0xbd4c0537	-0.04980966
196	0xbc7fff06	-0.015624767
197	0xbcb0eb02	-0.021596435
198	0xbd3deb25	-0.04636683
199	0x3d5f2c61	0.054485682
200	0xbdabb082	-0.083832756
201	0xbd155829	-0.03646103
202	0x3db7c070	0.089722514
203	0x3d1c9372	0.038226552
204	0x3c9bec19	0.019033479
205	0xbdaa89d2	-0.083270684
206	0xbd01297a	-0.031533696
207	0xbd715a72	-0.058924146
208	0x3d51a468	0.05118218
209	0xbc08bede	-0.0083462875
210	0x389b81c0	7.415144e-05
211	0xbc2719de	-0.010199038
212	0x3d8634af	0.06553017
213	0x3d9203e5	0.07129649
214	0x3cc19bf2	0.02363393
215	0xbda34d99	-0.07973785
216	0x3d3b94b3	0.045796108
217	0x3d870384	0.065924674
218	0xbbe98eff	-0.007127642
219	0xbdac39fe	-0.08409499
220	0xbd726d35	-0.05918618
221	0x3d42cc64	0.047558203
222	0x3d3d8411	0.046268526
223	0x3bfbb4c5	0.0076814615
224	0xbd9a94c9	-0.0754791
225	0xbd215812	-0.03939063
226	0xbdc86450	-0.09784758
227	0xbd80404a	-0.06262262
228	0x3d4a7abe	0.049433462
229	0x3d2273bc	0.039661154
230	0x3d76954c	0.060200974
231	0xbd08afc7	-0.03337076
232	0xbd8f30fd	-0.06991766
233	0xbd96578a	-0.073409155
234	0xbd945785	-0.072432555
235	0xbd2c1ef1	-0.042021696
236	0x3cbaffa5	0.022826979
237	0x3d72a49a	0.059239008
238	0xbdade483	-0.08490851
239	0xbdb009f8	-0.085956514
240	0x3da3d832	0.0800022
241	0xbd59baae	-0.053156547
242	0xbcad8716	-0.021182578
243	0x3d8a7fda	0.06762667
244	0x3d7cb1e8	0.061693102
245	0x3d9d477e	0.07679652
246	0xbda3f16f	-0.08005034
247	0x3d88905d	0.0666816
248	0x3cd7dc6b	0.02635022
249	0xbcc6c7cd	-0.024265194
250	0x3d54b9ce	0.05193501
251	0x3b84b8b3	0.004050338
252	0xbc3ea1b6	-0.011635235
253	0x3d7df962	0.062005408
254	0xbd8b4fa8	-0.068023026
255	0x3c9363ab	0.017991861

fc.2.bias f4 [64]
0	0xbe60b9d0	-0.21945882
1	0x3cc39267	0.023873521
2	0xbc942de2	-0.018088285
3	0xbca02aab	-0.019551596
4	0xbc40f345	-0.01177675
5	0x3d17425a	0.036928512
6	0xbbfe7e80	-0.007766545
7	0xbea0f713	-0.31438503
8	0x3cd19538	0.025583848
9	0xbd1c31c5	-0.0381334
10	0xbb91a16a	-0.004444291
11	0x3d9a9ea0	0.075497866
12	0xbea06927	-0.31330225
13	0xbcb0d5fb	-0.021586409
14	0xbdf05ccf	-0.11736452
15	0xbcac9469	-0.021066861
16	0xbdcb28ea	-0.09919913
17	0x3d3fa994	0.04679258
18	0xbce3dd08	-0.027815357
19	0xbd97da36	-0.07414667
20	0x3e04a49c	0.12953418
21	0x3e8bb831	0.27288964
22	0xbd9511ae	-0.07278763
23	0x3d370c44	0.04468943
24	0x3d7b94ed	0.061421324
25	0xbde1852b	-0.11011728
26	0xbcf110a7	-0.029426886
27	0xbac4f150	-0.001502553
28	0x3dc1eb44	0.094687015
29	0x3dc51c7a	0.09624572
30	0xbe121552	-0.14265946
31	0xbd36981e	-0.044578664
32	0x3d95e93b	0.07319876
33	0xbe6c0ea8	-0.23052466
34	0x3db77bf6	0.089591905
35	0xbaa5916a	-0.0012631838
36	0xbcfb33de	-0.03066438
37	0xbe6340dd	-0.22192712
38	0x3cca2d4c	0.024679802
39	0x3daccca9	0.08437473
40	0x3e2e632b	0.17030017
41	0xbc1399d6	-0.009008845
42	0x3d83c6d2	0.06434406
43	0xbdbe0a6f	-0.09279334
44	0x3c8036f3	0.015651202
45	0x3d5060a9	0.050873432
46	0xbe272a83	-0.1632481
47	0xbe31dc86	-0.1736928
48	0xbcc06d3a	-0.023489583
49	0x3c419d3d	0.011817274
50	0x3d792b4b	0.060832303
51	0xbcc344f0	-0.023836583
52	0x3cae479d	0.021274382
53	0x3ea7ef15	0.32799593
54	0x3d4fe9a2	0.05075992
55	0x3d758838	0.05994436
56	0x3b61e890	0.0034470893
57	0x3cd20131	0.025635334
58	0xbe8cc898	-0.2749679
59	0xbb8e1ca3	-0.00433691
60	0x3d39b553	0.04533894
61	0x3e351d50	0.17686963
62	0x3d1c0e3e	0.03809952
63	0xbe26e873	-0.1629961

fc.4.weight f4 [32, 64]
0	0xbc660fce	-0.014041854
1	0xbd798aca	-0.060923375
2	0xbd5d42da	-0.054018833
3	0x3de14b16	0.1100065
4	0xbc453904	-0.012037519
5	0xbd29c240	-0.041445017
6	0x3c0d4110	0.008621469
7	0xbd0af00c	-0.033920333
8	0x3d90c251	0.07068313
9	0xbdcda9c5	-0.100421466
10	0x3ebcc449	0.36868504
11	0x3c38e383	0.011284712
12	0xbcfa8acc	-0.030583762
13	0xbd60ae34	-0.054853633
14	0xbf1fe726	-0.6246208
15	0x3dc34f7f	0.09536647
16	0xbb507640	-0.0031808764
17	0xbddd86c2	-0.10816719
18	0x3c0693d7	0.008213959
19	0xbdf236cd	-0.11826859
20	0xbd66d13e	-0.056351893
21	0x3cefcb58	0.029271767
22	0x3df454ff	0.11930274
23	0x3d9ce93c	0.076616734
24	0xbca5965a	-0.020213295
25	0xbc5044fa	-0.012711758
26	0x3b6d76c8	0.003623413
27	0xbdd1bf1d	-0.1024153
28	0xbd3b21a1	-0.045686368
29	0x3e1418a0	0.14462519
30	0xbd4fdde4	-0.05074872
31	0x3c600bd1	0.013674692
32	0xbd68c9f8	-0.056833237
33	0xbd3621a5	-0.04446568
34	0x3e1fa200	0.15589142
35	0x3d09c863	0.03363837
36	0xbccd0753	-0.025027907
37	0x3d2652a1	0.040606145
38	0xbd337912	-0.043816634
39	0x3e1e6fb7	0.15472303
40	0xbc87fada	-0.016599108
41	0x3daadb9a	0.08342667
42	0x3cfb8dee	0.030707326
43	0xbd1721e5	-0.03689756
44	0xbdce7058	-0.100800216
45	0x3a8d86e0	0.0010797642
46	0xbda97e9f	-0.08276104
47	0xbdb48c2d	-0.08815799
48	0x3c8574c8	0.016291037
49	0xbd9d4c20	-0.07680535
50	0xbdb3f53a	-0.08787008
51	0x3d973b16	0.073843166
52	0xbde2377b	-0.11045738
53	0xbd93d9fc	-0.072193116
54	0x3dacaa1b	0.084308825
55	0xbdf30be3	-0.118675016
56	0x3d186e83	0.037214767
57	0xbc0274d4	-0.007962424
58	0xbe3b109f	-0.18268059
59	0x3e0b6ba6	0.13615283
60	0xbdda7a63	-0.10667875
61	0x3df88ae2	0.12135865
62	0x3dff5f49	0.12469346
63	0xbdf219e3	-0.11821344
64	0x3d88064d	0.06641827
65	0xbda70fee	-0.08157335
66	0x3d950d1b	0.0727789
67	0xbd66a426	-0.056308888
68	0x3bead33b	0.007166294
69	0x3dc7ab04	0.097494155
70	0xbd8ac7ca	-0.06776388
71	0x3d9cc8e1	0.07655502
72	0x3d9217d4	0.07133451
73	0x3dd74e3f	0.10512971
74	0x3d6a0084	0.057129398
75	0xbdf94977	-0.121722154
76	0x3c10b4a6	0.008832132
77	0xbd28d81f	-0.041221734
78	0xbc91c182	-0.017792467
79	0xbd5cb1d9	-0.053880546
80	0x3dd55e31	0.10418356
81	0x3bc02863	0.0058641895
82	0xbe060a89	-0.13089956
83	0x3df0fde5	0.117671765
84	0x3d6814e5	0.05666055
85	0xbdc1e08a	-0.094666556
86	0xbcb90ad2	-0.022588167
87	0x3d8baa96	0.06819646
88	0xbcf0b77b	-0.029384365
89	0x3dcffc58	0.101555526
90	0xbdbc3c5b	-0.091911994
91	0xbd568b4f	-0.05237895
92	0xbda067dd	-0.0783231
93	0x3da31a71	0.07964028
94	0xbd9c6bb9	-0.07637734
95	0xbdc27dff	-0.09496688
96	0xbd698ada	-0.057017185
97	0x3de6765c	0.11253044
98	0xbdc3a82d	-0.09553561
99	0x3b9264dd	0.0044675902
100	0xbd942db0	-0.07235277
101	0xbca92c69	-0.02065106
102	0x3dd301c7	0.103030734
103	0x3d57e85e	0.052711837
104	0xbd99bd8a	-0.07506855
105	0x3d3197a1	0.043357495
106	0x3df4ee07	0.119594626
107	0xbd7f38ba	-0.062309958
108	0x3cf0b7a2	0.029384438
109	0x3df0eeb8	0.11764282
110	0x3ce75ab1	0.028241487
111	0xbb5d236c	-0.0033743037
112	0xbd370016	-0.044677816
113	0x3d1d4126	0.03839221
114	0xbd24d350	-0.040240586
115	0x3bfc860c	0.0077064093
116	0xbcd4743e	-0.025934335
117	0xbdb91979	-0.09038062
118	0xbd163216	-0.03666886
119	0xbde5af47	-0.11215072
120	0x3e0d2242	0.137826
121	0x3d1d7b54	0.038447693
122	0x3d90c326	0.070684716
123	0xbe1bfadd	-0.15232415
124	0x3d95e21c	0.073185176
125	0xbdff1ba9	-0.12456448
126	0x3b737144	0.003714637
127	0x3dc6f658	0.09714955
128	0xbd7f711e	-0.062363736
129	0xbddcc2c0	-0.10779333
130	0x3de41b9d	0.11138079
131	0xbc33e235	-0.010979225
132	0xbd87341c	-0.06601736
133	0xbca37f16	-0.01995806
134	0x3cf84066	0.030304145
135	0xbdfaf49a	-0.12253685
136	0xbe09faf3	-0.13474636
137	0x3d14d7d8	0.036338657
138	0xbca2f3b4	-0.019891597
139	0x3d66c62c	0.056341335
140	0xbcdd4682	-0.02701116
141	0xbd8d73dc	-0.06906864
142	0xbd37af9e	-0.044845216
143	0xbe057259	-0.13031901
144	0xbdb514b2	-0.08841838
145	0xbd278fce	-0.040908627
146	0x3d6d9d75	0.05801149
147	0xbd67317a	-0.05644367
148	0xbe15f16f	-0.14642881
149	0xbd408e12	-0.04701049
150	0xbe0f1c3f	-0.13975619
151	0xbb9ef32e	-0.0048507666
152	0x3de3e155	0.11126963
153	0xbd99e372	-0.07514085
154	0x3d00c8f6	0.03144165
155	0xbc31787c	-0.010831948
156	0x3dd06075	0.10174648
157	0xbdfa58ae	-0.122239456
158	0xbd79594a	-0.06087617
159	0xbd5441c2	-0.051820524
160	0xbd4d3de4	-0.05010785
161	0xbb004c2f	-0.001957666
162	0x3d8c7e1e	0.068599924
163	0xbe0ed498	-0.13948286
164	0xbdd150be	-0.102204785
165	0xbe12d5b2	-0.14339331
166	0x3da67896	0.08128469
167	0xbcc6ba98	-0.024258897
168	0x3b03d744	0.0020117322
169	0x3baabe98	0.005210709
170	0x3dcbec18	0.09957141
171	0x3c909ed2	0.017653856
172	0x3d9ce8a1	0.07661558
173	0x3ccb70ca	0.024834055
174	0xbd0bc274	-0.03412099
175	0xbe060604	-0.13088232
176	0xbcf434ab	-0.02981027
177	0xbce802c6	-0.028321635
178	0xbdf0bbd1	-0.11754573
179	0x3d5bec42	0.05369211
180	0x3df44ce0	0.11928725
181	0x3da3257e	0.079661354
182	0xbe14766d	-0.14498301
183	0x3dc5a570	0.09650695
184	0xbd8ace45	-0.06777624
185	0x3d1989a7	0.03748479
186	0x3d8a4d32	0.06753005
187	0xbdebf2ea	-0.115209416
188	0xbd8a904e	-0.06765805
189	0xbcf834d4	-0.030298628
190	0x3da2db13	0.07951941
191	0xbdc7a930	-0.09749067
192	0xbe1c7378	-0.15278423
193	0xbd5dfe10	-0.05419737
194	0xbd6271b4	-0.055284217
195	0xbe505f6e	-0.20348904
196	0x3c9882de	0.01861709
197	0x3d5f90f3	0.054581594
198	0xbdd4e156	-0.10394542
199	0x3e478b96	0.19486842
200	0xbb3aa1ae	-0.0028477716
201	0xbdd5a0ac	-0.10431036
202	0xbd0709fb	-0.032968502
203	0x3d91710c	0.0710164
204	0x3db644dd	0.088998534
205	0x3d6322ce	0.055453114
206	0x3e77be9f	0.2419381
207	0x3d7c3f2f	0.061583694
208	0xbc4b6050	-0.012413099
209	0xbba49451	-0.0050225635
210	0xbe103d44	-0.14085871
211	0x3da2d857	0.0795142
212	0x3bd3dc29	0.006465454
213	0xbe2cef5a	-0.1688818
214	0xbd2102b0	-0.039309204
215	0x3d2a31a4	0.041551247
216	0xbd288036	-0.041137896
217	0xbd060856	-0.032722794
218	0xbd2af343	-0.0417359
219	0xbd028cde	-0.031872623
220	0x3db8162a	0.089886025
221	0x3e1756e0	0.14779234
222	0x3c4e5999	0.012594604
223	0xbc79b426	-0.015240705
224	0xbdc3f485	-0.09568123
225	0x3cbcec5f	0.02306193
226	0x3d0959f7	0.033533063
227	0xbda7aa26	-0.0818675
228	0x3d5035e1	0.050832633
229	0xbe5e1356	-0.21687064
230	0xbda229b7	-0.07918113
231	0x3dbb66e9	0.09150488
232	0x3dd5ed15	0.104456104
233	0xbcde4c70	-0.027136058
234	0xbc87c3f8	-0.016572937
235	0xbe0219ef	-0.12705205
236	0x3dfb5773	0.12272539
237	0x3d1c8e7b	0.038221817
238	0xbbad5eb9	-0.005290833
239	0xbdd9752d	-0.10618053
240	0x3c7c8c43	0.0154143
241	0xbdafc0fc	-0.08581731
242	0x3dede9ad	0.11616836
243	0xbccaeb6c	-0.024770461
244	0x3dab75ff	0.08372115
245	0x3dd10bc2	0.10207321
246	0xbd967bc0	-0.07347822
247	0x3da5081d	0.08058188
248	0xbc0a5240	-0.0084424615
249	0xbdb54eab	-0.08852895
250	0x3e10b141	0.14130117
251	0x3dbf8b51	0.09352744
252	0x3d2c4c7f	0.04206514
253	0x3e8245ef	0.2544398
254	0x3e4016e2	0.18758729
255	0x3e2df4ff	0.1698799

fc.4.bias f4 [32]
0	0x3d083602	0.03325463
1	0x3cdc85a8	0.026919201
2	0xbcef96d8	-0.029246733
3	0x3dc0e622	0.09418894
4	0xbb94a6ca	-0.0045364844
5	0xbe27e5c9	-0.1639625
6	0x3e1c6d30	0.15276027
7	0xbddbb30a	-0.10727508
8	0xbdb87808	-0.09007269
9	0x3c15b0c1	0.00913638
10	0x3dcaa9ab	0.09895643
11	0x3d8ee55a	0.06977339
12	0x3dc89ef3	0.09795942
13	0x3c95a288	0.018265978
14	0xbd1ff795	-0.039054472
15	0xbdb83fa2	-0.08996512
16	0x3dc7a95b	0.09749099
17	0x3c4f32bc	0.012646373
18	0xbe1dec28	-0.15422118
19	0xbd5e65d0	-0.054296315
20	0x3e1ce0d8	0.15320146
21	0xbd87b472	-0.06626214
22	0x3de8579b	0.113448344
23	0x3eba6d36	0.36411446
24	0xbd03a456	-0.032139145
25	0xbe085462	-0.1331344
26	0xbe27c5b4	-0.16384012
27	0xbd4fb59e	-0.050710313
28	0xbe138aa9	-0.14408363
29	0xbdc25a02	-0.09489824
30	0x3dca9967	0.098925404
31	0x3e765015	0.24053986

fc.6.weight f4 [3, 32]
0	0xbe372034	-0.17883378
1	0xbd73f8fb	-0.05956362
2	0xbe19b0a2	-0.15008786
3	0x3d4caa38	0.04996702
4	0xbe0f79a5	-0.14011247
5	0x3d1e18f0	0.038598
6	0xbdc213f0	-0.09476459
7	0xbe011b59	-0.12608089
8	0xbdaec597	-0.08533781
9	0xbdef0e0f	-0.11672603
10	0x3de9f61f	0.11423897
11	0xbdebb92a	-0.115099266
12	0xbe3f0a4a	-0.18656269
13	0x3c1f1fea	0.009712199
14	0x3c94696d	0.018116677
15	0x3e08f842	0.13375953
16	0xbc7f4293	-0.015579837
17	0xbdfaacae	-0.12239967
18	0xbdc479f8	-0.09593576
19	0xbe051915	-0.1299785
20	0xbe1812f8	-0.14850986
21	0x3e07b007	0.13250743
22	0xbd992a77	-0.07478803
23	0xbea89fdc	-0.32934463
24	0x3d3a504c	0.045486733
25	0x3cda9820	0.026683867
26	0x3dc00170	0.09375274
27	0x3dcaba68	0.098988354
28	0xbd11fa44	-0.035639063
29	0xbdbe1544	-0.092814
30	0xbd9614ca	-0.07328184
31	0xbe9b3207	-0.30311605
32	0x3d4d2e93	0.050093245
33	0xbe01026c	-0.1259858
34	0xbc279dfe	-0.010230539
35	0xbe1bca0c	-0.15213794
36	0xbbdfb5c0	-0.006827086
37	0x3c740f6b	0.014896254
38	0x3e608edb	0.21929495
39	0xbdd3bceb	-0.103387676
40	0xbdcebf6c	-0.100951046
41	0xbda2f9ce	-0.07957803
42	0x3dd4b88f	0.10386764
43	0x3e83cf31	0.25744012
44	0x3e4e7d3a	0.20164958
45	0x3df531bf	0.11972379
46	0x3e17b7e4	0.14816242
47	0xbe028085	-0.12744339
48	0x3e833f80	0.25634384
49	0x3d1ad77e	0.037803166
50	0xbdf999ac	-0.12187514
51	0xbdc32dc2	-0.09530212
52	0xbce7a9cd	-0.02827921
53	0x3c15a2da	0.009133065
54	0x3dd81c1c	0.105522364
55	0x3e502d08	0.20329678
56	0xc0051be6	-2.0798278
57	0xbf0dfe12	-0.55465806
58	0xbe7cd1b7	-0.24689375
59	0x3de77459	0.113014884
60	0xbdaf4df5	-0.08559791
61	0x3deaa797	0.114577465
62	0x3dc41e88	0.09576136
63	0x3d937501	0.07200051
64	0xbc6cdd86	-0.014457112
65	0x3d054eb4	0.03254576
66	0xbc8a9492	-0.016916547
67	0x3e5d8b30	0.21635127
68	0xbe24f6e5	-0.16109808
69	0xbdca9d1f	-0.0989325
70	0x3e3df1a4	0.1854921
71	0x3e42cc09	0.19023146
72	0x3df93852	0.12168945
73	0x3e444c11	0.19169642
74	0x3d3737bc	0.044730887
75	0x3e0b41b9	0.1359929
76	0xbe0f82ea	-0.14014784
77	0xbde6a8ee	-0.112626895
78	0xbd4a7b0a	-0.049433745
79	0xbd8a7922	-0.067613855
80	0x3e2fd23e	0.17170045
81	0x3e194a08	0.14969647
82	0x3dbc5058	0.09195012
83	0x3d44fb17	0.04809102
84	0xbd4185b8	-0.047246665
85	0xbd671cfc	-0.056424126
86	0x3d0910dc	0.033463344
87	0xbd9eab7e	-0.07747553
88	0x3e99309a	0.29919893
89	0xbdc0faba	-0.09422822
90	0x3dffcc9f	0.124902
91	0xbe243dfc	-0.1603927
92	0xbdf9367b	-0.121685944
93	0x3caa8312	0.020814452
94	0xbdb19f1f	-0.08672928
95	0x3e3d91fd	0.18512721

fc.6.bias f4 [3]
0	0xbe05ee22	-0.13079122
1	0x3e899282	0.2686959
2	0x3dc97d50	0.098383546
