Genetic_Models/dino_genetic_model74.pth (torch, 48732 bytes, 8 tensors)

fc.0.weight f4 [128, 6]
000000 07 5b 1c 3d 52 d8 59 3e 11 75 9c be 9d f1 8a 3e
       0.038172748 0.21273926 -0.30558065 0.2713746
000010 fc 08 f5 bf 5d e6 a9 bf bc da 78 be d6 8a 89 3d
       -1.9143367 -1.3273426 -0.2430219 0.06715934
000020 09 3e 65 3e 71 81 79 be c6 81 99 3e cd d6 3f 3e
       0.22386946 -0.24365784 0.29981822 0.18734284
000030 71 52 f6 bc ff 63 65 be 31 5f a0 be d4 0b 52 3e
       -0.030068608 -0.22401427 -0.31322625 0.20512325
000040 c0 0d 32 c0 8e 06 34 c0 26 cc 6a bb 67 30 bc 3d
       -2.7820892 -2.8129 -0.0035827248 0.091889195
000050 fb e5 50 be b3 4b 30 3e 9a 0f ef 3f 6f 93 0f 40
       -0.2040023 0.17216377 1.8676636 2.2433736
000060 7b e6 ad be 00 f7 57 be 29 77 4e bd 38 ba 22 be
       -0.33964905 -0.21090317 -0.05040661 -0.1589135
000070 ba 8a b3 3e 0e 9f 38 be 99 ba 93 3e 96 0a 34 be
       0.35066777 -0.18029425 0.288533 -0.17582163
000080 4e 87 a7 bd 70 3f 55 3e 3b 85 f7 bf cc f9 03 c0
       -0.08180104 0.2082498 -1.9337534 -2.0621214
000090 33 d2 df 3e 85 ea fb bc 37 e7 0f 3e 78 b0 b8 bd
       0.43715057 -0.030751476 0.14053045 -0.09018034
0000a0 e8 a0 2f c0 db 2d 3d c0 54 2c ba 3d a9 fa ac 3e
       -2.744196 -2.9559238 0.09090486 0.3378499
0000b0 c7 91 5f be b2 5d 5e be df 5e 3e bf 03 2c 04 c0
       -0.21832953 -0.2171543 -0.7436351 -2.0651863
0000c0 cb ee e9 bd 99 15 a2 be 59 b4 93 bd 38 61 a3 3d
       -0.11422499 -0.31657103 -0.07212133 0.079775274
0000d0 2e 99 6c be 51 53 f4 bd 1c e8 1c be eb 93 26 3e
       -0.23105308 -0.11929954 -0.15322918 0.16267364
0000e0 5c a6 99 3c ca 2b ac be 80 9d ff 3c e1 0c 9c 3d
       0.018756084 -0.33627158 0.031203032 0.07619644
0000f0 dd c6 4e 3e 5b c4 6b be 26 7c 74 3e 4c 6c a1 be
       0.20193048 -0.23024122 0.23875484 -0.31527936
000100 c0 24 1d 3e 67 61 e2 bd d7 d1 d4 bd 33 6e 82 3e
       0.1534605 -0.11053734 -0.10391586 0.254747
000110 20 5c 32 be ee 5d 2e 3e 27 e3 e4 3f c2 1b 52 bf
       -0.17417955 0.17028019 1.7881821 -0.82073605
000120 fc cb 16 3e 24 1b 91 be 44 e1 8a 3e eb 86 31 be
       0.14726251 -0.2834102 0.2712499 -0.17336623
000130 05 2d d0 3d eb 15 c5 3e 56 cf 03 be dc 01 ca 3b
       0.10164837 0.38493285 -0.12872061 0.0061647724
000140 e3 6d 48 3e d5 44 2e be 5a 48 89 bd ae db ce 3d
       0.19573168 -0.17018445 -0.06703253 0.10100494
000150 24 cb 88 3e d9 06 b9 3d 98 f6 f5 bd 36 bb bb be
       0.26717484 0.09034509 -0.12009925 -0.36666268
000160 d3 e3 66 c0 e4 fe 66 c0 fe 2c 8d bb ef e6 43 3e
       -3.6076553 -3.6093073 -0.004308342 0.19131063
000170 25 17 7b bd 14 b0 c9 be 81 6c c5 3d 7b dc 8f be
       -0.06130137 -0.3939215 0.09639836 -0.280979
000180 34 b3 41 3c 4f 70 6e be ff 7b c8 3d d8 f1 6a 3e
       0.0118225105 -0.2328503 0.097892754 0.22943819
000190 a0 f4 07 40 85 6a e8 be 4a 70 d4 3e 3f 7e ac be
       2.1243057 -0.45393768 0.4149192 -0.33690068
0001a0 78 08 0c bb 9b bc bb bd 0b 51 f4 3f e8 8c 4b 3f
       -0.0021367352 -0.09166833 1.9087232 0.7951188
0001b0 e2 fc cf bc f5 31 19 be 2b c8 18 be df c4 68 3e
       -0.025389139 -0.14960463 -0.14920108 0.2273135
0001c0 1a fa 0d 40 17 2f 6f 3f 3e 76 e1 bd c4 1c af 3e
       2.21839 0.9343123 -0.11008881 0.34201634
0001d0 6c 35 a4 3d f4 1e 06 be ac 3e 17 c0 17 da 29 c0
       0.08018002 -0.13097745 -2.3632002 -2.6539361
0001e0 41 8a da 3e f7 20 9a 3e 76 ac 1f 3d ee 1f 9a 3e
       0.42683604 0.30103275 0.03898283 0.30102485
0001f0 55 1f 67 bf 1f cc c2 3f ed c1 09 be 47 10 cb be
       -0.90282184 1.5218543 -0.13452883 -0.39660856
000200 29 c0 90 3e 58 db 98 3d 5a f8 8a 3e 5f 05 5c be
       0.28271607 0.074637115 0.27142602 -0.21486424
000210 a3 82 bb 3e 25 96 2f be 7e 17 06 3f 2e a5 c4 be
       0.36623105 -0.1714712 0.52379596 -0.38407272
000220 f9 49 ad 3f 9c 08 ae 3f be 5f 26 3e d6 a2 08 3e
       1.35382 1.3596377 0.1624746 0.13343367
000230 6d ae c9 3e fc a4 32 be 76 f7 1b c0 59 1b 2a c0
       0.3939089 -0.17445749 -2.4369788 -2.6579192
000240 0e dc 91 3e 01 a5 88 3d 71 57 ba bd b1 a5 83 3e
       0.284882 0.06672097 -0.090987094 0.2571235
000250 69 58 e2 bf ba 3e 23 bd 9e 6e 94 be d5 0d 83 3e
       -1.7683231 -0.039854743 -0.28990644 0.2559649
000260 bc 22 c3 be 1b 3c c2 3d 63 ea cf 3f a4 90 f4 3f
       -0.38112438 0.094841205 1.6243404 1.9106641
000270 1c df 3b 3e 56 b4 dd bd 1a eb 47 be c7 95 f4 3d
       0.18346828 -0.10825412 -0.19523278 0.1194263
000280 8f 9b 30 c0 40 69 15 c0 e2 7e 91 3d 02 db da 3e
       -2.7594945 -2.334549 0.07104279 0.42745215
000290 67 ec 22 be 53 d1 de be 31 5e 10 bf cc 5e c1 3f
       -0.15910493 -0.43519077 -0.56393725 1.5107055
0002a0 5a 56 bf bd e5 c4 8a 3e 46 f9 b0 bd d8 73 22 bc
       -0.09342642 0.27103344 -0.08641295 -0.009915315
0002b0 bb b3 08 40 d5 f9 af 3f 21 b5 9e be 25 79 26 be
       2.1359699 1.3748118 -0.30997565 -0.1625715
0002c0 31 13 70 3e ff 03 82 3d 2a 09 d3 3d ce 60 02 be
       0.23444821 0.063484184 0.10304482 -0.1273224
0002d0 23 d2 90 be 95 a6 2b bd 2f a6 b3 3e 53 48 a7 be
       -0.28285322 -0.041906912 0.35087726 -0.32672366
0002e0 5b b7 9c 3e d0 35 bf 3d a1 2d c5 bd c1 12 a1 3d
       0.3060864 0.09336436 -0.09627844 0.07864905
0002f0 5c 8a ed 3d 32 ac 57 3d 11 c8 da 3f fc 9b fd bf
       0.115986556 0.052654453 1.7092305 -1.9813228
000300 cd 3c 98 bd 91 29 51 3e 76 33 95 3e e2 8e 10 be
       -0.07433472 0.20426013 0.29140824 -0.14117005
000310 94 db 27 40 4e 19 b2 3e b1 39 10 be 12 d0 8e 3e
       2.622777 0.3478493 -0.14084508 0.2789312
000320 8c 92 74 be ed 5b 26 3e bd c4 40 be c5 fb 19 c0
       -0.23884028 0.16246004 -0.1882505 -2.4059918
000330 bf 8c 1b be f2 1e 4c be 81 47 bc bd 5b ad 05 3e
       -0.15190409 -0.1993368 -0.09193326 0.13054411
000340 32 cf 08 c0 cc 7e 26 40 d3 8b 88 be b5 d8 7f be
       -2.1376462 2.601489 -0.26669177 -0.24985011
000350 cb c0 87 3e d1 43 e3 3e 26 2e f9 3f ef 56 c9 bf
       0.26514277 0.44387677 1.9467208 -1.5729655
000360 09 fd 43 bf d8 e0 57 be 45 55 a6 3d b5 50 38 3e
       -0.76557976 -0.21081865 0.081217326 0.17999537
000370 7c c4 70 c0 b3 06 fb bf c1 42 09 3e a8 e3 ba 3d
       -3.7619925 -1.961142 0.13404371 0.09125453
000380 0e 91 bf be ad 70 72 3e e4 67 84 3f 24 e7 d9 3f
       -0.37415355 0.23675795 1.0344205 1.7023664
000390 92 8e f4 3e 0d 95 9b 3d 1a 9a 6a bf 60 fa cd be
       0.47765023 0.075967886 -0.9164139 -0.40230083
0003a0 20 99 8a 3f 41 63 e6 3f c5 61 db 3c 67 37 6c be
       1.082798 1.799904 0.026780019 -0.2306801
0003b0 ed 67 98 be 18 47 ec 3d 42 04 ba 3f 83 e1 f9 bf
       -0.2976679 0.115369976 1.4532549 -1.9521946
0003c0 70 2e 8c 3e 8b 4e a2 3d 4e ef 28 bd ea f3 95 3d
       0.2737918 0.07925137 -0.041243844 0.073219135
0003d0 a5 39 e5 3e 9d 22 18 c0 26 96 8f be 15 6f ec 3d
       0.44770542 -2.3771126 -0.28044242 0.11544625
0003e0 06 0a 11 be 11 0c 86 3d 72 90 20 c0 ec c7 d2 bf
       -0.1416398 0.0654527 -2.5088162 -1.6467261
0003f0 d0 ed 84 3e e1 ee bc 3d 74 52 c6 be 6b d0 31 3e
       0.25962687 0.0922525 -0.38734782 0.17364661

fc.0.bias f4 [128]
000000 3b 35 45 3e 5b 64 2b be d3 d4 80 3e 2a 2f e1 3d
       0.19258587 -0.16737501 0.25162372 0.10995324
000010 91 15 ba 3e a0 98 ef 3d 3f df 21 bf 2f 05 2b bf
       0.3634458 0.11699033 -0.6323127 -0.66804785
000020 9e a2 a9 be 45 71 5a 3e 54 3b 99 3d a3 a3 e1 be
       -0.3313188 0.21332271 0.07482019 -0.44070157
000030 3f bb 8d bd c7 7f 78 3e 7c d5 07 3f 73 02 9d 3e
       -0.0692048 0.24267493 0.53060126 0.3066593
000040 21 6c d7 be 8d 56 7c be 12 f7 0e 3d 10 8d 91 bd
       -0.42074683 -0.24642392 0.034903593 -0.07106984
000050 93 ec af bc 41 c1 21 be 7a dd b1 bc 29 8d 4d be
       -0.021475112 -0.15796377 -0.021712054 -0.2007338
000060 7a 72 29 3e cb 21 bc be 40 64 8b 3d 48 d3 88 bd
       0.16547576 -0.36744532 0.068062305 -0.06680924
000070 76 0a a5 3c de 96 93 bd 35 5f a0 bd f8 27 a1 be
       0.02014659 -0.0720651 -0.07830659 -0.31475806
000080 7c 41 c9 3d 9a 20 d7 be c6 bf 67 3e 22 1d 98 bc
       0.09826943 -0.4201706 0.2263175 -0.01856858
000090 fe 0f 2d 3f a6 c2 be be c4 a5 15 bf b9 6c c7 be
       0.6760253 -0.3725788 -0.58456063 -0.38950136
0000a0 85 24 0e bf 6f 0f 26 3d 1d f3 fe 3d e4 81 ab 3e
       -0.55524474 0.040542062 0.12448714 0.33497536
0000b0 e7 2a 77 be bb 82 b6 bd 6f 39 22 3e 7e f7 90 3e
       -0.2413746 -0.089116536 0.15842222 0.28313822
0000c0 07 71 5b be f2 66 01 be d0 f1 a0 3d 4c fb 0e 3e
       -0.21429835 -0.12636927 0.07858622 0.1396305
0000d0 b3 2b 9e 3e 67 f6 4b be a5 73 9f bd 43 6f ae be
       0.30892715 -0.19918214 -0.07785729 -0.3406926
0000e0 52 ef 5d be b8 6f 1a bf 39 cd c3 3d 70 0c 14 3e
       -0.21673325 -0.6032672 0.095606275 0.1445787
0000f0 c4 16 2a bd a6 b3 1a 3c 2c 8a 81 3d d0 ea 99 3e
       -0.041525617 0.009442246 0.06325182 0.3006196
000100 5e 34 d8 3d 5c dd d3 be 75 61 26 3e b0 29 94 be
       0.10556863 -0.4137982 0.16248114 -0.28938055
000110 29 68 fa 3e fb b8 a5 3e 37 64 0f bf d4 36 a6 3e
       0.48907593 0.3236769 -0.5601229 0.32463706
000120 ba a7 00 bd 35 2b 1d bd eb 60 50 3e 56 af 18 bf
       -0.031409957 -0.038371284 0.20349471 -0.5964254
000130 0f 6d d8 be 26 3f da be 7a ee bf be 66 bf a4 3e
       -0.42270705 -0.42626303 -0.3748663 0.32177275
000140 c4 b1 77 3e 41 94 c8 bd 3e df a9 be b7 96 88 be
       0.24188906 -0.09793902 -0.33178133 -0.26677486
000150 e6 d3 00 be bd 3b f8 3e 6a a9 6c be 51 40 16 bd
       -0.12580833 0.48483077 -0.23111501 -0.03668243
000160 b1 30 f9 be d5 0c 8e 3e 68 68 b2 3e b2 a9 89 be
       -0.4866996 0.27744165 0.3484528 -0.2688728
000170 9c ff d7 3d c0 b6 08 3d d6 57 8a 3e 7c 42 0c bf
       0.105468005 0.03337741 0.27020139 -0.5478895
000180 6c 60 47 3b 68 d0 ba bd b9 fd 6c be ec a5 25 bf
       0.0030422462 -0.091217816 -0.23143663 -0.647063
000190 12 42 11 3f 99 2c b5 3e 72 a4 30 bc e2 95 28 be
       0.5674144 0.35385588 -0.010781394 -0.16463426
0001a0 17 2e c8 3d a2 9a 0d 3d db c8 a9 be bd a9 25 bd
       0.09774416 0.034571297 -0.33161053 -0.04044508
0001b0 07 dd 20 3e 63 76 24 be 7b 71 40 3e 31 26 99 bd
       0.15709315 -0.16060786 0.1879329 -0.074779876
0001c0 1c 44 ce bd dc a5 e6 bd fc 3b bf 3c e5 c8 2b 3e
       -0.100715846 -0.11262104 0.023344032 0.16775854
0001d0 7f ba 52 be f4 a5 90 be 12 6a 28 3e f7 5c 26 bd
       -0.20578955 -0.28251612 0.16446713 -0.040616002
0001e0 55 a5 83 be e8 8a bf 3e 8b 1e b9 be 53 28 15 3e
       -0.25712076 0.37410665 -0.36156115 0.14566164
0001f0 05 92 32 3e 5f 0c 10 3f 56 c4 c9 be f0 31 b3 3e
       0.17438515 0.56268877 -0.39407605 0.34999037

fc.2.weight f4 [64, 128]
000000 a0 0c 17 bc ef 08 88 3d 27 ad 20 be d2 50 a8 bb
       -0.009219319 0.06642329 -0.15691052 -0.0051365877
000010 31 1c c1 bc c4 0e 05 be 40 7d 15 3e 9e 67 79 3d
       -0.023573013 -0.12993914 0.1459856 0.060889833
000020 5f 0f 03 3d 1f 86 c8 3d b8 9d af 3a 62 21 ce 3d
       0.03199708 0.097912066 0.0013398444 0.10064961
000030 c6 e1 d6 3d 72 43 95 bd 87 52 2d bf 41 a4 27 bd
       0.104922816 -0.07288255 -0.6770405 -0.04092813
000040 68 e6 eb 3d 7d 8c 98 be ae 11 b7 3d b8 29 0f 3b
       0.11518556 -0.29794684 0.08938919 0.0021844935
000050 27 7f 98 bd 8a b9 3a bd d3 22 22 40 f0 54 0d be
       -0.074461274 -0.0455871 2.5333755 -0.13801932
000060 f2 46 8f bd 3e 9d 52 bc d8 f8 25 bd 2c 87 41 be
       -0.069959536 -0.012854872 -0.04052052 -0.1889922
000070 5f 17 38 3d bc a1 d1 bc 6e 60 cc 3d 1f 87 0e 3e
       0.044944163 -0.025589816 0.0997933 0.13918732
000080 ae a5 af 3d d3 2c 18 3d 24 95 d5 be a8 0f 0b bd
       0.08576523 0.037152123 -0.41715348 -0.033950478
000090 7e bb 95 3e a9 9c c8 3b 84 b1 61 3d 9b c0 b9 bd
       0.29244608 0.006122191 0.055100933 -0.0906994
0000a0 91 9d c1 3d f8 a3 c6 bd 53 ac 56 bd 16 81 a4 bb
       0.094538815 -0.09699243 -0.052410435 -0.005020271
0000b0 ca 0d 3f bd a6 55 d9 3c b3 2c 16 3d 7a 5f 8e bd
       -0.04664401 0.026530098 0.036663722 -0.069518045
0000c0 09 19 a3 bf ac 9c bc 3d d0 0c 0c be b6 f7 45 bd
       -1.2742015 0.0920957 -0.13676763 -0.04833194
0000d0 4d cf 48 3c cf 33 2b bc 0c f6 c5 3d 3e 35 bd 3d
       0.012256456 -0.010449364 0.0966607 0.09238671
0000e0 b4 af dc 3b 28 4c 1e 3d 8f f3 5e bd c2 41 9f 3d
       0.0067348126 0.038646847 -0.054431494 0.07776214
0000f0 52 ad 30 3d 58 87 53 bd 7b ee a6 bd 29 75 02 bd
       0.04313404 -0.051642746 -0.08150955 -0.031850014
000100 44 a9 33 3d e0 10 d2 3c 88 82 c3 3c ba 9c cc bc
       0.043862596 0.025642812 0.023865953 -0.024977077
000110 15 34 29 bd e1 ed 52 bc b6 0e 6b 3e 1b b7 86 bd
       -0.041309435 -0.012874098 0.2295483 -0.06577893
000120 a6 38 f9 bb b3 64 6b bd e2 23 a9 be b8 84 df 3c
       -0.00760563 -0.05746908 -0.3303519 0.027284965
000130 98 92 23 3c 1c 86 05 3e ae bd 59 3d f5 88 79 be
       0.009983681 0.1303944 0.05315941 -0.24368651
000140 47 b5 3a bd 50 a5 46 3d 48 71 4b 3e 72 c1 44 bd
       -0.045583036 0.048497498 0.19867432 -0.048036046
000150 7b 6b d1 bc 60 84 9b bd dd 26 6e bd 50 82 01 3d
       -0.025563946 -0.07593608 -0.05814253 0.031618416
000160 4e f2 d2 3c 78 f1 e6 bc 03 b3 9f 3d be e4 f1 3c
       0.025750306 -0.028191313 0.07797816 0.029528018
000170 c7 e7 95 bd 4f 42 91 3e 0b 9d 1a 3d e8 49 84 3d
       -0.07319599 0.28370902 0.037747424 0.06459409
000180 89 2b 5d bc a1 73 32 be a9 24 4c bc 2f de d9 3d
       -0.013499149 -0.17426921 -0.012459912 0.10638081
000190 67 5a a3 3e 02 4b 80 3c d4 cd ac bc 32 f9 62 bd
       0.3190491 0.015660767 -0.02109424 -0.055413432
0001a0 e3 23 eb 3e bd b4 44 3d 00 43 cd b7 10 14 80 be
       0.45925817 0.048023928 -2.4469104e-05 -0.25015306
0001b0 d4 d8 1a 3d 99 63 a2 3c fc 77 b4 3c c5 cb 8e 3e
       0.03780444 0.019822882 0.02202987 0.2788984
0001c0 e0 5c 80 3d 48 95 03 be 9e 55 15 3d 2c 91 bc bc
       0.062677145 -0.12849915 0.036458604 -0.023018442
0001d0 cd 86 0d 3c 9b 62 03 be 17 17 f1 3d 18 05 1e be
       0.008638096 -0.12830584 0.11771982 -0.1543163
0001e0 4e 75 eb bc ca 5e 1f bd 7b 67 cf ba b4 0b 0a 3e
       -0.028742459 -0.038908757 -0.0015823686 0.13481027
0001f0 ec 04 1a 3d 6b cb 62 3d ec af bd 3d 3d 6b 03 3d
       0.03760235 0.055369776 0.0926207 0.032084692
000200 18 07 bf 3d e8 16 a3 bc f0 53 15 bd 78 be 0c be
       0.09327525 -0.019908383 -0.036457002 -0.13744533
000210 7f be c5 bd 22 6b fd 3c 01 10 ec bd 9a e7 91 bc
       -0.09655475 0.030934874 -0.1152649 -0.017810632
000220 d1 e2 f0 3b 50 87 50 bc ee 73 d2 3d 30 fa 09 be
       0.0073512574 -0.0127275735 0.10276018 -0.13474345
000230 ec 2e 1c bc 60 07 4e bd a1 cd f9 3d 70 07 b7 3d
       -0.009532671 -0.050300002 0.12197424 0.089369655
000240 8e 14 6b bd 72 ae bc 3d 92 2b e1 bd 1c 28 32 3c
       -0.05739265 0.0921296 -0.109946385 0.010873821
000250 c6 c8 34 3d 08 9d 97 3d c1 87 57 bd de b8 8c bb
       0.044136785 0.07402998 -0.0526197 -0.004294499
000260 00 2b 77 bd 1a 5c a2 bd 78 9a ee ba 36 4f 81 bc
       -0.060343742 -0.07927723 -0.0018203994 -0.015784841
000270 98 f9 77 bd e0 74 a2 b9 c7 44 9c 3d b8 ed d8 3d
       -0.060540766 -0.00030986127 0.07630306 0.10592216
000280 60 69 f3 bd 8a 78 f4 bd 9d 0c ce bd c4 bb 9a bb
       -0.11885333 -0.119370535 -0.100609995 -0.0047220904
000290 bc 60 8e 3d d7 65 53 3d df e7 31 3d 94 ae 67 bc
       0.06952044 0.051610794 0.04343402 -0.014140744
0002a0 2d 4e e6 3c dc 15 f1 3b 5e 61 60 3c 9f 49 38 bd
       0.028113449 0.007357342 0.013695089 -0.044992086
0002b0 7c d4 fb bc 38 d9 05 bd 4d 7c 02 3e f5 3d 72 3d
       -0.030740969 -0.03267786 0.1274273 0.059141118
0002c0 28 07 30 3d a9 4e 8c bd 02 fb 7c bd 60 6c 5b bd
       0.042975575 -0.06850941 -0.061762817 -0.05357015
0002d0 62 45 58 bb ed 53 04 bd b1 a6 a9 bd 3a 6b 82 bd
       -0.003300034 -0.0323066 -0.08283747 -0.06368108
0002e0 8e 3c c5 3d 54 49 ca bc 72 12 b5 bd 6c 60 10 3c
       0.096306905 -0.024693169 -0.08841409 0.008812051
0002f0 b8 91 8a 3d d1 5a c3 3d 1a 53 84 3d 56 dc 56 3d
       0.06766075 0.09538806 0.06461163 0.052456222
000300 50 14 eb 3d e7 0f 82 bd 00 91 cf 38 9d 0b 16 bd
       0.11478484 -0.063506894 9.8975375e-05 -0.03663217
000310 d7 a9 2e bd da b7 0b bd 03 7b 12 bd be af b6 3d
       -0.04264244 -0.03411088 -0.035761844 0.08920239
000320 bc 57 b6 bc 66 e7 fa 3b 84 8d e4 3d 64 2d 50 3d
       -0.022258632 0.0076569794 0.111598045 0.050824538
000330 f7 ed 1a 3c 61 92 98 bd 40 49 49 3c 72 34 9b bd
       0.009456149 -0.074497946 0.012285531 -0.075783625
000340 52 38 d3 3c 79 67 69 bd db 17 19 3d 82 7a 07 bd
       0.025783692 -0.056983445 0.037376266 -0.033075817
000350 6b ed 3e 3d e3 18 a6 3d 72 b7 88 3c 77 52 86 bd
       0.04661314 0.081102155 0.016689036 -0.06558698
000360 de cc 47 3d 75 60 aa 3d cf a1 7a bc 75 0d c2 bd
       0.04877936 0.08319179 -0.015297367 -0.09475223
000370 30 81 66 bd 4c 57 48 3d c8 8a f6 3c 6c a4 b1 bc
       -0.056275547 0.048911378 0.030095473 -0.021684848
000380 ba 67 ad bd 1c 62 f1 bc 9b ef aa bd e7 5a d4 bd
       -0.0846705 -0.029465728 -0.08346482 -0.10368901
000390 a9 bf 1f 3d 06 86 06 3d 86 b0 86 3d c8 91 35 bd
       0.03900114 0.03284266 0.06576638 -0.04432848
0003a0 5f 1a 73 bd 31 de 5f bd 57 45 8b bd bf fb 43 bd
       -0.05935132 -0.054655258 -0.06800335 -0.047847506
0003b0 40 fa 8e ba f9 29 ca 3d 1a fb c1 bd bb 79 8a bd
       -0.001090832 0.09871287 -0.09471722 -0.067614995
0003c0 b8 11 77 3d 21 50 33 bd 52 41 15 bd f8 6a 35 3d
       0.060319632 -0.04377759 -0.036439247 0.044291466
0003d0 0b fe 88 3d c3 74 db 3d 33 23 b5 bd e4 2a a3 3d
       0.0668908 0.1071563 -0.08844604 0.07967165
0003e0 33 7a 34 3d 54 9f bf bc 24 ea 1d 3d 07 4d 0e 3c
       0.04406185 -0.023391403 0.038553372 0.008685357
0003f0 d9 b2 c1 bb 72 02 06 3e fc 5d 88 bd ea f6 78 3d
       -0.005911213 0.1308687 -0.06658551 0.06078235

fc.2.bias f4 [64]
000000 5b 71 5d be 70 b2 85 bb 6d 10 3c bc 88 77 21 bc
       -0.21625273 -0.0040801093 -0.011478526 -0.009855159
000010 20 d1 ae bc 21 89 2b 3d cc 7a df bc 19 cb b2 be
       -0.021339953 0.041878823 -0.027280234 -0.34920576
000020 d7 5e 7d 3d 85 f9 e5 bc c3 9b 54 3c 0f 7c ab 3d
       0.061858024 -0.028073082 0.01297659 0.08373272
000030 b7 92 a4 be 3d 98 92 3c 49 c4 d4 bd 9c 0f 92 bc
       -0.32143185 0.017894858 -0.10389001 -0.017829709
000040 d7 e8 9f bd 75 9b 3d 3d 9e b2 4c bc 73 2a 92 bd
       -0.078080826 0.046290834 -0.0124937575 -0.07137003
000050 29 8b 2a 3e d6 5f 93 3e e8 94 75 bd 34 28 41 3d
       0.16654648 0.28784055 -0.05995646 0.04715748
000060 76 f0 a4 3d 26 e0 f3 bd 9c b2 ff bc ae 41 8f bc
       0.08053677 -0.11907987 -0.031213097 -0.017487373
000070 49 8f a2 3d 5c 5a af 3d 8b 41 00 be 50 5c d2 bd
       0.07937486 0.085621566 -0.12525003 -0.102715135
000080 cd bb 09 3d c6 58 8b be be 95 9b 3c 57 5c 11 3c
       0.033626366 -0.27216166 0.018992301 0.008872113
000090 57 d6 f8 3c 4e dd 2e be b9 bb 9a 3c 21 42 94 3d
       0.030375643 -0.17076609 0.018888341 0.072391756
0000a0 2b 63 2e 3e 65 bd c9 bc 1c b6 dc 3c a6 2f ac bd
       0.17030017 -0.024626443 0.026942305 -0.08407526
0000b0 38 96 10 3c 5a ca 60 3d bc 72 21 be 30 2b 36 be
       0.008824877 0.054880477 -0.15766424 -0.17789912
0000c0 58 8d 07 bd 4a 12 f7 3b 89 db a4 3d f0 7f 77 3c
       -0.03309378 0.007540022 0.080496855 0.015106186
0000d0 73 46 c2 3c 1e f9 ad 3e ce ee 90 3d 30 83 33 3d
       0.023715233 0.33979124 0.070767984 0.043826282
0000e0 84 47 4a 3c ce b8 65 3d 99 d1 b2 be 1e e3 0a bc
       0.012346152 0.056084447 -0.34925535 -0.0084770005
0000f0 89 44 80 3c 02 44 27 3e f7 2c b8 3c b7 75 13 be
       0.01565768 0.16334537 0.022482378 -0.14400373

fc.4.weight f4 [32, 64]
000000 04 d7 92 bb d2 8c 7f bd 92 23 a0 bd 99 65 00 3e
       -0.0044811983 -0.062390156 -0.078192845 0.12538756
000010 3d a6 06 3c e3 0a 2a bd cf c3 93 bb ef 29 73 bd
       0.008218345 -0.04151429 -0.004509426 -0.059366163
000020 35 14 67 3d d6 cd a2 bd c7 84 bf 3e ac de 71 3b
       0.056415755 -0.07949416 0.3740599 0.0036906404
000030 64 12 17 bd e2 e8 08 bd d7 aa 1c bf 2c 7b 83 3d
       -0.036882773 -0.03342522 -0.6119818 0.064199775
000040 cf 57 90 3c 15 b2 d2 bd bf 5b 30 bd 76 53 05 be
       0.017619995 -0.10287873 -0.043056246 -0.13020119
000050 a1 e9 4c bd 94 c1 6f 3c 47 84 c2 3d 0b 7d 9f 3d
       -0.050027493 0.014633555 0.09497886 0.07787522
000060 3b 0b 95 bc 7e 08 68 3c 22 c2 af bb 95 62 81 bd
       -0.018193832 0.014162181 -0.0053637186 -0.06317631
000070 2a 53 d0 bc 1a 84 25 3e b2 4b 8e bd 61 bb 87 bb
       -0.02543028 0.16163674 -0.069480315 -0.0041422104
000080 d8 3a 65 bd 17 4a 2e bd c9 89 0e 3e 66 48 9d bc
       -0.05596432 -0.042551126 0.13919748 -0.019199561
000090 95 80 58 bd 62 5a b9 3c 9d a9 fb bc b7 6f 1e 3e
       -0.052857 0.022626106 -0.030720526 0.15472303
0000a0 d9 08 73 bd 10 61 f9 3d 94 19 dc bb 59 67 14 bd
       -0.05933461 0.12176716 -0.0067169163 -0.036231373
0000b0 24 44 e9 bd a7 2a 0a 3d 1d b8 88 bd 15 5e ce bd
       -0.1138995 0.033732083 -0.06675742 -0.100765385
0000c0 c6 04 d0 bc 31 e4 92 bd 8f 1f 14 bd 13 30 83 3d
       -0.025392901 -0.0717243 -0.03616291 0.06405654
0000d0 86 8d 01 be fc 4e c3 bd f6 81 8d 3d 2d 83 d9 bd
       -0.12651643 -0.095365494 0.06909554 -0.10620723
0000e0 cb 9d 76 3d 35 49 40 bc 67 b8 47 be e2 49 db 3d
       0.060209077 -0.011736204 -0.19503938 0.107074514
0000f0 3a ea f7 bd ae bb 2e 3e d0 2c db 3d 6e 9c c7 bd
       -0.12105222 0.17063782 0.10701907 -0.097466335
000100 2d 96 42 3d f9 25 bb bd 78 23 96 3d 28 a9 78 bd
       0.0475065 -0.09138102 0.07330984 -0.060708195
000110 27 f9 4d 3d 65 09 af 3d b8 46 2c bd 53 e1 43 3d
       0.05028644 0.08546714 -0.04205963 0.047822308
000120 23 18 1b 3d 91 14 b1 3d 9d 4f 28 3d a9 09 f6 bd
       0.037864815 0.08646501 0.04109155 -0.12013561
000130 9e 14 26 bd dd 8c 62 bd 08 0f 19 bd 6d 98 bd bd
       -0.040547006 -0.05531012 -0.03736785 -0.092575885
000140 df 5e d8 3d 86 e3 07 bd b3 71 f9 bd 6f 76 fc 3d
       0.1056497 -0.033175968 -0.121798895 0.12327277
000150 0f 7b 8c 3d c3 d6 da bd a9 25 9f bd 24 a4 0c 3d
       0.06859409 -0.10685494 -0.07770855 0.034336224
000160 72 fa 36 3b dc d9 88 3d c6 e6 d4 bd 8a 76 a3 bd
       0.0027920273 0.066821784 -0.10395579 -0.07981594
000170 8a 57 74 bd a5 51 bc 3d eb 1a cf bd e7 5b d2 bd
       -0.059653796 0.0919526 -0.10112556 -0.10271435
000180 a4 be 01 be ff 16 a0 3d 09 3f 94 bd 24 5e 8b 3d
       -0.1267038 0.07816886 -0.072385855 0.06805065
000190 d2 f8 a4 bd c8 d6 25 bc 44 5e 17 3e 2f a2 80 3d
       -0.08055271 -0.010122009 0.14782053 0.06280934
0001a0 1d 91 9a bd 43 c2 7b 3d fd cf c8 3d 9f a3 46 bd
       -0.075472094 0.06146456 0.098052956 -0.048495885
0001b0 47 eb b9 3c 6e a5 d2 3d dc ea bf 3c ce c2 29 bc
       0.022695197 0.102854595 0.02342742 -0.010361386
0001c0 dd cd 5b bd af 06 b4 3c 63 92 67 bd 11 15 01 3d
       -0.053663123 0.021975843 -0.05653609 0.03151423
0001d0 01 83 9e bc 50 2c be bd 73 07 60 bd f0 7b 09 be
       -0.019349577 -0.09285796 -0.054694604 -0.13426185
0001e0 b5 63 0f 3e 1d 68 32 3c 57 15 6f 3d 54 eb 0c be
       0.14002879 0.01088908 0.05836996 -0.13761646
0001f0 98 94 8c 3d 68 d5 1c be 2c 1a a9 3c 08 fb c2 3d
       0.068642795 -0.15315783 0.020642363 0.09520537
000200 2d 4f d4 bd 0d 31 ec bd c3 89 30 3d 26 24 02 bd
       -0.10366664 -0.11532793 0.04310013 -0.031772755
000210 6c d6 61 bd 3f 22 e6 bc a2 74 c0 3c c5 54 21 be
       -0.05513613 -0.028092502 0.023493115 -0.15754993
000220 f5 96 fd bd d2 8d 69 3d 71 be 14 bc e1 a2 a8 3d
       -0.123823084 0.057020016 -0.009078608 0.08234192
000230 5e 80 60 bd 90 be f7 bc 94 f4 96 bd 6b 74 e6 bd
       -0.05480992 -0.030242234 -0.07370868 -0.11252674
000240 6c 4c bd bd 34 6c e7 bc 63 1c 9f 3d 24 8c 94 bd
       -0.09243092 -0.028249837 0.07769086 -0.07253292
000250 8c 33 06 be a0 3f bb ba 32 4e 22 be 1c 67 e6 bb
       -0.13105601 -0.001428593 -0.15850142 -0.0070313346
000260 01 04 ca 3d 0e a6 91 bd af 28 19 3d 40 0f f5 3c
       0.09864045 -0.071117505 0.037392315 0.029914498
000270 cc af e8 3d a1 dd 0e be ca b6 49 bd e2 6e dd bc
       0.113616556 -0.13951732 -0.049246587 -0.027030412
000280 d6 70 59 bd c6 5b a4 3c bf 77 a5 3d 04 57 1d be
       -0.053086124 0.020063292 0.080794804 -0.15365225
000290 34 38 d2 bd cc 22 05 be a8 b7 e8 3d 73 9e 0a bd
       -0.10264626 -0.13001555 0.11363155 -0.033842515
0002a0 c1 ab 4e 3c f8 94 be bb 04 63 bf 3d be 43 d6 3c
       0.0126141915 -0.0058160983 0.093450576 0.026155349
0002b0 9a 32 8a 3d 60 8c e9 39 c6 44 13 bd b1 c3 ec bd
       0.06747933 0.0004454581 -0.03595426 -0.11560763
0002c0 5e 53 34 bc 27 aa 22 bd 08 4e 15 be 61 62 ad 3d
       -0.011006204 -0.03971305 -0.14580548 0.0846603
0002d0 04 a6 ca 3d aa ff b6 3d f1 6b 21 be 32 8f ab 3d
       0.09894946 0.08935483 -0.15763833 0.08376922
0002e0 1e d4 ad bd b2 1e 84 3d fb 82 85 3d 00 73 d5 bd
       -0.08487724 0.06451167 0.06519123 -0.10422325
0002f0 ec 6d 53 bd 21 6e 1c bd 34 79 cd 3d c2 fc a6 bd
       -0.0516185 -0.038190965 0.10032883 -0.081536785
000300 15 32 26 be 13 23 7c bd 82 ce 97 bc 26 fb 4c be
       -0.16230042 -0.061556887 -0.018531088 -0.2001768
000310 b2 7a 5d bc f2 f1 57 3d e0 5b 02 be 58 eb 55 3e
       -0.013518022 0.05272097 -0.1273036 0.20890558
000320 8a 54 9d 3c ad e4 08 be b5 28 dd bc 7e a0 b1 3d
       0.01920535 -0.13368483 -0.02699695 0.086731896
000330 bb 9d 02 3e 9d cf 53 3d 7a e4 82 3e b6 ff 4b 3d
       0.12755482 0.051711667 0.2556494 0.04980441
000340 43 9b 96 3b ec 8f ad bc 97 28 ef bd 98 56 c8 3d
       0.0045961454 -0.021186791 -0.11677664 0.097821414
000350 c8 b6 e4 b9 75 9b 24 be 64 9a ff bc bf be d8 3c
       -0.00043623731 -0.16074927 -0.031201549 0.026458142
000360 4f 53 15 bd ac d0 29 bd da a5 1a bd c9 c9 1d bc
       -0.036456402 -0.04145877 -0.037755825 -0.009630629
000370 de 1d f3 3d 24 8b 18 3e c2 b9 52 3d 1d 4a a3 bc
       0.11870931 0.14896828 0.051446684 -0.0199328
000380 20 a2 d5 bd f7 ef c5 3c 26 31 17 3d d7 44 e8 bd
       -0.104313135 0.024162276 0.036912106 -0.11341255
000390 66 67 43 3d cd c0 47 be 08 92 28 bd 3e 9f 79 3d
       0.04770603 -0.19507141 -0.04115489 0.06094288
0003a0 54 06 dc 3d e6 e7 6f bd 49 8f 65 3c e3 27 e3 bd
       0.107433945 -0.058570765 0.014011213 -0.11091592
0003b0 b6 52 f2 3d c6 5d 4c 3d 75 bd 3a bd 55 11 fc bd
       0.11832182 0.049894117 -0.045590837 -0.12307993
0003c0 d4 9e 4a 3c 86 10 e9 bd e0 fa e5 3d 14 28 7e 3c
       0.012366969 -0.11380105 0.11229491 0.015512485
0003d0 b3 c4 bf 3d 6b af b7 3d b7 25 d1 bd 0d 3f 82 3d
       0.09363689 0.08969005 -0.10212272 0.06359682
0003e0 33 d1 ae bc 9d b2 dc bd 1f 71 4b 3e e2 05 cb 3d
       -0.021339988 -0.10776255 0.19867371 0.099132314
0003f0 a8 7a 32 3d 08 f7 80 3e 74 ab 5f 3e 09 41 2c 3e
       0.043574005 0.2518847 0.21842748 0.16821684

fc.4.bias f4 [32]
000000 e3 0a d7 3c d8 21 fd 3b bb 56 01 bd 17 98 81 3d
       0.026250308 0.0077249818 -0.031576853 0.06327837
000010 92 5b b2 bc a8 86 2e be 9d 40 2b 3e 0b 87 af bd
       -0.02177218 -0.17043555 0.16723867 -0.08570679
000020 5a 5b a0 bd 3b 99 27 bc 67 c4 f3 3d 86 56 f3 3d
       -0.07829924 -0.010229404 0.11902695 0.118817374
000030 48 77 c8 3d f8 7d 0a 3d 56 ef d8 bc a4 7d ba bd
       0.09788376 0.03381154 -0.026481312 -0.09105995
000040 b2 40 f0 3d ae 51 c4 3c b9 ca 42 be 54 3f 08 bd
       0.1173109 0.02396473 -0.19022645 -0.03326352
000050 25 75 f1 3d 6e 0c 83 bd c5 a6 0b 3e 38 05 bb 3e
       0.11789922 -0.06398855 0.13637836 0.3652742
000060 60 bf 9d bd ce 58 04 be 8f f1 1b be d3 ff ae bd
       -0.077025175 -0.12924501 -0.15228866 -0.08544888
000070 b3 31 06 be fe 04 87 bd 55 0e de 3d 56 9d 71 3e
       -0.13104896 -0.06592749 0.10842577 0.23595175

fc.6.weight f4 [3, 32]
000000 df e0 25 be a4 3e 83 bd 81 9a 2a be 74 8b 51 3d
       -0.16199063 -0.06408432 -0.16660501 0.051158383
000010 b3 7d bb bd b2 b1 54 3d af 53 98 bd 49 29 f0 bd
       -0.091548346 0.051927276 -0.074378364 -0.117266245
000020 61 b4 d2 bd 7c 57 11 be 84 cb 10 3e a5 68 05 be
       -0.10288311 -0.14193529 0.14140135 -0.130282
000030 38 36 3b be 02 4f 10 bd 16 4f 4b 3c 31 44 ed 3d
       -0.18282402 -0.035231598 0.012408992 0.11585272
000040 5d 93 8b 3c 00 fc 4c bd b6 80 f0 bd 2c 5d 0d be
       0.017038042 -0.050045013 -0.117433 -0.13805073
000050 30 26 17 be 7b 75 10 3e 8c 7d cd bd 6e 43 98 be
       -0.14760661 0.14107315 -0.10033712 -0.29738945
000060 a0 21 56 3d 3e d6 cf bb 9e 09 92 3d c0 d7 f3 3d
       0.05227816 -0.0063426783 0.071307406 0.119063854
000070 97 b0 43 bd 9f 66 05 be 54 3f 7c bd 06 15 9d be
       -0.04777583 -0.13027428 -0.061583832 -0.30680102
000080 cf db 83 3d 6f 07 d3 bd 20 70 97 3c fd 99 fd bd
       0.064384095 -0.10304152 0.018486083 -0.123828866
000090 ad b1 6f 3d 8f ed 22 3c 42 aa 54 3e db 98 08 be
       0.058519054 0.009944334 0.20768073 -0.1333956
0000a0 2a fc ec bd 54 3a b8 bc 30 ee ce 3d f6 ee 77 3e
       -0.11571534 -0.02248875 0.101040244 0.2421225
0000b0 1a 06 40 3e 56 f4 f7 3d e3 70 39 3e 85 80 02 be
       0.18752328 0.1210715 0.18109469 -0.12744339
0000c0 f3 4b 53 3e 84 67 16 3d 56 28 11 be 74 bb 94 bd
       0.20634441 0.036719814 -0.14175543 -0.07262316
0000d0 1a 55 42 bc 93 36 cb 3b 38 31 d1 3d 52 d1 2d 3e
       -0.01186111 0.006201574 0.10214466 0.1697438
0000e0 0e a3 07 c0 68 67 04 bf 8c 66 92 be ab f4 19 3e
       -2.119327 -0.51720285 -0.28593862 0.1503474
0000f0 11 c4 1c be a0 be 38 3d 14 c4 13 3e 97 f1 84 3d
       -0.15309168 0.04510367 0.14430267 0.06491392
000100 ca 1a 3f bc 38 1e 4d 3c 95 76 3f bd f2 50 6b 3e
       -0.011664102 0.012519412 -0.046743948 0.22980097
000110 15 d0 27 be c1 1a 8e bd bc 7b 53 3e d8 1a 3c 3e
       -0.16387971 -0.06938697 0.2065267 0.18369615
000120 dc be d3 3d 9c b7 69 3e b4 30 af 3c b3 4d 15 3e
       0.10339138 0.22823948 0.021385528 0.14580421
000130 46 36 06 be d1 29 22 be b7 f3 c5 bd 6e f6 a1 bd
       -0.13106641 -0.15836264 -0.096656255 -0.07908331
000140 69 49 ee 3d 93 c4 2d 3e 9c 2a f8 3d a5 8d 08 3d
       0.116350956 0.16969518 0.12117502 0.033338208
000150 92 96 7e bd 4c df ec bc 86 a1 a9 3c 47 2f 86 bd
       -0.062155314 -0.02891507 0.020706903 -0.06551986
000160 ac 0f 96 3e aa db 03 be d7 91 19 3e e3 5b 27 be
       0.29308832 -0.12876764 0.1499704 -0.16343646
000170 2f 47 05 be 7c 0e 90 3d 53 68 22 bd b6 5d 3e 3e
       -0.13015436 0.07034013 -0.039650273 0.18590435

fc.6.bias f4 [3]
000000 2e 30 dd bd fc 20 8d 3e 2f 91 c9 3d
       -0.10800205 0.27564228 0.09842145
