Genetic_Models/dino_genetic_model84.pth (torch, 48732 bytes, 8 tensors)

fc.0.weight f4 [128, 6]
00000000: 2f5e 2d3d 52d8 593e 280c a3be abf0 943e
00000010: ca98 f5bf db6f a8bf 2200 78be 7222 4a3d
00000020: 698c 523e 3fbd 55be c681 993e 9bc8 3c3e
00000030: 7152 f6bc ff63 65be 88bf 95be ced9 573e
00000040: 1f46 31c0 5890 34c0 d492 a3bb e66f ed3d
00000050: 6bf4 63be ffb2 273e 9f5b ed3f f216 0f40
00000060: 89de b8be cc2a 4cbe c12f ffbc bcf8 38be
00000070: bfee bc3e 1989 35be e974 983e bf30 14be
00000080: 0182 bfbd 9a59 653e b0f5 f6bf 0255 03c0
00000090: 33d2 df3e a627 ffbc 228f 223e 6570 9cbd
000000a0: d602 2fc0 bf10 3dc0 4566 c63d 7b25 a53e
000000b0: 16d8 60be 945b 4ebe 6270 38bf 415a 02c0
000000c0: 8daa dbbd a100 8ebe 63a2 76bd 678c 8d3d
000000d0: fafa 67be d6d7 e9bd 4054 0ebe f482 163e
000000e0: 980e 433c be1a a8be aa46 9f3c e10c 9c3d
000000f0: 1ffd 3d3e ea5b 79be f69e 693e b121 a0be
00000100: a40d 153e b578 d1bd 8836 cfbd 336e 823e
00000110: 205c 32be a2e4 443e edc9 e43f c047 4cbf
00000120: 6dcc 0a3e f8dc 98be f3e1 903e 65c5 33be
00000130: f55e 8a3d 0f67 cb3e 8b96 fbbd 1835 0fbc
00000140: ed15 383e d544 2ebe 7e06 05be d947 133e
00000150: 8451 8c3e af26 c03d 0bd9 eebd e2e0 b6be
00000160: 02ca 68c0 e4fe 66c0 f424 02bd 29cc 323e
00000170: c78d 6abd 4790 c0be 816c c53d 7bdc 8fbe
00000180: 4af2 d63b 4f70 6ebe 20c6 e03d 6b58 5f3e
00000190: 9be1 0940 856a e8be 4a70 d43e 3f7e acbe
000001a0: 7808 0cbb f3bf 9cbd 6b7f f53f 77ea 4b3f
000001b0: e2fc cfbc 108b 21be 5c27 1ebe dfc4 683e
000001c0: 1afa 0d40 65f0 6f3f da47 f2bd 4593 b23e
000001d0: 84ec 8e3d de3d 00be ac3e 17c0 4744 2ac0
000001e0: 917b da3e a4c2 993e 03bd 0f3d 3677 963e
000001f0: 75b9 68bf 5ec3 c23f 8c17 06be 6bb8 e2be
00000200: fa6d 943e 58db 983d 76b4 8c3e 5f05 5cbe
00000210: e69f bd3e 9e8b 4abe 3c2d 033f 451d bfbe
00000220: 0e99 b03f d6be af3f fc2e 253e f4c4 0c3e
00000230: eb0c c73e 3d88 46be bd67 1dc0 964c 29c0
00000240: 0edc 913e 9822 913d 999e abbd b1a5 833e
00000250: d1b8 e5bf 768c 42bd 4040 93be 2aea 843e
00000260: fe4b d3be 1b3c c23d b300 cd3f a490 f43f
00000270: f6be 3e3e 56b4 ddbd 638a 43be 0d02 003e
00000280: 8f9b 30c0 7d94 15c0 5fa0 a93d 02db da3e
00000290: 67ec 22be 7159 dabe 315e 10bf 241d c03f
000002a0: 6f11 cfbd 3115 913e 3e27 acbd 3ba5 febb
000002b0: 381b 0840 2abc ae3f 453b 9ebe 8cab 36be
000002c0: 3e02 483e 166b a53d 2a09 d33d f7c2 f1bd
000002d0: f6cc 85be 3e88 03bd 2fa6 b33e 7c01 a4be
000002e0: 5bb7 9c3e cb07 c33d aa3f d5bd c112 a13d
000002f0: 5c8a ed3d 75ff 423d 11c8 db3f bd55 fabf
00000300: a5e6 a3bd f26f 5c3e fcd5 903e e28e 10be
00000310: 2305 2840 78d3 ac3e b4cc 1abe 12d0 8e3e
00000320: 20b3 78be ed5b 263e bdc4 40be 8d82 1ac0
00000330: fd2d fbbd ea48 47be cf1f a2bd 21b3 0e3e
00000340: eca5 08c0 fa92 2640 7ec3 85be 72c0 79be
00000350: d70e 8d3e e6f0 e23e 262e f93f 8545 c7bf
00000360: 09fd 43bf abeb 61be 4555 a63d e691 373e
00000370: a25c 70c0 a5b4 fbbf 5e9f 1a3e f84b b13d
00000380: 02e2 bcbe 6f10 733e 0bfd 853f 0c2b d93f
00000390: 928e f43e 473d b23d 9497 6dbf b70f d3be
000003a0: 7350 8b3f 4163 e63f f7de 303c 8e5f 6abe
000003b0: 189a 9dbe 9389 e13d 4204 ba3f 25a9 fabf
000003c0: 4e37 8f3e 631d 943d 4eef 28bd 51e7 513d
000003d0: edc9 e93e ee38 17c0 7f5d 85be 3067 e43d
000003e0: 060a 11be 2ae0 a73d ad1d 21c0 ecc7 d2bf
000003f0: 383a 833e e6af d33d f23e bebe cab3 033e
0.04232615 0.21273926 -0.31845212 0.29089865 -1.9187253 -1.3159136 -0.242188 0.049349256
0.20561375 -0.20872973 0.29981822 0.184359 -0.030068608 -0.22401427 -0.2924769 0.2107918
-2.7699049 -2.82131 -0.0049918685 0.115936086 -0.22261207 0.16376875 1.8543586 2.2357755
-0.3610728 -0.199382 -0.0311507 -0.18063635 0.369009 -0.1772808 0.29776695 -0.1447172
-0.09350968 0.22397462 -1.9293728 -2.0520635 0.43715057 -0.031146836 0.15874913 -0.07638625
-2.734548 -2.954147 0.09687475 0.32255158 -0.2195743 -0.20152122 -0.7204648 -2.0367587
-0.10725889 -0.27734855 -0.060213458 0.06911545 -0.22654334 -0.114181206 -0.13899326 0.14698392
0.011905335 -0.32832903 0.019442875 0.07619644 0.1855359 -0.24351469 0.22814545 -0.31275705
0.14555985 -0.10228101 -0.10117823 0.254747 -0.17417955 0.19227841 1.7874123 -0.7979698
0.13554545 -0.29856086 0.28297386 -0.17555769 0.06756393 0.39727065 -0.12284573 -0.008740686
0.17977114 -0.17018445 -0.12990758 0.14382876 0.2740594 0.09382378 -0.116624914 -0.35718447
-3.6373296 -3.6093073 -0.031773522 0.17460693 -0.057264116 -0.37610075 0.09639836 -0.280979
0.006559645 -0.2328503 0.10975289 0.21811073 2.1543949 -0.45393768 0.4149192 -0.33690068
-0.0021367352 -0.07653799 1.917951 0.7965464 -0.025389139 -0.15775704 -0.15444702 0.2273135
2.21839 0.9372619 -0.11830111 0.34877983 0.069787055 -0.125236 -2.3632002 -2.6604173
0.426724 0.30031312 0.035092365 0.29387826 -0.90907985 1.5215871 -0.1309492 -0.44281325
0.28990155 0.074637115 0.2748143 -0.21486424 0.37036055 -0.19779822 0.512409 -0.37327018
1.3796709 1.3730114 0.16131204 0.13747007 0.38877043 -0.19387908 -2.4594567 -2.6452994
0.284882 0.07086676 -0.083798595 0.2571235 -1.7947026 -0.047497235 -0.28759956 0.25959903
-0.41268915 0.094841205 1.6015838 1.9106641 0.18627533 -0.10825412 -0.19095759 0.12500782
-2.7594945 -2.337188 0.082825415 0.42745215 -0.15910493 -0.42646363 -0.56393725 1.5008893
-0.10110747 0.2833648 -0.08405922 -0.007771162 2.1266613 1.3651173 -0.30904594 -0.17838877
0.19532105 0.08077066 0.10304482 -0.11804765 -0.26132935 -0.032112353 0.35087726 -0.32032382
0.3060864 0.09522971 -0.104125336 0.07864905 0.115986556 0.047606904 1.717043 -1.9557415
-0.08002976 0.21527079 0.28288257 -0.14117005 2.6253135 0.33755088 -0.1511715 0.2789312
-0.24287081 0.16246004 -0.1882505 -2.4142182 -0.12264631 -0.19461408 -0.07916223 0.1393552
-2.135127 2.6027207 -0.2612571 -0.24389818 0.27550384 0.44324416 1.9467208 -1.5568091
-0.76557976 -0.22062556 0.081217326 0.1792675 -3.7556539 -1.9664503 0.15099856 0.08657068
-0.3689118 0.23736738 1.0467848 1.6966262 0.47765023 0.08703094 -0.92809415 -0.41222927
1.0883926 1.799904 0.010795346 -0.22888014 -0.30781627 0.11012568 1.4532549 -1.9582869
0.27971882 0.072321676 -0.041243844 0.05124599 0.4566187 -2.3628497 -0.26047894 0.11152494
-0.1416398 0.08197053 -2.5174363 -1.6467261 0.25630355 0.10336284 -0.37157398 0.12861553

fc.0.bias f4 [128]
00000000: bc5c 453e 7714 25be 987b 813e 3b10 c93d
00000010: 96f5 b83e a238 f33d 9970 22bf bb5d 29bf
00000020: f94c aebe 4571 5a3e 7226 863d 13da d6be
00000030: a604 d1bd 5a27 6c3e 7cd5 073f 9a94 a83e
00000040: 216c d7be 8d56 7cbe 8a83 473d b7c3 b3bd
00000050: ec03 28bd 1d64 11be ef98 27bd ef6b 4cbe
00000060: 7c8f 2c3e cb21 bcbe 2f6a 913d 58b7 8dbd
00000070: cc5c 2d3d 9725 9dbd 2c22 88bd 04f0 a4be
00000080: bc0f d33d 0a31 d3be c6bf 673e 9a0b f7bc
00000090: 9ada 2a3f a0f3 c1be c4a5 15bf d3b8 c7be
000000a0: 8524 0ebf 4aa6 483d 0041 ec3d 9c7b b03e
000000b0: 7a7c 80be 494f b9bd e96f 1d3e 3e35 903e
000000c0: 0771 5bbe f266 01be 0bfd b93d b27f 143e
000000d0: 31fe a23e 67f6 4bbe 5d3e cbbd c1a2 b6be
000000e0: b8f1 6cbe 96f1 1cbf 192b e13d 700c 143e
000000f0: aa7d 3abd a6b3 1a3c b85e 8e3d 414c 9f3e
00000100: 7b2e d63d 4f65 d7be 1079 313e 7aba 8bbe
00000110: 6183 ec3e fbb8 a53e 3764 0fbf 6d9e 9e3e
00000120: f711 bcbc bf4f 2bbd bd33 4c3e 1c1d 1abf
00000130: 6c91 d7be 1f82 dabe 3754 c0be 7210 ab3e
00000140: 7ae4 643e 5fb9 abbd dd83 a3be 77aa 8ebe
00000150: df6a eebd 95f1 003f 95d3 73be a8e1 d0bc
00000160: b130 f9be 52ed 933e 24c9 ac3e c7bf 85be
00000170: a9ee 8a3d e23c 753c d9e8 883e 7c42 0cbf
00000180: 90a9 be3b 3f01 b5bd 2ef2 66be 0960 22bf
00000190: 2f6e 133f 992c b53e 4019 81ba f003 2dbe
000001a0: 377a e03d 604b ef3c 5325 a0be 6e95 abbc
000001b0: 07dd 203e 8764 19be fbb4 463e 1be6 94bd
000001c0: 0229 d4bd b1ac e9bd fc3b bf3c 6085 1d3e
000001d0: ea95 52be f4a5 90be d33c 383e bfd3 3cbd
000001e0: e407 83be e88a bf3e 7a8b bebe 8412 163e
000001f0: 0d9b 3a3e cfb9 0b3f f344 cbbe f031 b33e
0.19273657 -0.16121088 0.25289607 0.09817549 0.36124867 0.11876036 -0.6345306 -0.66158646
-0.340431 0.21332271 0.065503016 -0.41963252 -0.10205965 0.23061886 0.53060126 0.32925874
-0.42074683 -0.24642392 0.04870943 -0.08777564 -0.041019365 -0.14198346 -0.040917333 -0.19963048
0.1685161 -0.36744532 0.07100331 -0.06919736 0.042324826 -0.07673185 -0.06647143 -0.32214367
0.103057355 -0.4124835 0.2263175 -0.0301569 0.6673981 -0.37881184 -0.58456063 -0.39008197
-0.55524474 0.04898671 0.11535835 0.34469306 -0.25094968 -0.090483256 0.15374722 0.2816562
-0.21429835 -0.12636927 0.09081467 0.14501837 0.31834558 -0.19918214 -0.09924004 -0.35671046
-0.23139083 -0.6130613 0.10994548 0.1445787 -0.04553 0.009442246 0.0695166 0.31112865
0.10458084 -0.4206948 0.17331338 -0.27290708 0.46193984 0.3236769 -0.5601229 0.30980244
-0.022957785 -0.0418241 0.19941612 -0.6020067 -0.42103136 -0.426774 -0.3756425 0.33410984
0.22352782 -0.08384966 -0.3193654 -0.2786443 -0.11641478 0.50368625 -0.23811181 -0.025498226
-0.4866996 0.28892 0.33747208 -0.26122877 0.06783802 0.014968129 0.2674015 -0.5478895
0.0058185533 -0.08838128 -0.22553322 -0.6342779 0.5759 0.35385588 -0.0009849444 -0.16896033
0.10960811 0.029210746 -0.31278476 -0.020945277 0.15709315 -0.14979754 0.19404976 -0.07270452
-0.10359384 -0.114098914 0.023344032 0.1538291 -0.20565 -0.28251612 0.17991953 -0.046100374
-0.25591958 0.37410665 -0.37215787 0.146555 0.1822321 0.54580396 -0.39701042 0.34999037

fc.2.weight f4 [64, 128]
00000000: a00c 17bc 8982 9f3d 27ad 20be 42c2 553c
00000010: 311c c1bc 6a84 0cbe 31fc 043e 227d 713d
00000020: de33 ca3c ec1e d63d a69b 66bc 5535 cf3d
00000030: 07f9 f23d b424 95bd 6cdf 2abf ecc7 6bbd
00000040: 608f f33d cbb3 9fbe 3de0 9e3d e79d e63b
00000050: 8269 8ebd eee6 17bd 6b3b 2240 b8e0 13be
00000060: f246 8fbd 00d6 deb8 6ec4 39bd 8390 3bbe
00000070: bb8c 4a3d 7bab e7bc b599 ca3d 4bef 323e
00000080: 13e8 7e3d f203 5a3d b9b1 dcbe f6aa ecbc
00000090: 53fe 973e a99c c83b 52be 803d 80a6 dbbd
000000a0: 919d c13d 66a0 b2bd 53ac 56bd a021 213c
000000b0: c454 6abd a655 d93c 1ce5 623d 7a5f 8ebd
000000c0: 717d a1bf 62e8 c63d d00c 0cbe 14c6 38bd
000000d0: 0b1c 923c a779 99bc 0cf6 c53d 8937 b33d
000000e0: 98c4 46bc 4c7d 763d 3101 2ebd 503c a03d
000000f0: ab44 4c3d 5678 61bd 6bef b2bd e5d9 f7bc
00000100: 6b3a 393d 1e3f d93c 8882 c33c ba9c ccbc
00000110: a826 1ebd 1883 adba c93f 703e 1bb7 86bd
00000120: c6f2 9cbc bd41 5fbd 4c14 b7be 6ec9 103d
00000130: 723d 823c cbfb 013e 0231 d93c 4984 77be
00000140: d09f 60bd 50a5 463d 28b3 3a3e 03f2 3fbd
00000150: 6648 e9bc 3092 9bbd dd26 6ebd aa31 8b3c
00000160: 4ef2 d23c 641f 1fbd 0f59 803d bee4 f13c
00000170: 40a1 92bd fcff 963e eb2a 153d 63c8 793d
00000180: b0a7 c7bc a173 32be a924 4cbc c971 ca3d
00000190: 2095 a83e 024b 803c eb03 e2bc 9415 47bd
000001a0: 1954 df3e bdb4 443d efb4 c9bc 1a8f 83be
000001b0: d4d8 1a3d d34d 943c 7f24 1e3d 13bc 9a3e
000001c0: 0acc 9e3d 1ab1 02be e36a 813c 45d9 d8bc
000001d0: 2c90 f33b 9b62 03be b0d8 fc3d b3b1 23be
000001e0: b8ad acbc 8f5c c4bc 3ad2 48bc 928f 013e
000001f0: b273 143d 1e14 563d c33a a13d c0ff 2b3d
00000200: e2b0 b23d e39b 37bd f053 15bd 78be 0cbe
00000210: 7fbe c5bd 9994 fe3c 7f04 f2bd c6b5 13bb
00000220: 0375 e03c 5087 50bc 52a7 dc3d 8856 16be
00000230: ec2e 1cbc 2127 5ebd c869 fc3d a64a de3d
00000240: 8e14 6bbd 6463 d23d 922b e1bd 1c28 323c
00000250: 3549 6e3c 2ba0 cc3d c187 57bd 3800 eabb
00000260: 5009 48bd 3352 c4bd 6cfa 85bb f636 04bd
00000270: be37 2bbd e074 a2b9 9b11 8a3d e430 f13d
00000280: b472 fbbd d15f 12be ab2c debd ca9f 453c
00000290: 7646 803d e802 7d3d 5825 223d 94ae 67bc
000002a0: 440e 043c dc15 f13b 3835 2a3c e04f 44bd
000002b0: a319 4ebd 0c35 21bd 4d7c 023e 7747 783d
000002c0: 4bda 373d d906 86bd 02fb 7cbd 3cbd 56bd
000002d0: 7a2f c8bb beab fdbc b1a6 a9bd 2eca 7bbd
000002e0: a63c bd3d 5449 cabc fca1 bdbd e392 b43c
000002f0: 4a2f 873d be0e d03d 1a53 843d 7857 c63c
00000300: fa26 e43d e70f 82bd d60e 1a3c bd74 fcbc
00000310: 0f59 53bd f73d 06bd fa44 47bd b40a 833d
00000320: 079e 2fbd c486 07bc be2b ac3d 448f 7a3d
00000330: f09d b5b9 5dbb 98bd 06de 563c 2342 abbd
00000340: 5238 d33c f2e0 4bbd 1ee7 f03c 0e20 78bc
00000350: 3cae a53c bc0c b63d 72b7 883c d912 a4bd
00000360: 5c9a 543d a3c9 883d 6a6b d5bc 8c86 afbd
00000370: a0a3 5bbd d85d 353d a1a7 bc3b 6ca4 b1bc
00000380: 1c1b d8bd bd66 bcbc 9bef aabd bd38 cbbd
00000390: 46eb de3c e992 303d 863f 6b3d 9cce fbbc
000003a0: 85b5 8abd 31de 5fbd 5745 8bbd be44 62bd
000003b0: 404b 4cbc 6be2 df3d 0e56 96bd 56c0 26bd
000003c0: 1102 af3d 2150 33bd 2f3f 2dbd c6d1 ee3c
000003d0: 1c4b 9c3d 706c 003e b1c4 a8bd d48d 9f3d
000003e0: 0b31 4a3d 2870 f6bc 44b3 493d 0bb1 a13c
000003f0: a5e7 94bb 64a7 e93d b65f 98bd da31 cd3c
-0.009219319 0.077885695 -0.15691052 0.013046803 -0.023573013 -0.13722387 0.12986828 0.058957227
0.024682935 0.10455117 -0.014075195 0.10117594 0.118639044 -0.07282391 -0.66747165 -0.057563707
0.11892581 -0.3119186 0.07757614 0.0070378664 -0.06953718 -0.037085466 2.5348766 -0.14441192
-0.069959536 -0.000106256455 -0.045353346 -0.18316846 0.049450617 -0.02828001 0.098925985 0.17474096
0.062233042 0.05322642 -0.43104342 -0.028890114 0.2968622 0.006122191 0.06286301 -0.10725117
0.094538815 -0.08722 -0.052410435 0.009834677 -0.057209745 0.026530098 0.055394277 -0.069518045
-1.2616407 0.09712292 -0.13676763 -0.045110777 0.017835638 -0.018734766 0.0966607 0.08750827
-0.012131833 0.060178086 -0.042481605 0.07824004 0.049870174 -0.055046402 -0.087370716 -0.030255267
0.045221727 0.026519354 0.023865953 -0.024977077 -0.038611084 -0.0013237922 0.23461832 -0.06577893
-0.019158732 -0.054506052 -0.35757673 0.03534835 0.01589844 0.12693708 0.026512627 -0.24171557
-0.05483991 0.048497498 0.18232405 -0.04686166 -0.028476905 -0.075962424 -0.05814253 0.016991455
0.025750306 -0.038848296 0.062669866 0.029528018 -0.07159662 0.29492176 0.036417883 0.06098212
-0.024371952 -0.17426921 -0.012459912 0.09884984 0.32926273 0.015660767 -0.027589759 -0.048604563
0.4361885 0.048023928 -0.024622409 -0.25695115 0.03780444 0.018103516 0.038609024 0.30221614
0.07753761 -0.12762871 0.015798038 -0.02647079 0.007432958 -0.12830584 0.12346017 -0.15985756
-0.02107893 -0.023969917 -0.012257153 0.12652424 0.03624315 0.05226528 0.07872536 0.04199195
0.08725144 -0.0448264 -0.036457002 -0.13744533 -0.09655475 0.031076716 -0.11817264 -0.0022538765
0.027399546 -0.0127275735 0.10774101 -0.14681447 -0.009532671 -0.054236535 0.12324864 0.10854082
-0.05739265 0.102728635 -0.109946385 0.010873821 0.014543821 0.09991487 -0.0526197 -0.0071411394
-0.048837006 -0.09585991 -0.0040886905 -0.032278977 -0.041801207 -0.00030986127 0.06741639 0.11776903
-0.12277737 -0.14294364 -0.108483635 0.012062022 0.06263439 0.06177035 0.039586395 -0.014140744
0.008060042 0.007357342 0.010388665 -0.047927737 -0.050317418 -0.03935723 0.1274273 0.06061503
0.044885915 -0.06544275 -0.061762817 -0.05242656 -0.0061091753 -0.030965682 -0.08283747 -0.06147211
0.092400834 -0.024693169 -0.09259412 0.022042697 0.066008165 0.10159062 0.06461163 0.02421163
0.11140247 -0.063506894 0.009402951 -0.030817384 -0.051598605 -0.032773938 -0.048649766 0.06398526
-0.042875316 -0.008271877 0.08406781 0.061171785 -0.00034640683 -0.07457612 0.013114458 -0.08362224
0.025783692 -0.04977507 0.02940708 -0.015144361 0.020224683 0.08889148 0.016689036 -0.080114074
0.05190502 0.06679084 -0.026052196 -0.08570585 -0.05362284 0.04427895 0.0057572876 -0.021684848
-0.10552046 -0.022998208 -0.08346482 -0.09922931 0.027211796 0.043108854 0.057433628 -0.030738167
-0.06772903 -0.054655258 -0.06800335 -0.05524134 -0.012469113 0.10931858 -0.073406324 -0.04071077
0.08545316 -0.04377759 -0.042296585 0.029152762 0.076315135 0.12541366 -0.08240641 0.077907234
0.049363177 -0.030082777 0.049243227 0.019737741 -0.0045442157 0.1140888 -0.074401304 0.025048185

fc.2.bias f4 [64]
00000000: 5739 68be b50e b7bc 6d10 3cbc cc4b a0bb
00000010: 157f 38bc 2189 2b3d 21c5 cabc 19cb b2be
00000020: f82a 773d dcbb 3dbd 209d 39ba cb7d 943d
00000030: b792 a4be aabe eb3c 7bff d7bd 3387 bfbc
00000040: a961 a4bd 53e0 203d 9eb2 4cbc 732a 92bd
00000050: d25d 333e d65f 933e 2b0d 62bd 3428 413d
00000060: 5d7f cc3d 26e0 f3bd fc8f f4bc ae41 8fbc
00000070: 0075 573d f864 b23d 1dbf e9bd 4d9a acbd
00000080: cdbb 093d f078 8abe 0a34 ed3b 575c 113c
00000090: 57d6 f83c 4edd 2ebe 1ed4 8b3c 2142 943d
000000a0: 1d9b 2a3e 65bd c9bc b67f c23c 5db0 cabd
000000b0: 2826 4fbb 3d29 253d bc72 21be 71cd 48be
000000c0: 0d10 063c eee0 b83b 89db a43d f07f 773c
000000d0: 7346 c23c e1a1 b33e 2306 733d 0508 893d
000000e0: 9c5c 003b ceb8 653d 06cd bcbe 0e52 d4bb
000000f0: 8944 803c d965 263e f72c b83c b775 13be
-0.22678123 -0.02234588 -0.011478526 -0.004891848 -0.0112607675 0.041878823 -0.024752202 -0.34920576
0.060343713 -0.046321735 -0.00070806034 0.072505556 -0.32143185 0.02877744 -0.10546776 -0.023379898
-0.0802644 0.039276432 -0.0124937575 -0.07137003 0.17516258 0.28784055 -0.05518834 0.04715748
0.0998523 -0.11907987 -0.029853813 -0.017487373 0.052601814 0.087106645 -0.11413405 -0.08427868
0.033626366 -0.27045393 0.0072388696 0.008872113 0.030375643 -0.17076609 0.017068919 0.072391756
0.16660734 -0.024626443 0.023742538 -0.0989692 -0.0031608436 0.04032253 -0.15766424 -0.1960962
0.008182538 0.005642048 0.080496855 0.015106186 0.023715233 0.3508444 0.059332024 0.06690983
0.001958645 0.056084447 -0.3687517 -0.0064795082 0.01565768 0.1624979 0.022482378 -0.14400373

fc.4.weight f4 [32, 64]
00000000: ea34 43bc d28c 7fbd 652d c0bd 5b02 013e
00000010: bd41 223c e30a 2abd 40f3 69b9 b0cd 73bd
00000020: 30a4 923d 7a63 bdbd 8813 be3e acde 713b
00000030: 6e56 febc e2e8 08bd b2bb 1ebf 2c7b 833d
00000040: ca26 3c3d 146c b9bd 5769 7ebd 107c e7bd
00000050: 8a7c 35bd 52c8 8c3c b134 d53d eafd a33d
00000060: 3b0b 95bc 7e08 683c 22c2 afbb fdfe 85bd
00000070: b71c 55bd 48db 393e b24b 8ebd 01d8 a73b
00000080: 27a7 49bd 0c32 6abd 9712 123e 1131 f4bc
00000090: a55d 9abc 3fad a33c 9da9 fbbc b76f 1e3e
000000a0: 3269 85bd 8620 e83d 485b dbbb b068 2ebd
000000b0: f0cd 05be a72a 0a3d 49f0 99bd 155e cebd
000000c0: 2029 c7bc 8a54 a7bd 18f9 5fbc 0ee0 893d
000000d0: 24f6 e1bd 33f9 cebd f681 8d3d 2d83 d9bd
000000e0: 4ab8 713d cc64 66bb 3434 4dbe e249 db3d
000000f0: 0a84 02be aebb 2e3e e36e e53d d210 bebd
00000100: eb99 563d f925 bbbd 4ef0 9b3d ca00 65bd
00000110: e694 793d 6509 af3d 5338 5dbd b8e5 683d
00000120: ad3c 493d 8d04 9f3d 1eca 913c 4eda eebd
00000130: 393c 2abd be86 60bd d277 d1bc c001 aabd
00000140: 2ecd d63d 2903 edbc b371 f9bd 5f15 f33d
00000150: 0f7b 8c3d 740e f5bd db30 c7bd 85c2 1e3d
00000160: da02 01bc f2ac 533d b11f a8bd 8a76 a3bd
00000170: b5b5 39bd f4e9 913d 9cd7 c1bd 1806 e3bd
00000180: 6e9b 13be ff16 a03d 4439 93bd 69af a03d
00000190: d2f8 a4bd 725f a9bc 8337 1e3e b62b c03d
000001a0: ad95 aebd 9cd0 1d3d 8202 673d 6c69 57bd
000001b0: 940d 013d a171 b73d 7538 ad3c 7f38 b6bc
000001c0: ecfc 7dbd 8123 363c 57a7 80bd 0151 ce3c
000001d0: 0183 9ebc cf01 abbd 7307 60bd b294 0abe
000001e0: 9937 0a3e 1d68 323c 1f9a 6d3d a566 0fbe
000001f0: 9894 8c3d a820 06be 2c89 2dbb 08fb c23d
00000200: 1354 c2bd 4cd7 e8bd da13 473d 2624 02bd
00000210: 6cd6 61bd f27d 3cbd a274 c03c a902 0bbe
00000220: 45ff 04be ed65 aa3d 71be 14bc 133c b73d
00000230: d3d6 78bd e211 64bd b8fc b4bd 525a b8bd
00000240: be12 97bd d83c e9bc 6434 983d 81d6 adbd
00000250: 8c33 06be a03f bbba 863e 14be a02f 2ebc
00000260: 48e3 ef3d 0ea6 91bd 5e85 323d 4da0 af3c
00000270: 3749 0e3e a1dd 0ebe 45b7 73bd c632 47bd
00000280: c5f0 34bd 2c86 ae3c 46db a73d 350f 15be
00000290: a29b c3bd 912f ffbd 992e 023e 4e25 debc
000002a0: edc3 b3bc fc55 9f3b 96d9 b83d be43 d63c
000002b0: f012 a83d 0694 063c a102 fdbc ccf1 f4bd
000002c0: c300 7dbc 2645 41bd 5849 0ebe 6162 ad3d
000002d0: f1a7 db3d b421 c63d 8b57 24be 328f ab3d
000002e0: f659 97bd 0012 863d 1fb3 b03d 3aae d5bd
000002f0: 9600 3fbd 920a 2fbd 138b b93d 1087 82bd
00000300: 454c 26be ea9d 44bd 2aec a7bc 848a 40be
00000310: b27a 5dbc f2f1 573d e05b 02be 58eb 553e
00000320: bd6a d13c fa9e 10be c42f 23bd 1e89 9b3d
00000330: 92bd f53d 9dcf 533d 98f9 803e b6ff 4b3d
00000340: 1474 913c 663e dcbc 2097 0bbe 9856 c83d
00000350: 62ae c1bc 759b 24be b902 43bd 0827 0c3d
00000360: 4f53 15bd acd0 29bd daa5 1abd 7438 87bb
00000370: 5194 023e 248b 183e e5fc 043d ac43 88bb
00000380: 4ccd d0bd 14d6 d33c 4c62 e93c 5803 e3bd
00000390: ca01 663d 8634 48be 1a6d f8bc 2a4d 713d
000003a0: 5433 fd3d e0af 6ebd 498f 653c 18b9 d2bd
000003b0: b652 f23d f59a 6b3d 75bd 3abd 2bed 01be
000003c0: d49e 4a3c f271 b1bd a925 013e e8f1 b93c
000003d0: c6d8 d83d 6baf b73d 0c15 ccbd b28a 923d
000003e0: 8028 d23b 9db2 dcbd 08e3 4a3e 3a1b d83d
000003f0: a864 5f3d f7e2 7d3e 985d 6f3e 0941 2c3e
-0.011914471 -0.062390156 -0.09383658 0.12598555 0.009903369 -0.04151429 -0.00022311229 -0.05952233
0.071602225 -0.09247489 0.37124276 0.0036906404 -0.031047072 -0.03342522 -0.6200515 0.064199775
0.04593543 -0.090538174 -0.06211218 -0.1130296 -0.044308223 0.017185364 0.10410441 0.08007415
-0.018193832 0.014162181 -0.0053637186 -0.06542776 -0.052029338 0.18150055 -0.069480315 0.005122185
-0.049231675 -0.057176635 0.14264904 -0.029808553 -0.018843481 0.019980071 -0.030720526 0.15472303
-0.06514205 0.11334328 -0.006694231 -0.042580307 -0.1306684 0.033732083 -0.07516534 -0.100765385
-0.024311602 -0.081704214 -0.013670228 0.06732188 -0.11033276 -0.10106125 0.06909554 -0.10620723
0.059013642 -0.0035155294 -0.20039445 0.107074514 -0.12745681 0.17063782 0.112027906 -0.09280552
0.05239288 -0.09138102 0.07614194 -0.055908956 0.060933016 0.08546714 -0.054008793 0.056859702
0.04913013 0.0776454 0.017796572 -0.11662732 -0.04156134 -0.054816 -0.02556983 -0.08301115
0.10488354 -0.028932171 -0.121798895 0.118693106 0.06859409 -0.11965647 -0.09726115 0.038759727
-0.007874215 0.051678605 -0.0820917 -0.07981594 -0.045339305 0.07124701 -0.09464952 -0.11085147
-0.1441476 0.07816886 -0.07188657 0.07845957 -0.08055271 -0.020675395 0.15450864 0.09383337
-0.08524642 0.038529024 0.056398876 -0.052590773 0.03150709 0.0895722 0.021145085 -0.022243736
-0.062008783 0.011116863 -0.062819175 0.02518511 -0.019349577 -0.08349954 -0.054694604 -0.13533285
0.13497771 0.01088908 0.05800831 -0.14004 0.068642795 -0.13098395 -0.0026479466 0.09520537
-0.09488692 -0.113691896 0.048602916 -0.031772755 -0.05513613 -0.04601855 0.023493115 -0.13575234
-0.12988003 0.08320222 -0.009078608 0.08947005 -0.060751747 -0.055681117 -0.08837265 -0.09001602
-0.07376622 -0.028471395 0.07431868 -0.08488179 -0.13105601 -0.001428593 -0.14476976 -0.010631472
0.11713272 -0.071117505 0.04358422 0.021438742 0.13895117 -0.13951732 -0.05950095 -0.048632406
-0.04417493 0.021304213 0.0819612 -0.14556582 -0.09551169 -0.124602444 0.12713088 -0.027117398
-0.02194401 0.004862545 0.09025876 0.026155349 0.08206737 0.0082140025 -0.030885043 -0.119601816
-0.015442076 -0.047185086 -0.13895166 0.0846603 0.10725392 0.09674397 -0.1604902 0.08376922
-0.073902056 0.06546402 0.08627915 -0.10433622 -0.04663142 -0.04273469 0.090597294 -0.063734174
-0.16240032 -0.04800216 -0.020498354 -0.1880284 -0.013518022 0.05272097 -0.1273036 0.20890558
0.025563592 -0.14123145 -0.039840475 0.075945124 0.11999048 0.051711667 0.25190425 0.04980441
0.017755546 -0.026885223 -0.13631868 0.097821414 -0.023642723 -0.16074927 -0.04761002 0.03421691
-0.036456402 -0.04145877 -0.037755825 -0.004126603 0.1275189 0.14896828 0.03246774 -0.0041584577
-0.10195407 0.025858916 0.028489254 -0.11084622 0.05615405 -0.19551286 -0.030325461 0.05891148
0.12363306 -0.058273196 0.014011213 -0.1028921 0.11832182 0.057520825 -0.045590837 -0.12688129
0.012366969 -0.086643115 0.12612022 0.022698358 0.10588221 0.08969005 -0.09964952 0.0715536
0.0064135194 -0.10776255 0.19813168 0.10552068 0.054539353 0.24793611 0.23375547 0.16821684

fc.4.bias f4 [32]
00000000: 91de 383d dceb 263c 480e 3abc fa80 883d
00000010: 78ee 88bc 3f23 1dbe 4526 223e 93b8 89bd
00000020: 728b a2bd 5c5a e8bb 0698 bc3d 8656 f33d
00000030: 96a8 e53d 82a6 8f3c 3e8c 0dbd a94a aabd
00000040: b240 f03d ae51 c43c f45a 4ebe 4a20 69bc
00000050: 5901 ee3d 7048 8bbd 9b6c 0a3e 9b47 b23e
00000060: bbe6 6cbd ce58 04be 0918 2fbe 46a2 97bd
00000070: b331 06be 743d 7dbd fc6d cd3d 569d 713e
0.04513413 0.010188069 -0.011355944 0.06665225 -0.016715273 -0.15345477 0.15834911 -0.06724658
-0.07936753 -0.00709085 0.09208684 0.118817374 0.11213796 0.017535452 -0.034557573 -0.083150215
0.1173109 0.02396473 -0.20151883 -0.01422889 0.11621351 -0.06800926 0.13517992 0.34820256
-0.05783723 -0.12924501 -0.17099012 -0.07403998 -0.13104896 -0.061826184 0.100307435 0.23595175

fc.6.weight f4 [3, 32]
00000000: 1718 3bbe 504b 74bd 819a 2abe 748b 513d
00000010: 05b7 b9bd b2b1 543d 38c2 8abd 3a19 d7bd
00000020: f3d1 b5bd 7c57 11be 84cb 103e a568 05be
00000030: b7b7 38be 716c 1cbd be4a 4d3c a26a dd3d
00000040: 54c7 7c3c 9c6d 99bd b680 f0bd f1fe 13be
00000050: e80f 0bbe a8be 113e a2ea ddbd 6e43 98be
00000060: a021 563d 34f6 61bc d8b4 8d3d d458 ea3d
00000070: 3ec3 9cbd 9f66 05be 571a 78bd 9799 a1be
00000080: 008e a43d 6f07 d3bd fe5c 423d ad1a 11be
00000090: 013b 673d 99ea 913c 63fc 5b3e dea3 07be
000000a0: 2afc ecbd 4d46 0dbc 1e12 cf3d f6ee 773e
000000b0: 51eb 403e 7af4 083e ab3a 3d3e 1af1 05be
000000c0: b807 503e b47f b73c 5628 11be e640 8fbd
000000d0: 8cac 66bc 6d03 98bc 85a3 c13d 52d1 2d3e
000000e0: 0ea3 07c0 7f3a 01bf 4232 92be 5e15 073e
000000f0: 11c4 1cbe a0be 383d 14c4 133e 0eab 893d
00000100: 1b9e b4bc 02be 773c 9dfe c9bc de30 703e
00000110: ba3f 31be ece9 c7bd 0470 573e d81a 3c3e
00000120: dcbe d33d 147d 693e b670 613d 357a 133e
00000130: 4636 06be d129 22be 7c19 d0bd fc33 aabd
00000140: 122c fc3d b166 2a3e 37fc 003e e8f2 033d
00000150: 2ec6 67bd 392f bfbc c4de a53b 472f 86bd
00000160: 01dd 923e 3e38 f8bd 1015 0a3e d089 28be
00000170: d113 fcbd 50f7 9e3d ec89 14bd 1217 3a3e
-0.18270908 -0.059642136 -0.16660501 0.051158383 -0.09068111 0.051927276 -0.067753255 -0.105028585
-0.08877935 -0.14193529 0.14140135 -0.130282 -0.18038832 -0.038189355 0.012530027 0.10811354
0.015428383 -0.074916095 -0.117433 -0.14452721 -0.13580287 0.14232886 -0.10835768 -0.29738945
0.05227816 -0.01379161 0.06919259 0.11442724 -0.07654427 -0.13027428 -0.060571995 -0.31562492
0.08034897 -0.10304152 0.047451966 -0.14170332 0.056452755 0.01781206 0.21482997 -0.13246104
-0.11571534 -0.008622718 0.101108775 0.2421225 0.18839766 0.1337451 0.18479411 -0.13080254
0.20315444 0.02239976 -0.14175543 -0.069948 -0.014079224 -0.018556321 0.09455017 0.1697438
-2.119327 -0.5047988 -0.2855397 0.13191745 -0.15309168 0.04510367 0.14430267 0.06722079
-0.022048047 0.015120985 -0.024657542 0.23456141 -0.17309466 -0.09761414 0.21038824 0.18369615
0.10339138 0.2280162 0.05503913 0.14402087 -0.13106641 -0.15836264 -0.10161111 -0.083106965
0.12313093 0.16640736 0.12596212 0.032214075 -0.056585483 -0.023337947 0.005061956 -0.06551986
0.28684238 -0.12120102 0.13484597 -0.16458821 -0.12308467 0.07762015 -0.036264345 0.18172863

fc.6.bias f4 [3]
00000000: dc6d f7bd e71f 8b3e 35c1 b43d
-0.12081501 0.27172777 0.08825914
