Genetic_Models/dino_genetic_model56.pth (torch, 48732 bytes, 8 tensors)

fc.0.weight f4 [128, 6]
00000000: 075b 1c3d 4cf0 823e 882e 9bbe 4e94 873e
00000010: 0299 f6bf a5ee a7bf c19f 75be 8376 943d
00000020: 8bc5 463e 9851 5abe 82a1 9f3e a7dc 383e
00000030: 40d5 bebc 4936 5cbe 870d 97be 627c 623e
00000040: c4fb 31c0 74e1 33c0 45b2 043c 58c1 e73d
00000050: af17 59be 0f5c 2c3e bdb3 f03f 6502 1040
00000060: 8783 babe 8dab 44be 2977 4ebd a030 2dbe
00000070: 4b59 b33e ba5c 26be 99ba 933e 7ffc 49be
00000080: 8d9b e8bd df2a 563e 6a8d f6bf 4903 04c0
00000090: 33d2 df3e e9ff 72bc 34a8 f83d 78b0 b8bd
000000a0: 0528 30c0 77d3 3cc0 176c a83d d2ab ad3e
000000b0: e0b3 5cbe 3b8b 5ebe 3a21 3fbf 580a 04c0
000000c0: 5ec8 c9bd f528 9fbe b3ff a5bd 40f8 c43d
000000d0: 6806 63be 06c4 bfbd 1ce8 1cbe 2057 3e3e
000000e0: e0ef b23c dbe0 adbe 8d0e c03c b085 963d
000000f0: ddc6 4e3e 8526 65be 267c 743e 4bbb a1be
00000100: a7d9 e03d c6bb e4bd 42d1 debd 336e 823e
00000110: 2c63 33be 7155 283e 0457 e83f 8e25 4fbf
00000120: c509 283e 51eb 8cbe 6a42 843e eb86 31be
00000130: 052d d03d eb15 c53e 56cf 03be cbcb 953c
00000140: e36d 483e be16 49be efec 94bd 27ff bf3d
00000150: f6f6 9d3e 1635 d13d 2fe3 fabd 79d9 bfbe
00000160: 5537 68c0 0513 66c0 fe2c 8dbb 08bf 453e
00000170: afd6 79bd a5ba cbbe 3801 ec3d 24bb 98be
00000180: 2488 70bb 9eb8 6fbe b83d ad3d f89f 513e
00000190: 4b2d 0940 5d8f f4be ff53 d23e bafc a4be
000001a0: 110a 1abd 66ad e5bd 22c9 f43f e88c 4b3f
000001b0: e2fc cfbc 839a 17be 2bc8 18be 5909 6b3e
000001c0: d522 0d40 6076 6f3f a234 00be 4a41 a33e
000001d0: 423a 613d ee9a c8bd 7936 17c0 7054 29c0
000001e0: 7465 e23e cb2f 9b3e 08c0 fe3c b56f a33e
000001f0: bb4c 66bf db0f c13f 71fe 02be 9ff5 c4be
00000200: a31c 883e 956c 7f3d f77e 893e ab12 6bbe
00000210: 99a0 be3e b29c 43be 5a8b 033f e1b5 c6be
00000220: f4da ad3f 232e ab3f 08bc 263e d0b3 0e3e
00000230: 1e76 c93e f9c6 39be 8af5 1cc0 51c2 29c0
00000240: 0edc 913e 2913 8f3d e6ed f1bd 27f2 633e
00000250: 226b dfbf 5352 5dbd 9e6e 94be d50d 833e
00000260: bc22 c3be 9575 0e3e 63ea cf3f fcf6 f33f
00000270: 9030 373e 8af6 06be c599 2bbe c795 f43d
00000280: f6bf 31c0 8f3c 15c0 1aa5 853d 3a6f d23e
00000290: 2409 32be 59e7 e2be 315e 10bf ec28 c23f
000002a0: 5a56 bfbd e46b 903e 034a bbbd 3a60 aabb
000002b0: 6c95 0840 c5ed ae3f 8cca 9ebe 9d5a 26be
000002c0: 559a 473e 4606 583d 2a09 d33d 0023 fdbd
000002d0: cc3e 8ebe acac 17bd 5dc5 be3e 5d95 afbe
000002e0: 88bf 9c3e a32e c93d 2ce0 c0bd 11fe b53d
000002f0: 5c8a ed3d 9419 e63a 8d82 df3f ee08 febf
00000300: 348e 8dbd 11c2 553e 97ed 983e 412a 04be
00000310: c183 2740 0a69 c13e 7463 12be f1f9 933e
00000320: 8c92 74be ed5b 263e c7f5 36be c5fb 19c0
00000330: bf8c 1bbe 87ad 5abe 5569 b0bd 5e27 0a3e
00000340: 0211 0ac0 c7e9 2540 3b5c 8fbe b5d8 7fbe
00000350: cf53 913e 0b35 e63e 8d37 fa3f 8fdc c9bf
00000360: 65d1 41bf 2afe 6abe 2cff ae3d e6a2 3a3e
00000370: 0ae6 70c0 c7aa fbbf c142 093e 5de7 d13d
00000380: 5de2 c9be 591c 7a3e 94f9 833f a030 db3f
00000390: 2e6e f03e 0d95 9b3d 1e77 6bbf b70f d3be
000003a0: a517 893f 16be e43f f2ae 7d3c 4995 5dbe
000003b0: a8a3 a3be 2776 e33d 6f3a b93f 82c5 fabf
000003c0: 9c52 8f3e 26c4 be3d 7e2b 5bbd 9a50 933d
000003d0: 5e15 e43e 9d22 18c0 d183 92be 156f ec3d
000003e0: 77dd abbd f6ae a33d 4f62 20c0 e057 d3bf
000003f0: 5d92 8e3e 2a2a b53d 1d2a c3be 900e 383e
0.038172748 0.25573957 -0.30308938 0.26480335 -1.9265444 -1.3119704 -0.23986723 0.07249167
0.19411294 -0.21320188 0.31177908 0.18052922 -0.023295045 -0.21505083 -0.29502508 0.22117761
-2.7809916 -2.8106356 0.008099143 0.11316174 -0.21200441 0.16831993 1.8804852 2.2501462
-0.36428472 -0.19206066 -0.05040661 -0.1691308 0.35029063 -0.1624631 0.288533 -0.19725226
-0.11357794 0.20914792 -1.9261906 -2.0627005 0.43715057 -0.014831522 0.12141457 -0.09018034
-2.7524426 -2.9504068 0.082237415 0.3392015 -0.21552992 -0.217328 -0.74660075 -2.0631313
-0.0985267 -0.31085935 -0.081054114 0.096176624 -0.22170413 -0.093635604 -0.15322918 0.18587923
0.021842897 -0.33960614 0.023444438 0.073497176 0.20193048 -0.22377975 0.23875484 -0.31588206
0.10979014 -0.111686274 -0.108797565 0.254747 -0.175183 0.16438843 1.8151555 -0.8091668
0.16409977 -0.27523282 0.2583192 -0.17336623 0.10164837 0.38493285 -0.12872061 0.018285653
0.19573168 -0.19637582 -0.07271754 0.09374838 0.3085248 0.102152035 -0.12250363 -0.37470606
-3.6283772 -3.5949109 -0.004308342 0.19311154 -0.060995754 -0.39790836 0.1152367 -0.29830277
-0.003670224 -0.2341027 0.084590375 0.2047118 2.1433895 -0.47765628 0.4107971 -0.32224065
-0.037607256 -0.11214714 1.9123881 0.7951188 -0.025389139 -0.14805035 -0.14920108 0.22952785
2.205251 0.9354 -0.12520078 0.3188575 0.0549872 -0.097951755 -2.3626997 -2.6457787
0.44218028 0.303099 0.031097427 0.31921163 -0.8996083 1.5082964 -0.12792374 -0.38468644
0.26584348 0.06235941 0.2685468 -0.2295634 0.372319 -0.19102743 0.5138451 -0.38810638
1.3582444 1.3373455 0.16282666 0.1393578 0.3934793 -0.18142308 -2.4524865 -2.6524851
0.284882 0.069860764 -0.11812954 0.22260343 -1.7454569 -0.05403359 -0.28990644 0.2559649
-0.38112438 0.13912041 1.6243404 1.9059749 0.17889619 -0.13179985 -0.16757877 0.1194263
-2.7773414 -2.3318212 0.06525631 0.41100484 -0.173863 -0.4431713 -0.56393725 1.5168738
-0.09342642 0.28207314 -0.09144976 -0.0051994594 2.13412 1.3666312 -0.31013906 -0.16245504
0.19492467 0.052740358 0.10304482 -0.12360191 -0.27782285 -0.037029907 0.3725995 -0.34293643
0.30614877 0.098233484 -0.094177574 0.0888635 0.115986556 0.001755523 1.7461716 -1.9846475
-0.06911889 0.20874812 0.29868767 -0.12906744 2.6174166 0.3777545 -0.14295751 0.28901628
-0.23884028 0.16246004 -0.17867194 -2.4059918 -0.15190409 -0.21355258 -0.086138405 0.1349158
-2.157288 2.5923936 -0.28000054 -0.24985011 0.28384253 0.44962344 1.9548203 -1.5770434
-0.75710136 -0.22948518 0.08544764 0.18226203 -3.7640405 -1.9661492 0.13404371 0.10249207
-0.39430514 0.24424876 1.031054 1.7124214 0.4695906 0.075967886 -0.91978633 -0.41222927
1.0710341 1.787051 0.015483605 -0.21638979 -0.31960797 0.1110652 1.4470958 -1.9591525
0.27992713 0.09314756 -0.053508274 0.07193108 0.44547552 -2.3771126 -0.28616193 0.11544625
-0.083918504 0.079923555 -2.5060003 -1.6511192 0.2784604 0.08845933 -0.38118067 0.17974305

fc.0.bias f4 [128]
00000000: f8d4 2d3e 5e18 16be 0938 793e 4c59 d03d
00000010: 3aba ac3e 7eef f43d 4c43 20bf d139 2bbf
00000020: ca77 b2be 45fe 383e ef79 6d3d d761 e2be
00000030: d0ca 75bd baff 733e 7cd5 073f 0929 9d3e
00000040: 4368 cfbe a0fc 85be d9a2 1b3d a3c4 83bd
00000050: 42ba aabc 7a53 1cbe b98e a4bc 7535 43be
00000060: 97ee 073e 8be1 b7be 22a3 483d e71d 03bd
00000070: aa05 603c de96 93bd d8cd c0bd 0a34 9dbe
00000080: 4eae d83d b747 d4be 14be 7a3e 5256 f7bc
00000090: e390 333f 9f46 c5be 51a5 18bf 18cc bdbe
000000a0: c68b 0ebf ec47 483d b845 eb3d b021 ac3e
000000b0: ea51 84be fb00 a8bd 063f 2c3e a568 943e
000000c0: 0771 5bbe f266 01be 246e 913d 54a8 1f3e
000000d0: fae5 9b3e 67f6 4bbe 6894 b0bd d80c a3be
000000e0: 52ef 5dbe 4487 19bf 53ce 933d 874e 163e
000000f0: c416 2abd c7a7 78bc 8486 8a3d 89c4 933e
00000100: e253 c03d fc62 e7be 379f 093e 2cfd 92be
00000110: adec fa3e aacc ab3e 325c 15bf dc12 a63e
00000120: baa7 00bd a6ae 10bd 2335 5a3e 5960 18bf
00000130: ae54 dcbe b553 d5be 7ebb bfbe 6919 9f3e
00000140: 264d 783e a012 f2bd 0573 a1be 6d67 74be
00000150: 4a17 e7bd f3ed fa3e 1a6a 89be 19f5 f9bc
00000160: 798f eabe 5f33 953e 10e8 ac3e 185a 90be
00000170: 9585 bc3d c1e4 ff3c 9758 9b3e 44ec 0abf
00000180: ca62 06bc 5b76 dabd 642e 63be 64f0 1fbf
00000190: fc8f 0f3f 90f4 ae3e 72a4 30bc 1637 2cbe
000001a0: 172e c83d 1cd4 d73b 7718 afbe 011f a3bc
000001b0: 355b 2d3e 635a 1bbe 2176 4a3e 5cc1 bfbd
000001c0: 1c44 cebd 6ea9 debd e3b4 833c 1b26 343e
000001d0: d40b 56be f82a 95be 126a 283e a162 3ebd
000001e0: 3bb9 78be fdb2 c83e 8c12 babe d21b 0e3e
000001f0: 091f 233e 2568 133f 03f7 c7be 0202 a63e
0.16975772 -0.14657733 0.24337782 0.10173282 0.3373583 0.11959742 -0.62602687 -0.66885096
-0.34857017 0.18065746 0.057977613 -0.4421527 -0.06000787 0.2382802 0.53060126 0.3069537
-0.40509233 -0.261693 0.0379971 -0.0643399 -0.020840768 -0.15266219 -0.020087587 -0.19063361
0.13274609 -0.35914263 0.0489837 -0.03201094 0.013673225 -0.0720651 -0.094142616 -0.30703765
0.10580121 -0.41460964 0.24486572 -0.030192528 0.70142955 -0.38530442 -0.5962725 -0.37069774
-0.5568203 0.048896715 0.11487907 0.33619452 -0.25843745 -0.08203312 0.16820917 0.28986087
-0.21429835 -0.12636927 0.07101086 0.15591556 0.30448896 -0.19918214 -0.08622056 -0.31845737
-0.21673325 -0.59972024 0.072170876 0.14678393 -0.041525617 -0.01517672 0.06763938 0.28860882
0.093909994 -0.45192707 0.13439642 -0.2870878 0.49008694 0.33554584 -0.58343804 0.32436264
-0.031409957 -0.035322808 0.21309333 -0.59522015 -0.43033355 -0.41665426 -0.37447733 0.31074074
0.2424818 -0.11819959 -0.31533065 -0.23867579 -0.11283739 0.49009666 -0.26838762 -0.03051238
-0.45812586 0.29140756 0.337708 -0.28193736 0.09205166 0.031237008 0.30341026 -0.5426676
-0.008202264 -0.10667106 -0.22185665 -0.6247618 0.5607908 0.3417096 -0.010781394 -0.16817889
0.09774416 0.0065865647 -0.34198353 -0.019912245 0.16929324 -0.15171199 0.19771625 -0.09363052
-0.100715846 -0.1087216 0.016077464 0.17592661 -0.2090295 -0.29134345 0.16446713 -0.04648078
-0.2428941 0.39199057 -0.36342275 0.138778 0.15929808 0.57580787 -0.39055642 0.32423407

fc.2.weight f4 [64, 128]
00000000: 2f37 21bd 4eaf 703d ff83 1bbe 644b ea3c
00000010: cad1 dbbc 9bf1 bcbd 32ac 0e3e ca49 8c3d
00000020: 28c1 1c3d e352 033e b89d af3a b05f cc3d
00000030: f3b9 c83d 2988 3fbd 5ff7 2ebf 646f 3ebd
00000040: 68e6 eb3d 7ef9 94be 13cb 7c3d a488 3f3c
00000050: 424e 66bd 8ab9 3abd 2921 2240 6649 02be
00000060: 4a1b a6bd 5ad9 91bc b288 82bc 7586 37be
00000070: 5f17 383d 4367 a4bc c026 ae3d acfb 113e
00000080: 1085 863d 5448 483d bc06 dcbe b5f1 2bbd
00000090: 7ebb 953e 76c8 873b 13c4 393d f104 b3bd
000000a0: 367d bb3d 0a79 a6bd cc4f 6dbd 542d 4bbb
000000b0: 0271 fcbc b26b 803c e69e 983c 1466 43bd
000000c0: 7010 a4bf c857 853d 13a1 f5bd 3c0a e4bc
000000d0: 439c 8a3c eba4 2cbb 6a4e 943d f2c3 c73d
000000e0: 9e5d bdbc 27a7 473d 7a2d 2bbd f4c0 6c3d
000000f0: f58c 1c3d 3c2e 92bd f287 8bbd 973f b7bc
00000100: e8bd 8b3d 5e85 0d3d 9854 93bb 4483 bebc
00000110: 4621 22bd 8f2c 06bd 5105 6a3e 1bb7 86bd
00000120: b8b7 cebc c417 62bd 5672 a8be b884 df3c
00000130: 1411 acbc 8e63 0e3e e82b 2d3d b817 92be
00000140: faff 1abd 50a5 463d 3493 473e 8e71 f5bc
00000150: 56a8 01bd fcb7 6dbd 6e9a 4fbd b328 373c
00000160: 4ef2 d23c 78f1 e6bc 0b6d 9b3d 5b94 c03c
00000170: c7e7 95bd 4744 893e 14ea 1d3d f4dd 7f3d
00000180: 4096 86bc 3aeb 15be a924 4cbc 93f7 c73d
00000190: b81b a13e c0ac 123d ece9 b8bc 992c 07bc
000001a0: d244 ea3e bdb4 443d 1dda 453c e625 61be
000001b0: bc65 4d3c 9963 a23c 90cb 393d 239e 8f3e
000001c0: e05c 803d 10cf cbbd b915 aa3c c41a 85bd
000001d0: 2e8f 25bd 2f80 05be 6801 cb3d 283d 0dbe
000001e0: 283f 48bc fea9 b3bc 16aa a7bc 9c6b 1c3e
000001f0: b694 913c f358 b73c f0b1 903d 3d6b 033d
00000200: 6ff9 c73d 5067 bfbb 34fe a3bc ff72 08be
00000210: 1a2f 8ebd 91ad c83c d3c8 d0bd 44aa 0abc
00000220: 8b88 d33c 6bf7 8fbb 70a2 c63d 04d9 06be
00000230: 6ffd 303c 6007 4ebd a1cd f93d dda1 aa3d
00000240: 46b1 9bbd 2882 c63d 922b e1bd f228 243d
00000250: 1fb9 e23c 8a55 a83d 245b 6abd 73e9 653c
00000260: 302c 47bd 6abc 88bd 50ff cfbb 6e05 60bc
00000270: e48c 87bd e074 a2b9 1018 7a3d c145 c33d
00000280: ef1d d9bd 879f 12be 76af 9cbd d28d 29bc
00000290: 550b 543d 80ec 663d 35fb 3d3d f2fc e3bc
000002a0: a44f a43c 601f 2c3b 06b0 d33c 5d63 0fbd
000002b0: 0eef 44bd d9b9 00bd b9a1 ce3d 9a32 463d
000002c0: c665 323d 5d2a 87bd 6a09 18bd f4ef 5fbd
000002d0: 6245 58bb cd27 57bd 496c a6bd cdf9 8bbd
000002e0: 8e3c c53d a728 e8bc b55b 89bd 8495 3a3c
000002f0: 7513 9e3d 9177 9d3d 1a53 843d aa39 de3c
00000300: 4265 ae3d c99b 2ebd a41f c2ba 8f95 4dbd
00000310: bc77 49bc dab7 0bbd 4bf6 13bd 8370 813d
00000320: bc57 b6bc 96fb 28bc ebfc b13d 5a9b 343d
00000330: cb8c ed3b 7298 bbbd 4049 493c 7ebb 4bbd
00000340: b7aa e53c e8fc 17bd fb40 d03c f29d a7bc
00000350: f275 3d3d b795 af3d 6d94 163d 2e7b 93bd
00000360: 70bb 153d 2c85 953d 664f 32bc cf85 b3bd
00000370: 3dfa 84bd cbad 593d 2e10 0b3d 8ccf b9bb
00000380: c994 9abd 0d55 31bd 9e7c babd 1819 c4bd
00000390: 0e61 223d 0a46 283d ae15 993d 44a7 36bd
000003a0: d5b6 9dbd f0f7 73bd 5745 8bbd bd14 0abd
000003b0: 7362 923c a373 c33d 8cb9 bdbd 4dbb 86bd
000003c0: 58f6 823d 52ee 0dbd 615d 0cbd 6e00 523d
000003d0: e8b1 7c3d 743a 9c3d 9e54 b4bd 60fc 5d3d
000003e0: f8f8 183d 3f73 5cbc 72b6 a63c 0221 183c
000003f0: c40b 36bc 03ba dd3d 8032 8cbd cc4d 5a3c
-0.039359268 0.058760934 -0.15187071 0.028600402 -0.026833434 -0.0922577 0.13932875 0.06850012
0.038270146 0.12824588 0.0013398444 0.099791884 0.09801092 -0.04676071 -0.6834621 -0.04649295
0.11518556 -0.29096597 0.061717104 0.0116902925 -0.056226976 -0.0455871 2.533274 -0.12723312
-0.08110674 -0.017803837 -0.015934322 -0.17922385 0.044944163 -0.02006877 0.08503485 0.14256161
0.065683484 0.048897102 -0.42973888 -0.041978557 0.29244608 0.00414377 0.045353007 -0.08741177
0.091547415 -0.08128555 -0.05793743 -0.003100236 -0.030815605 0.015676353 0.018630456 -0.04770477
-1.2817516 0.065108836 -0.11993613 -0.027836911 0.016920215 -0.0026343416 0.07241519 0.097541705
-0.02311593 0.048743393 -0.041791417 0.057801202 0.038220365 -0.07137725 -0.06813039 -0.02236919
0.06823331 0.034551017 -0.0044961683 -0.023255952 -0.039582513 -0.032757338 0.2285359 -0.06577893
-0.025234088 -0.055198446 -0.3289973 0.027284965 -0.021004237 0.13905165 0.0422782 -0.2853372
-0.037841775 0.048497498 0.19489747 -0.029961374 -0.03165468 -0.05803679 -0.050684385 0.011179137
0.025750306 -0.028191313 0.07589158 0.023508241 -0.07319599 0.26809904 0.038553312 0.06246753
-0.016429067 -0.14640513 -0.012459912 0.09764018 0.3146646 0.03580928 -0.02257248 -0.008250379
0.4575563 0.048023928 0.012075928 -0.21987113 0.012536462 0.019822882 0.045360148 0.28050336
0.062677145 -0.099516034 0.020762311 -0.06499246 -0.04041975 -0.1303718 0.099123776 -0.1379286
-0.012222089 -0.021931645 -0.020466845 0.15275425 0.017771106 0.022381281 0.07065189 0.032084692
0.097643726 -0.005841173 -0.020018674 -0.13325118 -0.06942578 0.024496825 -0.10194554 -0.008463446
0.025821945 -0.004393508 0.09698951 -0.13168722 0.010802611 -0.050300002 0.12197424 0.08331654
-0.076021716 0.09692794 -0.109946385 0.04007811 0.027676163 0.0821944 -0.057215825 0.014032709
-0.048626125 -0.06676562 -0.0063475743 -0.01367317 -0.0661867 -0.00030986127 0.061058104 0.09534789
-0.106014125 -0.14318667 -0.07650654 -0.010348754 0.05176862 0.056377888 0.046382148 -0.027830575
0.020057507 0.0026263818 0.02584077 -0.03500687 -0.048079543 -0.031427238 0.1008944 0.0483881
0.04355409 -0.06599877 -0.037118353 -0.054672197 -0.003300034 -0.05252819 -0.081261225 -0.06834755
0.096306905 -0.028339697 -0.06706945 0.011388186 0.07718555 0.07688821 0.06461163 0.027127106
0.08515407 -0.042629037 -0.0014810455 -0.05019146 -0.012296613 -0.03411088 -0.036123555 0.06320288
-0.022258632 -0.010313889 0.086908184 0.044093467 0.00724945 -0.09159936 0.012285531 -0.049739353
0.028035505 -0.037106425 0.02542161 -0.020461056 0.04625506 0.08573478 0.036762644 -0.07201229
0.036555707 0.07300791 -0.010883188 -0.08765756 -0.06493042 0.053144258 0.033950977 -0.0056704935
-0.0754791 -0.043294 -0.091058 -0.09575099 0.03964334 0.04108242 0.07474838 -0.04459311
-0.07700888 -0.059562624 -0.06800335 -0.033711184 0.01786921 0.0954354 -0.09263906 -0.065786935
0.063946426 -0.034651108 -0.03426874 0.05126994 0.061693102 0.076283365 -0.08805202 0.05419576
0.03734681 -0.013455211 0.020350669 0.009285213 -0.011111204 0.108264945 -0.068455696 0.013324212

fc.2.bias f4 [64]
00000000: 9d31 60be de39 aabb bede 31bc 5067 80bb
00000010: 0a3f 2fbc 428f 7f3c c62b 61bc ed15 b1be
00000020: 4526 213d fe7d eebc 301f 403c 8baa 9a3d
00000030: 46dc a6be a6fe 793c 67b2 cdbd 6634 e2bc
00000040: d7e8 9fbd ebc3 593d 5958 c3bc a79a 94bd
00000050: 298b 2a3e 4158 8f3e 02fc 9cbd 86ae 403d
00000060: 0517 a83d 742e d7bd 7f1d 08bd ebae 35bc
00000070: 7604 cd3d 48c9 c53d e1d4 ebbd 9d2b c0bd
00000080: ec7d 853c 3f10 88be be95 9b3c d83e 003c
00000090: 0c29 113c c410 36be a200 b43c 6150 b13d
000000a0: 2b63 2e3e 89de 82bc 99e3 0f3d 12fa 93bd
000000b0: f336 803c 49f4 243d 0828 22be 3993 30be
000000c0: 588d 07bd 370a 3a3c 4b3d 8f3d f0d3 5f3d
000000d0: 4a32 f33c 86b0 ab3e 4792 983d b7d1 2f3d
000000e0: 2cd5 b23c c239 4c3d df3d a7be 1ee3 0abc
000000f0: d1c3 153d a123 293e 6fda a63c ef50 14be
-0.21893926 -0.0051948866 -0.0108563285 -0.003918566 -0.010696182 0.01559812 -0.013743347 -0.3458704
0.039343137 -0.029112812 0.011726186 0.0755206 -0.3258993 0.015258467 -0.10043793 -0.027612876
-0.078080826 0.053165358 -0.023845838 -0.0725606 0.16654648 0.2799702 -0.07665254 0.04704144
0.082075156 -0.10506907 -0.033231255 -0.011089067 0.100106165 0.09657532 -0.11515213 -0.093833186
0.016295396 -0.26574895 0.018992301 0.007827483 0.008859884 -0.17779833 0.021972958 0.08657909
0.17030017 -0.015975254 0.035129163 -0.072254315 0.015651202 0.04027203 -0.15835583 -0.17243661
-0.03309378 0.0113549745 0.069941126 0.05464548 0.029687066 0.33533114 0.07449775 0.04292461
0.021830164 0.04985977 -0.3266439 -0.0084770005 0.0365637 0.16517498 0.02036783 -0.14483999

fc.4.weight f4 [32, 64]
00000000: 9399 cebc 1e61 abbd 9e4e 72bd ad62 e33d
00000010: d182 aebc 6e3e 36bd d69a 10bc 33f0 88bd
00000020: cdfe 6f3d ad8b b6bd 50e2 bd3e 30db 523c
00000030: a2d3 39bd 0f83 67bd feee 1dbf 6bf1 9e3d
00000040: 62c7 993c f89e e4bd d941 ecbc 7653 05be
00000050: fa35 33bd 5c87 803b 25dc ec3d 06ca a93d
00000060: 10ef 72bc 4b4c 863c 22c2 afbb 30bd 8ebd
00000070: 2a53 d0bc 7846 153e 2279 63bd 3411 7bbb
00000080: 27a7 49bd 7a2d 75bd b024 0d3e a171 0a3c
00000090: eac4 ffbc ae15 023d 75d5 4dbd b76f 1e3e
000000a0: f044 0ebd ce88 083e 009b 613c 265d 12bd
000000b0: 5a19 efbd 7080 e43c 69e3 a5bd 64f5 c7bd
000000c0: f20a 32bc 16a8 a4bd e47f 5cbd 42ff 613d
000000d0: dd35 d7bd 45be babd f79d a73d 28ed e3bd
000000e0: e46e 3e3d 3549 40bc 67b8 47be 4811 d43d
000000f0: eaea e5bd 220c 083e 8ef4 ef3d 6e9c c7bd
00000100: d76a 863d 98fb bfbd b1c7 943d b83e 65bd
00000110: 77b0 b03c 9425 e43d 2e54 2fbd b47e 4a3d
00000120: 3262 003d ea42 a63d 49fc 513d ed01 eebd
00000130: c987 1abd dd8c 62bd 40d4 13bd 1149 b4bd
00000140: e2c5 f73d 4611 04bc 700c eabd 509c 013e
00000150: 8e9f a73d cb8e b1bd d552 3bbd 739f 1c3d
00000160: e770 193c 5746 bd3d d826 ccbd 1c97 acbd
00000170: dd52 99bd 202f 9d3d a9ea b1bd ea69 c4bd
00000180: 914d e6bd 8ea3 a83d d29f 6dbd 3329 4c3d
00000190: 846f b2bd 4e4c 98bc a907 f83d 9ccc a83d
000001a0: b63e 9abd a910 4d3d acbc f53d c402 79bd
000001b0: c873 d53c 1f5b e53d 7c2b 043c e8a4 b73b
000001c0: ddcd 5bbd af06 b43c 6392 67bd bab7 873c
000001d0: 6cb6 57bc 49b4 c6bd 1354 16bd 9033 eabd
000001e0: bace 163e f507 2f3d 42a5 603d 1a40 04be
000001f0: 9894 8c3d 2b84 08be 18fe a63a 3949 ce3d
00000200: 389c 95bd 6d52 00be d079 a83d 2575 99bc
00000210: dbfe 97bd 1321 31bc bff9 003d 868d 18be
00000220: 41e5 0abe ffb5 9d3d 64d4 40bc 06dd a33d
00000230: 0e6d 47bd 9ab9 0cbd 03f1 61bd 01d4 d1bd
00000240: 36fe e1bd b793 fbbc ad3c 833d d744 6fbd
00000250: 8c33 06be 22d3 ff3b c974 0fbe 6262 21bc
00000260: d7dc e43d 0ea6 91bd af28 193d b828 60bc
00000270: f09f f73d 49d5 10be 9155 35bd 3600 64bd
00000280: b2e6 a5bd 00b2 1d39 a5d4 883d 91e7 17be
00000290: 5ad0 d4bd 3926 d7bd 3580 e53d 6bfc 32bd
000002a0: 435d 5c3c 00fd b9b8 2929 bd3d 0f2a 873c
000002b0: 9a87 923d 8f45 243c 9c12 3bbc 2d1c e9bd
000002c0: 5e53 34bc 879b f5bc 9db7 17be 1cab 543d
000002d0: 1b0c bc3d 0755 b03d f16b 21be 53e0 a93d
000002e0: 60bd b8bd 27bc 423d 9382 5d3d a5dc e2bd
000002f0: 815a 71bd f23d 28bd 3479 cd3d 4bfa b4bd
00000300: 7fb1 1fbe 1323 7cbd a6c9 3ebd 83f2 62be
00000310: 51c2 913c ff12 743d 1742 f8bd c240 593e
00000320: 6649 003c ca58 e7bd 25f9 2bbd 0492 833d
00000330: 65a6 dc3d 9dcf 533d 1ec8 823e 7f67 283d
00000340: ac55 c4bc 0d70 02bd 1ba4 00be a762 b93d
00000350: 7e78 a0bc 0321 26be 1df7 f2bc bfbe d83c
00000360: 4fe3 0dbd 307a 23bd 584c eebc 8151 b3bc
00000370: d77d d83d a073 243e fa6a 2f3d 581c c4bb
00000380: fba9 edbd 096a 183c b155 8d3c 5e07 dfbd
00000390: 6667 433d 345c 5fbe 68c2 46bd 4439 933d
000003a0: 84c9 b53d fc49 21bd f013 853b 456c e8bd
000003b0: 04ea 033e a0cb 413d dc1a 01bd 5511 fcbd
000003c0: 3a57 033c fda3 dbbd 37bc fd3d 58a7 db3a
000003d0: 18d4 ab3d 6baf b73d 91b2 cbbd 0d3f 823d
000003e0: 0166 473c 736e d4bd 35e9 413e 56ef ac3d
000003f0: 5dd6 633d 5035 743e d505 4c3e 0529 233e
-0.025219714 -0.08368133 -0.059157006 0.11102805 -0.021302612 -0.04449313 -0.008825978 -0.06686439
0.058592606 -0.0891336 0.37086725 0.012869641 -0.045367844 -0.05652147 -0.616928 0.077608906
0.018771831 -0.111631334 -0.028839992 -0.13020119 -0.043752648 0.003922386 0.11565427 0.08290486
-0.014827505 0.016393801 -0.0053637186 -0.069696784 -0.02543028 0.14577663 -0.055535443 -0.0038309814
-0.049231675 -0.059857823 0.13783526 0.008449943 -0.031221826 0.031758957 -0.050252397 0.15472303
-0.034733713 0.13333437 0.013769865 -0.035733365 -0.11674757 0.027893275 -0.08100016 -0.097636014
-0.010866867 -0.08039872 -0.053832904 0.055175073 -0.105083205 -0.09118322 0.08184426 -0.11129218
0.046492472 -0.011736204 -0.19503938 0.10354859 -0.11226447 0.13285878 0.11716567 -0.097466335
0.06563347 -0.093741596 0.072646506 -0.055968016 0.02156852 0.1113998 -0.04280489 0.04943724
0.031343646 0.081182316 0.05126599 -0.11621461 -0.03772715 -0.05531012 -0.03609109 -0.08802999
0.1209829 -0.008060759 -0.114281535 0.12657285 0.081847295 -0.08669814 -0.04573329 0.038238
0.009365297 0.09241932 -0.09968346 -0.08427259 -0.07486508 0.07675004 -0.08687336 -0.09590514
-0.11245263 0.082343206 -0.058013745 0.049843978 -0.08712676 -0.018591072 0.12110836 0.08242151
-0.075314924 0.050064716 0.11998877 -0.060793653 0.026056185 0.111990206 0.008067008 0.005604375
-0.053663123 0.021975843 -0.05653609 0.0165671 -0.013166051 -0.097023554 -0.036701273 -0.11435616
0.14727297 0.042732198 0.054845102 -0.12915078 0.068642795 -0.13331668 0.0012740521 0.1007256
-0.07305187 -0.12531443 0.08226359 -0.018732617 -0.07421657 -0.010811108 0.031488176 -0.14897737
-0.13564016 0.077007286 -0.011769388 0.08001141 -0.048687987 -0.03435669 -0.055161487 -0.10245515
-0.11034815 -0.030710084 0.06408057 -0.05841526 -0.13105601 0.0078071514 -0.14009394 -0.009850116
0.11174934 -0.071117505 0.037392315 -0.013681583 0.120910525 -0.14143862 -0.044271056 -0.055664264
-0.08100642 0.00015038997 0.06681184 -0.1483443 -0.103913024 -0.10505337 0.11206094 -0.043697756
0.01344997 -8.868612e-05 0.09236366 0.016499547 0.0715477 0.01002635 -0.011418011 -0.11382327
-0.011006204 -0.029981388 -0.14816137 0.051920995 0.091819964 0.08609968 -0.15763833 0.082947396
-0.090204954 0.047542717 0.054079603 -0.11077241 -0.058924202 -0.0410747 0.10032883 -0.08836802
-0.15595053 -0.061556887 -0.046579026 -0.22162823 0.017792853 0.05958843 -0.12121981 0.2121611
0.00783 -0.11296232 -0.04198565 0.06424335 0.10773925 0.051711667 0.25543302 0.041114327
-0.023966633 -0.03184514 -0.12562601 0.090520196 -0.019588705 -0.1622353 -0.029658848 0.026458142
-0.034640606 -0.03991145 -0.029089138 -0.02188945 0.10570877 0.16059732 0.04282663 -0.005984824
-0.11604687 0.0093026245 0.017252775 -0.10890077 0.04770603 -0.21812516 -0.048525244 0.07188657
0.08876327 -0.039377198 0.0040612146 -0.11348776 0.12882239 0.047313333 -0.031519756 -0.12307993
0.008016402 -0.10724638 0.12389415 0.0016758246 0.08390063 0.08969005 -0.09946168 0.06359682
0.012170316 -0.10372629 0.18936618 0.08444087 0.055624355 0.23848462 0.199241 0.15933616

fc.4.bias f4 [32]
00000000: e10f 8e3c cc13 903c 96f2 09bd 0583 c83d
00000010: 7c66 2cbc 90a8 2bbe cc28 313e 0b87 afbd
00000020: 9f0e 87bd e40f 173c e745 cd3d 7082 fd3d
00000030: 20f6 a93d 04e1 343d 49e4 41bd abcd b1bd
00000040: b240 f03d 1ec7 023d 3942 31be 3f88 20bd
00000050: 2732 ee3d 29cd 95bd 8035 de3d 3138 b63e
00000060: 2d5b 20bd 55a1 10be b4c5 27be d3ff aebd
00000070: 86dc edbd 4000 88bd 4cc9 d23d 569d 713e
0.017341556 0.017587565 -0.033678614 0.09790615 -0.010522481 -0.1676352 0.17300719 -0.08570679
-0.065945856 0.009220097 0.100230984 0.123783946 0.08298898 0.044159904 -0.04733685 -0.08681806
0.1173109 0.031928174 -0.17310418 -0.039192434 0.116306596 -0.07314522 0.10850048 0.35589746
-0.039149452 -0.14124043 -0.16384012 -0.08544888 -0.11614327 -0.06640673 0.102923006 0.23595175

fc.6.weight f4 [3, 32]
00000000: c7d6 3abe a2c7 59bd cc9a 21be 748b 513d
00000010: 2623 bebd 9c0f 233d f5f7 c3bd 4d81 f4bd
00000020: 93e1 bbbd 7c57 11be 38e0 073e ecf7 fcbd
00000030: 9be4 40be 87a7 0ebd d480 d13b 957e dd3d
00000040: e5f3 1fbc 00fc 4cbd 2829 e0bd e80f 02be
00000050: 98ef 12be 5c3c 033e b3b4 adbd 6e43 98be
00000060: f36c 3f3d 0c34 07bc 262b b93d e6fb c03d
00000070: 7a50 4cbd ea44 f5bd 9c53 2bbd 24df 9ebe
00000080: b395 823d 24a4 e2bd 14b0 b53c d946 19be
00000090: 5abf 4f3d b40e 533c ee02 493e 1f9a e3bd
000000a0: cfe9 d1bd 1e1f 88bd 30ee ce3d f6ee 773e
000000b0: 56af 483e 3381 023e 6897 2b3e 8580 02be
000000c0: fac4 5b3e 63aa e83c 5628 11be 1c83 95bd
000000d0: 1a55 42bc 1567 b83b 1bb7 c53d 5a9b 353e
000000e0: 3043 05c0 d01c 09bf 3d83 8fbe ee04 0d3e
000000f0: fb69 e1bd 9d3b a73d 14c4 133e 91e9 893d
00000100: 1b9e b4bc f8d1 cb3c 8139 34bd fa73 713e
00000110: c2dd 3abe 3795 9bbd 3ee8 453e d81a 3c3e
00000120: 749f e23d efa2 5c3e 0cbc 5a3d 23d4 0f3e
00000130: 88ec 01be d129 22be f680 b2bd aeb6 a3bd
00000140: 956d fe3d 8d4f 2b3e ae5e d63d dd3b dc3c
00000150: 0ef8 15bd 4cdf ecbc ee86 2d3d 5622 a8bd
00000160: fba4 953e 9b36 f9bd 8f65 123e ffc9 22be
00000170: 7b36 f9bd 10eb 993d 5368 22bd 1883 453e
-0.18245994 -0.0531689 -0.15781707 0.051158383 -0.09284048 0.039809808 -0.095687784 -0.11938725
-0.09173884 -0.14193529 0.13269126 -0.12351975 -0.18837206 -0.034827735 0.0063935313 0.10815159
-0.009762739 -0.050045013 -0.1094535 -0.1270138 -0.1434921 0.12815994 -0.08481731 -0.29738945
0.04673476 -0.008252155 0.09041433 0.09423046 -0.049881436 -0.11976035 -0.041827783 -0.31029618
0.06376209 -0.110664636 0.022178687 -0.14968432 0.050719596 0.0128819235 0.19630024 -0.11113381
-0.102496736 -0.0664656 0.101040244 0.2421225 0.19598135 0.12744598 0.16756976 -0.12744339
0.2146186 0.02840156 -0.14175543 -0.07300398 -0.01186111 0.0056275227 0.09654065 0.17735043
-2.0822258 -0.5355959 -0.28029814 0.13771412 -0.11006542 0.08165667 0.14430267 0.067340024
-0.022048047 0.024880394 -0.044000152 0.23579398 -0.18248656 -0.0759682 0.19326875 0.18369615
0.110655695 0.21546529 0.05340199 0.14045767 -0.12687886 -0.15836264 -0.087160036 -0.07993828
0.12423245 0.16729565 0.104672775 0.026884014 -0.036613517 -0.02891507 0.042365007 -0.08209674
0.29227433 -0.12168618 0.14296554 -0.15897368 -0.121685944 0.07515538 -0.039650273 0.1928829

fc.6.bias f4 [3]
00000000: d556 ddbd 5d08 913e 8c6f a63d
-0.108075775 0.28326693 0.08126745
