Genetic_Models/dino_genetic_model51.pth (torch, 48732 bytes, 8 tensors)

fc.0.weight f4 [128, 6]
00000000: 075b 1c3d 8f2d 763e 1298 9dbe 4e94 873e
00000010: 0299 f6bf 497f a7bf 6668 73be 0db5 883d
00000020: ab95 413e 8593 61be 5e5c a83e cc98 333e
00000030: e6fb 1cbd 4936 5cbe ff7f 94be 9c5a 673e
00000040: b377 32c0 8266 34c0 45b2 043c 0574 e43d
00000050: 2873 59be 0f5c 2c3e c874 f33f 94f2 0e40
00000060: 4da0 aebe 6ab0 5ebe d0f9 56bd 6b52 2fbe
00000070: 336f ba3e 276e 29be 99ba 933e bf24 32be
00000080: 737d dfbd 0057 483e 6a8d f6bf 4903 04c0
00000090: 33d2 df3e 5006 8cbc 2c12 063e 0b9b e7bd
000000a0: 0528 30c0 3c48 3dc0 176c a83d 1592 a43e
000000b0: 7e02 69be 93b7 5fbe 916c 40bf 580a 04c0
000000c0: 81e4 debd f528 9fbe b3ff a5bd a815 bd3d
000000d0: c17e 5bbe 06c4 bfbd ba39 0fbe 1bc7 4c3e
000000e0: db48 d63c dbe0 adbe 4413 a93c b085 963d
000000f0: 29dc 443e 8526 65be 267c 743e 4bbb a1be
00000100: eb03 f03d ef2d eabd 42d1 debd 336e 823e
00000110: 2c63 33be 77e6 163e c4d1 e53f 1d18 4fbf
00000120: 55f3 163e f83a 8abe 6a42 843e eb86 31be
00000130: 052d d03d 5d6a c23e 19d8 0fbe a404 2c3c
00000140: e36d 483e 7a54 47be efec 94bd b76e d83d
00000150: 3a73 9e3e 1635 d13d 1045 02be 79d9 bfbe
00000160: f1f2 67c0 0513 66c0 88b8 a03b 232c 483e
00000170: afd6 79bd a5ba cbbe a05c d23d 0b21 92be
00000180: 2488 70bb 9eb8 6fbe b83d ad3d f89f 513e
00000190: 4b2d 0940 5d8f f4be 0930 d23e 4ca3 aebe
000001a0: 110a 1abd 66ad e5bd 22c9 f43f fef5 4c3f
000001b0: 4be7 c8bc 1f87 24be d83c 2bbe 5909 6b3e
000001c0: d522 0d40 b734 773f 8423 0bbe 7021 a63e
000001d0: 1ba7 633d e0ab e6bd 8ff8 17c0 1e6d 29c0
000001e0: 7465 e23e 0e83 9e3e 08c0 fe3c 32cd a23e
000001f0: bb4c 66bf db0f c13f 71fe 02be e08b cebe
00000200: a848 8a3e 87b9 823d e1b6 8f3e 5165 62be
00000210: 52ab c03e 0d57 37be 5a8b 033f e1b5 c6be
00000220: f4da ad3f 5f11 aa3f 08bc 263e 393f e83d
00000230: 1e76 c93e 30a8 32be 7c59 1ec0 a1d1 29c0
00000240: 0edc 913e d62a 7b3d 07e4 ecbd f5a4 763e
00000250: e864 e2bf 4c3b 49bd 9e6e 94be d50d 833e
00000260: bc22 c3be f174 0b3e 7a1d d03f fcf6 f33f
00000270: 851d 393e c9a6 03be 36d7 37be c795 f43d
00000280: f6bf 31c0 e81a 15c0 7b44 913d 4338 cc3e
00000290: 2409 32be 59e7 e2be 4a96 12bf d3fd c43f
000002a0: d622 b3bd e46b 903e 034a bbbd 3a60 aabb
000002b0: 3dec 0940 be08 ad3f a77a a6be 1f0f 13be
000002c0: 559a 473e 4606 583d b567 c53d 6c33 05be
000002d0: 4615 92be acac 17bd 5dc5 be3e 5d95 afbe
000002e0: 5b4b a33e a32e c93d 8ef0 ebbd 11fe b53d
000002f0: 5e00 f53d 9419 e63a 5958 dd3f a6b5 febf
00000300: 2307 71bd 11c2 553e 97ed 983e 8f82 f6bd
00000310: b07c 2740 0a69 c13e 7463 12be f1f9 933e
00000320: 398c 7abe b80f 2e3e c7f5 36be c5fb 19c0
00000330: bf8c 1bbe 87ad 5abe 5e2f b2bd 349f 143e
00000340: 0211 0ac0 890b 2740 d1e7 8cbe 8c5f 84be
00000350: ab35 983e 4247 e43e 8d37 fa3f f621 c5bf
00000360: 65d1 41bf ccc7 51be c29e a03d e6a2 3a3e
00000370: 360a 71c0 c7aa fbbf c142 093e 5de7 d13d
00000380: 6982 c4be 591c 7a3e e467 843f 756e db3f
00000390: 2e6e f03e 0d95 9b3d c06d 6bbf 2682 d1be
000003a0: a517 893f f9ef e53f 034e 863c 4995 5dbe
000003b0: a8a3 a3be 2776 e33d 6f3a b93f 82c5 fabf
000003c0: 416d 8e3e 26c4 be3d f043 62bd 9a50 933d
000003d0: 5e15 e43e 88b6 17c0 d183 92be 156f ec3d
000003e0: 6243 b7bd f6ae a33d 4f62 20c0 a157 d3bf
000003f0: 314f 8c3e 2a2a b53d 7452 c6be d266 2c3e
0.038172748 0.24040817 -0.30780083 0.26480335 -1.9265444 -1.3085719 -0.23770294 0.06675158
0.1890475 -0.2202893 0.3288297 0.17538756 -0.038326167 -0.21505083 -0.29003903 0.22593158
-2.7885559 -2.8187566 0.008099143 0.111549415 -0.21235335 0.16831993 1.9020014 2.2335558
-0.34106675 -0.21746984 -0.052484334 -0.17121284 0.36412963 -0.16545926 0.288533 -0.1739683
-0.109125994 0.19564438 -1.9261906 -2.0627005 0.43715057 -0.017092854 0.1309287 -0.11308869
-2.7524426 -2.9575338 0.082237415 0.32142702 -0.22754857 -0.21847372 -0.7516566 -2.0631313
-0.108834274 -0.31085935 -0.081054114 0.09232646 -0.21435072 -0.093635604 -0.13986865 0.19997828
0.026157787 -0.33960614 0.02063907 0.073497176 0.1922461 -0.22377975 0.23875484 -0.31588206
0.11719497 -0.114345424 -0.108797565 0.254747 -0.175183 0.14736353 1.795464 -0.8089617
0.14741261 -0.26998115 0.2583192 -0.17336623 0.10164837 0.37971774 -0.14047278 0.010499153
0.19573168 -0.19465819 -0.07271754 0.10567992 0.30947286 0.102152035 -0.12721658 -0.37470606
-3.624203 -3.5949109 0.0049048103 0.19548087 -0.060995754 -0.39790836 0.10271573 -0.28540835
-0.003670224 -0.2341027 0.084590375 0.2047118 2.1433895 -0.47765628 0.41052273 -0.3410896
-0.037607256 -0.11214714 1.9123881 0.80062854 -0.024524352 -0.1606717 -0.16722429 0.22952785
2.205251 0.9656481 -0.13587767 0.32447386 0.055579286 -0.11263251 -2.3745458 -2.647285
0.44218028 0.30959362 0.031097427 0.31797177 -0.8996083 1.5082964 -0.12792374 -0.4034109
0.27008557 0.06383043 0.28069213 -0.22108962 0.37630707 -0.17904301 0.5138451 -0.38810638
1.3582444 1.3286551 0.16282666 0.11340184 0.3934793 -0.17446971 -2.4742117 -2.6534197
0.284882 0.06132015 -0.1156693 0.24086364 -1.7687044 -0.049128816 -0.28990644 0.2559649
-0.38112438 0.13618828 1.6258996 1.9059749 0.18077667 -0.12856592 -0.1795319 0.1194263
-2.7773414 -2.3297672 0.0709314 0.39886674 -0.173863 -0.4431713 -0.5726057 1.5389961
-0.08746879 0.28207314 -0.09144976 -0.0051994594 2.1550438 1.3518293 -0.3251545 -0.14361237
0.19492467 0.052740358 0.09638921 -0.13007897 -0.28531855 -0.037029907 0.3725995 -0.34293643
0.3189343 0.098233484 -0.115204915 0.0888635 0.11962961 0.001755523 1.7292587 -1.9899185
-0.058844697 0.20874812 0.29868767 -0.12036621 2.6169853 0.3777545 -0.14295751 0.28901628
-0.24467553 0.16998184 -0.17867194 -2.4059918 -0.15190409 -0.21355258 -0.08700441 0.14513856
-2.157288 2.610079 -0.27520612 -0.25854146 0.29728445 0.44585615 1.9548203 -1.5400989
-0.75710136 -0.20486373 0.07842781 0.18226203 -3.7662482 -1.9661492 0.13404371 0.10249207
-0.38380745 0.24424876 1.0344205 1.7143084 0.4695906 0.075967886 -0.9196434 -0.40919608
1.0710341 1.7963859 0.01639462 -0.21638979 -0.31960797 0.1110652 1.4470958 -1.9591525
0.2781773 0.09314756 -0.05524057 0.07193108 0.44547552 -2.3705158 -0.28616193 0.11544625
-0.08948399 0.079923555 -2.5060003 -1.6511117 0.27404168 0.08845933 -0.38734782 0.16836098

fc.0.bias f4 [128]
00000000: 2b54 2a3e 5e18 16be 6af1 843e 5481 b73d
00000010: 4881 a93e b9c8 0d3e 05ff 20bf d139 2bbf
00000020: ca77 b2be 593c 2e3e 363a 633d d761 e2be
00000030: 4084 41bd baff 733e 7cd5 073f 0929 9d3e
00000040: 4368 cfbe a0fc 85be 4381 4f3d 3099 aebd
00000050: bcd5 81bc 0ea3 06be b98e a4bc 0cc4 3cbe
00000060: 97ee 073e 0a58 b2be 203c 053d e71d 03bd
00000070: aa05 603c de96 93bd d8cd c0bd d316 96be
00000080: c972 c83d f559 dbbe 14be 7a3e 9f0f 41bd
00000090: faee 343f dcc7 bebe d279 15bf d698 c3be
000000a0: c68b 0ebf 745f 4c3d b845 eb3d 2af5 ac3e
000000b0: bc66 83be 194f d2bd 5c4c 283e a568 943e
000000c0: 0771 5bbe f266 01be 7609 893d 63a1 f43d
000000d0: fae5 9b3e 0797 51be 6894 b0bd d80c a3be
000000e0: aeed 60be d80a 1cbf 53ce 933d 874e 163e
000000f0: 702e 25bd 531a 73bc 8486 8a3d 9624 903e
00000100: b1e0 b43d fc62 e7be 5250 0c3e cf25 9bbe
00000110: ab53 003f aacc ab3e 0acb 0bbf d436 a63e
00000120: e9d6 42bd 92dd e6bc 2335 5a3e f25f 17bf
00000130: 1967 d2be b553 d5be 3754 c0be 6919 9f3e
00000140: d76c 763e a012 f2bd 9c5f aabe 851e 7abe
00000150: 4a17 e7bd 04f2 ff3e 1a6a 89be 7e99 07bd
00000160: 798f eabe 7a23 933e 54ca b13e 185a 90be
00000170: 9585 bc3d 91c9 0b3d 9758 9b3e 44ec 0abf
00000180: 3885 b6bb 4af1 ddbd bdf4 6dbe 2912 21bf
00000190: fc8f 0f3f 90f4 ae3e 45dc 4ebb 1637 2cbe
000001a0: 3a2d ec3d 40bf 703a 8e2a abbe 4572 52bc
000001b0: 355b 2d3e debc 13be 3f37 4a3e 5cc1 bfbd
000001c0: 5577 e6bd 6ea9 debd e3b4 833c e5c8 2b3e
000001d0: 38a9 50be e82d 99be 733d 263e a162 3ebd
000001e0: e407 83be 4ad1 d23e 1e3b bbbe 8a13 183e
000001f0: 091f 233e 33dd 0f3f 6f1c cdbe 0202 a63e
0.1663367 -0.14657733 0.25965434 0.08960214 0.33106446 0.13846101 -0.6288913 -0.66885096
-0.34857017 0.17015208 0.055475436 -0.4421527 -0.047245264 0.2382802 0.53060126 0.3069537
-0.40509233 -0.261693 0.050660383 -0.08525312 -0.015848987 -0.13148138 -0.020087587 -0.18434161
0.13274609 -0.34832793 0.032528043 -0.03201094 0.013673225 -0.0720651 -0.094142616 -0.29314288
0.097875185 -0.4284207 0.24486572 -0.047134038 0.7067715 -0.37261856 -0.5838901 -0.38202542
-0.5568203 0.04989572 0.11487907 0.33780795 -0.25664318 -0.10268993 0.16435379 0.28986087
-0.21429835 -0.12636927 0.06691258 0.119448446 0.30448896 -0.20467769 -0.08622056 -0.31845737
-0.21965668 -0.60954046 0.072170876 0.14678393 -0.04032749 -0.014837819 0.06763938 0.28152913
0.08831919 -0.45192707 0.13702515 -0.30302283 0.5012767 0.33554584 -0.5460669 0.32463706
-0.047568236 -0.028181825 0.21309333 -0.59130776 -0.41094282 -0.41665426 -0.3756425 0.31074074
0.24064957 -0.11819959 -0.3327607 -0.24425705 -0.11283739 0.4998933 -0.26838762 -0.033105366
-0.45812586 0.28738004 0.34724677 -0.28193736 0.09205166 0.034127776 0.30341026 -0.5426676
-0.00557008 -0.10837038 -0.23237891 -0.62918335 0.5607908 0.3417096 -0.0031564396 -0.16817889
0.11532064 0.0009183772 -0.33430904 -0.012844627 0.16929324 -0.14427516 0.19747637 -0.09363052
-0.112532295 -0.1087216 0.016077464 0.16775854 -0.20377052 -0.29917836 0.16234379 -0.04648078
-0.25591958 0.411753 -0.3656854 0.14851204 0.15929808 0.561969 -0.40060756 0.32423407

fc.2.weight f4 [64, 128]
00000000: 2f37 21bd 60ec 493d ff83 1bbe 644b ea3c
00000010: cad1 dbbc 9bf1 bcbd 6142 1a3e ca49 8c3d
00000020: 7423 fc3c e352 033e 5865 713c b05f cc3d
00000030: f3b9 c83d c02f 55bd e099 2ebf 26cd 31bd
00000040: 68e6 eb3d f11e 9cbe 053b 943d e44c 43bc
00000050: 9ea5 4abd f1af 14bd 2921 2240 6649 02be
00000060: 73ec 8cbd 20f8 ebb9 e7f0 2fbd 7586 37be
00000070: 3245 3e3d 4367 a4bc 39b9 8d3d acfb 113e
00000080: 1b3f 553d d719 3a3d d90e d3be b5f1 2bbd
00000090: c96f 913e 37db a43b 13c4 393d f104 b3bd
000000a0: 0efb c03d 0a79 a6bd 181b 43bd 542d 4bbb
000000b0: 0271 fcbc b26b 803c 385b 633b e20d 34bd
000000c0: 7010 a4bf c857 853d 13a1 f5bd 3c0a e4bc
000000d0: 7adb 543c ac29 9fbc 2004 8f3d 5773 d53d
000000e0: bdd7 bcbc 27a7 473d ba83 36bd f4c0 6c3d
000000f0: df6c 143d 2a7c bbbd b2c4 98bd 973f b7bc
00000100: e8bd 8b3d dd01 153d 6adf a13b 4483 bebc
00000110: 2806 40bd 9e45 5abd 5105 6a3e 4d30 d3bc
00000120: b8b7 cebc c417 62bd 5672 a8be b884 df3c
00000130: 1411 acbc 8e63 0e3e 22bf 5c3d 64d8 93be
00000140: faff 1abd 50a5 463d 3493 473e 750b 27bd
00000150: 9306 80bc 455f 63bd 11bc 5dbd b328 373c
00000160: 4ef2 d23c 325f b3bc 0b6d 9b3d 5b94 c03c
00000170: 23a5 8dbd 4744 893e b234 8f3d f4dd 7f3d
00000180: 8a78 cab9 a794 20be a85a 52bb f425 ca3d
00000190: 675a a33e c0ac 123d 20b1 f2bc 992c 07bc
000001a0: 225b e33e bdb4 443d 2be1 9a3c e625 61be
000001b0: bc65 4d3c 9963 a23c 90cb 393d d234 8f3e
000001c0: e05c 803d 10cf cbbd b915 aa3c 8114 72bd
000001d0: c0cc bcba 2f80 05be 4dff ec3d 283d 0dbe
000001e0: 283f 48bc 5dff b2bc 16aa a7bc 4b36 353e
000001f0: afa0 d83c e117 cc3c f0b1 903d 85b7 dc3c
00000200: d5bf cd3d 5067 bfbb 44d1 0dbd ff72 08be
00000210: 1a2f 8ebd 855c ee3b d3c8 d0bd a32b 85bc
00000220: 8b88 d33c 9493 c33b 4e2e a03d 04d9 06be
00000230: 3a51 193c 5468 42bd 4aac be3d 1374 943d
00000240: 6f60 77bd 90ba c03d f1a1 dabd f228 243d
00000250: 1fb9 e23c 8a55 a83d 6d17 76bd 73e9 653c
00000260: abde 70bd 6b0a 57bd 50ff cfbb 81e5 bfbc
00000270: e48c 87bd d1ba 6c3c ec9c 693d c145 c33d
00000280: ef1d d9bd b865 01be 76af 9cbd d28d 29bc
00000290: 550b 543d bfda 383d df59 083d 74f9 4fbd
000002a0: 26f8 f03b a5e0 86bc fe07 783c 6493 23bd
000002b0: 0eef 44bd 3182 27bd b9a1 ce3d 36ae 753d
000002c0: c665 323d c971 8dbd dacf e9bc a638 33bd
000002d0: 72ff 87bc cd27 57bd 9f31 b0bd 52cb a0bd
000002e0: 8e3c c53d a728 e8bc b55b 89bd 9028 0e3d
000002f0: 7513 9e3d 4532 b03d 2ec9 a33d aa39 de3c
00000300: 4714 8c3d c99b 2ebd a41f c2ba 8f95 4dbd
00000310: bc77 49bc dab7 0bbd e8fb 2dbd 734e a93d
00000320: bc57 b6bc 9443 b6bc ebfc b13d 1bff 5a3d
00000330: cb8c ed3b fee5 c4bd 3340 1a3c b58a 5ebd
00000340: bf6c 723d e8fc 17bd 6f93 963c f29d a7bc
00000350: 1039 bf3c 8c69 b83d b055 b83a 9f6a 91bd
00000360: 70bb 153d 5fb6 4d3d 40ff cc3a cf85 b3bd
00000370: 3dfa 84bd 649f 963d eff9 e63c 4a8c 383c
00000380: c994 9abd 3482 28bd d3c8 a5bd fc46 a8bd
00000390: 0e61 223d 0a46 283d 3f28 833d 9844 16bd
000003a0: d5b6 9dbd f0f7 73bd 5745 8bbd d94e 27bd
000003b0: db15 923c a373 c33d 49c1 acbd 4dbb 86bd
000003c0: 58f6 823d 24ff ffbc 968d dcbc f238 793d
000003d0: e8b1 7c3d 6b04 943d 9e54 b4bd 5679 743d
000003e0: f8f8 183d 5ebb e0bc edf1 083d 0221 183c
000003f0: ae2e 52bc a234 c13d a84f 8bbd e283 973c
-0.039359268 0.04929769 -0.15187071 0.028600402 -0.026833434 -0.0922577 0.15064384 0.06850012
0.030778624 0.12824588 0.014733635 0.099791884 0.09801092 -0.05204749 -0.68203545 -0.043408535
0.11518556 -0.30492356 0.072378196 -0.011920188 -0.04947435 -0.036300603 2.533274 -0.12723312
-0.068810366 -0.0004500756 -0.04295435 -0.17922385 0.04645271 -0.02006877 0.06920094 0.14256161
0.052062135 0.0454348 -0.41222265 -0.041978557 0.28405598 0.0050310153 0.045353007 -0.08741177
0.09422885 -0.08128555 -0.04763326 -0.003100236 -0.030815605 0.015676353 0.0034691822 -0.043958552
-1.2817516 0.065108836 -0.11993613 -0.027836911 0.01299178 -0.01942905 0.06983209 0.1042239
-0.02305209 0.048743393 -0.044559218 0.057801202 0.03623664 -0.09154542 -0.07459392 -0.02236919
0.06823331 0.03637873 0.004939963 -0.023255952 -0.04688087 -0.05328905 0.2285359 -0.025779868
-0.025234088 -0.055198446 -0.3289973 0.027284965 -0.021004237 0.13905165 0.053893216 -0.2887603
-0.037841775 0.048497498 0.19489747 -0.04078241 -0.015628135 -0.055510778 -0.054134432 0.011179137
0.025750306 -0.021895979 0.07589158 0.023508241 -0.06916263 0.26809904 0.06992473 0.06246753
-0.0003861825 -0.15681706 -0.0032097492 0.0987052 0.3190491 0.03580928 -0.029625475 -0.008250379
0.44405466 0.048023928 0.018906197 -0.21987113 0.012536462 0.019822882 0.045360148 0.27969986
0.062677145 -0.099516034 0.020762311 -0.059101585 -0.0014404282 -0.1303718 0.11572132 -0.1379286
-0.012222089 -0.021850282 -0.020466845 0.17696492 0.026443807 0.02491373 0.07065189 0.026942978
0.10046355 -0.005841173 -0.0346234 -0.13325118 -0.06942578 0.007274213 -0.10194554 -0.01625616
0.025821945 0.0059685204 0.07821332 -0.13168722 0.009357745 -0.047462776 0.09310205 0.07248702
-0.0603947 0.09410584 -0.10675419 0.04007811 0.027676163 0.0821944 -0.060080934 0.014032709
-0.058806103 -0.05250017 -0.0063475743 -0.023424866 -0.0661867 0.014448837 0.057034418 0.09534789
-0.106014125 -0.12636459 -0.07650654 -0.010348754 0.05176862 0.045130488 0.033288833 -0.050775006
0.0073538003 -0.01646454 0.015138624 -0.039935485 -0.048079543 -0.040895645 0.1008944 0.059980594
0.04355409 -0.069064684 -0.028541494 -0.043755196 -0.016601298 -0.05252819 -0.086032145 -0.0785128
0.096306905 -0.028339697 -0.06706945 0.034706652 0.07718555 0.08603338 0.07997356 0.027127106
0.06839805 -0.042629037 -0.0014810455 -0.05019146 -0.012296613 -0.03411088 -0.042476565 0.08266916
-0.022258632 -0.02224902 0.086908184 0.053465944 0.00724945 -0.0961418 0.00941472 -0.0543315
0.05918574 -0.037106425 0.018380849 -0.020461056 0.02334264 0.090045065 0.0014063623 -0.071004145
0.036555707 0.05022275 0.0015640035 -0.08765756 -0.06493042 0.0735462 0.02819535 0.011263916
-0.0754791 -0.041139796 -0.08094945 -0.08216664 0.03964334 0.04108242 0.06404161 -0.03668651
-0.07700888 -0.059562624 -0.06800335 -0.04084668 0.017832687 0.0954354 -0.08435304 -0.065786935
0.063946426 -0.03124959 -0.026922982 0.060845323 0.061693102 0.07227405 -0.08805202 0.059686027
0.03734681 -0.027433094 0.033433843 0.009285213 -0.012828512 0.09433867 -0.068023026 0.018495504

fc.2.bias f4 [64]
00000000: 9c90 58be 07bf 5c3c 14f9 85bc 680e 6cbb
00000010: 3956 7abc b3e6 9d3c 9854 59bb f933 acbe
00000020: e779 f23c c54a 0ebd 301f 403c 92d5 973d
00000030: 4c1e aabe a6fe 793c 67b2 cdbd 140b c5bc
00000040: d7e8 9fbd ebc3 593d 5958 c3bc 2b2b a6bd
00000050: 60c0 303e 4158 8f3e fc11 99bd 86ae 403d
00000060: 76f0 a43d d789 c8bd bbdd 04bd cab9 3ebc
00000070: 7604 cd3d a5cd dd3d 7fa3 eabd 9d2b c0bd
00000080: 19d6 9b3c 39f4 83be a47d e83c d83e 003c
00000090: 0ce8 9dba bec4 45be a200 b43c 010d a33d
000000a0: 2b63 2e3e 89de 82bc 00e9 ec3c 12fa 93bd
000000b0: 9426 953c 77e9 1d3d 53e9 1ebe 2400 3cbe
000000c0: 588d 07bd 4a12 f73b 7d11 6b3d fea8 e23c
000000d0: 20d4 083d 86b0 ab3e 8e91 513d b7d1 2f3d
000000e0: 3098 073c 3a37 8f3d df3d a7be 1ee3 0abc
000000f0: d1c3 153d b416 353e 6fda a63c ef50 14be
-0.21148914 0.013473279 -0.016354121 -0.003601933 -0.015279346 0.019275045 -0.0033161994 -0.33633402
0.029599143 -0.034739275 0.011726186 0.07413782 -0.3322624 0.015258467 -0.10043793 -0.024053134
-0.078080826 0.053165358 -0.023845838 -0.081137024 0.17260885 0.2799702 -0.07474133 0.04704144
0.08053677 -0.09791916 -0.03243802 -0.011640975 0.100106165 0.10830239 -0.11456966 -0.093833186
0.019022988 -0.25772265 0.028380223 0.007827483 -0.0012047305 -0.19313332 0.021972958 0.07961465
0.17030017 -0.015975254 0.028919697 -0.072254315 0.018206872 0.038552728 -0.15518694 -0.18359429
-0.03309378 0.007540022 0.057389725 0.027668472 0.033405423 0.33533114 0.051164202 0.04292461
0.00827603 0.069929555 -0.3266439 -0.0084770005 0.0365637 0.17684442 0.02036783 -0.14483999

fc.4.weight f4 [32, 64]
00000000: 9399 cebc e19a 8fbd 8002 6dbd 35b0 e63d
00000010: 5260 50bd 6e3e 36bd d69a 10bc 2a8b acbd
00000020: 49fd 6a3d ad8b b6bd 50e2 bd3e 30db 523c
00000030: 92e2 3cbd f8ed 8abd 6f15 1dbf 36fb a53d
00000040: 8fad b2bb b5b0 ccbd 4e65 99bc 7653 05be
00000050: a0ed 1cbd 60f7 303b 25dc ec3d 45b6 bc3d
00000060: 5a96 a5bc 7892 5a3c 22c2 afbb 30bd 8ebd
00000070: 0499 19bd 7846 153e 2279 63bd 3411 7bbb
00000080: caf9 65bd e027 3bbd b024 0d3e c117 a03b
00000090: 6ba7 10bd 2b9e 243d 75d5 4dbd b76f 1e3e
000000a0: f044 0ebd ce88 083e c399 d13c c5d4 28bd
000000b0: 5a19 efbd 1b0a 0a3d 9c7e a6bd 3e19 b6bd
000000c0: 5ed4 e2bb d4cc bdbd e47f 5cbd b27c 873d
000000d0: 1797 e5bd 45be babd fe4c ad3d 6cc7 b9bd
000000e0: e46e 3e3d c8d9 80bc 67b8 47be 213b d63d
000000f0: eaea e5bd 51cc 053e 8ef4 ef3d 6e9c c7bd
00000100: 4d06 883d 98fb bfbd b1c7 943d b83e 65bd
00000110: 0bd3 9b3c e13f c73d 7ca8 2bbd a737 413d
00000120: a5af 7f3d 4c8f 993d 6f79 503d ed01 eebd
00000130: 651f 16bd cf6c 6abd 40d4 13bd 8775 8ebd
00000140: 71d2 f93d 4611 04bc 700c eabd 7d7a 0c3e
00000150: c135 9d3d a22d 8dbd a008 07bd 729c 893d
00000160: 908e 2b3b 5746 bd3d 8868 b6bd 98eb c2bd
00000170: dd52 99bd 202f 9d3d a9ea b1bd ea69 c4bd
00000180: 914d e6bd 7a16 b93d 06d7 49bd 65d3 213d
00000190: 20b0 c2bd a9d2 a9bc cfe9 ea3d 9ccc a83d
000001a0: b63e 9abd 6068 3d3d 07ee f43d c072 84bd
000001b0: 59d7 b43c 1ab4 023e c8c3 ed3c e8a4 b73b
000001c0: 8425 3cbd af06 b43c 6d66 55bd d189 053c
000001d0: 6cb6 57bc ce76 babd 35b3 8ebd 12c8 dabd
000001e0: bace 163e f507 2f3d 42a5 603d 1a40 04be
000001f0: 2634 7f3d 3492 02be 50e0 2f3c 3949 ce3d
00000200: 389c 95bd 6d52 00be d079 a83d bc22 bbbc
00000210: dbfe 97bd 045b e0bb bff9 003d 868d 18be
00000220: 41e5 0abe 1392 8a3d 64d4 40bc 6adb 823d
00000230: 0e6d 47bd aacf 7ebd 4e9b 5dbd 6b74 e6bd
00000240: 3415 d2bd b793 fbbc ad3c 833d cce1 86bd
00000250: e317 12be 3729 c0bc c974 0fbe 6262 21bc
00000260: 339c d23d b417 5abd 8c6e 0e3d b828 60bc
00000270: 1077 f53d 0a1e 02be 9155 35bd c241 54bd
00000280: afe3 a6bd dcb8 a33c 1e7e 8c3d 91e7 17be
00000290: aa19 a7bd 9152 e0bd 9b20 f53d 6bfc 32bd
000002a0: 435d 5c3c 1242 96bb 2929 bd3d 7a0d 5b3c
000002b0: 9a87 923d 9ce6 793c f765 96bc 5863 debd
000002c0: 62c6 7abc 0b96 03bd 395a 13be 0a5b 2a3d
000002d0: ef0b 8b3d 24ce 823d f16b 21be 53e0 a93d
000002e0: 60bd b8bd 08a6 443d 9382 5d3d d0b3 02be
000002f0: 3fe0 71bd 7d69 88bc 3479 cd3d 4bfa b4bd
00000300: 0a8c 1dbe 1323 7cbd ab5c 40bd 83f2 62be
00000310: 51c2 913c f04d 4f3d 5453 eebd 58eb 553e
00000320: 6649 003c 5468 fcbd 5cee 4cbd 6714 8b3d
00000330: b8dd ed3d eadd 8c3d 42af 893e 7f67 283d
00000340: 1884 28bd 867a ecbc 7e6f 11be 6c95 ba3d
00000350: fd00 bebc 0321 26be 1df7 f2bc c66b 4c3c
00000360: 9edd 0cbd b084 d2bc 584c eebc 8151 b3bc
00000370: d77d d83d a073 243e fa6a 2f3d 581c c4bb
00000380: 0733 f0bd c0c5 d13a b155 8d3c 9934 debd
00000390: 1f39 9f3c 345c 5fbe 3dd7 5abd c150 b83d
000003a0: 3b3c bf3d fc49 21bd 748a 60bb 456c e8bd
000003b0: 49db f13d 0cf3 373d dc1a 01bd 5511 fcbd
000003c0: d6e0 093c aaf1 d5bd 37bc fd3d 58a7 db3a
000003d0: 9716 d43d 7786 b93d 7147 cdbd 0d3f 823d
000003e0: 0166 473c 453f b5bd 35e9 413e 56ef ac3d
000003f0: 32e2 4b3d 5035 743e a702 4f3e 0529 233e
-0.025219714 -0.07011963 -0.057863712 0.112640776 -0.05087311 -0.04449313 -0.008825978 -0.08424981
0.057370458 -0.0891336 0.37086725 0.012869641 -0.04611451 -0.0678367 -0.6136083 0.08104555
-0.0054528187 -0.09994642 -0.018725064 -0.13020119 -0.038312554 0.0027002916 0.11565427 0.09214453
-0.020213295 0.013340585 -0.0053637186 -0.069696784 -0.037499443 0.14577663 -0.055535443 -0.0038309814
-0.05614642 -0.045692325 0.13783526 0.004885644 -0.035315912 0.040189903 -0.050252397 0.15472303
-0.034733713 0.13333437 0.025586015 -0.041218538 -0.11674757 0.033701044 -0.081296176 -0.08891533
-0.006922289 -0.092675835 -0.053832904 0.066155806 -0.11210459 -0.09118322 0.08461951 -0.0907124
0.046492472 -0.015728846 -0.19503938 0.10460497 -0.11226447 0.13066222 0.11716567 -0.097466335
0.06641827 -0.093741596 0.072646506 -0.055968016 0.019021532 0.09728981 -0.041908726 0.047172215
0.062423367 0.07498035 0.050897058 -0.11621461 -0.036651034 -0.057232674 -0.03609109 -0.0695601
0.12198342 -0.008060759 -0.114281535 0.137186 0.07676268 -0.068934694 -0.03296721 0.06719293
0.0026177503 0.09241932 -0.089066565 -0.09517592 -0.07486508 0.07675004 -0.08687336 -0.09590514
-0.11245263 0.0903749 -0.049277328 0.039508242 -0.095062494 -0.020730333 0.11470377 0.08242151
-0.075314924 0.046242118 0.119594626 -0.06467199 0.022075342 0.12764016 0.02902402 0.005604375
-0.045934215 0.021975843 -0.052099634 0.008150534 -0.013166051 -0.091046914 -0.06967775 -0.10682692
0.14727297 0.042732198 0.054845102 -0.12915078 0.062305592 -0.12751085 0.010734633 0.1007256
-0.07305187 -0.12531443 0.08226359 -0.022843711 -0.07421657 -0.0068467874 0.031488176 -0.14897737
-0.13564016 0.06766143 -0.011769388 0.06389506 -0.048687987 -0.062209763 -0.05410319 -0.11252674
-0.102579504 -0.030710084 0.06408057 -0.06586036 -0.14266925 -0.023457153 -0.14009394 -0.009850116
0.10283699 -0.05324526 0.034773394 -0.013681583 0.119856 -0.12706771 -0.044271056 -0.051820524
-0.08148896 0.019985609 0.068599924 -0.1483443 -0.08159192 -0.10953248 0.119691096 -0.043697756
0.01344997 -0.004585513 0.09236366 0.013369912 0.0715477 0.0152527355 -0.018359168 -0.10858792
-0.015306087 -0.032125514 -0.14389886 0.041590728 0.067893855 0.063869745 -0.15763833 0.082947396
-0.090204954 0.048009902 0.054079603 -0.12763906 -0.05905175 -0.016651863 0.10032883 -0.08836802
-0.15385452 -0.061556887 -0.046963375 -0.22162823 0.017792853 0.050611436 -0.11636987 0.20890558
0.00783 -0.123245865 -0.050032005 0.06791001 0.11614555 0.06878264 0.26891524 0.041114327
-0.0411416 -0.028867017 -0.14202687 0.09110531 -0.02319383 -0.1622353 -0.029658848 0.012476867
-0.034391038 -0.025698036 -0.029089138 -0.02188945 0.10570877 0.16059732 0.04282663 -0.005984824
-0.11728483 0.0016004369 0.017252775 -0.10849876 0.019436417 -0.21812516 -0.053427923 0.089997776
0.0933766 -0.039377198 -0.0034262212 -0.11348776 0.118094034 0.044909522 -0.031519756 -0.12307993
0.0084154215 -0.104464844 0.12389415 0.0016758246 0.10355871 0.0905885 -0.10023392 0.06359682
0.012170316 -0.08849958 0.18936618 0.08444087 0.049776264 0.23848462 0.20215856 0.15933616

fc.4.bias f4 [32]
00000000: 9539 0b3d 1419 193c 96f2 09bd 0583 c83d
00000010: 95b1 6a3c 19e1 35be cc28 313e 74b2 cfbd
00000020: 9f0e 87bd e40f 173c 22dc da3d 4d56 e23d
00000030: f802 993d 3c60 213d 49e4 41bd 01d8 9ebd
00000040: b240 f03d 1ec7 023d 3942 31be f9ae 01bd
00000050: e0b4 e33d 2054 19bd da54 be3d 3138 b63e
00000060: 7725 06bd ef47 16be b4c5 27be 965e a5bd
00000070: 93d1 f0bd 4000 88bd 0da1 d43d 569d 713e
0.03399046 0.009344358 -0.033678614 0.09790615 0.014324565 -0.17761649 0.17300719 -0.10141459
-0.065945856 0.009220097 0.10686518 0.11051617 0.07471269 0.039398417 -0.04733685 -0.07756043
0.1173109 0.031928174 -0.17310418 -0.031661008 0.111184835 -0.037433743 0.09293528 0.35589746
-0.032750573 -0.14675878 -0.16384012 -0.080746815 -0.11758723 -0.06640673 0.103822805 0.23595175

fc.6.weight f4 [3, 32]
00000000: c7d6 3abe 84d9 4bbd cc9a 21be 748b 513d
00000010: c8b7 a5bd 9c0f 233d 1609 a0bd ff06 e9bd
00000020: 9225 d0bd 9956 0cbe 740d 053e 441a fdbd
00000030: 9be4 40be c071 f9bc a4f4 7f3b 7d16 023e
00000040: 9342 7fbc 671a 9dbd 3fd0 fdbd ee52 0cbe
00000050: 98ef 12be 07b0 073e 8826 c4bd db5e 9ebe
00000060: f36c 3f3d 0c34 07bc 262b b93d 3cb2 d43d
00000070: 7a50 4cbd ea44 f5bd e28e 87bd 24df 9ebe
00000080: 5958 a23d ff32 fcbd 14b0 b53c d946 19be
00000090: 5abf 4f3d 6b0f 743c a3a6 4f3e 1f9a e3bd
000000a0: f8c8 d7bd 313e 8ebd 30ee ce3d 4180 6b3e
000000b0: 56af 483e d8c8 003e 6897 2b3e 8580 02be
000000c0: fb78 5a3e 782b 7f3c 5ccc 0bbe 1c83 95bd
000000d0: 8e7a 38bc b5a7 f33b 1350 d23d 5de0 2d3e
000000e0: 5086 05c0 d01c 09bf 3d83 8fbe ee04 0d3e
000000f0: 5305 9ebd 9d3b a73d 8fd9 fb3d 91e9 893d
00000100: be2f 54bc f8d1 cb3c 8139 34bd 7182 6e3e
00000110: a44d 37be 3795 9bbd 3ee8 453e d81a 3c3e
00000120: 749f e23d 53ac 6b3e 969a 9c3d 8446 c03d
00000130: 742e febd d129 22be e24d 98bd 00d2 9abd
00000140: 8b20 013e 6e06 293e c02e c13d e360 da3c
00000150: b885 41bd 9986 90bc 3ff2 073d c987 92bd
00000160: fba4 953e 9205 fabd 8f65 123e ffc9 22be
00000170: 7b36 f9bd 10eb 993d 0931 0ebd 2edc 493e
-0.18245994 -0.049767986 -0.15781707 0.051158383 -0.08091694 0.039809808 -0.07814233 -0.113782875
-0.10163416 -0.1370491 0.12993413 -0.123585254 -0.18837206 -0.030449748 0.003905573 0.12703891
-0.015579837 -0.076710515 -0.123932354 -0.1370351 -0.1434921 0.13250743 -0.09577662 -0.30931744
0.04673476 -0.008252155 0.09041433 0.10385558 -0.049881436 -0.11976035 -0.066190496 -0.31029618
0.07927007 -0.12314414 0.022178687 -0.14968432 0.050719596 0.014896254 0.2027841 -0.11113381
-0.105363786 -0.06945456 0.101040244 0.22998144 0.19598135 0.12576616 0.16756976 -0.12744339
0.21335213 0.015574329 -0.13652176 -0.07300398 -0.011259688 0.0074357637 0.10269179 0.16980119
-2.0863228 -0.5355959 -0.28029814 0.13771412 -0.07715859 0.08165667 0.122973554 0.067340024
-0.012950836 0.024880394 -0.044000152 0.23291947 -0.17900711 -0.0759682 0.19326875 0.18369615
0.110655695 0.23014955 0.076466724 0.0938845 -0.12411204 -0.15836264 -0.0743673 -0.075595856
0.1261007 0.16506359 0.09432745 0.026657527 -0.047246665 -0.017642306 0.03319001 -0.07154805
0.29227433 -0.12208094 0.14296554 -0.15897368 -0.121685944 0.07515538 -0.034714732 0.19712898

fc.6.bias f4 [3]
00000000: d556 ddbd 5d4e 8b3e df8f d83d
-0.108075775 0.27208224 0.10574316
