Genetic_Models/dino_genetic_model19.pth (torch, 184558 bytes, 10 tensors)

fc.0.weight f4 [256, 6]
0.028633397 0.1036176 -0.57557446 -0.038761675 -4.9190874 -4.1264915 -0.33418867 0.25075966
-0.6281256 -0.01814044 1.6747874 -1.3374392 -0.33583802 -0.10172788 -0.44480908 0.27193886
0.1822003 -0.9532741 -0.39001933 -0.20034188 0.31076118 0.3152942 2.4622223 -0.75474775
-0.030608507 -0.15184785 0.49511042 0.105770275 -0.1459359 -1.9575391 -0.2744843 0.09830656
-0.28245008 -0.1820826 -0.20714483 -0.01489469 -0.19026372 0.050724655 0.53572375 -0.009604526
0.39295912 -0.97767985 0.28778273 -0.11963255 0.37893438 -0.22912878 3.4872677 2.530425
0.2575741 0.06459207 -0.12458125 -0.08954198 1.0364242 -1.9320897 -0.19554688 -0.51465577
-0.12779087 0.281647 -0.10346803 1.0733684 -0.07815586 -0.012351202 0.09723272 0.016917337
-2.3154051 -2.9127445 -0.34033373 -0.1433101 -0.6198491 0.18938942 3.7754366 2.1153572
0.25700697 -0.25692368 -0.89041525 0.08757156 2.3567858 -0.7662649 -0.5749222 0.26151544
0.19303705 0.023330102 -1.7516959 1.9915435 -0.10662683 0.04342149 -0.54885334 0.061945364
-0.6884353 -1.8024719 0.23272912 -0.23580424 0.31113592 -0.22148518 -0.38053116 0.0012835274
-0.21072303 -0.1713267 -0.14362617 -0.0196037 0.26226062 0.07054908 -0.57331336 0.20534769
-0.3981442 0.00833321 -1.2728142 0.1894822 0.001572569 0.12759085 -0.38501504 -0.037585605
-0.26924905 -1.1773828 0.17674859 0.17839026 -0.4173383 -0.15630265 0.9466323 -1.2856131
0.33809194 -0.3034134 -0.64093715 -0.15938482 4.5032907 3.661091 -0.078882314 0.13787062
0.024271604 -0.05093333 3.676774 3.8218026 0.10741025 0.25314307 0.20696707 -0.21942192
-0.27957556 -2.7189615 0.40603483 0.049974103 -0.42644042 -0.41250223 -0.86220735 -2.844027
0.08865021 -0.051941566 0.15882163 -0.3096903 -0.32346603 -0.25969523 -0.2953765 -0.2173503
-0.015558282 -0.22910105 0.16449727 0.23017597 -0.16887628 -0.07437286 0.079327725 -0.22892664
0.17474827 0.16274446 0.07011096 0.08090589 -0.081697576 -0.113016464 4.812515 4.7939324
-0.21594046 0.4145461 -0.17378703 -0.16526544 -0.22836615 -1.5846943 0.08307117 0.2570429
-0.43701258 -0.19599144 2.029309 -0.7776214 -0.00856223 -0.3250547 -0.08551163 -0.25126618
-0.059992135 0.14448847 -0.04143411 0.26331362 0.14158289 -0.11611289 1.1748806 -1.8648
0.04341867 -0.07807352 -0.3504482 -0.3141028 -0.31656078 0.05907349 -0.33711985 0.13869914
-0.465732 0.08135922 0.35654402 -1.4009533 -0.058091495 0.08623094 -0.8821393 0.043907072
0.39408046 -0.70519036 -0.059322283 -0.33664837 -0.8708566 0.21163632 -0.24984163 2.091864
0.028307136 0.11495121 -0.6730628 -0.026898595 -0.112580895 -1.5054506 -0.2508562 -0.23501931
0.2887266 -0.03802915 0.19306283 -0.3013438 0.21806176 -0.46621257 0.1528097 0.17724174
0.50981456 -2.5752501 -0.35048375 0.2817031 0.0692056 -0.023930185 -2.0573552 1.7344351
-0.23784456 0.07757358 0.6474152 0.014015645 0.27454832 -1.7361076 -0.05176831 0.03836266
-0.37562886 -0.13759072 -0.13529487 -0.30981863 -0.19170809 -0.42878437 -0.38610703 0.22546452
00000000: 9690 ea3c 7735 d43d d958 13bf 90c4 1ebd
00000010: 2a69 9dc0 380c 84c0 c71a abbe 9263 803e
00000020: d7cc 20bf 439b 94bc 6f5f d63f 3531 abbf
00000030: f6f2 abbe b556 d0bd 04be e3be 923b 8b3e
00000040: b792 3a3e c509 74bf 9db0 c7be 6c26 4dbe
00000050: 171c 9f3e 3e6e a13e 0d95 1d40 2637 41bf
00000060: b1be fabc 017e 1bbe 1d7f fd3e 169e d83d
00000070: 3870 15be a490 fabf 3589 8cbe f354 c93d
00000080: 4c9d 90be dc73 3abe c61d 54be dc08 74bc
00000090: 7ed4 42be a8c4 4f3d 3125 093f 4d5c 1dbc
000000a0: f031 c93e 3a49 7abf 4258 933e e901 f5bd
000000b0: b003 c23e bca0 6abe 652f 5f40 7cf2 2140
000000c0: c1e0 833e d948 843d 7424 ffbd c961 b7bd
000000d0: 8ca9 843f b74e f7bf 713d 48be 7bc0 03bf
000000e0: 9cdb 02be 0934 903e 0ce7 d3bd 2364 893f
000000f0: 2e10 a0bd b25c 4abc f321 c73d 3a96 8a3c
00000100: 992f 14c0 686a 3ac0 3940 aebe e2bf 12be
00000110: 6eae 1ebf 4def 413e c1a0 7140 0362 0740
00000120: 6b96 833e 808b 83be 41f2 63bf b858 b33d
00000130: 94d5 1640 f029 44bf 1a2e 13bf 5ae5 853e
00000140: 81ab 453e c51e bf3c 9237 e0bf e6ea fe3f
00000150: 2b5f dabd bbda 313d a781 0cbf 6cba 7d3d
00000160: 4c3d 30bf 66b7 e6bf 8b50 6e3e ab76 71be
00000170: 354d 9f3e 03cd 62be fbd4 c2be 083c a83a
00000180: c7c7 57be 4470 2fbe bd12 13be f097 a0bc
00000190: 0647 863e 097c 903d aac4 12bf aa46 523e
000001a0: 8ed9 cbbe 0488 083c 93eb a2bf 9f07 423e
000001b0: a91e ce3a 2da7 023e b120 c5be 5df3 19bd
000001c0: 03db 89be 7bb4 96bf 95fd 343e f0ab 363e
000001d0: 5ead d5be cd0d 20be 7f56 723f f88e a4bf
000001e0: 631a ad3e 0059 9bbe 7514 24bf c635 23be
000001f0: f51a 9040 514f 6a40 0d8d a1bd f52d 0d3e
00000200: 3ed5 c63c 789f 50bd 4450 6b40 6a98 7440
00000210: e8f9 db3d f89b 813e 2def 533e 24b0 60be
00000220: 8724 8fbe 7703 2ec0 cce3 cf3e a5b1 4c3d
00000230: 6656 dabe 7e33 d3be 9fb9 5cbf 8a04 36c0
00000240: 3e8e b53d aec0 54bd 23a2 223e ba8f 9ebe
00000250: 579d a5be c6f6 84be 973b 97be 1491 5ebe
00000260: 2ae8 7ebc 7799 6abe f971 283e 40b3 6b3e
00000270: e7ed 2cbe cc50 98bd 9376 a23d bf6b 6abe
00000280: 36f1 323e 7ca6 263e 5696 8f3d fdb1 a53d
00000290: 0f51 a7bd 2d75 e7bd 1f00 9a40 e567 9940
000002a0: 7f1f 5dbe 633f d43e 3af5 31be 583b 29be
000002b0: d1d8 69be 43d7 cabf 3821 aa3d 219b 833e
000002c0: 1dc0 dfbe fbb1 48be 33e0 0140 3212 47bf
000002d0: 9848 0cbc 926d a6be b920 afbd f6a5 80be
000002e0: 50ba 75bd c9f4 133e d0b6 29bd 0bd1 863e
000002f0: 1bfb 103e 98cc edbd 7d62 963f c4b1 eebf
00000300: c6d7 313d 02e5 9fbd f26d b3be 15d2 a0be
00000310: 4114 a2be 0bf7 713d f99a acbe 2607 0e3e
00000320: 6d74 eebe aa9f a63d f08c b63e 7052 b3bf
00000330: 59f1 6dbd d999 b03d e2d3 61bf e7d7 333d
00000340: eac4 c93e 5b87 34bf ecfb 72bd 2d5d acbe
00000350: 75f0 5ebf 31b7 583e 7cd6 7fbe 1ae1 0540
00000360: 5ee4 e73c 8a6b eb3d d84d 2cbf 715a dcbc
00000370: d090 e6bd 9bb2 c0bf 3970 80be e7a8 70be
00000380: f9d3 933e 74c4 1bbd 43b2 453e bc49 9abe
00000390: 954b 5f3e 6ab3 eebe 257a 1c3e dc7e 353e
000003a0: 3583 023f e6d0 24c0 9b72 b3be 643b 903e
000003b0: aabb 8d3d 3c09 c4bc b5ab 03c0 f801 de3f
000003c0: 868d 73be e6de 9e3d 01bd 253f e0a1 653c
000003d0: 9991 8c3e c638 debf 020b 54bd 2a22 1d3d
000003e0: 6d52 c0be 95e4 0cbe bd8a 0abe 8ca0 9ebe
000003f0: 204f 44be a089 dbbe d2af c5be 2ce0 663e

fc.0.bias f4 [256]
-0.6686411 -0.24486488 0.13104007 0.06523856 -0.5079997 0.3602847 -0.10817977 -0.0663724
-0.16732083 -0.18458825 -0.64371866 -0.46984574 -0.08343189 0.575613 -0.6020286 -0.3040537
0.3796635 0.1116965 -0.25605902 -0.03774356 0.29458645 -0.40982488 -0.10918133 -0.34048337
0.1392004 0.23771578 -0.23742013 -0.04010523 -0.17806505 -0.24392012 0.3380974 -0.50123954
0.060822602 -0.6422782 -0.28085047 -0.47842577 -0.17021118 -0.2778612 0.116639555 -0.15024629
0.015910916 -0.24320497 -0.16182151 -0.7916995 0.40064418 -0.5465221 -0.87460595 0.09187955
0.107553616 0.22766921 0.11828302 0.21388698 -0.4950132 -0.16228625 0.0041442867 -0.38698763
-0.3816964 0.048326388 -0.00018928014 -0.074593514 -0.1239392 0.29157546 0.17594142 -0.42088678
0.2345195 -0.19144286 -0.14831276 0.34349346 -0.08040167 -0.41784558 0.16491738 -0.31148577
-0.22115377 0.18044353 0.31835148 -0.3953268 -0.19398348 0.021531891 -0.4048052 -0.44882876
-0.030912602 -0.39035982 -0.37373036 0.41527498 -0.24631211 -0.59629864 0.60732865 -0.38082597
-0.53552485 0.35328177 -0.41158143 0.43347126 0.22257063 0.011693498 -0.13585073 -0.021885492
-0.08702909 -0.2018735 -0.56164557 0.009532927 0.020780036 0.19334616 -0.41215366 0.26315588
-0.37879032 -0.10009848 0.23871043 -0.103280544 0.13228068 -0.49251723 0.09010617 0.34641084
-0.26277822 0.8354255 0.13622046 -0.3130491 -0.3102469 -0.14873083 0.044706486 0.3694714
-0.14203815 -0.44856218 -0.020671722 0.2881076 0.7063136 0.06582486 0.36945003 -0.023398262
-0.048679616 0.082939506 -0.5931744 -0.21274406 -0.2905423 -0.29405335 0.638583 -0.62856233
0.33167982 -0.6066887 0.36738014 -0.39890635 -0.6647703 -0.3775899 -0.07333298 0.54673284
-0.5958995 0.02856985 0.40642187 0.39183462 0.5834678 0.32161012 0.14462402 0.04516071
-0.014135476 -0.20137937 0.05729886 0.23511885 -0.2509152 -0.013209254 0.03155535 -0.009080363
0.0327973 -0.32827085 0.32091573 -0.29245555 -0.12753336 -0.16119657 -0.7902487 -0.5733678
-0.0914098 0.3134005 0.29084662 -0.012765563 -0.46237344 0.078145586 -0.50792706 0.6965153
0.38021624 0.2581572 -0.14312795 -0.52789 -0.84990406 -0.4919778 0.24443194 -0.41446298
-0.11125422 -0.011886377 0.15719531 0.20545426 -0.4289627 -0.0011388022 0.04086399 -0.14703935
-0.20381196 -0.50741327 0.3450798 0.22226341 0.1315654 0.124358766 0.24142022 -0.35350376
0.26813376 -0.5162686 -0.62277204 0.107635744 0.061660025 -0.06410607 -0.37192735 0.28035423
0.062834315 -0.587076 0.19413637 0.09726751 -0.14522336 -0.35591763 0.20868011 -0.5840466
-0.68246895 -0.504476 -0.50114733 -0.31285208 -0.481569 0.2668429 -0.20445278 0.111722685
0.06741345 0.53313136 0.3882147 -0.045457244 0.2609431 -0.27443916 -0.28149956 -0.031247372
-0.36229795 -0.34409574 -0.23478454 0.21792948 -0.05221635 -0.21490954 -0.38822314 -0.029810982
-0.16603729 -0.08424661 -0.20972085 -0.31652644 0.06354519 0.30291784 -0.05449771 -0.12810299
-0.15251976 0.36740342 -0.3834623 0.2557201 -0.26173002 0.17307812 -0.19947864 -0.5013916
00000000: 102c 2bbf dcbd 7abe 5e2f 063e cb9b 853d
00000010: 450c 02bf 3c77 b83e 5b8d ddbd 41ee 87bd
00000020: 2756 2bbe b404 3dbe bfca 24bf 9f8f f0be
00000030: 57de aabd 605b 133f 8c1e 1abf edac 9bbe
00000040: 4163 c23e 22c1 e43d 2b1a 83be fe98 1abd
00000050: 09d4 963e 91d4 d1be 769a dfbd d653 aebe
00000060: 8d8a 0e3e c46b 733e 431e 73be 6245 24bd
00000070: af56 36be 32c6 79be 1a1b ad3e 3c51 00bf
00000080: 1f21 793d 586c 24bf a2cb 8fbe 39f4 f4be
00000090: d74b 2ebe d343 8ebe b8e0 ee3d 2ada 19be
000000a0: 9c57 823c b90a 79be 8ab4 25be d2ac 4abf
000000b0: 3c21 cd3e dfe8 0bbf 2de6 5fbf 582b bc3d
000000c0: 1245 dc3d 1e22 693e 5e3e f23d 3005 5b3e
000000d0: 5f72 fdbe 5e2e 26be cccc 873b 3e23 c6be
000000e0: b66d c3be e4f1 453d 8079 46b9 7cc4 98bd
000000f0: d6d3 fdbd 6149 953e fd29 343e 797e d7be
00000100: e125 703e 9909 44be 4ddf 17be 60de af3e
00000110: a1a9 a4bd dbef d5be 1ae0 283e 107b 9fbe
00000120: 2276 62be 30c6 383e f7fe a23e 4668 cabe
00000130: 9ba3 46be a663 b03c a142 cfbe e2cc e5be
00000140: 6d3c fdbc 3edd c7be 9659 bfbe ec9e d43e
00000150: 3e39 7cbe 07a7 18bf e479 1b3f 9ffb c2be
00000160: 2818 09bf 59e1 b43e cdba d2be f2ef dd3e
00000170: 8ee9 633e 1696 3f3c 741c 0bbe 3449 b3bc
00000180: 4f3c b2bd edb7 4ebe 01c8 0fbf fe2f 1c3c
00000190: e53a aa3c 89fc 453e ce05 d3be 5ebc 863e
000001a0: cef0 c1be 6f00 cdbd 8270 743e c084 d3bd
000001b0: 9674 073e 382b fcbe 9589 b83d c35c b13e
000001c0: de8a 86be 72de 553f 607d 0b3e f947 a0be
000001d0: afd8 9ebe e54c 18be 261e 373d 5b2b bd3e
000001e0: 7372 11be f1a9 e5be be57 a9bc d782 933e
000001f0: f8d0 343f 2fcf 863d 8e28 bd3e b6ad bfbc
00000200: 4764 47bd 30dc a93d 47da 17bf 94d9 59be
00000210: f6c1 94be 298e 96be 2d7a 233f 76e9 20bf
00000220: f0d1 a93e f34f 1bbf 4019 bc3e 743d ccbe
00000230: 632e 2abf 7753 c1be 9a2f 96bd aff6 0b3f
00000240: df8c 18bf 510b ea3c 8716 d03e 8c9e c83e
00000250: 255e 153f 15aa a43e 5218 143e 70fa 383d
00000260: 7c98 67bc 6536 4ebe 36b2 6a3d ffc2 703e
00000270: f577 80be a06b 58bc 2f40 013d cec5 14bc
00000280: 7656 063d 1e13 a8be 114f a43e bcbc 95be
00000290: 1b98 02be b710 25be bd4d 4abf 3bc8 12bf
000002a0: 1035 bbbd 0876 a03e d9e9 943e a726 51bc
000002b0: 36bc ecbe cb0a a03d 8207 02bf d44e 323f
000002c0: b4ab c23e 2e2d 843e 2290 12be cd23 07bf
000002d0: 5093 59bf 84e4 fbbe 5e4c 7a3e 7e34 d4be
000002e0: 41d9 e3bd 14bf 42bc cff7 203e 9a62 523e
000002f0: 00a1 dbbe dc43 95ba 0061 273d 7c91 16be
00000300: 15b4 50be d6e5 01bf 4dae b03e 0599 633e
00000310: 15b9 063e cfaf fe3d dd36 773e 72fe b4be
00000320: d448 893e 2e2a 04bf fd6d 1fbf 2170 dc3d
00000330: 398f 7c3d 0b4a 83bd 436d bebe 978a 8f3e
00000340: 47af 803d 9d4a 16bf afcb 463e 3034 c73d
00000350: 6fb5 14be d63a b6be 3db0 553e 1484 15bf
00000360: 49b6 2ebf 5725 01bf 314b 00bf 262e a0be
00000370: 3690 f6be a29f 883e 125c 51be ddce e43d
00000380: 1010 8a3d 4c7b 083f 14c4 c63e 6031 3abd
00000390: 569a 853e 4a83 8cbe b620 90be 7dfa ffbc
000003a0: 1e7f b9be 512d b0be 5c6b 70be e828 5f3e
000003b0: d0e0 55bd 3f11 5cbe 2fc5 c6be 2936 f4bc
000003c0: ae05 2abe 7d89 acbd 10c1 56be c10f a2be
000003d0: fb23 823d 0c18 9b3e fe38 5fbd 6e2d 03be
000003e0: 242e 1cbe 4d1c bc3e 2c55 c4be bfed 823e
000003f0: 7a01 86be 643b 313e 2144 4cbe 335b 00bf

fc.3.weight f4 [128, 256]
0.1841653 0.19038048 -0.100617334 -0.12506287 -0.03989181 -0.011358567 0.034975342 -0.06706567
0.05769116 -0.028455742 0.058317237 -0.9212902 -0.01724629 0.114302106 0.057509564 -0.016729403
0.031277575 0.13276577 0.08465892 0.02773018 0.07893389 0.08448777 0.115448095 -0.0922973
0.05215578 0.0026689176 0.029161727 0.15182215 0.113192886 0.07756891 -0.06468067 0.10487661
0.018361237 0.016078357 0.010972119 -0.50821936 0.08367694 0.07651104 0.04591783 0.014085448
0.06278854 -0.032111503 -0.037852094 0.20507987 -0.06484647 -0.26575506 0.05563431 -0.058142792
-0.02575622 0.018173883 -0.097303405 0.039487615 -0.07636723 -0.10438735 0.0055390643 -0.04861881
-0.008593571 0.07245547 -0.032261755 0.040157795 0.17102815 -0.010498496 0.05083329 -0.02405208
-0.0699456 0.16437106 -0.052795485 -0.04803244 0.06314067 -0.2915329 -0.3008515 -0.0289495
-0.06300234 -0.27212867 0.053511586 0.030831542 0.060523234 0.054926116 -0.036854737 0.12304478
-0.015274786 0.008860073 0.027102845 -0.011395662 0.09010586 -0.29549062 0.10140665 0.031552613
-0.1087467 -0.12601477 0.037692595 -0.5510346 0.2251785 0.065960474 -0.11448067 -0.032044
0.08604039 0.020139283 0.08381124 0.1592937 -0.028199993 0.009907842 -0.032261763 0.00438377
0.17038698 0.009744259 -0.017448356 0.037442632 -0.40589973 -0.2958235 0.021217449 0.04306332
0.046923265 -0.850648 -0.020181112 0.009776421 -0.070406385 0.03751239 -0.011080739 -0.026327627
0.08965264 -0.062070798 -0.057454497 0.10734283 -0.61095816 0.21753275 0.013834396 -0.010353624
0.053553052 -0.008020787 0.044196773 0.050653275 0.048074227 -0.13360709 0.048610944 0.067765355
-0.60110784 0.1683134 -0.3448127 0.062053498 0.12393463 0.0023781136 -0.022184588 0.010688849
-0.14167897 0.0040824953 -0.09962435 -0.040064745 -0.1796937 -0.0042096246 -0.6607575 -0.4608192
0.010905564 0.08086555 0.018287644 0.0120596355 0.11258407 -0.22091009 0.027534572 -0.64459836
0.03680299 0.1371277 -0.05893886 -0.3689674 0.0581671 -0.49605793 0.021690555 -0.027173359
-0.03245624 -0.14064132 0.06755936 0.038096763 0.027977133 -0.019090585 -0.30297187 -0.5254048
-0.12943497 -0.05224208 0.06595794 0.052337583 0.25173095 0.22780001 -0.07062196 -0.007853511
0.06354623 -0.118797526 0.001104122 -0.06120327 0.10627957 0.037733994 0.059296407 -0.0013547232
-0.062693775 -0.06584663 -0.078879915 -0.039633192 0.029489692 0.006121777 -0.027949577 0.036433376
0.041883778 -0.078602135 0.042855427 -0.035882615 -0.007290586 -0.034332544 0.012716459 -0.023568705
-0.008717884 1.3372357 1.6843368 -0.020888705 -1.3520858 -0.13248263 0.023118995 0.0026013535
-0.02442149 0.028165223 -0.026263729 0.04122413 0.00068369135 -0.297523 0.0037492302 -1.3208323
-0.45560953 0.08669648 -0.03446491 -0.052593205 0.01803351 0.05533488 0.057207152 -0.047079362
-0.08435838 0.05675701 0.32506782 -0.02220573 0.0682062 0.023323733 -0.30710486 0.1579247
0.0069676437 0.06459271 -0.05690614 -0.019259106 -0.04539069 -0.047252044 0.038176917 -0.0033769696
0.043185912 0.033353645 -0.09619096 0.03472006 0.010700706 0.0489081 -0.029924486 0.002426316
00000000: d495 3c3e 1af3 423e 7610 cebd 7b10 00be
00000010: 9865 23bd 4819 3abc 4e42 0f3d ba59 89bd
00000020: 914d 6c3d 041c e9bc 0ede 6e3d add9 6bbf
00000030: 1748 8dbc 3917 ea3d 268f 6b3d 1a0c 89bc
00000040: ea1c 003d c0f3 073e a861 ad3d 672a e33c
00000050: 17a8 a13d ed07 ad3d 0d70 ec3d 5e06 bdbd
00000060: 4da1 553d 02e9 2e3b 93e4 ee3c 4477 1b3e
00000070: acd1 e73d 73dc 9e3d 4d77 84bd 8cc9 d63d
00000080: 4e6a 963c c2b6 833c 67c4 333c aa1a 02bf
00000090: d15e ab3d d2b1 9c3d 5614 3c3d a7c6 663c
000000a0: 4797 803d 5a87 03bd cc0a 1bbd 7500 523e
000000b0: 3ace 84bd 0c11 88be cde0 633d 2327 6ebd
000000c0: b5fe d2bc 65e1 943c 0247 c7bd c4bd 213d
000000d0: 6c66 9cbd 09c9 d5bd 0a81 b53b 8424 47bd
000000e0: 0dcc 0cbc 8963 943d e724 04bd 807c 243d
000000f0: 0122 2f3e e201 2cbc 9136 503d de08 c5bc
00000100: a43f 8fbd e350 283e 1440 58bd aabd 44bd
00000110: e54f 813d cd43 95be 3509 9abe 8027 edbc
00000120: 5f07 81bd 7354 8bbe f72e 5b3d 6e92 fc3c
00000130: 36e7 773d 35fa 603d fef4 16bd e7fe fb3d
00000140: 1943 7abc d729 113c c906 de3c dfb4 3abc
00000150: 6c89 b83d 8c4a 97be 4aae cf3d 503d 013d
00000160: 97b6 debd 040a 01be 8d63 1a3d 9b10 0dbf
00000170: 3195 663e 4916 873d d774 eabd 9240 03bd
00000180: f235 b03d 23fb a43c 3aa5 ab3d e31d 233e
00000190: ac03 e7bc 8054 223c e924 04bd baa5 8f3b
000001a0: ed79 2e3e 62a6 1f3c dbef 8ebc 725d 193d
000001b0: 17d2 cfbe 2e76 97be 37d0 ad3c 2a63 303d
000001c0: 9c32 403d 11c4 59bf dc52 a5bc 482d 203c
000001d0: 3931 90bd 98a6 193d fd8b 35bc 09ad d7bc
000001e0: ce9b b73d f33d 7ebd 6855 6bbd 8fd6 db3d
000001f0: c167 1cbf e8c0 5e3e aaa9 623c 3fa2 29bc
00000200: 725a 5b3d 9e69 03bc ad07 353d cf79 4f3d
00000210: 7be9 443d 4cd0 08be 451c 473d 90c8 8a3d
00000220: 34e2 19bf 595a 2c3e 4a8b b0be cf2b 7e3d
00000230: 70d1 fd3d 20da 1b3b 74bc b5bc 4820 2f3c
00000240: 4b14 11be 74c6 853b da07 ccbd ee1a 24bd
00000250: a001 38be e4f0 89bb 6727 29bf 7ff0 ebbe
00000260: 40ad 323c d69c a53d f8cf 953c c795 453c
00000270: 7a92 e63d 4136 62be 2f90 e13c 6604 25bf
00000280: bbbe 163d 346b 0c3e e069 71bd 4ce9 bcbe
00000290: a040 6e3d 4efb fdbe 64b0 b13c aa9a debc
000002a0: d6f0 04bd 4704 10be 905c 8a3d 5a0b 1c3d
000002b0: 4d30 e53c dc63 9cbc 211f 9bbe ee80 06bf
000002c0: 9a8a 04be cbfb 55bd f514 873d ef5f 563d
000002d0: e1e2 803e 6844 693e 3fa2 90bd 03ac 00bc
000002e0: 8724 823d 1e4c f3bd 30b8 903a 48b0 7abd
000002f0: 1aa9 d93d f68e 1a3d cae0 723d f890 b1ba
00000300: 9865 80bd 99da 86bd cb8b a1bd 6a56 22bd
00000310: 5e94 f13c 3099 c83b 83f6 e4bc 2a3b 153d
00000320: 538e 2b3d 28fa a0bd 2c89 2f3d a6f9 12bd
00000330: dee5 eebb 48a0 0cbd b258 503c 2813 c1bc
00000340: 75d5 0ebc 8a2a ab3f 5998 d73f ca1e abbc
00000350: 2611 adbf 87a9 07be 0c64 bd3c 787b 2a3b
00000360: 940f c8bc c1ba e63c 0827 d7bc a2da 283d
00000370: c039 333a ef54 98be a5b5 753b 0811 a9bf
00000380: a745 e9be ed8d b13d 142b 0dbd f96b 57bd
00000390: 03bb 933c d4a6 623d 0c52 6a3d 4ad6 40bd
000003a0: 16c4 acbd 0a7a 683d 4a6f a63e cbe8 b5bc
000003b0: b1af 8b3d 6a11 bf3c d93c 9dbe 03b7 213e
000003c0: d550 e43b 2f49 843d 6a16 69bd 46c5 9dbc
000003d0: 97eb 39bd 5c8b 41bd 665f 1c3d 2650 5dbb
000003e0: b6e3 303d d59d 083d c4ff c4bd 9f36 0e3d
000003f0: 0452 2f3c dc53 483d 3224 f5bc d402 1f3b

fc.3.bias f4 [128]
0.030423772 0.012456734 -0.052677564 0.23016608 -0.039372675 -0.029331379 0.007025549 -0.14912434
0.2898657 -0.018533 -0.062464356 0.017529149 -0.04279643 -0.0009832494 -0.062359117 -0.24178731
-0.005909646 0.18865299 -0.029439261 0.11176937 -0.061022155 0.2010754 -0.011963314 -0.07352444
0.010642538 0.2396029 -0.11470062 -0.005876081 0.244849 0.00206479 0.27986407 0.16156486
-0.4370634 -0.04636601 -0.052895714 0.32653275 0.019314922 0.018248469 -0.004075179 -0.117565654
-0.2622636 -0.30564684 0.40686372 -0.25761527 -0.22470078 -0.026429035 -0.012497399 0.35823104
-0.092240825 -0.010547749 -0.024334878 -0.019762954 -0.024067089 -0.079200394 0.0029469882 -0.09050691
0.22300388 -0.16341344 -0.029077053 -0.039246745 -0.09236893 -0.31316566 -0.053238172 -0.023667265
-0.06565552 0.0073883566 -0.00073880656 0.007395179 0.013661053 -0.034983616 -0.45455426 -0.10228917
-0.08417352 -0.01687005 0.009683818 0.016257335 -0.179756 0.008974532 -0.34767476 0.3892291
-0.050133724 -0.011111672 -0.4444431 0.0067363493 0.2662254 0.04997985 0.020125238 -0.00014265045
0.19691598 -0.10272775 -0.0047954386 0.008061805 -0.05388897 0.48212713 -0.00040269084 -0.11540829
-0.14796348 0.37714514 -0.12835729 0.010562933 0.12844087 0.12970518 -0.20209794 0.21072724
-0.014234598 0.031773444 -0.029300537 0.17722857 -0.009462691 -0.003614936 -0.051526148 0.49231744
0.29384413 -0.014384642 -0.004629625 -0.18601742 -0.025447547 0.018709566 -0.019769903 -0.096160024
0.44605738 -0.05153949 -0.010394283 -0.29538733 -0.09278293 -0.047416963 -0.059531804 -0.10539451
00000000: 463b f93c 5417 4c3c 6ec4 57bd a8b0 6b3e
00000010: 3e45 21bd 5c48 f0bc 9436 e63b 0db4 18be
00000020: 4769 943e 85d2 97bc a0da 7fbd 4a99 8f3c
00000030: 4f4b 2fbd 60e0 80ba 466c 7fbd 1897 77be
00000040: b4a5 c1bb 402e 413e 9b2a f1bc 57e7 e43d
00000050: 5ef2 79bd b6e6 4d3e c701 44bc fb93 96bd
00000060: 0a5e 2e3c 765a 753e 29e8 eabd 248c c0bb
00000070: b2b9 7a3e 6e51 073b 584a 8f3e 4271 253e
00000080: c6c6 dfbe 49ea 3dbd 2da9 58bd 4d2f a73e
00000090: 543a 9e3c d07d 953c 1489 85bb 43c6 f0bd
000000a0: 6a47 86be be7d 9cbe 7150 d03e 26e6 83be
000000b0: f617 66be b481 d8bc e4c1 4cbc 0f6a b73e
000000c0: c2e8 bcbd 77d0 2cbc f059 c7bc ebe5 a1bc
000000d0: 5828 c5bc d133 a2bd 4222 413b b05b b9bd
000000e0: 215b 643e da55 27be 0033 eebc 32c1 20bd
000000f0: ec2b bdbd 4057 a0be 4510 5abd dae1 c1bc
00000100: 6776 86bd 071a f23b 78ac 41ba 4253 f23b
00000110: 9cd2 5f3c fb4a 0fbd 56bb e8be fc7c d1bd
00000120: 2b63 acbd 0f33 8abc e0a8 1e3c 1a2e 853c
00000130: f511 38be ea09 133c 6d02 b2be 0949 c73e
00000140: 0559 4dbd bb0d 36bc 0c8e e3be 98bc dc3b
00000150: b24e 883e acb7 4c3d afdd a43c 7094 15b9
00000160: 58a4 493e ed62 d2bd 0e23 9dbb a915 043c
00000170: aeba 5cbd 5ed9 f63e 4020 d3b9 2e5b ecbd
00000180: bd83 17be 2b19 c13e 1870 03be 2710 2d3c
00000190: 0186 033e 6fd1 043e c3f2 4ebe e2c8 573e
000001a0: 3b38 69bc df24 023d ae07 f0bc 687b 353e
000001b0: 6709 1bbc 90e8 6cbb 150d 53bd 0811 fc3e
000001c0: bd72 963e 90ad 6bbc 1cb4 97bb 5a7b 3ebe
000001d0: 6077 d0bc ce44 993c 7ef4 a1bc 8cef c4bd
000001e0: a261 e43e 131b 53bd c84c 2abc 023d 97be
000001f0: fa04 bebd 4a38 42bd 9fd7 73bd 14d9 d7bd

fc.5.weight f4 [64, 128]
0.00029842617 0.04586571 -0.26426026 0.009004714 -0.02715838 0.034016136 0.06795213 -0.03594588
-0.08204101 -0.059654985 -0.0637586 0.046899244 0.06250474 0.06820938 -0.03661679 -0.018806994
0.047112696 -0.07021625 0.050861277 0.025291279 0.019397486 -0.0091616735 -0.020711256 -0.026579233
-0.044298485 0.014972673 -0.005451034 0.065104395 -0.0919911 0.02430598 0.052364662 -0.006185539
-0.046265997 -0.08047125 -0.056529332 0.09620168 0.048963886 -0.007985808 0.033061016 -0.050756883
0.036347795 -0.05866881 0.033470146 0.0073439823 -0.12414737 0.04006156 -0.049484067 -0.046737485
-0.003972751 -0.0014416762 0.007963808 0.09555792 -0.04084148 -0.029370636 -0.06842508 -0.009021551
-0.051939435 0.057323627 0.038043525 0.055133633 0.0141518405 0.030362757 -0.06936506 0.008851993
0.08398159 0.06510341 -0.06223028 -0.04654155 -0.0514 0.010264434 -0.026249513 0.050580114
-0.0461279 -0.05206547 -0.04895731 0.06285505 -0.04257892 -0.08673724 -0.14283508 0.04578396
0.02384255 0.023376836 -0.044016775 0.012728242 -0.012290146 -0.0314112 0.056403242 -0.018698538
-0.057822477 -0.043283727 -0.071482345 0.05489256 -0.056927107 -0.010810337 0.055337366 0.05680545
0.047249034 0.046400275 0.042936757 -0.04674131 0.023344599 -0.06067035 -0.05993952 0.022105848
0.029527374 -0.06520289 -0.062660135 0.04690731 -0.05151766 -0.058389604 0.011512738 -0.01907938
0.0003302577 -0.07256912 0.07084984 0.048855424 -0.013819362 0.0116 0.010317267 0.0362545
0.011563288 -0.061040163 0.041067485 -0.058722086 -0.0030831047 0.026358878 -0.022866938 0.01639975
-0.019800076 -0.027496357 0.042175356 -0.037803803 0.012554834 0.06565248 0.041339945 -0.028453149
0.060650818 0.071039476 -0.043851852 -0.07271486 -0.084538125 -0.043319218 -0.0837071 -0.02793855
-0.052716617 0.015466038 -0.040451564 -0.095476314 0.05291102 0.073742114 -0.051959254 0.035382457
0.05632292 -0.05916068 -0.011724316 0.051749744 -0.09195638 0.03162691 -0.035977483 -0.039137416
0.04246081 0.07271645 0.07653511 0.026143288 -0.046378672 -0.08688476 -0.051622394 -0.0041236253
-0.03822899 -0.0660877 -0.07059221 0.023567697 -0.011030239 -0.03757832 -0.0817971 -0.04211978
0.07795054 0.04794185 0.054971326 0.09062701 0.020788485 -0.07711745 0.021275276 -0.038843926
0.046334736 -0.06958915 0.010622621 0.04901534 -0.012118538 0.035932507 0.042997822 -0.030995319
0.008370396 0.017042223 0.07220696 -0.09413358 0.022303538 -0.022547651 -0.084110305 0.039692435
-0.036608715 0.06484117 -0.04125736 -0.050843485 0.011988836 0.008663775 -0.032006454 0.07918832
-0.031808086 -0.07673998 0.085767634 0.00829531 -0.03143035 0.015665341 0.004226167 0.06541128
-0.015440824 -0.067467324 -0.025706973 -0.059030958 0.01744063 -0.112216555 0.039717037 -0.044955544
-0.04950308 -0.08573881 -0.059804667 -0.04481958 -0.08519838 0.024937542 -0.109753236 0.036915127
-0.024655402 -0.064727195 -0.023104895 0.027215425 -0.09763886 0.043039132 -0.058310896 0.048582133
-0.08839619 0.014986264 0.03168632 -0.034621798 0.03751164 -0.07232107 0.062170357 0.031521365
-0.058015734 0.086558916 -0.068112515 -0.06365305 -0.05657142 0.07595042 0.09307419 0.03975915
00000000: 1576 9c39 afdd 3b3d 1f4d 87be 8288 133c
00000010: 407b debc 8154 0b3d 7d2a 8b3d fd3b 13bd
00000020: 1e05 a8bd c958 74bd de93 82bd 6c19 403d
00000030: 7c02 803d 5cb1 8b3d 7dfb 15bd 2011 9abc
00000040: 3ef9 403d 8acd 8fbd ea53 503d a82f cf3c
00000050: 7ae7 9e3c d81a 16bc a7aa a9bc b1bc d9bc
00000060: 5472 35bd f14f 753c 969e b2bb 7455 853d
00000070: d465 bcbd 561d c73c 547c 563d 10b0 cabb
00000080: 6a81 3dbd 1cce a4bd 4d8b 67bd 6305 c53d
00000090: 5b8e 483d e8d6 02bc fd6a 073d 73e6 4fbd
000000a0: 6de1 143d b54e 70bd fe17 093d caa5 f03b
000000b0: fa40 febd 9717 243d ceaf 4abd ce6f 3fbd
000000c0: da2d 82bb a0f6 bcba a27a 023c dfb3 c33d
000000d0: 6549 27bd b09a f0bc 7322 8cbd 21cf 13bc
000000e0: 72be 54bd 2ecc 6a3d 87d3 1b3d ced3 613d
000000f0: 1fdd 673c 51bb f83c 450f 8ebd f307 113c
00000100: 8afe ab3d f054 853d 2ee5 7ebd 5aa2 3ebd
00000110: ce88 52bd 282c 283c 3809 d7bc 182d 4f3d
00000120: 9cf0 3cbd 9a42 55bd 7687 48bd 26ba 803d
00000130: 3c67 2ebd 4ba3 b1bd 5c43 12be f687 3b3d
00000140: 7451 c33c c780 bf3c ef4a 34bd 1e8a 503c
00000150: 9c5c 49bc 08a9 00bd 1607 673d ad2d 99bc
00000160: 43d7 6cbd 474a 31bd 5665 92bd 05d7 603d
00000170: 662c 69bd d71d 31bc 6fa9 623d d5ac 683d
00000180: 3488 413d 370e 3e3d 74de 2f3d d173 3fbd
00000190: 2c3d bf3c 7981 78bd 2483 75bd 5317 b53c
000001a0: 64e3 f13c 1889 85bd f553 80bd e121 403d
000001b0: 2f04 53bd f029 6fbd ec9f 3c3c 5c4c 9cbc
000001c0: 7026 ad39 1e9f 94bd b919 913d a01c 483d
000001d0: 9b6a 62bc ed0d 3e3c c109 293c 997f 143d
000001e0: f273 3d3c 4005 7abd 6136 283d 9286 70bd
000001f0: ea0d 4abb 93ee d73c 7253 bbbc c558 863c
00000200: c533 a2bc 0a40 e1bc 11c0 2c3d 29d8 1abd
00000210: cab2 4d3c cf74 863d 1354 293d 9416 e9bc
00000220: fe6c 783d 257d 913d 009e 33bd 87eb 94bd
00000230: 5322 adbd 7e6f 31bd a16e abbd 63df e4bc
00000240: 61ed 57bd 4465 7d3c 8ab0 25bd 1689 c3bd
00000250: 3ab9 583d 1b06 973d 3ad3 54bd 32ed 103d
00000260: ddb2 663d 7852 72bd 5817 40bc 8af7 533d
00000270: a053 bcbd 388b 013d 205d 13bd 8e4e 20bd
00000280: 63eb 2d3d 5dec 943d 71be 9c3d 732a d63c
00000290: 90f7 3dbd a3f0 b1bd 0172 53bd 7a1f 87bb
000002a0: 0096 1cbd fd58 87bd a692 90bd 0b11 c13c
000002b0: 2db8 34bc b9eb 19bd 3d85 a7bd ca85 2cbd
000002c0: 88a4 9f3d ac5e 443d 9d29 613d a79a b93d
000002d0: 9d4c aa3c c1ef 9dbd 7d49 ae3c cf1a 1fbd
000002e0: 7ec9 3d3d c284 8ebd 800a 2e3c 4fc4 483d
000002f0: d58c 46bc f72d 133d 7c1e 303d e5e9 fdbc
00000300: fc23 093c 229c 8b3c 3ee1 933d 1bc9 c0bd
00000310: e9b5 b63c dab5 b8bc 0642 acbd 8994 223d
00000320: 05f3 15bd 73cb 843d 7afd 28bd 4241 50bd
00000330: d36c 443c 82f2 0d3c 3319 03bd 7c2d a23d
00000340: 3249 02bd da29 9dbd f1a6 af3d 0de9 073c
00000350: 1cbd 00bd 9a54 803c a97b 8a3b 59f6 853d
00000360: 83fb 7cbc 4f2c 8abd 6e97 d2bc 72ca 71bd
00000370: a7df 8e3c cbd1 e5bd 55ae 223d 4e23 38bd
00000380: bec3 4abd d497 afbd bdf5 74bd bc94 37bd
00000390: 7d7c aebd d149 cc3c 4ec6 e0bd 5134 173d
000003a0: 20fa c9bc b18f 84bd 7a46 bdbc e2f2 de3c
000003b0: e2f6 c7bd cd49 303d 68d7 6ebd 0ffe 463d
000003c0: 1009 b5bd f288 753c 84c9 013d 96cf 0dbd
000003d0: cea5 193d 121d 94bd 58a6 7e3d 8c1c 013d
000003e0: e8a1 6dbd cd45 b13d 937e 8bbd 885c 82bd
000003f0: 6fb7 67bd e58b 9b3d ae9d be3d 7eda 223d

fc.5.bias f4 [64]
0.07384843 0.06879641 -0.025680345 -0.05453739 0.008143314 -0.1949334 0.0723965 0.016180556
-0.010139988 -0.065606095 -0.11169242 0.18912107 -0.58265615 0.13231829 0.10653146 -0.114833154
-0.30477914 0.21727538 0.112741634 -0.064639054 -0.06112843 0.04991932 0.06573714 0.070854895
0.27269754 0.019809332 0.03483665 -0.1998511 0.22049062 -0.1195273 0.051071275 0.071784444
-0.19784302 -0.2154719 -0.01883707 0.6673615 -0.04649718 -0.024247617 -0.1798475 0.06562288
0.084340505 -0.07571135 -0.010336168 0.07317439 -0.12904917 0.21425328 0.3477908 0.03372133
0.07736545 0.026780255 -0.23938109 0.010311856 0.100494504 -0.23148674 -0.17725252 0.09917933
-0.9080048 -0.16692859 0.040197015 -0.03938062 -0.3866776 0.1885291 0.04968121 -0.036143754
00000000: d83d 973d 22e5 8c3d 965f d2bc 9962 5fbd
00000010: 896b 053c 9f9c 47be 9e44 943d 168d 843c
00000020: 3122 26bc 7d5c 86bd ffbe e4bd f4a8 413e
00000030: f428 15bf 727e 073e 2b2d da3d a52d ebbd
00000040: 030c 9cbe 707d 5e3e 16e5 e63d 7b61 84bd
00000050: ce61 7abd 3378 4c3d 32a1 863d 5f1c 913d
00000060: 039f 8b3e 2e47 a23c e0b0 0e3d c4a5 4cbe
00000070: 4bc8 613e bbca f4bd 1d30 513d b903 933d
00000080: 5c97 4abe aaa4 5cbe 3350 9abc 34d8 2a3f
00000090: d473 3ebd f0a2 c6bc f129 38be 4a65 863d
000000a0: b7ba ac3d 8d0e 9bbd 0859 29bc 74dc 953d
000000b0: 7725 04be 3665 5b3e a311 b23e 611f 0a3d
000000c0: c771 9e3d 4462 db3c 5120 75be 0ff3 283c
000000d0: 10d0 cd3d dc0a 6dbe af81 35be 881e cb3d
000000e0: 0173 68bf 54ef 2abe a0a5 243d 934d 21bd
000000f0: 9bfa c5be c60d 413e 867e 4b3d 790b 14bd

fc.7.weight f4 [32, 64]
-0.10199279 0.12941428 0.08260366 0.101542845 -0.013986945 0.017844554 0.02409599 -0.1296205
-0.060358793 0.12339408 -0.09692809 -0.08147006 0.09259464 -0.041521944 -0.06195793 -0.15553857
0.10159911 -0.1258637 -0.04751673 -0.081586644 0.07374358 -0.07634501 0.08009042 0.054467205
-0.078465804 0.08195217 0.08333267 -0.012766549 0.002059753 0.04268806 -0.11415437 0.0020366334
-0.065644346 0.0057908907 0.07729768 -0.047169004 -0.069383204 -0.046891607 0.07012308 -0.11912915
-0.064317726 0.07165536 -0.02680459 -0.05078895 -0.007973617 0.00089483056 -0.06255915 0.071126275
-0.04259545 0.11336583 -0.0443483 0.07171796 -0.07694191 -0.109709136 -0.036080334 -0.041616034
-0.07604231 -0.057077833 -0.14769803 0.021819191 -0.0135224415 0.12677923 -0.007957371 -0.07729152
-0.111346886 0.08059205 0.022229213 0.120398514 0.09689315 0.06589364 -0.11374509 0.055371504
0.026955688 -0.06145832 0.09530823 0.055902768 0.08269977 0.03519647 0.09862171 -0.043940734
0.117471576 -0.10240118 -0.16631153 0.09463327 0.107786335 0.5917925 0.14694557 0.041481726
-1.0592351 -0.009576387 0.10701492 0.0026947113 0.020176765 0.04898633 0.1324382 0.05847828
0.05325713 -0.08448646 0.025556287 0.050736718 0.032418992 -0.07157452 0.22274493 0.011329229
-0.030018993 -0.12015435 0.060128465 0.002934229 0.2994738 0.061368316 0.0022163764 -0.024515197
0.14680387 0.37658975 0.1323094 -0.11891448 -0.03523144 -0.086445674 0.021262344 -0.28088823
0.25266322 -0.260676 -0.16466765 -0.14027712 -0.25713626 -0.04780841 0.0957173 -0.027822722
-0.10272616 -0.09486565 0.10420429 0.092995696 0.0638976 -0.07495714 -0.11725239 0.10534316
-0.012502986 -0.109542415 0.046890907 -0.14748432 0.028007338 -0.0153720835 -0.036193907 0.075270146
0.069320306 0.00910577 -0.047106363 0.0931303 -0.0406674 0.115976244 -0.11346875 0.06939392
-0.008628829 0.11451624 0.0123604685 0.044532966 -0.17913857 0.014660776 0.06266272 0.046084814
-0.05150848 0.02464025 -0.008342509 -0.13996518 0.073810466 0.08387181 0.050773233 -0.091307834
0.04394345 0.086872816 -0.13195491 0.10812187 0.13250938 0.07431328 -0.0044045057 0.018745292
-0.059671175 -0.10878031 0.036100894 0.064038016 -0.13302696 -0.17509916 -0.030940663 0.08435945
0.06693179 -0.057049993 -0.14932808 0.07792696 0.05456573 -0.11676021 -0.016604912 -0.10690808
-0.09679995 -0.060527347 0.11442715 -0.032398067 0.097312115 -0.019023487 0.0958841 -0.03553629
0.06267944 -0.10917739 0.13412523 0.08784633 0.103416115 -0.0026507229 0.10453856 -0.109720334
0.1393361 -0.14094141 -0.14212373 0.015353717 0.15003417 -0.38841045 -0.011952171 -0.049482185
-0.15907337 0.12045518 -0.68416446 0.14852163 0.03700872 0.18381122 -0.05682598 -0.07652159
-0.10994532 0.0779211 -0.029652303 0.0120242685 -0.09266117 0.0648734 -0.18409744 0.10418826
-0.057194587 -0.080002524 0.0722516 0.11056861 0.5473734 0.099032715 0.037068192 -0.0057271845
-0.08647582 -0.10642472 0.0010776753 0.07391949 0.01778345 0.11824568 -0.008175352 0.14661835
0.18380594 -0.07571364 -0.2013545 -0.25145516 0.24511358 0.052001853 -0.0023608408 -0.105661415
00000000: 99e1 d0bd 2d85 043e 1c2c a93d b2f5 cf3d
00000010: 8029 65bc be2e 923c f464 c53c 3dbb 04be
00000020: c83a 77bd 09b6 fc3d 3c82 c6bd c6d9 a6bd
00000030: 42a2 bd3d ea12 2abd 99c7 7dbd 8145 1fbe
00000040: 3213 d03d 6ae2 00be e7a0 42bd e616 a7bd
00000050: e006 973d c65a 9cbd 7206 a43d 0119 5f3d
00000060: aeb2 a0bd 8ad6 a73d 52aa aa3d ca2a 51bc
00000070: ecfc 063b add9 2e3d c4c9 e9bd 0a79 053b
00000080: 8b70 86bd 83c1 bd3b 3f4e 9e3d 4934 41bd
00000090: c818 8ebd 6a11 40bd b09c 8f3d fcf9 f3bd
000000a0: 03b9 83bd 0cc0 923d 4d95 dbbc 1308 50bd
000000b0: c6a3 02bc 1093 6a3a 031f 80bd a7aa 913d
000000c0: 9178 2ebd 582c e83d 90a6 35bd dee0 923d
000000d0: b893 9dbd 2faf e0bd f9c8 13bd 9375 2abd
000000e0: 12bc 9bbd 72ca 69bd 273e 17be 29be b23c
000000f0: 3b8d 5dbc 6ad2 013e a25f 02bc 044b 9ebd
00000100: d609 e4bd 720d a53d 0a1a b63c 7f93 f63d
00000110: ea6f c63d 3ff3 863d 30f3 e8bd 3bcd 623d
00000120: 2dd2 dc3c b8bb 7bbd f630 c33d 4dfa 643d
00000130: 7f5e a93d 2c2a 103d 2efa c93d 33fb 33bd
00000140: f094 f03d b6b7 d1bd 924d 2abe 16cf c13d
00000150: 15bf dc3d b77f 173f e678 163e bee8 293d
00000160: 0495 87bf 47e6 1cbc a32a db3d c199 303b
00000170: be49 a53c e4a5 483d e19d 073e ec86 6f3d
00000180: 2624 5a3d 3d07 adbd 6b5b d13c 4ed1 4f3d
00000190: c7c9 043d a995 92bd 3f17 643e 3b9e 393c
000001a0: 64ea f5bc 7c13 f6bd 4449 763d 324c 403b
000001b0: a154 993e 585d 7b3d a040 113b 18d4 c8bc
000001c0: c153 163e 5fd0 c03e 1e7c 073e 6f89 f3bd
000001d0: d84e 10bd 6e0a b1bd 5e2e ae3c 95d0 8fbe
000001e0: 135d 813e 5377 85be a39e 28be cea4 0fbe
000001f0: 5da7 83be c0d2 43bd 6f07 c43d 7aec e3bc
00000200: 1862 d2bd ec48 c2bd 0f69 d53d 8774 be3d
00000210: bfdc 823d 2183 99bd 0522 f0bd 28be d73d
00000220: 53d9 4cbc c657 e0bd ae10 403d 2106 17be
00000230: a56f e53c 31db 7bbc 1040 14bd 3c27 9a3d
00000240: cef7 8d3d 5e30 153c 9af2 40bd 19bb be3d
00000250: dc92 26bd f484 ed3d 4e62 e8bd 661e 8e3d
00000260: ef5f 0dbc 7e87 ea3d 9083 4a3c 3368 363d
00000270: 1a70 37be c033 703c 5055 803d 6ec3 3c3d
00000280: 8efa 52bd 59da c93c 05af 08bc 0853 0fbe
00000290: f129 973d fcc4 ab3d 98f7 4f3d 9aff babd
000002a0: 0cfe 333d 60ea b13d 301f 07be 006f dd3d
000002b0: 8ab0 073e 9031 983d ac53 90bb ba8f 993c
000002c0: c369 74bd 36c8 debd 88de 133d 5d26 833d
000002d0: 3838 08be 324d 33be 4677 fdbc a6c4 ac3d
000002e0: 8913 893d 41ad 69bd 76e9 18be 2c98 9f3d
000002f0: 5180 5f3d fa1f efbd 0607 88bc a0f2 dabd
00000300: 0d3f c6bd 86eb 77bd c858 ea3d d6b3 04bd
00000310: 934b c73d 25d7 9bbc e25e c43d 808e 11bd
00000320: 145e 803d 6598 dfbd 2058 093e c7e8 b33d
00000330: d4cb d33d c0b7 2dbb 5018 d63d 0eb5 e0bd
00000340: 1fae 0e3e f252 10be e288 11be 288e 7b3c
00000350: 8fa2 193e bcdd c6be 0ad3 43bc d5ad 4abd
00000360: 21e4 22be 35b1 f63d 6725 2fbf 0e16 183e
00000370: 7596 173d 0239 3c3e 5cc2 68bd 5ab7 9cbd
00000380: 032b e1bd 1995 9f3d 63e9 f2bc 7001 453c
00000390: 24c5 bdbd 58dc 843d 0a84 3cbe a860 d53d
000003a0: df44 6abd 5dd8 a3bd a6f8 933d cc71 e23d
000003b0: aa20 0c3f aad1 ca3d d1d4 173d 1bab bbbb
000003c0: 3c1a b1bd 34f5 d9bd c840 8d3a 1a63 973d
000003d0: 99ae 913c cb2a f23d e9f1 05bc 1f23 163e
000003e0: a037 3c3e c10f 9bbd e02f 4ebe bbbe 80be
000003f0: 0eff 7a3e e5ff 543d 56b8 1abb 0365 d8bd

fc.7.bias f4 [32]
-0.0024638493 0.03046494 0.013046414 0.04249488 0.09010224 -0.20838843 0.022556847 -0.4210101
-0.19847688 0.20814326 -0.24165638 -0.16093272 0.119965106 0.21014409 -0.16186848 -0.23597926
0.07158445 0.1354055 0.021353535 0.17875038 0.09634058 -0.09863881 -0.087413594 -0.071673475
0.060825616 -0.10619429 -0.16651593 0.11667011 0.21050262 -0.24617636 0.12982339 -0.11721888
00000000: 8878 21bb 9c91 f93c a0c0 553c 1c0f 2e3d
00000010: 8687 b83d c763 55be 23c9 b83c a38e d7be
00000020: 863d 4bbe 8223 553e c574 77be 8ccb 24be
00000030: 44b0 f53d 0330 573e dac0 25be 8ca4 71be
00000040: de9a 923d bda7 0a3e 9ced ae3c 570a 373e
00000050: 364e c53d 2503 cabd e605 b3bd 8bc9 92bd
00000060: 4824 793d 647c d9bd 2783 2abe bdf0 ee3d
00000070: 008e 573e a815 7cbe 6cf0 043e 7410 f0bd

fc.9.weight f4 [3, 32]
-0.18065178 -0.27848533 0.04924358 -0.5314853 0.16126278 0.29047662 0.16474247 0.58971876
0.08672617 0.14331631 0.016136799 -0.088327676 -0.8818202 -0.1573938 -0.066433035 0.9342213
0.19411789 -0.092754826 -0.022565056 -0.4010518 0.16199599 -0.14820889 0.14906253 -0.08360257
-0.082627214 -0.17776375 -0.045500472 -0.016949676 0.0012122188 0.15730731 0.12183527 0.47722998
0.14133814 0.0145481415 0.071820684 -0.07519996 0.051206715 -0.49374288 0.034049973 -0.18734777
-0.52423865 0.34183073 -1.0286672 0.13574938 0.09267043 0.13099438 -0.0852943 0.12869376
0.1194704 0.14106126 -0.055788755 -0.28869036 -0.29009336 -0.19086102 0.14858745 -0.031577285
-0.048023954 -0.17178924 0.029638372 0.10291631 0.34884712 -0.18679759 0.2417593 -0.01844136
-0.07983754 0.2830115 -0.16189761 0.21457367 -0.06438654 0.04949475 -0.09692815 -0.2745085
0.01515148 -0.19557935 0.14590502 -0.0014949678 0.03351954 0.13010874 0.25377113 0.0032678633
-0.07640833 0.05120299 0.14668986 0.37256208 0.22353895 0.13115443 0.12295645 0.06923858
0.035553828 0.3635157 -0.017127963 0.04191105 0.005060423 0.013710687 -0.15128851 -0.3719875
00000000: c8fc 38be a195 8ebe a3b3 493d 6c0f 08bf
00000010: 1222 253e 5ab9 943e 40b2 283e cff7 163f
00000020: 7d9d b13d 83c1 123e 5231 843c 24e5 b4bd
00000030: f8be 61bf d72b 21be 0b0e 88bd 2129 6f3f
00000040: d7c6 463e 3ef6 bdbd 5ada b8bc a956 cdbe
00000050: 47e2 253e 12c4 17be d9a3 183e d337 abbd
00000060: 7538 a9bd b307 36be b45e 3abd 0cda 8abc
00000070: 50e3 9e3a 2b15 213e c584 f93d 7d57 f43e
00000080: f2ba 103e 545b 6e3c b916 933d 7002 9abd
00000090: 22be 513d decb fcbe fc77 0b3d 18d8 3fbe
000000a0: 8134 06bf 7004 af3e 5eab 83bf e301 0b3e
000000b0: ffc9 bd3d 6423 063e c7ae aebd 4cc8 033e
000000c0: e6ac f43d 5d72 103e c082 64bd 39cf 93be
000000d0: 1e87 94be 1271 43be 4f27 183e 2f57 01bd
000000e0: c4b4 44bd 85e9 2fbe 2ccc f23c c9c5 d23d
000000f0: 179c b23e de47 3fbe c08f 773e 5612 97bc
00000100: dd81 a3bd e2e6 903e 7dc8 25be 33b9 5b3e
00000110: 17dd 83bd 02bb 4a3d 4482 c6bd 618c 8cbe
00000120: ea3d 783c f445 48be 2068 153e ccf2 c3ba
00000130: c94b 093d 3a3b 053e 4aee 813e a629 563b
00000140: f87b 9cbd 3aba 513d de35 163e 75c0 be3e
00000150: 65e7 643e 594d 063e 97d0 fb3d f5cc 8d3d
00000160: e4a0 113d bb1e ba3e f14f 8cbc ecaa 2b3d
00000170: e8d1 a53b caa2 603c 60eb 1abe 2575 bebe

fc.9.bias f4 [3]
-0.103886396 0.16709371 0.059203662
00000000: 64c2 d4bd 9d1a 2b3e 8a7f 723d
