Genetic_Models/dino_genetic_model8.pth (torch, 184544 bytes, 10 tensors)

fc.0.weight f4 [256, 6]
0	0x3c2fa8b5	0.010721375
1	0x3d9bdbd8	0.07610291
2	0xbf1b8625	-0.60751563
3	0xbc7b86c8	-0.015351959
4	0xc09d9687	-4.924625
5	0xc0846c2e	-4.1382055
6	0xbea80c12	-0.3282171
7	0x3e85c87a	0.26129514
8	0xbf20ccd7	-0.6281256
9	0xbc2b72ba	-0.010464365
10	0x3fd629d1	1.6731511
11	0xbfab3135	-1.3374392
12	0xbeae2e26	-0.34019583
13	0xbe093a94	-0.13401252
14	0xbef71123	-0.48255262
15	0x3e8336e2	0.2562781
16	0x3e366ac3	0.17814164
17	0xbf6e09cd	-0.92983705
18	0xbecc8cd5	-0.39951196
19	0xbe628153	-0.22119646
20	0x3e884c5b	0.26620755
21	0x3ea16e3e	0.3152942
22	0x401dd592	2.4661603
23	0xbf3f5ec4	-0.74753976
24	0xbcc5fe58	-0.024169132
25	0xbe00f96b	-0.12595145
26	0x3f05b45b	0.52228326
27	0x3e022f90	0.12713456
28	0xbe1c3884	-0.15255934
29	0xbff9f592	-1.9528067
30	0xbe9603e7	-0.29299852
31	0x3db5e114	0.08880821
32	0xbe920208	-0.28517175
33	0xbe2c86fe	-0.1684837
34	0xbe541dc6	-0.20714483
35	0xbc806058	-0.01567094
36	0xbe3cfc88	-0.18455708
37	0x3d48e867	0.04904976
38	0x3f0b43ce	0.54400337
39	0xbbf51bdc	-0.0074801277
40	0x3ec96cd7	0.3934085
41	0xbf7b4228	-0.9814782
42	0x3e9330f2	0.2874828
43	0xbe01b732	-0.1266754
44	0x3ebd864d	0.37016526
45	0xbe6aa0bc	-0.22912878
46	0x40601ec6	3.5018783
47	0x4021d200	2.5284424
48	0x3e890c75	0.26767316
49	0x3d5d3761	0.05400789
50	0xbdff2474	-0.12458125
51	0xbdb761c9	-0.08954198
52	0x3f84a98c	1.0364242
53	0xbff63729	-1.9235584
54	0xbe482d78	-0.19548595
55	0xbf03c07b	-0.51465577
56	0xbe06b244	-0.1315394
57	0x3e93d67d	0.2887458
58	0xbdda6ae5	-0.1066492
59	0x3f893210	1.0718403
60	0xbdb08f4d	-0.086210825
61	0x3bb508ec	0.005524745
62	0x3dbdf950	0.09276068
63	0x3c8a963a	0.016917337
64	0xc014008a	-2.312533
65	0xc03b5221	-2.9268878
66	0xbeb13254	-0.3460871
67	0xbe01afc6	-0.12664708
68	0xbf201ef5	-0.62547237
69	0x3e3cb1b4	0.18427163
70	0x4071eaa8	3.7799473
71	0x40076203	2.1153572
72	0x3e52f943	0.20602898
73	0xbe80c277	-0.25148365
74	0xbf640010	-0.89062595
75	0x3db358b8	0.08757156
76	0x4016ca81	2.3561099
77	0xbf4323e4	-0.7622664
78	0xbf158227	-0.5840172
79	0x3e85e55a	0.26151544
80	0x3e4abe15	0.19799073
81	0x3c05b42c	0.008160632
82	0xbfe21f51	-1.7665807
83	0x3ffeb283	1.9898227
84	0xbdda5f2b	-0.10662683
85	0x3d2d83f0	0.042362154
86	0xbf0872dd	-0.5330027
87	0x3d6c452c	0.057683155
88	0xbf2ddcb7	-0.6791491
89	0xbfe79bbd	-1.8094403
90	0x3e6ba7b4	0.23013192
91	0xbe837730	-0.2567687
92	0x3ea17343	0.3153325
93	0xbe4e0237	-0.20118032
94	0xbebaa35a	-0.36452752
95	0xbbfe4b40	-0.0077604353
96	0xbe57c7c7	-0.21072303
97	0xbe051809	-0.1299745
98	0xbe00023b	-0.12500851
99	0xbd0a9f4e	-0.03384333
100	0x3e8a2fc0	0.26989555
101	0x3d907c09	0.07054908
102	0xbf133f16	-0.57518137
103	0x3e55a4eb	0.20863692
104	0xbed07097	-0.407109
105	0x3ca7dcb9	0.020490991
106	0xbfa0a92b	-1.2551626
107	0x3e449672	0.19198015
108	0xbc56b5ce	-0.013104869
109	0x3e047754	0.12936145
110	0xbec0da01	-0.37666324
111	0xbd52cd19	-0.051465128
112	0xbe8f4e1f	-0.2798929
113	0xbf98dbd5	-1.1942087
114	0x3e387760	0.18014288
115	0x3e3576ac	0.17721051
116	0xbed5ad5e	-0.4173383
117	0xbe1c80ff	-0.15283583
118	0x3f70abaf	0.9401197
119	0xbfa5f955	-1.2966715
120	0x3ea71c81	0.32638934
121	0xbe97ff11	-0.29686788
122	0xbf201375	-0.6252969
123	0xbe1b3268	-0.15155947
124	0x408f781d	4.4834123
125	0x406ac735	3.6684086
126	0xbdb72707	-0.08942991
127	0x3e155f50	0.1458714
128	0x3cc6d53e	0.024271604
129	0xbd4b13af	-0.04957932
130	0x406aff65	3.671838
131	0x407325cc	3.799182
132	0x3ddbf9e8	0.10741025
133	0x3e759141	0.23981191
134	0x3e53ef2d	0.20696707
135	0xbe60b024	-0.21942192
136	0xbe9713a6	-0.29507178
137	0xc02e3d36	-2.722486
138	0x3ecfe3cc	0.40603483
139	0x3d29b8c7	0.041435983
140	0xbed69b96	-0.41915578
141	0xbece868c	-0.40337026
142	0xbf5eebca	-0.87078536
143	0xc036bb00	-2.8551636
144	0x3d9d6e0f	0.07687008
145	0xbd86d894	-0.06584278
146	0x3e22a223	0.15882163
147	0xbea1a1a3	-0.31568632
148	0xbea19e6c	-0.3156618
149	0xbe832a47	-0.25618193
150	0xbe973b97	-0.2953765
151	0xbe446f8e	-0.1918318
152	0xbc7ee82a	-0.015558282
153	0xbe6308d2	-0.22171333
154	0x3e149dd3	0.1451333
155	0x3e7a8d67	0.24468003
156	0xbe29868b	-0.1655523
157	0xbdbc1b82	-0.09184934
158	0x3d87a024	0.06622341
159	0xbe70ec50	-0.23527646
160	0x3e1c4d31	0.15263821
161	0x3e26a67c	0.16274446
162	0x3d8f9656	0.07011096
163	0x3d9ceeda	0.07662745
164	0xbda1ca50	-0.07899916
165	0xbe043e20	-0.12914324
166	0x409a0179	4.81268
167	0x4099cc6e	4.806205
168	0xbe5e231d	-0.21693082
169	0x3ed43f63	0.4145461
170	0xbe31f53a	-0.17378703
171	0xbe293b58	-0.16526544
172	0xbe6e4abe	-0.232707
173	0xbfcc4c5f	-1.5960807
174	0x3daa2138	0.08307117
175	0x3e813f3b	0.25243554
176	0xbedd404e	-0.43213123
177	0xbe308a9b	-0.17240374
178	0x4002b744	2.0424356
179	0xbf41004c	-0.7539108
180	0xbc167f00	-0.009185553
181	0xbeb34808	-0.35015893
182	0xbe09b688	-0.13448536
183	0xbe69b0d8	-0.22821367
184	0xbc56b779	-0.013105267
185	0x3e13f4c9	0.14448847
186	0xbd3e86a0	-0.046515107
187	0x3e883090	0.2659955
188	0x3e10fb1b	0.14158289
189	0xbdbc271c	-0.09187147
190	0x3f95f724	1.1716046
191	0xbff21e63	-1.8915523
192	0x3d17c9ca	0.037057675
193	0xbdad5ad7	-0.08464592
194	0xbeb77334	-0.3583008
195	0xbea0d215	-0.3141028
196	0xbea5f750	-0.32415247
197	0x3d8d17ca	0.06889303
198	0xbeb7c6c7	-0.35893843
199	0x3e0e0726	0.13869914
200	0xbf0029d2	-0.5006381
201	0x3db7dca1	0.089776285
202	0x3eb60675	0.355518
203	0xbfb279e3	-1.3943447
204	0xbd6df159	-0.058091495
205	0x3dca14e8	0.09867269
206	0xbf619c3d	-0.88129026
207	0x3d3a2516	0.045445524
208	0x3ed3b038	0.41345382
209	0xbf34875b	-0.70519036
210	0xbd85d9e2	-0.065356985
211	0xbeb071a2	-0.34461695
212	0xbf609347	-0.8772473
213	0x3e60185c	0.21884292
214	0xbe6d59cf	-0.2317879
215	0x4005cd28	2.0906467
216	0x3d09fe0c	0.033689544
217	0x3e064145	0.13110836
218	0xbf335879	-0.70056874
219	0xbcdc5a71	-0.026898595
220	0xbe09f06e	-0.13470623
221	0xbfbfcc62	-1.4984248
222	0xbe8244e0	-0.25443172
223	0xbe70a8e7	-0.23501931
224	0x3e98a344	0.29812062
225	0xbd55008a	-0.052002467
226	0x3e41af24	0.18914467
227	0xbe9a49bc	-0.3013438
228	0x3e46cb97	0.19413601
229	0xbef37a97	-0.47554466
230	0x3e1e6dfd	0.15471645
231	0x3e3cd9e2	0.1844249
232	0x3f028335	0.50981456
233	0xc0257113	-2.5850265
234	0xbea1d64e	-0.31608814
235	0x3e923cc4	0.28561985
236	0x3d8dbbaa	0.0692056
237	0xbcc4093c	-0.023930185
238	0xc002ea02	-2.0455327
239	0x3fde01f8	1.7344351
240	0xbe8703e4	-0.26370156
241	0x3d805f97	0.06268232
242	0x3f2d4c0f	0.6769418
243	0x3c65a1e0	0.014015645
244	0x3e8c9199	0.27454832
245	0xbfdfbda4	-1.7479749
246	0xbd6bc36c	-0.057559416
247	0x3cbad0b6	0.0228046
248	0xbeb7c7f1	-0.3589473
249	0xbe06152a	-0.13094011
250	0xbe0d5917	-0.13803516
251	0xbe9c739f	-0.30556962
252	0xbe444f20	-0.19170809
253	0xbedb89a0	-0.42878437
254	0xbec8e7fb	-0.39239487
255	0x3e60518d	0.21906109

fc.0.bias f4 [256]
0	0xbf2d6fe9	-0.67748886
1	0xbe6b3828	-0.2297064
2	0x3e062f5e	0.13104007
3	0x3d4a3649	0.049368177
4	0xbf0242e8	-0.5088334
5	0x3eb8773c	0.3602847
6	0xbdb7965e	-0.08964227
7	0xbd868a6a	-0.06569369
8	0xbe2b5627	-0.16732083
9	0xbe20a7f1	-0.15689065
10	0xbf251d1a	-0.6449753
11	0xbeec50a8	-0.46155286
12	0xbd732c8a	-0.059368648
13	0x3f135b60	0.575613
14	0xbf1a028c	-0.60160136
15	0xbe9baced	-0.3040537
16	0x3ec55dd5	0.3854815
17	0x3decdffe	0.115661606
18	0xbe80f94b	-0.25190195
19	0xbcd07ecb	-0.025451085
20	0x3e996069	0.29956368
21	0xbed5f816	-0.41790837
22	0xbdf10826	-0.11769132
23	0xbeae53d6	-0.34048337
24	0x3e17c8a8	0.14822638
25	0x3e839164	0.25696862
26	0xbe680217	-0.22657047
27	0xbd244562	-0.04010523
28	0xbe3656af	-0.17806505
29	0xbe6ae3fc	-0.22938532
30	0x3ea3d94d	0.32001725
31	0xbf0415af	-0.51595587
32	0x3d5e52af	0.054278072
33	0xbf246c58	-0.6422782
34	0xbe8112fd	-0.252098
35	0xbef50ed1	-0.47862867
36	0xbe2a1ef2	-0.16613367
37	0xbe8ed5a2	-0.27897364
38	0x3df2cff1	0.11856068
39	0xbe19da2a	-0.15024629
40	0x3c13140a	0.008976946
41	0xbe67fb0d	-0.22654362
42	0xbe2f0c73	-0.17094593
43	0xbf4aacd2	-0.7916995
44	0x3ecd213c	0.40064418
45	0xbf136cb1	-0.57587725
46	0xbf5ea93a	-0.8697697
47	0x3dbc2b58	0.09187955
48	0x3dce4c5d	0.10073159
49	0x3e6db58c	0.23213786
50	0x3ddefc68	0.108879864
51	0x3e5b0530	0.21388698
52	0xbef86a14	-0.4851843
53	0xbe38f440	-0.18061924
54	0x3bba0ac0	0.005677551
55	0xbecb42d4	-0.39699423
56	0xbecbf766	-0.39837188
57	0x3d57431b	0.05255423
58	0xbc1e7545	-0.009671514
59	0xbd8e21d8	-0.06940049
60	0xbe0197f6	-0.12655625
61	0x3e954961	0.29157546
62	0x3e30d474	0.17268544
63	0xbecdd392	-0.40200478
64	0x3e7025e1	0.2345195
65	0xbe2f7100	-0.1713295
66	0xbe185037	-0.1487435
67	0x3eafde60	0.34349346
68	0xbda4a9a1	-0.08040167
69	0xbed3c162	-0.41358477
70	0x3e39b4e5	0.18135412
71	0xbea6c12b	-0.3256925
72	0xbe627622	-0.22115377
73	0x3e52f451	0.20601012
74	0x3e97f7cc	0.29681242
75	0xbed3e831	-0.41388085
76	0xbe532bbf	-0.20622157
77	0x3cb063a6	0.021531891
78	0xbecf42a1	-0.4048052
79	0xbeec5812	-0.46160942
80	0xbccf6c70	-0.025320262
81	0xbec859ba	-0.39130956
82	0xbec995be	-0.39372057
83	0x3ed92954	0.42414343
84	0xbe5f27c8	-0.21792519
85	0xbf1a3e55	-0.6025136
86	0x3f1b064b	0.6055648
87	0xbebecb0b	-0.37264284
88	0xbf09c4ec	-0.53816104
89	0x3eb928fc	0.3616408
90	0xbed522da	-0.41628152
91	0x3eea8a7a	0.45808774
92	0x3e63e98e	0.22257063
93	0x3ce5d173	0.028053975
94	0xbe17beec	-0.14818925
95	0xbd235092	-0.03987176
96	0xbdb23c4f	-0.08702909
97	0xbe545463	-0.20735316
98	0xbf0d7278	-0.5525279
99	0x3c6ae2ee	0.014336331
100	0x3ca372b0	0.019952148
101	0x3e493bbc	0.19651693
102	0xbecf5586	-0.40494937
103	0x3e86bc5e	0.26315588
104	0xbec4edd8	-0.3846271
105	0xbdcd006f	-0.10009848
106	0x3e7d0e29	0.24712433
107	0xbdd384c0	-0.103280544
108	0x3de621c2	0.112369075
109	0xbefc6f91	-0.49303868
110	0x3db88995	0.09010617
111	0x3ea65924	0.32489884
112	0xbe83dccc	-0.25754392
113	0x3f55d396	0.8352598
114	0x3e067998	0.13132322
115	0xbea047f9	-0.3130491
116	0xbe99f196	-0.30067128
117	0xbe2b9db2	-0.16759375
118	0x3d12fe69	0.035887156
119	0x3ec1a484	0.37820828
120	0xbe175df5	-0.14781936
121	0xbee7c5a7	-0.45267984
122	0xbd1c371b	-0.03813849
123	0x3e920a64	0.28523552
124	0x3f4038f9	0.75086933
125	0x3d9120ce	0.07086335
126	0x3ebd288e	0.36945003
127	0xbc9bcdff	-0.019019125
128	0xbd803593	-0.062602185
129	0x3db0793d	0.08616874
130	0xbf18bb06	-0.59660375
131	0xbe54e40d	-0.2079012
132	0xbe94c1f6	-0.2905423
133	0xbe8c3dbf	-0.2739086
134	0x3f205e8a	0.62644255
135	0xbf235fa6	-0.6381782
136	0x3ea9d1f0	0.33167982
137	0xbf1526e1	-0.5826245
138	0x3ec8cc2a	0.39218265
139	0xbec88e4b	-0.3917106
140	0xbf2e0c8d	-0.679879
141	0xbec195b7	-0.37809536
142	0xbd808d66	-0.062769696
143	0x3f09eab0	0.5387373
144	0xbf121e95	-0.57077914
145	0x3cea0b51	0.02856985
146	0x3ed323a8	0.4123814
147	0x3ec89e8c	0.39183462
148	0x3f1872cc	0.59550166
149	0x3eacceb0	0.3375144
150	0x3e141852	0.14462402
151	0x3d8bd0de	0.06826948
152	0xbc81c413	-0.015840566
153	0xbe50edbe	-0.20403191
154	0x3d7a8c98	0.061169237
155	0x3e655672	0.22396258
156	0xbe7d1646	-0.24715528
157	0xbafa1105	-0.0019078559
158	0x3d01402f	0.03155535
159	0xbc10df16	-0.00884225
160	0x3d291e10	0.041288435
161	0xbea8131e	-0.32827085
162	0x3ea9d90e	0.33173412
163	0xbe931edc	-0.2873448
164	0xbe02981b	-0.12753336
165	0xbe358b18	-0.17728841
166	0xbf434106	-0.7627109
167	0xbf12c83b	-0.5733678
168	0xbdbb3510	-0.0914098
169	0x3ea590fb	0.32337174
170	0x3e929a40	0.28633308
171	0xbc854072	-0.016266081
172	0xbeecf2e5	-0.46279064
173	0x3dbbe40c	0.09174356
174	0xbf04dee6	-0.51902616
175	0x3f31da63	0.69473857
176	0x3eaf6cd6	0.34262723
177	0x3e89fcbd	0.26950637
178	0xbe1c99ee	-0.15293095
179	0xbf06b490	-0.52619267
180	0xbf57c8c3	-0.84290713
181	0xbef6f841	-0.48236278
182	0x3e781eba	0.24230471
183	0xbed2f313	-0.41201076
184	0xbde173fa	-0.11008449
185	0xba023f70	-0.00049685594
186	0x3e33c4e0	0.1755557
187	0x3e555c57	0.20836006
188	0xbedaf11d	-0.4276208
189	0xbcc5b724	-0.02413518
190	0x3cfdb856	0.030971687
191	0xbe0ba6c0	-0.13637829
192	0xbe50b415	-0.20381196
193	0xbf01e5d6	-0.50741327
194	0x3ea7ba2a	0.3275922
195	0x3e6000f9	0.21875371
196	0x3df8ffd3	0.121581696
197	0x3ddc5566	0.10758476
198	0x3e5b3834	0.21408159
199	0xbeafd37a	-0.3434103
200	0x3e8113e0	0.25210476
201	0xbf03f528	-0.51545954
202	0xbf1f6dfd	-0.62277204
203	0x3dc194c8	0.09452206
204	0x3d883c74	0.066521555
205	0xbd706628	-0.058691174
206	0xbebe6d43	-0.37192735
207	0x3e90f463	0.28311452
208	0x3d63cdfd	0.055616368
209	0xbf190d71	-0.59786135
210	0x3e4913d0	0.19636464
211	0x3de894b8	0.11356491
212	0xbe1dcedd	-0.15410943
213	0xbeba38e4	-0.3637153
214	0x3e55b03d	0.20868011
215	0xbf14b058	-0.5808158
216	0xbf2eb649	-0.68246895
217	0xbefbd137	-0.49183056
218	0xbefff9d6	-0.49995297
219	0xbea02e26	-0.31285208
220	0xbeef67d4	-0.46758902
221	0x3e864872	0.26227146
222	0xbe609659	-0.21932353
223	0x3dda48c3	0.106584094
224	0x3d812fe7	0.06307965
225	0x3f087b4c	0.53313136
226	0x3ec4d4b0	0.38443518
227	0xbcd9baf8	-0.026578411
228	0x3e86602e	0.26245254
229	0xbe924945	-0.28571525
230	0xbe90280b	-0.2815555
231	0xbd5f9e54	-0.054594353
232	0xbeb005c2	-0.34379393
233	0xbeb02d51	-0.34409574
234	0xbe4d97c6	-0.20077428
235	0x3e5df2a6	0.21674594
236	0xbd55e0d0	-0.05221635
237	0xbe6245de	-0.22096965
238	0xbec2393b	-0.37934288
239	0xbb35ba40	-0.0027729422
240	0xbe18dd0a	-0.1492807
241	0xbdac897d	-0.08424661
242	0xbe52887b	-0.20559876
243	0xbe9ce748	-0.30645204
244	0x3d879112	0.06619467
245	0x3e9b180c	0.30291784
246	0xbda75baf	-0.08171784
247	0xbe0e93a8	-0.13923514
248	0xbe214238	-0.15747917
249	0x3eade1b1	0.3396125
250	0xbec5b27d	-0.38612738
251	0x3e625240	0.22101688
252	0xbe86017a	-0.26173002
253	0x3e2b6302	0.16736987
254	0xbe4c4421	-0.19947864
255	0xbefecc9f	-0.49765489

fc.3.weight f4 [128, 256]
0	0x3e285387	0.16438113
1	0x3e46b7ad	0.19406004
2	0xbd949038	-0.0725407
3	0xbdfe1495	-0.124062695
4	0xbc9ca698	-0.019122407
5	0xbc4b6e90	-0.012416497
6	0x3cb7127c	0.022347681
7	0xbd8959ba	-0.06706567
8	0x3dcd106c	0.10012898
9	0xbd4ba1c0	-0.049714804
10	0x3c99c138	0.018768892
11	0xbf6b920a	-0.9201971
12	0xbd29395b	-0.041314464
13	0x3debbd0e	0.11510669
14	0x3d0f34c5	0.034962434
15	0xbcd11f6f	-0.025527684
16	0x3d471af4	0.04860969
17	0x3e1323bd	0.14369102
18	0x3d7269fe	0.059183113
19	0x3c4b92f2	0.012425171
20	0x3d897014	0.0671083
21	0x3d858e9d	0.06521342
22	0x3dfcfe03	0.123531364
23	0xbd6b2b05	-0.057414073
24	0x3d32761e	0.043569677
25	0x3b2ee902	0.0026689176
26	0x3cd0ee17	0.025504155
27	0x3e0dd3bc	0.13850302
28	0x3e01892f	0.12649988
29	0x3dddba8e	0.10826598
30	0xbd44165c	-0.047872886
31	0x3dd0b961	0.10191608
32	0x3d33c8f6	0.043892823
33	0x3c83b6c2	0.016078357
34	0xbb1b0338	-0.0023653042
35	0xbefb8ae8	-0.49129415
36	0x3d9f867a	0.07789321
37	0x3d726416	0.05917748
38	0x3c08beb6	0.00834625
39	0x3cbb7972	0.022885058
40	0x3d22c245	0.03973605
41	0xbd03875a	-0.032111503
42	0xbd62f7f0	-0.055412233
43	0x3e4ac2ae	0.19800827
44	0xbd1dd886	-0.03853657
45	0xbe7e9ed6	-0.24865279
46	0x3d5578e0	0.05211723
47	0xbd6e2723	-0.058142792
48	0xbcd2feb5	-0.02575622
49	0x3c8c28dc	0.017109327
50	0xbdb0187c	-0.0859842
51	0x3cace531	0.02110538
52	0xbd9c666c	-0.07636723
53	0xbdd2b22c	-0.1028789
54	0xbcc9af5a	-0.024619747
55	0xbd472484	-0.04861881
56	0xbc0ccc0d	-0.008593571
57	0x3d946389	0.07245547
58	0xbc8d3995	-0.017239371
59	0x3d247c80	0.040157795
60	0x3e2f6ac1	0.17130567
61	0xbd0a5c95	-0.0337797
62	0x3d7cccf1	0.061718885
63	0xbd0e2944	-0.034707323
64	0xbd8f3fa4	-0.0699456
65	0x3e0d71ca	0.13812938
66	0xbd527d74	-0.051389173
67	0xbcb59384	-0.022165067
68	0x3d98fee2	0.0747049
69	0xbe8a40e9	-0.27002648
70	0xbe9105f1	-0.28324845
71	0xbced2780	-0.0289495
72	0xbd8e494a	-0.069475725
73	0xbe87f92f	-0.265573
74	0x3d6b293c	0.05741237
75	0x3d13ecd6	0.036114536
76	0x3d9915ef	0.074748866
77	0x3d419057	0.047256794
78	0xbc9c778c	-0.019099973
79	0x3df2a61a	0.118480876
80	0xbbaf93b0	-0.005358182
81	0x3b00122c	0.0019542081
82	0x3ce77ba0	0.028257191
83	0xbc445ed0	-0.011985496
84	0x3db8896c	0.09010586
85	0xbe9bc91d	-0.30426875
86	0x3def2244	0.116764575
87	0x3d236a26	0.039896153
88	0xbdb70f79	-0.08938498
89	0xbdecbe9b	-0.115597926
90	0x3cbe6d03	0.02324534
91	0xbf0d109b	-0.5510346
92	0x3e6fd14e	0.23419687
93	0x3d89a0de	0.06720136
94	0xbdea74d7	-0.11448067
95	0xbc812b84	-0.01576782
96	0x3db756a3	0.089520715
97	0x3cd64cd0	0.026159674
98	0x3daba53a	0.08381124
99	0x3e11e939	0.14249124
100	0xbcbf2968	-0.023335174
101	0x3c225480	0.009907842
102	0xbd098482	-0.033573635
103	0xbadf332a	-0.0017028798
104	0x3e369f32	0.17834166
105	0x3d04891a	0.032357313
106	0xbbfd7ad0	-0.0077355877
107	0x3d026ecc	0.031843945
108	0xbecb44f0	-0.39701033
109	0xbe9a57e5	-0.30145183
110	0x3cadd037	0.021217449
111	0x3d1f663e	0.038915865
112	0x3d40329c	0.046923265
113	0xbf596868	-0.84924936
114	0xbd04165c	-0.032247886
115	0x3cce41eb	0.025177917
116	0xbd6059a2	-0.05477298
117	0x3d1351dd	0.035966743
118	0xbc841aa0	-0.016125977
119	0xbcd7ad09	-0.026327627
120	0x3d9e8f80	0.07742214
121	0xbd77c961	-0.060494784
122	0xbd4effb7	-0.050536837
123	0x3de885e1	0.113536604
124	0xbf1f84cd	-0.6231201
125	0x3e68d45c	0.22737259
126	0x3cf7b51c	0.030237727
127	0xbcba8a39	-0.022770988
128	0x3cf6823d	0.0300914
129	0x3cc65529	0.02421053
130	0x3d3507ad	0.044196773
131	0x3d2cd292	0.042193003
132	0x3d3418ae	0.04396885
133	0xbe14f554	-0.1454671
134	0x3d52e7ff	0.05149078
135	0x3d8ac890	0.067765355
136	0xbf18fa8a	-0.5975729
137	0x3e18a653	0.14907198
138	0xbeb06c25	-0.34457508
139	0x3d7e2bcf	0.062053498
140	0x3dfea3a3	0.12433555
141	0x3b1bda20	0.0023781136
142	0xbc7e1228	-0.0155072585
143	0x3c2f2048	0.010688849
144	0xbdec631f	-0.11542343
145	0x3c1c0a27	0.009523905
146	0xbdbebbf6	-0.093131945
147	0xbd583c85	-0.05279209
148	0xbe3801a0	-0.1796937
149	0xbd24e6f8	-0.04025933
150	0xbf2a8282	-0.6660539
151	0xbeebf07f	-0.4608192
152	0x3bef7010	0.00730706
153	0x3d98a73b	0.07453772
154	0x3c95cff8	0.018287644
155	0x3cbb7ad0	0.02288571
156	0x3db7fa1b	0.08983251
157	0xbe623641	-0.22091009
158	0x3cf54288	0.029938951
159	0xbf22b68f	-0.6355981
160	0x3cd96cb4	0.026541092
161	0x3e0c6b34	0.1371277
162	0xbd8afbcf	-0.0678631
163	0xbebd1c4c	-0.3693565
164	0x3d585a55	0.052820522
165	0xbefdfb4e	-0.49605793
166	0x3d1db15f	0.038499232
167	0xbcb91d10	-0.022596866
168	0xbd04f0d6	-0.03245624
169	0xbe09a209	-0.13440718
170	0x3d73ea40	0.05954957
171	0x3d68e532	0.056859203
172	0x3d2ab4d3	0.041676354
173	0xbc9c63dc	-0.019090585
174	0xbeaae7a7	-0.33379862
175	0xbf0ca80d	-0.54943925
176	0xbe048a9a	-0.12943497
177	0xbd3cfa80	-0.046137333
178	0x3daaecac	0.08345923
179	0x3d771203	0.06031991
180	0x3e8391c5	0.2569715
181	0x3e694468	0.22780001
182	0xbd7e704c	-0.062118813
183	0xbc00ac03	-0.007853511
184	0x3d76ef6e	0.06028693
185	0xbdcbd5d5	-0.099528946
186	0x3c40c030	0.011764571
187	0xbd7ab048	-0.06120327
188	0x3dd9383e	0.106064305
189	0x3d10198c	0.035180613
190	0x3da41c58	0.08013219
191	0x3be332a2	0.006933526
192	0xbd71048c	-0.058842227
193	0xbd86da99	-0.06584663
194	0xbd9f06e9	-0.0776499
195	0xbd22566a	-0.039633192
196	0x3d44de25	0.048063416
197	0x3c899264	0.016793437
198	0xbcddc730	-0.027072519
199	0x3d153b2a	0.036433376
200	0x3d376ffa	0.044784524
201	0xbda916d6	-0.08256309
202	0x3cf0a0f6	0.029373627
203	0xbd12f9a6	-0.035882615
204	0xbbeee5de	-0.007290586
205	0xbd913447	-0.07090049
206	0x3c5058b2	0.012716459
207	0xbc983a50	-0.018582493
208	0xbc0ed575	-0.008717884
209	0x3fa97f41	1.324196
210	0x3fd9b1dc	1.7007403
211	0xbccf7e7e	-0.02532887
212	0xbfad1126	-1.3520858
213	0xbe0f188f	-0.13974212
214	0x3b97749d	0.0046220557
215	0xb9b90604	-0.00035290432
216	0xbc989361	-0.018624963
217	0x3d29185f	0.041283008
218	0xbca177e1	-0.019710483
219	0x3d4c6952	0.04990513
220	0x3cb6859e	0.02228051
221	0xbea2085a	-0.31646997
222	0x3d126214	0.035738066
223	0xbfa8acb8	-1.317771
224	0xbee4a7ac	-0.44659173
225	0x3da23add	0.079213835
226	0xbd15281c	-0.036415204
227	0xbd46bf4d	-0.048522282
228	0x3a9acf80	0.0011811107
229	0x3d62a6d4	0.05533488
230	0x3d6a520c	0.057207152
231	0xbcce1ee4	-0.025161214
232	0xbda6c1b8	-0.08142418
233	0x3d7798d9	0.0604485
234	0x3ea7fffa	0.32812482
235	0xbcbd809e	-0.023132619
236	0x3d8bafb1	0.0682062
237	0x3c882431	0.01661882
238	0xbe9c65c5	-0.30546394
239	0x3e20af97	0.15691982
240	0xbc49d4c4	-0.012318794
241	0x3d916242	0.07098819
242	0xbd305c66	-0.043056868
243	0xbcca9558	-0.024729416
244	0xbd1531a7	-0.036424305
245	0xbd38868b	-0.045050185
246	0x3d6514dc	0.055928096
247	0xbc8a24ae	-0.016863193
248	0x3d57a86e	0.05265086
249	0x3d03d88b	0.032188933
250	0xbdc4ffc4	-0.09619096
251	0x3d46e4a2	0.048557885
252	0x3cd90e85	0.026496181
253	0x3d72e7eb	0.059303205
254	0xbd0c8cce	-0.03431397
255	0xbc229ebe	-0.009925542

fc.3.bias f4 [128]
0	0x3d477dd6	0.04870399
1	0x3b362da2	0.0027798195
2	0xbd57c46e	-0.052677564
3	0x3e70ca35	0.23514636
4	0xbd5ce6ca	-0.053931035
5	0xbcf0485c	-0.029331379
6	0x3afef578	0.0019451817
7	0xbe35fa34	-0.17771226
8	0x3e97870d	0.29595223
9	0xbc536d83	-0.012904528
10	0xbd482ee4	-0.048872843
11	0x3ca4e923	0.0201307
12	0xbd0479ab	-0.032342594
13	0xbc4b08c0	-0.012392223
14	0xbd8fb0e2	-0.070161596
15	0xbe6a5ea3	-0.22887664
16	0xbc3b3123	-0.011425289
17	0x3e4a5912	0.1976054
18	0xbcf12a9b	-0.029439261
19	0x3de4e757	0.11176937
20	0xbd943630	-0.07236898
21	0x3e3f8c3f	0.18705843
22	0xbc4401c7	-0.011963314
23	0xbd9693fb	-0.07352444
24	0x3c4f3400	0.012646675
25	0x3e8b0f74	0.27160227
26	0xbe1363de	-0.14393565
27	0xbbc08c24	-0.005876081
28	0x3e7ab9b2	0.244849
29	0x3c7f9a7a	0.015600795
30	0x3e8f4a58	0.27986407
31	0x3e3ad902	0.18246844
32	0xbee32e81	-0.44371417
33	0xbd1f451d	-0.03888427
34	0xbd8218e6	-0.06352405
35	0x3ea4ecfb	0.32212052
36	0x3ca07d22	0.019590918
37	0x3be084b0	0.006851755
38	0x3c2135ad	0.009839457
39	0xbdf0c643	-0.117565654
40	0xbe84b596	-0.2591979
41	0xbe9a3301	-0.30117038
42	0x3ece02e1	0.4023657
43	0xbe956247	-0.29176542
44	0xbe63a830	-0.22232127
45	0xbcce5820	-0.025188506
46	0xbc93432c	-0.017976366
47	0x3eb6b693	0.35686168
48	0xbde6e6d0	-0.11274493
49	0xbc2cd077	-0.010547749
50	0xbd0a6c5b	-0.033794742
51	0xbd0cb042	-0.03434778
52	0xbcc52858	-0.024067089
53	0xbda233d1	-0.079200394
54	0xba5ff42c	-0.00085431593
55	0xbdabce75	-0.08388988
56	0x3e663a8b	0.2248327
57	0xbe31b68d	-0.17354794
58	0xbcfdda2f	-0.030987827
59	0xbd002d98	-0.03129348
60	0xbd94b555	-0.07261149
61	0xbe9f44b6	-0.3110711
62	0xbd5c73d4	-0.0538214
63	0x3c6db25d	0.014507857
64	0xbd8b6a18	-0.06807345
65	0xbc163f0c	-0.009170305
66	0xbbd8f6b5	-0.0066212066
67	0x3b9639a6	0.004584509
68	0xbb661baa	-0.0035111704
69	0xbc806da3	-0.015677279
70	0xbee8bb56	-0.45455426
71	0xbdd17cfc	-0.10228917
72	0xbdb23f39	-0.08703465
73	0xbc8a330f	-0.01687005
74	0x3bfb7c1a	0.007674706
75	0x3c5d1d9d	0.01349583
76	0xbe53cafc	-0.20682901
77	0x3b2acaaa	0.0026060739
78	0xbebef582	-0.37296683
79	0x3ec8eeae	0.39244598
80	0xbcd5a004	-0.026077278
81	0xbb2f432c	-0.0026742918
82	0xbee38e0c	-0.4444431
83	0x3d267b0a	0.040644683
84	0x3e88efe4	0.26745522
85	0x3d4cb7ac	0.04997985
86	0x3d25ad9a	0.040448762
87	0xbb442732	-0.0029930589
88	0x3e4b573e	0.19857499
89	0xbddee6d4	-0.10883871
90	0xbb29756a	-0.0025857338
91	0x39b4bd30	0.0003447323
92	0xbd0d4f8a	-0.034499682
93	0x3ef55bd6	0.47921628
94	0xbc040dc6	-0.0080599245
95	0xbdec5b2e	-0.11540829
96	0xbe07ef82	-0.13274959
97	0x3ec1192b	0.37714514
98	0xbe089eaf	-0.13341783
99	0x3d1be29f	0.03805792
100	0x3e038601	0.12844087
101	0x3dfce09d	0.12347529
102	0xbe4a3a95	-0.1974891
103	0x3e57c8e2	0.21072724
104	0xbc69383b	-0.014234598
105	0x3d0224df	0.031773444
106	0xbca23a82	-0.01980329
107	0x3e34d459	0.17659129
108	0x3b9cc3ee	0.004784099
109	0xbc475048	-0.012165137
110	0xbd05dd4c	-0.03268175
111	0x3efe8c38	0.49716353
112	0x3e9672bd	0.29384413
113	0x3aac84d4	0.0013162144
114	0xbb97b41c	-0.004629625
115	0xbe3beaf8	-0.18351352
116	0xbcc0b160	-0.023522079
117	0x3d14d462	0.036335357
118	0xbcd357fc	-0.02579879
119	0xbdb52fd6	-0.088470146
120	0x3ee461a2	0.44605738
121	0xbdb453d5	-0.08805052
122	0x3bd40ab5	0.006471003
123	0xbe973d02	-0.29538733
124	0xbdbe04fa	-0.09278293
125	0xbd2b19bc	-0.04177259
126	0xbd73d79f	-0.059531804
127	0xbdd50d35	-0.1040291

fc.5.weight f4 [64, 128]
0	0x399c7615	0.00029842617
1	0x3d3f377b	0.04668377
2	0xbe7cd919	-0.24692191
3	0xbc90bd79	-0.017668473
4	0xbd7604c8	-0.060063154
5	0x3d295f17	0.04135045
6	0x3d8e2350	0.06940329
7	0xbcf0cfc4	-0.029395945
8	0xbda8051e	-0.08204101
9	0xbd912cee	-0.07088648
10	0xbd9d4c9b	-0.07680627
11	0x3d34a57e	0.04410314
12	0x3d9b84df	0.075937025
13	0x3d88e529	0.06684334
14	0xbd117424	-0.03551115
15	0xbc9a1120	-0.018806994
16	0x3d40f93e	0.047112696
17	0xbd8ec171	-0.0697049
18	0x3d48c180	0.04901266
19	0x3cb7c6cb	0.022433659
20	0x3c9ee77a	0.019397486
21	0xbbca49a1	-0.006173328
22	0xbc970911	-0.01843694
23	0xbcd9bcb1	-0.026579233
24	0xbd357254	-0.044298485
25	0x3c2f654f	0.010705306
26	0xbbb29e96	-0.005451034
27	0x3d569b96	0.052394472
28	0xbdc166b1	-0.09443415
29	0x3d024b4b	0.031810086
30	0x3d567c54	0.052364662
31	0x3b9449f8	0.0045254193
32	0xbd3d816a	-0.046265997
33	0xbd8cea63	-0.06880643
34	0xbd26f826	-0.040763997
35	0x3db4133e	0.08792733
36	0x3d46622a	0.04843346
37	0xbc6925cc	-0.014230203
38	0x3ccc0e9a	0.024909306
39	0xbd70df18	-0.05880651
40	0x3d14e16d	0.036347795
41	0xbd3e2396	-0.046420656
42	0x3d0dcc83	0.034618866
43	0xbb8805f4	-0.0041511003
44	0xbdfe40fa	-0.12414737
45	0x3d53698d	0.051614333
46	0xbd5898a2	-0.052879937
47	0xbd52263a	-0.051305987
48	0x3af12858	0.0018398864
49	0x3bb39c19	0.005481255
50	0x3c9794f4	0.018503644
51	0x3d84b1dd	0.06479237
52	0xbd561888	-0.05226949
53	0xbcf09ab0	-0.029370636
54	0xbd80e5e8	-0.06293851
55	0xbceed004	-0.029151924
56	0xbd22235c	-0.039584503
57	0x3d301a40	0.042993784
58	0x3cfd4753	0.0309178
59	0x3d2f3522	0.04277528
60	0x3ceb8f14	0.028754748
61	0x3cf8bb51	0.030362757
62	0xbd8e0f45	-0.06936506
63	0x3c1eb828	0.009687461
64	0x3db075c8	0.08616215
65	0x3c9633c8	0.018335238
66	0xbd77fac1	-0.060541872
67	0xbd3ea25a	-0.04654155
68	0xbd36b6a7	-0.044607785
69	0x3ad7a274	0.0016451613
70	0xbd27b35c	-0.040942535
71	0x3d67a220	0.0565511
72	0xbd3cf09c	-0.0461279
73	0xbd55429a	-0.05206547
74	0xbd110d15	-0.035412867
75	0x3d8cf617	0.068828754
76	0xbd9a887c	-0.075455636
77	0xbd6d59ba	-0.057946898
78	0xbe1f6a8f	-0.15567993
79	0x3d3c49b1	0.045968715
80	0x3c86e900	0.016468525
81	0x3c43c7b0	0.011949465
82	0xbd344aef	-0.044016775
83	0x3c508a1e	0.012728242
84	0xbb968adc	-0.00459419
85	0xbcdc0560	-0.026858032
86	0x3d670716	0.056403242
87	0xbce60fef	-0.02808377
88	0xbd857152	-0.06515755
89	0xbcdeb9e7	-0.027188255
90	0xbd690cc6	-0.056896947
91	0x3d74ef91	0.05979878
92	0xbd910ca1	-0.07082487
93	0xbc1360bc	-0.008995231
94	0x3d62a96f	0.055337366
95	0x3d68acd5	0.05680545
96	0x3d6ecf99	0.05830345
97	0x3d332aa6	0.043741845
98	0x3cf80ba0	0.03027898
99	0xbd1c1ac4	-0.038111463
100	0x3ba6fa80	0.00509578
101	0xbd109341	-0.035296682
102	0xbd9dcd19	-0.07705135
103	0x3c4a3ed6	0.012344083
104	0x3cd37aaa	0.025815327
105	0xbd97f014	-0.07418838
106	0xbd48b848	-0.04900387
107	0x3cedf656	0.029048126
108	0xbd80e1a6	-0.06293039
109	0xbd82a594	-0.06379238
110	0x3d0049d6	0.031320415
111	0x3c101317	0.008793614
112	0x3ce2e7ec	0.02769848
113	0xbd949f1e	-0.07256912
114	0x3d908504	0.07056621
115	0x3d481ca0	0.048855424
116	0xbcfac669	-0.030612187
117	0x3ca64a6f	0.020299165
118	0x3cbc5c8b	0.022993347
119	0x3d2df7f3	0.04247279
120	0x3b989775	0.004656727
121	0xbd7a0540	-0.061040163
122	0x3d283661	0.041067485
123	0xbd708692	-0.058722086
124	0xbb4a0dea	-0.0030831047
125	0x3cbe68b0	0.023243278
126	0xbcbb5372	-0.022866938
127	0xba1398f0	-0.00056303944
128	0xbc82c5b6	-0.015963417
129	0xbd2b1f6d	-0.041778017
130	0x3d2cc011	0.042175356
131	0xbb0215cb	-0.0019849415
132	0x3bad092e	0.0052806353
133	0x3d4bc51e	0.049748532
134	0x3c79008d	0.015197885
135	0xbce91694	-0.028453149
136	0x3d31aa3a	0.04337523
137	0x3da40b13	0.08009925
138	0xbd8cd5ba	-0.068767026
139	0xbd94eb87	-0.07271486
140	0xbdad2253	-0.084538125
141	0xbd539b17	-0.051661577
142	0xbdab6ea1	-0.0837071
143	0xbc9d0b07	-0.019170297
144	0xbd5780c8	-0.05261305
145	0x3d28dd43	0.041226637
146	0xbd083e50	-0.03326255
147	0xbdb7898f	-0.08961784
148	0x3d58b93a	0.05291102
149	0x3d97061b	0.073742114
150	0xbd44a2a0	-0.048006654
151	0x3d10ed32	0.035382457
152	0x3d443b2e	0.047908
153	0xbd725278	-0.05916068
154	0x3bfb9bf8	0.007678505
155	0x3d30a692	0.043127604
156	0xbd988c1c	-0.07448599
157	0x3d3e2ad4	0.046427563
158	0xbcd638cc	-0.02615013
159	0xbd204e8e	-0.039137416
160	0x3cf7d4ce	0.03025284
161	0x3d94ec5d	0.07271645
162	0x3da91f12	0.08257879
163	0x3cd62a73	0.026143288
164	0xbd3f5459	-0.0467113
165	0xbdb1f0a3	-0.08688476
166	0xbd537201	-0.051622394
167	0x3cb905e1	0.022585811
168	0xbd324ef8	-0.04353234
169	0xbd8758fd	-0.0660877
170	0xbd9092a6	-0.07059221
171	0x3ceca867	0.028888894
172	0x3b8a9e99	0.004230332
173	0xbd19ebb9	-0.03757832
174	0xbd968f6c	-0.07351574
175	0xbd2260bd	-0.039643038
176	0x3d9e6130	0.07733381
177	0x3d2b8997	0.041879263
178	0x3d03d9fb	0.032190304
179	0x3db99aa7	0.09062701
180	0x3cbc396e	0.022976603
181	0xbd7b6980	-0.06137991
182	0x3d0448ca	0.03229598
183	0xbd0752a5	-0.0330378
184	0x3d7b21b5	0.061311442
185	0xbd8e84c2	-0.06958915
186	0x3c2cb68c	0.010541569
187	0x3d54140e	0.05177694
188	0xbc1b4f54	-0.0094793625
189	0x3d055cb2	0.032559104
190	0x3d6aabcc	0.057292745
191	0xbd2ada74	-0.04171224
192	0x3cb128a3	0.021625822
193	0x3c8b9c22	0.017042223
194	0x3d93e13e	0.07220696
195	0xbda945fe	-0.08265303
196	0x3bf7d075	0.007562692
197	0xbcb8b5da	-0.022547651
198	0xbdadb87e	-0.08482455
199	0x3d61c612	0.055120535
200	0xbd317a5f	-0.043329593
201	0x3d6a22d9	0.05716214
202	0xbd911246	-0.070835635
203	0xbd504142	-0.050843485
204	0x3c5b9300	0.013401747
205	0x3c5dc5d6	0.013535937
206	0xbd3da03e	-0.046295397
207	0x3d954330	0.072882056
208	0xbca978fa	-0.020687569
209	0xbdaa8c3a	-0.08327527
210	0x3d93dce5	0.07219867
211	0x3c0bc7a1	0.008531482
212	0xbd3c4d9c	-0.04597245
213	0x3cd64006	0.026153576
214	0xbc625346	-0.013813799
215	0x3d94e7b2	0.07270755
216	0xbc7cfb83	-0.015440824
217	0xbd87242c	-0.06598696
218	0xbd187e4f	-0.037229832
219	0xbd71ca72	-0.059030958
220	0x3cdc55ce	0.026896384
221	0xbde54647	-0.11195045
222	0x3d653ce2	0.055966265
223	0xbd3bdd2b	-0.04586522
224	0xbd391a05	-0.04519083
225	0xbda7d4db	-0.08194896
226	0xbd9de09c	-0.077088565
227	0xbd6686a5	-0.05628075
228	0xbd9cffb1	-0.07665957
229	0x3cd6ccd8	0.026220724
230	0xbdc1a592	-0.09455408
231	0x3d173451	0.036915127
232	0xbc4d7d56	-0.012542089
233	0xbd82ab8f	-0.063803785
234	0xbd136997	-0.03598937
235	0x3ce4c434	0.027925588
236	0xbdc7f6e2	-0.09763886
237	0x3d3049cd	0.043039132
238	0xbdbb10b9	-0.09134049
239	0x3d46fe0f	0.048582133
240	0xbdc6789a	-0.09690972
241	0x3c4bcd2a	0.012439052
242	0x3d493913	0.049126696
243	0xbd0f582e	-0.034996204
244	0x3d250e43	0.040296804
245	0xbd941d12	-0.07232107
246	0x3d7c80b8	0.061646193
247	0x3d1128f6	0.035439454
248	0xbd6da1e8	-0.058015734
249	0x3db145cd	0.086558916
250	0xbd890414	-0.06690231
251	0xbd657e58	-0.056028694
252	0xbd842aaa	-0.0645345
253	0x3d9b8be5	0.07595042
254	0x3db7a723	0.08967426
255	0x3d22da7e	0.03975915

fc.5.bias f4 [64]
0	0x3d973dd8	0.07384843
1	0x3d953327	0.07285147
2	0xbc9f1e54	-0.019423641
3	0xbd9cdf1b	-0.076597415
4	0x3c056b89	0.008143314
5	0xbe3a75e0	-0.18209028
6	0x3db3faa5	0.08788041
7	0x3c3966f1	0.011316047
8	0xbc4e4e4c	-0.01259191
9	0xbd90ac71	-0.070641406
10	0xbde4beff	-0.11169242
11	0x3e4be450	0.19911313
12	0xbf180003	-0.5937502
13	0x3e077e72	0.13231829
14	0x3dda2d2b	0.10653146
15	0xbddfc428	-0.10926086
16	0xbe9c0c03	-0.30477914
17	0x3e5c271c	0.21499294
18	0x3de6e516	0.112741634
19	0xbd88504e	-0.06655942
20	0xbda73426	-0.081642434
21	0x3d5a41f9	0.053285573
22	0x3d8cc8ed	0.06874261
23	0x3d82f9e2	0.063953176
24	0x3e8d8cf1	0.27646592
25	0x3a5615c0	0.0008166693
26	0x3d0eb0e0	0.03483665
27	0xbe4be8d8	-0.19913042
28	0x3e736b34	0.23771363
29	0xbe082cee	-0.1329839
30	0x3d475d9d	0.04867326
31	0x3dd9e976	0.10640232
32	0xbe546619	-0.20742072
33	0xbe564aaf	-0.20926927
34	0xbbe9de0a	-0.007137065
35	0x3f299dc5	0.6625636
36	0xbd3e73d4	-0.04649718
37	0xbcc6a2f0	-0.024247617
38	0xbe24e333	-0.16102295
39	0x3d1e3016	0.038620077
40	0x3d91dde9	0.07122404
41	0xbdadd349	-0.08487565
42	0xbc295908	-0.010336168
43	0x3d93abcd	0.07210503
44	0xbe044ced	-0.1291997
45	0x3e5b6536	0.21425328
46	0x3ea548cf	0.3228211
47	0x3d0a1f61	0.03372133
48	0x3d9f9a48	0.07793099
49	0x3d028b95	0.031871397
50	0xbe752051	-0.23938109
51	0x3c28f30f	0.010311856
52	0x3dd11f3d	0.10211036
53	0xbe6d0adc	-0.23148674
54	0xbe2c3f39	-0.16820993
55	0x3dcd9603	0.10038378
56	0xbf6a52ae	-0.9153241
57	0xbe32fc80	-0.17479134
58	0x3d24a5a0	0.040197015
59	0xbcdf2f3f	-0.027244208
60	0xbec8f38c	-0.39248312
61	0x3e42baf6	0.19016632
62	0x3d576110	0.0525828
63	0xbd094f3b	-0.033522826

fc.7.weight f4 [32, 64]
0	0xbdaa03b3	-0.08301487
1	0x3dfe813a	0.12426992
2	0x3d62d560	0.05537927
3	0x3de1d1b6	0.11026327
4	0xbc7d672c	-0.015466493
5	0x3b075fe3	0.0020656518
6	0x3ce93cfe	0.028471466
7	0xbe04bb3d	-0.1296205
8	0xbd7d4dcb	-0.061841767
9	0x3df823a5	0.12116174
10	0xbdcdc4ec	-0.100473255
11	0xbda6d9c6	-0.08147006
12	0x3dacd45d	0.084389426
13	0xbd2a12ea	-0.041521944
14	0xbd7dc799	-0.06195793
15	0xbe0c213b	-0.13684551
16	0x3dd01332	0.10159911
17	0xbe1365c6	-0.14394292
18	0xbd5f3c0d	-0.05450063
19	0xbdb4b04d	-0.08822689
20	0x3d662290	0.056185305
21	0xbdbb695c	-0.09150955
22	0x3dbc0c02	0.09181978
23	0x3d5f1901	0.054467205
24	0xbd9fc3dd	-0.0780103
25	0x3db67bab	0.089103065
26	0x3da0cf38	0.07852024
27	0xbc512aca	-0.012766549
28	0x3c782159	0.015144669
29	0x3d7d5c47	0.06185558
30	0xbdd057a0	-0.10172963
31	0x3a961246	0.0011449538
32	0xbd86708b	-0.065644346
33	0x3c3f5f90	0.011680499
34	0x3da783e0	0.0817945
35	0xbcdaa28c	-0.026688837
36	0xbd8e18c8	-0.069383204
37	0xbd1e7b50	-0.03869182
38	0x3d8df09c	0.06930658
39	0xbe004cb2	-0.12529257
40	0xbda36834	-0.079788595
41	0x3da9acdf	0.08284926
42	0xbca67c22	-0.020322863
43	0xbd82266c	-0.06354985
44	0xbc02a3c6	-0.007973617
45	0xbc732479	-0.014840239
46	0xbd8773c4	-0.066138774
47	0x3da8f116	0.082491085
48	0xbd07f02c	-0.03318803
49	0x3de439f6	0.11143868
50	0xbd7a8134	-0.061158374
51	0x3d8e9a65	0.06963042
52	0xbdb4dae6	-0.08830814
53	0xbde71509	-0.11283309
54	0xbd17852c	-0.036992237
55	0xbd68b968	-0.056817442
56	0xbd6f6d28	-0.05845371
57	0xbd543882	-0.051811703
58	0xbe112cee	-0.14177296
59	0x3d2d4c52	0.042309113
60	0xbcbe2344	-0.023210175
61	0x3df0d3c6	0.117591426
62	0xbd2f10c6	-0.042740606
63	0xbda0961b	-0.0784113
64	0xbde4b09a	-0.111664966
65	0x3d979375	0.07401172
66	0x3c16382f	0.009168669
67	0x3ded0fd4	0.115752846
68	0x3de14a7c	0.11000535
69	0x3d86f33f	0.06589364
70	0xbde8f330	-0.11374509
71	0x3d35a3ec	0.04434578
72	0x3c86fa6a	0.016476829
73	0xbd321379	-0.0434756
74	0x3da97035	0.08273355
75	0x3d476c74	0.048687413
76	0x3da95e7f	0.08269977
77	0x3d102a2c	0.03519647
78	0x3dc9fa2e	0.09862171
79	0xbd296254	-0.04135354
80	0x3e003acb	0.12522428
81	0xbde033ae	-0.10947357
82	0xbe0c33b2	-0.13691595
83	0x3dc1cf16	0.09463327
84	0x3dfa9046	0.12234549
85	0x3f179940	0.59218216
86	0x3dd76a04	0.10518268
87	0x3d0df54f	0.034657773
88	0xbf873408	-1.0562754
89	0xbc0f3953	-0.0087416945
90	0x3de98881	0.11402989
91	0x3b3099c1	0.0026947113
92	0x3d06c46d	0.03290217
93	0x3d4736bd	0.048636187
94	0x3df579d8	0.119861305
95	0x3d978f17	0.07400339
96	0x3d45fe06	0.04833796
97	0xbd9cc69f	-0.076550715
98	0x3cd15b6b	0.025556287
99	0x3d3ef861	0.04662359
100	0x3d3be546	0.04587295
101	0xbd8a5c00	-0.06755829
102	0x3e661172	0.22467592
103	0x3b1d4763	0.0023998849
104	0xbcf5ea64	-0.030018993
105	0xbdd09afe	-0.101858124
106	0x3d83a382	0.06427671
107	0x3b76ff21	0.003768869
108	0x3e9aa28c	0.30202138
109	0x3d8a1b02	0.067434326
110	0xbad3aac8	-0.0016148919
111	0xbc71a54c	-0.0147488825
112	0x3e096805	0.13418587
113	0x3eb97f41	0.362299
114	0x3e05cac8	0.13065636
115	0xbde9e081	-0.11419774
116	0xbd11f56f	-0.035634454
117	0xbdb26f52	-0.08712639
118	0x3cbd4f36	0.02310906
119	0xbe8ab588	-0.27091622
120	0x3e7f4af4	0.24930936
121	0xbe83d039	-0.257448
122	0xbe289ea3	-0.16466765
123	0xbe230f69	-0.15923847
124	0xbe7c44ec	-0.24635667
125	0xbd627c38	-0.055294245
126	0x3dc4076f	0.0957173
127	0xbd0c0569	-0.034184847
128	0xbddd5a95	-0.10808293
129	0xbda72c1f	-0.08162712
130	0x3dc29623	0.095012926
131	0x3d9c3011	0.076263554
132	0x3d63f784	0.05565597
133	0xbd65ab7e	-0.05607175
134	0xbdf02205	-0.11725239
135	0x3ddfed2b	0.10933908
136	0xbc6701ee	-0.014099581
137	0xbde057c6	-0.109542415
138	0x3d30bc6b	0.04314844
139	0xbe170621	-0.14748432
140	0x3ce56fa5	0.028007338
141	0xbc7bdb31	-0.0153720835
142	0xbce2541e	-0.027628
143	0x3d9e7c60	0.077385664
144	0x3d891398	0.0669319
145	0xbbe7b775	-0.0070714303
146	0xbd40f29a	-0.047106363
147	0x3da75038	0.081695974
148	0xbd2692dc	-0.0406674
149	0x3de90dea	0.11379607
150	0xbde8017f	-0.1132841
151	0x3db58a1c	0.08864233
152	0xbcbfaa5a	-0.02339666
153	0x3e0f3e9a	0.13988724
154	0x3d3f8428	0.046756893
155	0x3d3f9941	0.046777014
156	0xbe08cd65	-0.13359602
157	0x3c3ed3f6	0.011647215
158	0x3d3d73ce	0.046253018
159	0x3d3cc36e	0.046084814
160	0xbd348ef2	-0.044081636
161	0x3d522130	0.05130118
162	0x3b4be190	0.0031109788
163	0xbe09a387	-0.13441287
164	0x3dbc30d1	0.091889985
165	0x3dadffde	0.084960684
166	0x3d7b2821	0.061317567
167	0xbda626b5	-0.081128515
168	0x3d33fe0c	0.04394345
169	0x3dca0948	0.098650515
170	0xbde38ae9	-0.111104794
171	0x3dc4683b	0.09590193
172	0x3dfd96f5	0.123823084
173	0x3d94160f	0.0723077
174	0xbb9053ac	-0.0044045057
175	0x3be5697a	0.007001099
176	0xbd8de6c6	-0.06928782
177	0xbde9c483	-0.11414435
178	0x3d01ee84	0.031721607
179	0x3d7fa5eb	0.06241409
180	0xbdf31975	-0.1187009
181	0xbe258234	-0.1616295
182	0xbcd54d22	-0.026037756
183	0x3dacc4a6	0.08435945
184	0x3d64ac68	0.055828482
185	0xbd7f7b88	-0.062373668
186	0xbe0b9fea	-0.13635221
187	0x3d8b23fa	0.06793971
188	0x3d5f8051	0.05456573
189	0xbdfb385c	-0.12266609
190	0xbd04e515	-0.032445032
191	0xbdf6f93f	-0.12059259
192	0xbde8b2f6	-0.11362259
193	0xbd2edcb3	-0.042690944
194	0x3df8e606	0.121532485
195	0xbd04b3d6	-0.032398067
196	0x3dd49368	0.10379678
197	0xbc8f448a	-0.017488737
198	0x3ddd2eb6	0.10799925
199	0xbd51b53b	-0.051198225
200	0x3d279f3b	0.04092334
201	0xbdd26f5b	-0.102751456
202	0x3df59796	0.11991803
203	0x3dae4dec	0.08510956
204	0x3dfdf1fb	0.1239967
205	0x3bb48736	0.0055092825
206	0x3dcb9d8f	0.09942161
207	0xbde0b50e	-0.109720334
208	0x3e0fdee1	0.14049865
209	0xbe142381	-0.14466669
210	0xbe1188e2	-0.14212373
211	0x3c941bca	0.018079657
212	0x3e1433ba	0.14472857
213	0xbec2d75e	-0.38054937
214	0xbc48f845	-0.012266223
215	0xbd379c2c	-0.04482667
216	0xbe23fa7a	-0.16013518
217	0x3e010642	0.12600043
218	0xbf2685d8	-0.6504798
219	0x3e1a14a7	0.1504694
220	0x3d55929b	0.052141767
221	0x3e34490f	0.17605995
222	0xbd859dcc	-0.06524238
223	0xbda3a3a0	-0.07990193
224	0xbdd0bf60	-0.10192752
225	0x3d9f9519	0.0779211
226	0xbc875570	-0.016520232
227	0x3c7fc13e	0.015610037
228	0xbda17a0f	-0.07884609
229	0x3d0bbaef	0.03411382
230	0xbe45422a	-0.19263521
231	0x3df23092	0.1182567
232	0xbd52080b	-0.0512772
233	0xbdae0494	-0.08496967
234	0x3d93f8a6	0.0722516
235	0x3de214cc	0.11039123
236	0x3f0c398a	0.547753
237	0x3db3dd73	0.087824725
238	0x3d171941	0.03688932
239	0xbc146ebc	-0.009059604
240	0xbdb11a3c	-0.08647582
241	0xbdc6d37f	-0.097083084
242	0xbc3345de	-0.010941951
243	0x3d74c054	0.05975373
244	0x3c523006	0.0128288325
245	0x3df22acb	0.11824568
246	0xbc88efba	-0.016715873
247	0x3e16231f	0.14661835
248	0x3e49a30d	0.19691105
249	0xbdc1f031	-0.09469641
250	0xbe6383f6	-0.22218308
251	0xbe7cfa4a	-0.24704853
252	0x3e770eee	0.24126789
253	0x3d54ffe5	0.052001853
254	0xbb825e03	-0.003978492
255	0xbde4f113	-0.11178794

fc.7.bias f4 [32]
0	0xbb217888	-0.0024638493
1	0x3c9aef91	0.018913062
2	0x3d0e1040	0.034683466
3	0x3d1062f6	0.035250627
4	0x3db88786	0.09010224
5	0xbe4f90e5	-0.20270117
6	0xbaaf720d	-0.001338543
7	0xbed10701	-0.40825656
8	0xbe4b3d86	-0.19847688
9	0x3e4ece11	0.20195796
10	0xbe86fa8e	-0.26363033
11	0xbe0cc476	-0.13746819
12	0x3df12947	0.11775451
13	0x3e5ca52a	0.2154738
14	0xbe25c0da	-0.16186848
15	0xbe4e24b1	-0.20131184
16	0x3d4923ee	0.04910653
17	0x3de7da90	0.11320984
18	0x3d1248e2	0.035714038
19	0x3e39ef5b	0.18157713
20	0x3dbb1730	0.09135282
21	0xbdd7af47	-0.105314784
22	0xbdf00f34	-0.1172165
23	0xbdab4a0d	-0.083637334
24	0x3d792448	0.060825616
25	0xbdc26a0d	-0.09492884
26	0xbe2a8327	-0.16651593
27	0x3e00030d	0.12501164
28	0x3e578e00	0.21050262
29	0xbe764940	-0.2405138
30	0x3e0478b6	0.12936673
31	0xbe250006	-0.1611329

fc.9.weight f4 [3, 32]
0	0xbe1c5769	-0.1526772
1	0xbe930176	-0.28712052
2	0x3d6fbf5a	0.058532096
3	0xbf080f6c	-0.5314853
4	0x3e300b49	0.17191805
5	0x3e90ad2a	0.28257114
6	0x3e1fc586	0.15602693
7	0x3f16f7cf	0.58971876
8	0x3dba94fb	0.09110447
9	0x3e109680	0.14119911
10	0x3ba9f0f5	0.005186195
11	0xbdb4e524	-0.088327676
12	0xbf61bef8	-0.8818202
13	0xbe212bd7	-0.1573938
14	0xbd9b1094	-0.075715214
15	0x3f6c7e4f	0.9238023
16	0x3e46c6d7	0.19411789
17	0xbdb7ebe4	-0.089805394
18	0xbd2a7007	-0.041610744
19	0xbecbce32	-0.39805752
20	0x3e25e247	0.16199599
21	0xbe177618	-0.14791143
22	0x3e17071f	0.1474881
23	0xbda7d450	-0.08194792
24	0xbdbe306d	-0.0928658
25	0xbe31a603	-0.17348485
26	0xbd1f1510	-0.038838446
27	0xbaa23ec0	-0.001237832
28	0xbcb2c1a6	-0.021820854
29	0x3e2b9fcb	0.16760175
30	0x3df316f1	0.1186961
31	0x3ee8ade4	0.45445168
32	0x3e1ce660	0.15322256
33	0x3c6e5b54	0.0145481415
34	0x3daafa88	0.08348566
35	0xbd677d39	-0.056515906
36	0x3d3c3bd1	0.045955483
37	0xbef4842f	-0.47757098
38	0x3d4b91aa	0.049699463
39	0xbe43956c	-0.19099969
40	0xbf063481	-0.52423865
41	0x3ebcc2cc	0.36867368
42	0xbf7f06ad	-0.9961956
43	0x3e09bb15	0.13450272
44	0x3dbdc9ff	0.09267043
45	0x3e0e4821	0.13894702
46	0xbdb3571e	-0.08756851
47	0x3e09d1af	0.13458894
48	0x3df4ace6	0.1194704
49	0x3e292353	0.16517381
50	0xbd6482c0	-0.055788755
51	0xbe93cf39	-0.28869036
52	0xbe990927	-0.29889795
53	0xbe492af0	-0.19645286
54	0x3e18274f	0.14858745
55	0xbd38c644	-0.045110956
56	0xbd44b4c4	-0.048023954
57	0xbe0c01dc	-0.13672584
58	0x3cf2cc2c	0.029638372
59	0x3dd2c5c9	0.10291631
60	0x3eb286fb	0.34868607
61	0xbe3f47de	-0.18679759
62	0x3e72589d	0.23666616
63	0xbcf9389e	-0.030422505
64	0xbd672a3a	-0.056436755
65	0x3e95d050	0.29260492
66	0xbe25c87d	-0.16189761
67	0x3e5bb933	0.21457367
68	0xbd83dd17	-0.06438654
69	0x3ce3b508	0.027796283
70	0xbdd6596c	-0.104662746
71	0xbe8d9ab8	-0.27657104
72	0x3c956787	0.018237842
73	0xbe4511ad	-0.19245024
74	0x3e03555e	0.12825534
75	0x3c3987e4	0.011323903
76	0x3d136f94	0.03599508
77	0x3dfdde83	0.12395956
78	0x3e81ee4a	0.25377113
79	0x3b5629a6	0.0032678633
80	0xbd96b995	-0.07359616
81	0x3d61173a	0.05495379
82	0x3e10fb98	0.14158475
83	0x3eb73429	0.35781983
84	0x3e701e23	0.23448996
85	0x3e064d59	0.13115443
86	0x3dfbd097	0.12295645
87	0x3d8dccf5	0.06923858
88	0x3cf713f0	0.030160874
89	0x3eb3cdbe	0.35117906
90	0xbc8c4ff1	-0.017127963
91	0x3cace745	0.021106372
92	0xbbe8242a	-0.007084389
93	0x3cbb2fa9	0.022849875
94	0xbe1aeb60	-0.15128851
95	0xbebe6c54	-0.37192023

fc.9.bias f4 [3]
0	0xbde36fc5	-0.11105303
1	0x3e3a7420	0.1820836
2	0x3d727f8a	0.059203662
