Genetic_Models/dino_genetic_model80.pth (torch, 48732 bytes, 8 tensors)

fc.0.weight f4 [128, 6]
0	0x3d1c5b07	0.038172748
1	0x3e59d852	0.21273926
2	0xbea4a766	-0.32158965
3	0x3e7f305b	0.2492079
4	0xbff85f42	-1.940407
5	0xbfa9e65d	-1.3273426
6	0xbe780022	-0.242188
7	0x3d898ad6	0.06715934
8	0x3e54ab32	0.20768431
9	0xbe5a3798	-0.2131027
10	0x3e96f39a	0.29482728
11	0x3e3cc89b	0.184359
12	0xbcb8705a	-0.02251451
13	0xbe6563ff	-0.22401427
14	0xbe964f35	-0.29357305
15	0x3e5aebed	0.21379061
16	0xc0320dc0	-2.7820892
17	0xc0349058	-2.82131
18	0xbcb5208c	-0.022110246
19	0x3ddaeb24	0.10689381
20	0xbe685659	-0.22689189
21	0x3e27b2ff	0.16376875
22	0x3fed5b9f	1.8543586
23	0x400f16f2	2.2357755
24	0xbeb078dd	-0.3446721
25	0xbe4e27c8	-0.20132363
26	0xbd20b066	-0.039230727
27	0xbe2a4876	-0.16629204
28	0x3ebceebf	0.369009
29	0xbe358919	-0.1772808
30	0x3e985d05	0.29758468
31	0xbe26bd54	-0.1628316
32	0xbdbf8201	-0.09350968
33	0x3e553f70	0.2082498
34	0xbff6f5b0	-1.9293728
35	0xc0035502	-2.0520635
36	0x3edfd233	0.43715057
37	0xbcaf80c2	-0.021423701
38	0x3e1d012c	0.15332478
39	0xbdb8b078	-0.09018034
40	0xc02fa0e8	-2.744196
41	0xc03d10bf	-2.954147
42	0x3dbd4cbe	0.09243153
43	0x3ea5257b	0.32255158
44	0xbe594f8a	-0.21221748
45	0xbe6c24bc	-0.23060888
46	0xbf3d9009	-0.74047905
47	0xc0036f64	-2.0536737
48	0xbdddfe83	-0.1083956
49	0xbe9a3c44	-0.30124104
50	0xbdb9c0a8	-0.090699494
51	0x3dad9a48	0.084766924
52	0xbe6625d7	-0.22475372
53	0xbde9d7d6	-0.114181206
54	0xbe1a549b	-0.15071337
55	0x3e24574f	0.1604893
56	0x3c9cd2df	0.01914352
57	0xbeac2bca	-0.33627158
58	0x3c9f46aa	0.019442875
59	0x3d9c0ce1	0.07619644
60	0x3e4ec6dd	0.20193048
61	0xbe7ef226	-0.2489706
62	0x3e76c769	0.24099506
63	0xbea021b1	-0.31275705
64	0x3e0d9d33	0.13829498
65	0xbdd76995	-0.10518185
66	0xbdcf3688	-0.10117823
67	0x3e826e33	0.254747
68	0xbe325c20	-0.17417955
69	0x3e2efe00	0.17089081
70	0x3fe4c9ed	1.7874123
71	0xbf4b5cd8	-0.79438543
72	0x3e076254	0.13221103
73	0xbe98dcf8	-0.29856086
74	0x3e90e1f3	0.28297386
75	0xbe3186eb	-0.17336623
76	0x3dadaa27	0.084797196
77	0x3ec5daf7	0.3864362
78	0xbdfb968b	-0.12284573
79	0x3a2a19b8	0.0006488818
80	0x3e3815ed	0.17977114
81	0xbe2e44d5	-0.17018445
82	0xbdba7e80	-0.09106159
83	0x3dfee5af	0.124461524
84	0x3e8c5184	0.2740594
85	0x3db906d9	0.09034509
86	0xbdf5f698	-0.12009925
87	0xbeb53282	-0.35390097
88	0xc068ca02	-3.6373296
89	0xc066fee4	-3.6093073
90	0xbd0224f4	-0.031773522
91	0x3e32cc29	0.17460693
92	0xbd7122f1	-0.058871213
93	0xbebd75f1	-0.37004045
94	0x3dc56c81	0.09639836
95	0xbe8bd6a6	-0.273122
96	0x3c41b334	0.0118225105
97	0xbe6e704f	-0.2328503
98	0x3dd6e0d7	0.104921035
99	0x3e51884c	0.2046215
100	0x4009e19b	2.1543949
101	0xbee86a85	-0.45393768
102	0x3ed4704a	0.4149192
103	0xbeac7e3f	-0.33690068
104	0xbb0c0878	-0.0021367352
105	0xbd9cbff3	-0.07653799
106	0x3ff57f6b	1.917951
107	0x3f4b8ce8	0.7951188
108	0xbd0b8690	-0.034063876
109	0xbe218b10	-0.15775704
110	0xbe18c82b	-0.14920108
111	0x3e68c4df	0.2273135
112	0x400dfa1a	2.21839
113	0x3f6ff065	0.9372619
114	0xbdf0ed0f	-0.11763965
115	0x3eaf1cc4	0.34201634
116	0x3d8fa2db	0.07013484
117	0xbe003dde	-0.125236
118	0xc0173eac	-2.3632002
119	0xc02a4447	-2.6604173
120	0x3ed794e0	0.4210577
121	0x3e99c2a4	0.30031312
122	0x3c9143c0	0.017732501
123	0x3e9ea57e	0.30985636
124	0xbf68b975	-0.90907985
125	0x3fc2cc1f	1.5218543
126	0xbe03a1f3	-0.12854747
127	0xbecfdd78	-0.40598655
128	0x3e90c029	0.28271607
129	0x3d98db58	0.074637115
130	0x3e8af85a	0.27142602
131	0xbe5c055f	-0.21486424
132	0x3eb91968	0.36152196
133	0xbe408c08	-0.18803418
134	0x3f032d3c	0.512409
135	0xbec4a52e	-0.38407272
136	0x3fb02b8e	1.3763292
137	0x3fafbed6	1.3730114
138	0x3e265fbe	0.1624746
139	0x3e0cc4f4	0.13747007
140	0x3ec7f1bf	0.39051625
141	0xbe351dc9	-0.17687143
142	0xc01d41e8	-2.4571476
143	0xc0294c96	-2.6452994
144	0x3e91dc0e	0.284882
145	0x3d88a501	0.06672097
146	0xbdba5771	-0.090987094
147	0x3e83a5b1	0.2571235
148	0xbfe3632a	-1.7764637
149	0xbd428c76	-0.047497235
150	0xbe946e9e	-0.28990644
151	0x3e84ea2a	0.25959903
152	0xbec14399	-0.37746885
153	0x3dc23c1b	0.094841205
154	0x3fceee1a	1.6166413
155	0x3ff490a4	1.9106641
156	0x3e4224f4	0.18959409
157	0xbdddb456	-0.10825412
158	0xbe438a63	-0.19095759
159	0x3df495c7	0.1194263
160	0xc03079ec	-2.7574415
161	0xc0148874	-2.3208284
162	0x3d917ee2	0.07104279
163	0x3edf13c8	0.4356978
164	0xbe22ec67	-0.15910493
165	0xbede1d5e	-0.4338178
166	0xbf105e31	-0.56393725
167	0x3fc01d24	1.5008893
168	0xbdcf116f	-0.10110747
169	0x3e8ac4e5	0.27103344
170	0xbdac273e	-0.08405922
171	0xbc2273d8	-0.009915315
172	0x4007f5b8	2.1243725
173	0x3faebc2a	1.3651173
174	0xbe97b561	-0.2963057
175	0xbe2eade9	-0.17058529
176	0x3e48023e	0.19532105
177	0x3d8ab659	0.06773061
178	0x3dd3092a	0.10304482
179	0xbdf1c2f7	-0.11804765
180	0xbe90d223	-0.28285322
181	0xbd2ba695	-0.041906912
182	0x3eb7577e	0.3580894
183	0xbea8739c	-0.32900703
184	0x3e9cb75b	0.3060864
185	0x3dc307cb	0.09522971
186	0xbdc5b4fa	-0.09653659
187	0x3da112c1	0.07864905
188	0x3ded8a5c	0.115986556
189	0x3d1233a8	0.035693794
190	0x3fdbc811	1.717043
191	0xbffe08a7	-1.984639
192	0xbda3e6a5	-0.08002976
193	0x3e512991	0.20426013
194	0x3e90d5fc	0.28288257
195	0xbe108ee2	-0.14117005
196	0x4028ccf6	2.6375098
197	0x3eacd378	0.33755088
198	0xbe15be42	-0.14623359
199	0x3e8ed012	0.2789312
200	0xbe74928c	-0.23884028
201	0x3e265bed	0.16246004
202	0xbe40c4bd	-0.1882505
203	0xc01a220f	-2.4083288
204	0xbe1b8cbf	-0.15190409
205	0xbe403526	-0.18770275
206	0xbda0ffe0	-0.07861304
207	0x3e0eb321	0.1393552
208	0xc008cf32	-2.1376462
209	0x402692fa	2.6027207
210	0xbe888bd3	-0.26669177
211	0xbe79c072	-0.24389818
212	0x3e8d0ed7	0.27550384
213	0x3ee343d1	0.44387677
214	0x3ff92e26	1.9467208
215	0xbfc74585	-1.5568091
216	0xbf43fd09	-0.76557976
217	0xbe622226	-0.22083339
218	0x3da28b46	0.079367206
219	0x3e399c51	0.18126036
220	0xc070c47c	-3.7619925
221	0xbffbfea0	-1.968708
222	0x3e0942c1	0.13404371
223	0x3dccdcea	0.100030735
224	0xbebf910e	-0.37415355
225	0x3e7270ad	0.23675795
226	0x3f8467e4	1.0344205
227	0x3fd9e724	1.7023664
228	0x3ef48e92	0.47765023
229	0x3db7019d	0.089358546
230	0xbf6a78a6	-0.91590345
231	0xbed30fb7	-0.41222927
232	0x3f8a9920	1.082798
233	0x3fe69fbe	1.80175
234	0x3cdb61c5	0.026780019
235	0xbe6c3767	-0.2306801
236	0xbe9fadde	-0.31187338
237	0x3de18993	0.11012568
238	0x3fba0442	1.4532549
239	0xbffaa925	-1.9582869
240	0x3e8f374e	0.27971882
241	0x3da840ca	0.082154825
242	0xbd28ef4e	-0.041243844
243	0x3d4342fe	0.04767131
244	0x3ee9c9ed	0.4566187
245	0xc018229d	-2.3771126
246	0xbe8380d8	-0.25684237
247	0x3de46730	0.11152494
248	0xbe110a06	-0.1416398
249	0x3da7e02a	0.08197053
250	0xc0209072	-2.5088162
251	0xbfd4dc98	-1.662982
252	0x3e876c5d	0.26449862
253	0x3dbbeb26	0.091757104
254	0xbec1f31b	-0.37880787
255	0x3e23c3e6	0.15992698

fc.0.bias f4 [128]
0	0x3e4e9bf0	0.20176673
1	0xbe286e29	-0.16448273
2	0x3e817b98	0.25289607
3	0x3db9dd4d	0.09075413
4	0x3ec0283e	0.37530702
5	0x3deb31c1	0.11484099
6	0xbf1fd0b4	-0.6242783
7	0xbf295dbb	-0.66158646
8	0xbeae4cf9	-0.340431
9	0x3e5a7145	0.21332271
10	0x3d81534e	0.06314717
11	0xbed85122	-0.422494
12	0xbdd104a6	-0.10205965
13	0x3e7f032a	0.2490355
14	0x3f07d57c	0.53060126
15	0x3e9d0273	0.3066593
16	0xbed32331	-0.41237786
17	0xbe7c568d	-0.24642392
18	0x3d3ff528	0.04686466
19	0xbdb3c3b7	-0.08777564
20	0xbcf07a3a	-0.029355157
21	0xbe1dda1d	-0.15415235
22	0xbc941b64	-0.018079467
23	0xbe4c6bef	-0.19963048
24	0x3e2c8f7c	0.1685161
25	0xbebc21cb	-0.36744532
26	0x3d89b380	0.0672369
27	0xbd8db758	-0.06919736
28	0x3d2d5ccc	0.042324826
29	0xbd901f32	-0.070372
30	0xbd8a38f0	-0.06749141
31	0xbea127f8	-0.31475806
32	0x3dd30fbc	0.103057355
33	0xbed3310a	-0.4124835
34	0x3e67bfc6	0.2263175
35	0xbce7db97	-0.02830295
36	0x3f2a5f9e	0.6655215
37	0xbecd5152	-0.40101105
38	0xbf164aec	-0.5870807
39	0xbec76cb9	-0.38950136
40	0xbf0e2485	-0.55524474
41	0x3d48a64a	0.04898671
42	0x3e071546	0.13191709
43	0x3eb07b9c	0.34469306
44	0xbe83886c	-0.2569002
45	0xbdab8d58	-0.083765686
46	0x3e22396f	0.15842222
47	0x3e90353e	0.2816562
48	0xbe5b7107	-0.21429835
49	0xbe0166f2	-0.12636927
50	0x3db9fd0b	0.09081467
51	0x3e092365	0.13392408
52	0x3ea2fe31	0.31834558
53	0xbe4bf667	-0.19918214
54	0xbdcb3e5d	-0.09924004
55	0xbebc29d7	-0.3675067
56	0xbe6cf1b8	-0.23139083
57	0xbf1a6fb8	-0.6032672
58	0x3dc3cd39	0.095606275
59	0x3e1268d8	0.14297807
60	0xbd3a7daa	-0.04553
61	0x3c1ab3a6	0.009442246
62	0x3d818a2c	0.06325182
63	0x3e9f4c41	0.31112865
64	0x3dd8345e	0.10556863
65	0xbed3dd5c	-0.4137982
66	0x3e317910	0.17331338
67	0xbe9429b0	-0.28938055
68	0x3ee8fca6	0.45505255
69	0x3ea5b8fb	0.3236769
70	0xbf0f6437	-0.5601229
71	0x3ea636d4	0.32463706
72	0xbcbc11f7	-0.022957785
73	0xbcfcbfae	-0.030853119
74	0x3e57b24f	0.21064113
75	0xbf18af56	-0.5964254
76	0xbed3eca7	-0.4139149
77	0xbeda821f	-0.426774
78	0xbec05437	-0.3756425
79	0x3eaa1af5	0.33223692
80	0x3e64e47a	0.22352782
81	0xbdb08cae	-0.086205825
82	0xbe9a1e0e	-0.30101055
83	0xbe8a47dd	-0.27007952
84	0xbdede246	-0.11615424
85	0x3ef83bbd	0.48483077
86	0xbe6ca96a	-0.23111501
87	0xbd10e58c	-0.035375163
88	0xbef930b1	-0.4866996
89	0x3e93ed52	0.28892
90	0x3eacc924	0.33747208
91	0xbe8eb23b	-0.27870354
92	0x3dbd6d90	0.09249413
93	0x3cfdbd4f	0.030974058
94	0x3e905ef9	0.28197458
95	0xbf0c427c	-0.5478895
96	0x3c185c18	0.009299301
97	0xbdbad068	-0.091217816
98	0xbe6e7ac3	-0.23289017
99	0xbf25a5ec	-0.647063
100	0x3f136e2f	0.5759
101	0x3eba0a51	0.36335996
102	0xbc30a472	-0.010781394
103	0xbe2895e2	-0.16463426
104	0x3de07a37	0.10960811
105	0x3d1220a1	0.03567565
106	0xbea9c8db	-0.33161053
107	0xbce16500	-0.02751398
108	0x3e192ea4	0.14959198
109	0xbe0f0c09	-0.13969435
110	0x3e45fb00	0.1933403
111	0xbd94e61b	-0.07270452
112	0xbdd42902	-0.10359384
113	0xbde9acb1	-0.114098914
114	0x3cbf3bfc	0.023344032
115	0x3e2da802	0.16958621
116	0xbe5295ea	-0.20565
117	0xbe90a5f4	-0.28251612
118	0x3e383cd3	0.17991953
119	0xbd265cf7	-0.040616002
120	0xbe8307e4	-0.25591958
121	0x3ebf8ae8	0.37410665
122	0xbebe8b7a	-0.37215787
123	0x3e152853	0.14566164
124	0x3e3ba02a	0.18322816
125	0x3f0bb9cf	0.54580396
126	0xbecb44f3	-0.39701042
127	0x3eb331f0	0.34999037

fc.2.weight f4 [64, 128]
0	0xbbef2234	-0.0072977785
1	0x3d9f8289	0.077885695
2	0xbe20ad27	-0.15691052
3	0x3ca0b5c1	0.019617917
4	0xbcc11c31	-0.023573013
5	0xbe050ec4	-0.12993914
6	0x3e157d40	0.1459856
7	0x3d79679e	0.060889833
8	0x3c8aafef	0.016929595
9	0x3dd61eec	0.10455117
10	0xbc669ba6	-0.014075195
11	0x3dcf3555	0.10117594
12	0x3dd6e1c6	0.104922816
13	0xbd9524b4	-0.07282391
14	0xbf2adf6c	-0.66747165
15	0xbd27a441	-0.04092813
16	0x3de4a478	0.111641824
17	0xbe988c7d	-0.29794684
18	0x3d9ee03d	0.07757614
19	0x3b480fe0	0.003052704
20	0xbd8e6982	-0.06953718
21	0xbd17e6ee	-0.037085466
22	0x40223b6b	2.5348766
23	0xbe132e27	-0.14373074
24	0xbd8f46f2	-0.069959536
25	0xb954faa0	-0.0002031126
26	0xbd39c46e	-0.045353346
27	0xbe3b9083	-0.18316846
28	0x3d553a4b	0.052057546
29	0xbd64adec	-0.055829927
30	0x3dca99b5	0.098925985
31	0x3e239003	0.15972905
32	0x3dafa5ae	0.08576523
33	0x3d5a03f2	0.05322642
34	0xbed59524	-0.41715348
35	0xbd0b0fa8	-0.033950478
36	0x3e99331d	0.2992181
37	0x3bc89ca9	0.006122191
38	0x3d775f3a	0.06039355
39	0xbdc98cf7	-0.0984134
40	0x3dc19d91	0.094538815
41	0xbdb2a066	-0.08722
42	0xbd56ac53	-0.052410435
43	0x3ca6d7e0	0.02036661
44	0xbd3f0dca	-0.04664401
45	0x3cd955a6	0.026530098
46	0x3d729d46	0.05923202
47	0xbd8e5f7a	-0.069518045
48	0xbfa404a5	-1.2813917
49	0x3da61c4d	0.08110867
50	0xbe0c0cd0	-0.13676763
51	0xbd45f7b6	-0.04833194
52	0x3c921c0b	0.017835638
53	0xbc9979a7	-0.018734766
54	0x3dc5f60c	0.0966607
55	0x3db33789	0.08750827
56	0xbc07b22f	-0.008282228
57	0x3d1e4c28	0.038646847
58	0xbd76d9fe	-0.060266487
59	0x3d9f41c2	0.07776214
60	0x3d4c44ab	0.049870174
61	0xbd5e64dc	-0.054295406
62	0xbda6ee7b	-0.08150955
63	0xbcd6bc28	-0.026212767
64	0x3d33a944	0.043862596
65	0x3cebd372	0.028787348
66	0x3cc38288	0.023865953
67	0xbc6114eb	-0.013737897
68	0xbd1e26a8	-0.038611084
69	0xbc39b86d	-0.011335474
70	0x3e703fc9	0.23461832
71	0xbd86b71b	-0.06577893
72	0xbcc4f5fc	-0.024043076
73	0xbd5f41bd	-0.054506052
74	0xbeb385dc	-0.35063064
75	0x3cdf84b8	0.027284965
76	0x3c3643c6	0.011124557
77	0x3e05861c	0.1303944
78	0x3d09a4cc	0.03360443
79	0xbe77c4b5	-0.24196132
80	0xbd84b2de	-0.06479429
81	0x3d46a550	0.048497498
82	0x3e391f12	0.18078259
83	0xbd2cc0b6	-0.04217597
84	0xbce760f8	-0.02824448
85	0xbd9b8460	-0.07593608
86	0xbd8641ab	-0.06555494
87	0x3d018250	0.031618416
88	0x3cd2f24e	0.025750306
89	0xbce6f178	-0.028191313
90	0x3d80590f	0.062669866
91	0x3cf1e4be	0.029528018
92	0xbd92a140	-0.07159662
93	0x3e91424f	0.28370902
94	0x3d1a9d0b	0.037747424
95	0x3d8449e8	0.06459409
96	0xbcc7a7b0	-0.024371952
97	0xbe318aef	-0.17338155
98	0xbc4c24a9	-0.012459912
99	0x3dca71c9	0.09884984
100	0x3ea7ab31	0.32747796
101	0x3c804b02	0.015660767
102	0xbcaccdd4	-0.02109424
103	0xbd609dfc	-0.054838166
104	0x3ee4d96a	0.44697124
105	0x3d44b4bd	0.048023928
106	0xbcc9b4ef	-0.024622409
107	0xbe801410	-0.25015306
108	0x3d1ad8d4	0.03780444
109	0x3c6043b3	0.013688016
110	0x3ca9a08e	0.020706441
111	0x3e8ecbc5	0.2788984
112	0x3d9ecc0a	0.07753761
113	0xbe02b11a	-0.12762871
114	0x3c8c3c5a	0.017118622
115	0xbcd8d945	-0.02647079
116	0x3bf3902c	0.007432958
117	0xbe03629b	-0.12830584
118	0x3dfcd8b0	0.12346017
119	0xbe23b1b3	-0.15985756
120	0xbcacadb8	-0.02107893
121	0xbd1f5eca	-0.038908757
122	0xbacf677b	-0.0015823686
123	0x3e0a0bb4	0.13481027
124	0x3d1473b2	0.03624315
125	0x3d56141e	0.05226528
126	0x3da13ac3	0.07872536
127	0x3d036b3d	0.032084692
128	0x3dd2b2d4	0.10288015
129	0xbcd84829	-0.026401596
130	0xbd1553f0	-0.036457002
131	0xbe0cbe78	-0.13744533
132	0xbdc5be7f	-0.09655475
133	0x3d1ec7f0	0.038764894
134	0xbdff68cb	-0.124711595
135	0x3b59ccf0	0.0033233725
136	0x3c45e43e	0.012078343
137	0xbcb1daf8	-0.021710858
138	0x3dd273ee	0.10276018
139	0xbe09fa30	-0.13474345
140	0xbd34fc98	-0.044186205
141	0xbd63bd99	-0.055600736
142	0x3dfc69c8	0.12324864
143	0x3dde4aa6	0.10854082
144	0xbd6b148e	-0.05739265
145	0x3db5a44d	0.088692285
146	0xbdd8624f	-0.10565626
147	0x3c32281c	0.010873821
148	0x3cc85535	0.024454692
149	0x3db90221	0.09033609
150	0xbd25471a	-0.04035101
151	0xbc388fbd	-0.011264739
152	0xbd8bfc96	-0.06835286
153	0xbdc45233	-0.09585991
154	0xbb3b1456	-0.0028546057
155	0xbd10c0a4	-0.035339966
156	0xbd8394f6	-0.064248964
157	0xb9a274e0	-0.00030986127
158	0x3d8a119b	0.06741639
159	0x3de83687	0.11338525
160	0xbdf36960	-0.11885333
161	0xbe125fd1	-0.14294364
162	0xbdd824c9	-0.10553891
163	0xbae43902	-0.0017412009
164	0x3d804676	0.06263439
165	0x3d945ce5	0.07244281
166	0x3d31e7df	0.04343402
167	0xbc67ae94	-0.014140744
168	0x3c8ac33b	0.016938796
169	0xbc1bd9f8	-0.009512417
170	0x3c60615e	0.013695089
171	0xbd38499f	-0.044992086
172	0xbcfbd47c	-0.030740969
173	0xbd21350c	-0.03935723
174	0x3e027c4d	0.1274273
175	0x3d7e1223	0.062029015
176	0x3d4cb658	0.049978584
177	0xbd8606d9	-0.06544275
178	0xbd7cfb02	-0.061762817
179	0xbd56bd3c	-0.05242656
180	0xbc604f3b	-0.013690765
181	0xbd1017f4	-0.035179093
182	0xbda9a6b1	-0.08283747
183	0xbd7bca2e	-0.06147211
184	0x3dc53c8e	0.096306905
185	0xbcca4954	-0.024693169
186	0xbdb51272	-0.08841409
187	0x3c3fd593	0.011708635
188	0x3d872f4a	0.066008165
189	0x3dd00ebe	0.10159062
190	0x3d398e2a	0.045301594
191	0x3d16847c	0.03674744
192	0x3df33777	0.118758135
193	0xbd820fe7	-0.063506894
194	0x3c1a0ed6	0.009402951
195	0xbd160b9d	-0.03663217
196	0xbd53590f	-0.051598605
197	0xbd03584a	-0.03206662
198	0xbd4744fa	-0.048649766
199	0x3d830ab4	0.06398526
200	0xbcb657bc	-0.022258632
201	0xbc0786c4	-0.008271877
202	0x3dac2bbe	0.08406781
203	0x3d7f453e	0.062321894
204	0x3af4c664	0.0018674848
205	0xbd989261	-0.074497946
206	0x3c56de06	0.013114458
207	0xbdab4223	-0.08362224
208	0x3cd33852	0.025783692
209	0xbd4be0f2	-0.04977507
210	0x3cf0e71e	0.02940708
211	0xbd079c89	-0.033108268
212	0x3d3e58c4	0.046471372
213	0x3d8cd07b	0.06875702
214	0x3c88b772	0.016689036
215	0xbdb1ec5d	-0.08687661
216	0x3d549a5c	0.05190502
217	0x3d775cc7	0.060391214
218	0xbcd56b6a	-0.026052196
219	0xbdc6e75f	-0.09712099
220	0xbd5ba3a0	-0.05362284
221	0x3d4ac086	0.04950001
222	0x3c4119b6	0.011785915
223	0xbcb1a46c	-0.021684848
224	0xbdd81b1c	-0.10552046
225	0xbcbc66bd	-0.022998208
226	0xbdaaef9b	-0.08346482
227	0xbdc70963	-0.09718587
228	0x3d20dd9e	0.03927385
229	0x3ca0da23	0.019635266
230	0x3d6b3f86	0.057433628
231	0xbd3591c8	-0.04432848
232	0xbd731a5f	-0.05935132
233	0xbd5fde31	-0.054655258
234	0xbd8b4557	-0.06800335
235	0xbd0a14bd	-0.033711184
236	0xbc0c1574	-0.008550037
237	0x3de84c5a	0.11342688
238	0xbdc07ed9	-0.09399194
239	0xbd26c056	-0.04071077
240	0x3d8c0786	0.068373725
241	0xbd335021	-0.04377759
242	0xbd10bb06	-0.03533461
243	0x3d35591e	0.044274442
244	0x3d88fe0b	0.0668908
245	0x3e006c70	0.12541366
246	0xbdb52333	-0.08844604
247	0x3d866a16	0.06563203
248	0x3d347a33	0.04406185
249	0xbcf67028	-0.030082777
250	0x3d1dea24	0.038553372
251	0x3d11b191	0.03556973
252	0xbbc1b2d9	-0.005911213
253	0x3dee87c4	0.11646989
254	0xbda06074	-0.07830897
255	0x3cf24d78	0.029577956

fc.2.bias f4 [64]
0	0xbe5d715b	-0.21625273
1	0xbb85b270	-0.0040801093
2	0xbc3c106d	-0.011478526
3	0xbba04bcc	-0.004891848
4	0xbc387f15	-0.0112607675
5	0x3d2b8921	0.041878823
6	0xbcdf7acc	-0.027280234
7	0xbeb2cb19	-0.34920576
8	0x3d7d5ed7	0.061858024
9	0xbd1eeaa8	-0.038798004
10	0x3beb1d92	0.007175156
11	0x3dab7c0f	0.08373272
12	0xbea492b7	-0.32143185
13	0x3cebbeaa	0.02877744
14	0xbdd7ff7b	-0.10546776
15	0xbc920f9c	-0.017829709
16	0xbdbaa93d	-0.09114311
17	0x3d20e053	0.039276432
18	0xbc4cb29e	-0.0124937575
19	0xbd63de00	-0.055631638
20	0x3e449934	0.19199067
21	0x3e9404da	0.2890995
22	0xbd620d2b	-0.05518834
23	0x3d412834	0.04715748
24	0x3da4f076	0.08053677
25	0xbdf3e026	-0.11907987
26	0xbcffb29c	-0.031213097
27	0xbc6b8d10	-0.014376894
28	0x3d9e51d8	0.07730454
29	0x3daf5a5c	0.085621566
30	0xbe03ffc6	-0.12890539
31	0xbdc02b9d	-0.093833186
32	0x3d09bbcd	0.033626366
33	0xbe8a3337	-0.269922
34	0x3be9bdd9	0.0071332273
35	0x3c115c57	0.008872113
36	0x3cf8d657	0.030375643
37	0xbe2181f8	-0.15772235
38	0x3cf6e7ac	0.030139767
39	0x3d944221	0.072391756
40	0x3e2a9b1d	0.16660734
41	0xbcc9bd65	-0.024626443
42	0x3cdcb61c	0.026942305
43	0xbdac2fa6	-0.08407526
44	0xbb4f2628	-0.0031608436
45	0x3d25293d	0.04032253
46	0xbe2172bc	-0.15766424
47	0xbe48cd71	-0.1960962
48	0xbc334764	-0.010942314
49	0x3bf7124a	0.007540022
50	0x3da4db89	0.080496855
51	0x3ca9d6b8	0.020732269
52	0x3cc24673	0.023715233
53	0x3eb3a1e1	0.3508444
54	0x3d730623	0.059332024
55	0x3d674052	0.056457825
56	0x3b005c9c	0.001958645
57	0x3d65b8ce	0.056084447
58	0xbeb2d199	-0.34925535
59	0xbbd4520e	-0.0064795082
60	0x3c804489	0.01565768
61	0x3e274402	0.16334537
62	0x3c0f60bb	0.00875109
63	0xbe1375b7	-0.14400373

fc.4.weight f4 [32, 64]
0	0xbc4334ea	-0.011914471
1	0xbd7f8cd2	-0.062390156
2	0xbdc2461a	-0.09486027
3	0x3e01025b	0.12598555
4	0xbb9c1990	-0.0047637895
5	0xbd2a0ae3	-0.04151429
6	0xb969f340	-0.00022311229
7	0xbd73cdb0	-0.05952233
8	0x3d92a430	0.071602225
9	0xbda2cdd6	-0.07949416
10	0x3ebe1388	0.37124276
11	0x3b71deac	0.0036906404
12	0xbcfe566e	-0.031047072
13	0xbd08e8e2	-0.03342522
14	0xbf1ebbb2	-0.6200515
15	0x3d837b2c	0.064199775
16	0x3cc47392	0.02398089
17	0xbdc26976	-0.09492771
18	0xbd7e6957	-0.06211218
19	0xbe055376	-0.13020119
20	0xbd357c8a	-0.044308223
21	0x3c8cc852	0.017185364
22	0x3dd534b1	0.10410441
23	0x3da3fdea	0.08007415
24	0xbc950b3b	-0.018193832
25	0x3c68087e	0.014162181
26	0xbc193a18	-0.00935223
27	0xbd8eefd0	-0.06979334
28	0xbd19cb64	-0.037547484
29	0x3e2d5c69	0.16929783
30	0xbd8e4bb2	-0.069480315
31	0xbb87bb61	-0.0041422104
32	0xbd49a727	-0.049231675
33	0xbd2c5733	-0.042075347
34	0x3e0e89c9	0.13919748
35	0xbc8c792f	-0.017147629
36	0x3b4a741e	0.0030891965
37	0x3cb95a62	0.022626106
38	0xbcfba99d	-0.030720526
39	0x3e15e07a	0.14636412
40	0xbd7308d9	-0.05933461
41	0x3de82086	0.11334328
42	0xbbdb5b48	-0.006694231
43	0xbd23b4aa	-0.039967217
44	0xbde94424	-0.1138995
45	0x3cda5999	0.026654052
46	0xbd99f049	-0.07516534
47	0xbdd9e2d0	-0.10638964
48	0xbcc72920	-0.024311602
49	0xbda7548a	-0.081704214
50	0xbc5ff918	-0.013670228
51	0x3d833013	0.06405654
52	0xbe018d86	-0.12651643
53	0xbdb1a3de	-0.08673833
54	0x3d8d81f6	0.06909554
55	0xbdd9832d	-0.10620723
56	0x3d769dcb	0.060209077
57	0xbb6664cc	-0.0035155294
58	0xbe47b867	-0.19503938
59	0x3ddb49e2	0.107074514
60	0xbdf7ea3a	-0.12105222
61	0x3e2ebbae	0.17063782
62	0x3dd28d1d	0.102808215
63	0xbdc79c6e	-0.097466335
64	0x3d8509f6	0.064960405
65	0xbdbb25f9	-0.09138102
66	0x3d962378	0.07330984
67	0xbd8b7075	-0.06808559
68	0x3d7994e6	0.060933016
69	0x3daf0965	0.08546714
70	0xbd2c46b8	-0.04205963
71	0x3d5cb369	0.053882036
72	0x3d1b1823	0.037864815
73	0x3d8c1a3c	0.06840941
74	0x3c91ca1e	0.017796572
75	0xbdeeda4e	-0.11662732
76	0xbd43606a	-0.04769937
77	0xbd4308f9	-0.04761598
78	0xbcd177d2	-0.02556983
79	0xbdbd986d	-0.092575885
80	0x3dd85edf	0.1056497
81	0xbced0329	-0.028932171
82	0xbdf971b3	-0.121798895
83	0x3df3155f	0.118693106
84	0x3d99a176	0.07501499
85	0xbde8c945	-0.11366514
86	0xbdc730db	-0.09726115
87	0x3d1ec285	0.038759727
88	0xbac1c7ec	-0.0014784313
89	0x3d5a8afe	0.05335521
90	0xbdf6ab9f	-0.12044453
91	0xbda3768a	-0.07981594
92	0xbd702587	-0.05862954
93	0x3da7b416	0.081886455
94	0xbdc1d79c	-0.09464952
95	0xbdd25be7	-0.10271435
96	0xbe139b6e	-0.1441476
97	0x3da016ff	0.07816886
98	0xbd94ed33	-0.07271805
99	0x3d8b5e24	0.06805065
100	0xbda4f8d2	-0.08055271
101	0x3c318f0c	0.010837328
102	0x3e175e44	0.14782053
103	0x3d9ff00f	0.078094594
104	0xbda24370	-0.07923019
105	0x3d22f17e	0.039781086
106	0x3da4b44b	0.08042201
107	0xbd57696c	-0.052590773
108	0x3cb9eb47	0.022695197
109	0x3dc58a1e	0.096454844
110	0x3cad3875	0.021145085
111	0x3b706388	0.003668042
112	0xbd5bcddd	-0.053663123
113	0x3c362381	0.011116863
114	0xbd679263	-0.05653609
115	0x3c7a83ae	0.015290184
116	0xbc9e8301	-0.019349577
117	0xbd84f848	-0.064926684
118	0xbd600773	-0.054694604
119	0xbe097bf0	-0.13426185
120	0x3e0f63b5	0.14002879
121	0x3c32681d	0.01088908
122	0x3d67cea0	0.056593537
123	0xbe08101a	-0.13287392
124	0x3d8c9498	0.068642795
125	0xbe1cd568	-0.15315783
126	0xbb2d892c	-0.0026479466
127	0x3dc2fb08	0.09520537
128	0xbdc25413	-0.09488692
129	0xbdf1a581	-0.117991455
130	0x3d55afaa	0.05216948
131	0xbd022426	-0.031772755
132	0xbd77d6a0	-0.060507417
133	0xbce6223f	-0.028092502
134	0x3cc074a2	0.023493115
135	0xbe0a8e0f	-0.13530754
136	0xbe04ff45	-0.12988003
137	0x3d9cb0d3	0.07650914
138	0xbc14be71	-0.009078608
139	0x3da11171	0.07864655
140	0xbd6c7fc3	-0.05773903
141	0xbd6411e2	-0.055681117
142	0xbd963aa5	-0.07335404
143	0xbde6746b	-0.11252674
144	0xbdc50a71	-0.09621132
145	0xbcbad312	-0.022805724
146	0x3d983464	0.07431868
147	0xbdadd681	-0.08488179
148	0xbe06338c	-0.13105601
149	0xbb98f8e4	-0.004668342
150	0xbe224e32	-0.15850142
151	0xbc2e2fa0	-0.010631472
152	0x3dd0a281	0.10187245
153	0xbd91a60e	-0.071117505
154	0x3d1928af	0.037392315
155	0x3c8c80af	0.017151205
156	0x3deb4235	0.11487237
157	0xbe0edda1	-0.13951732
158	0xbd49b6ca	-0.049246587
159	0xbcf09620	-0.02936846
160	0xbd5970d6	-0.053086124
161	0x3c2ca685	0.010537748
162	0x3da7db46	0.0819612
163	0xbe191d11	-0.14952494
164	0xbdd23834	-0.10264626
165	0xbe0522cc	-0.13001555
166	0x3e022e99	0.12713088
167	0xbcef9bcc	-0.029249094
168	0xbb6888cc	-0.0035481928
169	0xbc0eb515	-0.0087101655
170	0x3db8d996	0.09025876
171	0x3c90cf60	0.01767701
172	0x3d8e3e45	0.06945471
173	0x3c54aa3c	0.01298004
174	0xbcfd02a1	-0.030885043
175	0xbdf4f1cc	-0.119601816
176	0xbc7d00c3	-0.015442076
177	0xbcc346f0	-0.023837537
178	0xbe196c55	-0.14982732
179	0x3dad6261	0.0846603
180	0x3e0074a6	0.12544498
181	0x3dc621b4	0.09674397
182	0xbe216bf1	-0.15763833
183	0x3dbd001d	0.09228537
184	0xbd9759f6	-0.073902056
185	0x3d8a034b	0.06738909
186	0x3d5894e9	0.052876387
187	0xbdf41dce	-0.11919747
188	0xbd548d96	-0.05189284
189	0xbd1ac497	-0.03778514
190	0x3db98b13	0.090597294
191	0xbd92adb6	-0.07162039
192	0xbe264c45	-0.16240032
193	0xbd36b7c0	-0.04460883
194	0xbc6581fe	-0.014008043
195	0xbe408a84	-0.1880284
196	0xbc5d7ab2	-0.013518022
197	0x3d57f1f2	0.05272097
198	0xbe025be0	-0.1273036
199	0x3e50d5b7	0.20394026
200	0x3cd16abd	0.025563592
201	0xbe109efa	-0.14123145
202	0xbd252794	-0.040320948
203	0x3db1a07e	0.086731896
204	0x3ded45da	0.11585589
205	0x3d25c8f3	0.040474843
206	0x3e80f998	0.25190425
207	0x3d3b9520	0.045796514
208	0x3b969b43	0.0045961454
209	0xbcdc3e66	-0.026885223
210	0xbe0b439b	-0.13600008
211	0x3dc85698	0.097821414
212	0xbcc1ae62	-0.023642723
213	0xbe279826	-0.16366634
214	0xbcee0c42	-0.02905858
215	0x3cdcb943	0.026943808
216	0xbd15534f	-0.036456402
217	0xbd29d0ac	-0.04145877
218	0xbd1aa5da	-0.037755825
219	0xbb873874	-0.004126603
220	0x3df31dde	0.11870931
221	0x3e00e651	0.12587859
222	0x3d52b9c2	0.051446684
223	0xbb8843ac	-0.0041584577
224	0xbdc1cd38	-0.094629705
225	0x3ca00def	0.019537894
226	0x3ce9624c	0.028489254
227	0xbde844d7	-0.11341255
228	0x3d6601ca	0.05615405
229	0xbe483486	-0.19551286
230	0xbd289208	-0.04115489
231	0x3d714d2a	0.05891148
232	0x3dcfcb96	0.10146253
233	0xbd6eafe0	-0.058273196
234	0x3c658f49	0.014011213
235	0xbdd2b918	-0.1028921
236	0x3df252b6	0.11832182
237	0x3d6b9af5	0.057520825
238	0xbd3abd75	-0.045590837
239	0xbdfc1155	-0.12307993
240	0x3c4a9ed4	0.012366969
241	0xbdb9c62e	-0.09071003
242	0x3dedea74	0.11616984
243	0x3cba5e66	0.02275009
244	0x3db62a47	0.088947825
245	0x3db7af6b	0.08969005
246	0xbdc50bfa	-0.09621425
247	0x3d928ab2	0.0715536
248	0x3bd22880	0.0064135194
249	0xbddcb29d	-0.10776255
250	0x3e504c59	0.20341624
251	0x3dde80d1	0.108644135
252	0x3d327aa8	0.043574005
253	0x3e7de2f7	0.24793611
254	0x3e617121	0.22015812
255	0x3e2c4109	0.16821684

fc.4.bias f4 [32]
0	0x3cf0ac1d	0.029378945
1	0x3be3ad6e	0.0069481647
2	0xbce1b51b	-0.027552178
3	0x3d90e1fd	0.07074354
4	0xbc88ee78	-0.016715273
5	0xbe1d233f	-0.15345477
6	0x3e2b409d	0.16723867
7	0xbdaf870b	-0.08570679
8	0xbda05b5a	-0.07829924
9	0xbbe85a5c	-0.00709085
10	0x3dbc9806	0.09208684
11	0x3df35686	0.118817374
12	0x3dc96f4a	0.0983568
13	0x3cced2ea	0.025247056
14	0xbce39c6e	-0.027784552
15	0xbda2d627	-0.079510026
16	0x3df040b2	0.1173109
17	0x3cc451ae	0.02396473
18	0xbe4e5af4	-0.20151883
19	0xbc69204a	-0.01422889
20	0x3dee0159	0.11621351
21	0xbd8b4870	-0.06800926
22	0x3e0a6c9b	0.13517992
23	0x3eb2479b	0.34820256
24	0xbd8b5101	-0.0680256
25	0xbe0458ce	-0.12924501
26	0xbe294012	-0.16528347
27	0xbdb5c066	-0.08874588
28	0xbdf9812c	-0.12182841
29	0xbd67ac11	-0.05656058
30	0x3ddbb24b	0.10727366
31	0x3e7c9c56	0.24669012

fc.6.weight f4 [3, 32]
0	0xbe42a470	-0.1900804
1	0xbd8137d0	-0.063094735
2	0xbe2a9a81	-0.16660501
3	0x3d518b74	0.051158383
4	0xbdb9b705	-0.09068111
5	0x3d54b1b2	0.051927276
6	0xbd9853af	-0.074378364
7	0xbdcc6562	-0.09980275
8	0xbda5f2c6	-0.08102946
9	0xbe11577c	-0.14193529
10	0x3e10cb84	0.14140135
11	0xbe0568a5	-0.130282
12	0xbe38b7b7	-0.18038832
13	0xbd104f02	-0.035231598
14	0x3c03a868	0.008035757
15	0x3ddd6aa2	0.10811354
16	0x3c7cc754	0.015428383
17	0xbd9fc666	-0.078015134
18	0xbdf080b6	-0.117433
19	0xbe0cbc9b	-0.13743822
20	0xbe0b0fe8	-0.13580287
21	0x3e16f9da	0.14743748
22	0xbdcd7d8c	-0.10033712
23	0xbe98436e	-0.29738945
24	0x3d5621a0	0.05227816
25	0xbc61f634	-0.01379161
26	0x3d92099e	0.071307406
27	0x3dea58d4	0.11442724
28	0xbd55fcdc	-0.0522431
29	0xbe017d0a	-0.12645355
30	0xbd781a57	-0.060571995
31	0xbe9d1506	-0.30680102
32	0x3da48e00	0.08034897
33	0xbdd3076f	-0.10304152
34	0x3d0522c9	0.032503877
35	0xbdf68914	-0.12037864
36	0x3d9b4797	0.07582014
37	0x3c91ea99	0.01781206
38	0x3e5bfc63	0.21482997
39	0xbe07a3de	-0.13246104
40	0xbdecfc2a	-0.11571534
41	0xbc0d464d	-0.008622718
42	0x3dc7db34	0.097586066
43	0x3e77eef6	0.2421225
44	0x3e408672	0.18801287
45	0x3e1533cc	0.1457054
46	0x3e315ca2	0.17320493
47	0xbe05f11a	-0.13080254
48	0x3e534bf3	0.20634441
49	0x3cb77fb4	0.02239976
50	0xbe112856	-0.14175543
51	0xbd94bb74	-0.07262316
52	0xbc1deb7a	-0.0096386615
53	0xbcabfc77	-0.020994408
54	0x3dc637e1	0.09678627
55	0x3e2dd152	0.1697438
56	0xc007a30e	-2.119327
57	0xbf013a7f	-0.5047988
58	0xbe91cc7f	-0.2847633
59	0x3e0dfea2	0.13866666
60	0xbe1cc411	-0.15309168
61	0x3d38bea0	0.04510367
62	0x3e15090a	0.1455423
63	0x3d84f197	0.06491392
64	0xbcb49e1b	-0.022048047
65	0x3c4d1e38	0.012519412
66	0xbcc9fe9d	-0.024657542
67	0x3e7030de	0.23456141
68	0xbe313fba	-0.17309466
69	0xbd9b9537	-0.0759682
70	0x3e537bbc	0.2065267
71	0x3e3c1ad8	0.18369615
72	0x3dd3bedc	0.10339138
73	0x3e6abe12	0.22924069
74	0x3d4452da	0.047930576
75	0x3e137a35	0.14402087
76	0xbe063646	-0.13106641
77	0xbe2229d1	-0.15836264
78	0xbdb466d6	-0.08808677
79	0xbda0b186	-0.0784636
80	0x3dfc2c12	0.12313093
81	0x3e2a66b1	0.16640736
82	0x3df82a9c	0.12117502
83	0x3d088da5	0.033338208
84	0xbd7e9692	-0.062155314
85	0xbc84580e	-0.016155269
86	0x3ca9a186	0.020706903
87	0xbd862f47	-0.06551986
88	0x3e92dd01	0.28684238
89	0xbe01ea46	-0.12687024
90	0x3e0b91f6	0.13629898
91	0xbe416fcf	-0.18890308
92	0xbe05472f	-0.13015436
93	0x3d9ef750	0.07762015
94	0xbcef3537	-0.02920018
95	0x3e3a1712	0.18172863

fc.6.bias f4 [3]
0	0xbdfb75c8	-0.12278324
1	0x3e8b1fe7	0.27172777
2	0x3dd1a004	0.10235599
