Genetic_Models/dino_genetic_model67.pth (torch, 48732 bytes, 8 tensors)

fc.0.weight f4 [128, 6]
00000000: 075b 1c3d 3721 653e 882e 9bbe 4e94 873e
00000010: 0299 f6bf 036d a9bf c675 76be d68a 893d
00000020: 8bc5 463e 9851 5abe 82a1 9f3e ddd9 463e
00000030: 7152 f6bc 3336 67be 337c 9bbe 284b 583e
00000040: c00d 32c0 9a7b 33c0 06fa 013c 4026 a13d
00000050: fbe5 50be 6131 2c3e 918c f03f f216 0f40
00000060: dd78 b0be 00f7 57be 2977 4ebd 38ba 22be
00000070: 3992 b33e 66be 3abe 99ba 933e bf24 32be
00000080: 530b febd 703f 553e 974e f6bf 6339 03c0
00000090: 33d2 df3e c280 afbc 2c12 063e 78b0 b8bd
000000a0: e8a0 2fc0 db2d 3dc0 494a eb3d 7bb6 b43e
000000b0: 3945 45be 3b8b 5ebe 3a21 3fbf 646f 03c0
000000c0: cbee e9bd 458f a4be b3ff a5bd 3861 a33d
000000d0: 6806 63be 5153 f4bd 8b79 14be f6d9 2e3e
000000e0: 9b54 803c cd7c a8be 8d0e c03c e10c 9c3d
000000f0: ddc6 4e3e ea5b 79be 267c 743e 5b25 a4be
00000100: 7abb 083e c6bb e4bd 42d1 debd 336e 823e
00000110: 205c 32be 7155 283e efc8 e73f 8e25 4fbf
00000120: fccb 163e f168 97be 67ec 853e eb86 31be
00000130: 052d d03d eb15 c53e 56cf 03be 3e78 663c
00000140: e36d 483e 7a54 47be b39b a3bd aedb ce3d
00000150: 26c2 993e d906 b93d b032 15be 6d57 c2be
00000160: 2f82 67c0 bdac 66c0 fe2c 8dbb 067a 373e
00000170: 0edc 42bd 6d27 c0be 46e1 cc3d 3fd6 96be
00000180: 34b3 413c 9eb8 6fbe ff7b c83d d4b4 5c3e
00000190: 4ad2 0840 45bd f4be 0edc d63e 6307 b3be
000001a0: b338 60bc 863e bfbd 6b7f f53f e88c 4b3f
000001b0: e2fc cfbc 839a 17be 2bc8 18be 4f05 6b3e
000001c0: 088e 0e40 6076 6f3f b614 06be cbd1 a83e
000001d0: 6c35 a43d b7d6 eebd 01d5 17c0 cc83 28c0
000001e0: 5be2 d73e e4a0 923e 76ac 1f3d ee1f 9a3e
000001f0: dd02 64bf ce8a c13f edc1 09be 4710 cbbe
00000200: 68f4 883e 2bd1 963d 5af8 8a3e 5f05 5cbe
00000210: a54d c03e 107b 40be f368 043f 2ea5 c4be
00000220: f4da ad3f 854f ad3f 08bc 263e c29c 0e3e
00000230: 1e76 c93e 43b1 3abe bb19 1dc0 964c 29c0
00000240: 0edc 913e 01a5 883d 7157 babd 8da4 773e
00000250: 6958 e2bf f4cd 6cbd 9e6e 94be d50d 833e
00000260: bc22 c3be a246 f03d 63ea cf3f 3c3e f53f
00000270: 1cdf 3b3e c823 fabd ebf7 33be 4889 f63d
00000280: c2a2 31c0 7321 15c0 0f1d 893d 9bae d73e
00000290: 2b36 33be 59e7 e2be 315e 10bf cc5e c13f
000002a0: 2fca c0bd e5c4 8a3e 46f9 b0bd 1670 153c
000002b0: d0a7 0840 50c5 b03f ebb8 9fbe 4485 36be
000002c0: 5166 4e3e 4606 583d 2a09 d33d b9df 12be
000002d0: 23d2 90be 95a6 2bbd 5dc5 be3e 1178 b1be
000002e0: 5bb7 9c3e a32e c93d 0da1 d8bd c608 a63d
000002f0: 05d7 df3d 7664 f53c 11c8 db3f 42e8 febf
00000300: cd3c 98bd 9129 513e 6537 9a3e e28e 10be
00000310: 94db 2740 4e19 b23e 7362 15be f1f9 933e
00000320: 8c92 74be ed5b 263e 6c05 40be c5fb 19c0
00000330: bf8c 1bbe bedd 43be 6868 b0bd 6914 103e
00000340: a05e 0ac0 2b12 2540 7fdb 86be b5d8 7fbe
00000350: 81f0 8e3e cbe9 db3e 1946 fa3f 0340 c6bf
00000360: 09fd 43bf 2622 62be 4555 a63d 7d8c 3c3e
00000370: 1c15 72c0 fc79 fcbf c142 093e e6c1 ed3d
00000380: 5de2 c9be ad70 723e e467 843f e447 db3f
00000390: b04a ee3e 0d95 9b3d 1a9a 6abf b70f d3be
000003a0: 592f 8a3f 7e5e e63f cc60 e83c 6737 6cbe
000003b0: fac8 a0be 1847 ec3d 2610 ba3f 3c1c fabf
000003c0: 9151 903e 8dc8 c63d fed3 34bd e7eb 943d
000003d0: 0688 e83e 9d22 18c0 6d05 8fbe 156f ec3d
000003e0: 060a 11be f6ae a33d 3814 21c0 5559 d2bf
000003f0: 5d6c 873e 12d4 ab3d 7452 c6be e6c3 233e
0.038172748 0.22375952 -0.30308938 0.26480335 -1.9265444 -1.3236393 -0.24068365 0.06715934
0.19411294 -0.21320188 0.31177908 0.19419046 -0.030068608 -0.22579269 -0.30368194 0.2112242
-2.7820892 -2.804419 0.007933145 0.07868624 -0.2040023 0.16815712 1.8792897 2.2357755
-0.3446721 -0.21090317 -0.05040661 -0.1589135 0.35072497 -0.18236694 0.288533 -0.1739683
-0.12404504 0.2082498 -1.9242734 -2.0503776 0.43715057 -0.021423701 0.1309287 -0.09018034
-2.744196 -2.9559238 0.11488778 0.35295472 -0.19264688 -0.217328 -0.74660075 -2.0536737
-0.11422499 -0.32140556 -0.081054114 0.079775274 -0.22170413 -0.11929954 -0.1449949 0.17075333
0.015665343 -0.32907715 0.023444438 0.07619644 0.20193048 -0.24351469 0.23875484 -0.3205975
0.13352767 -0.111686274 -0.108797565 0.254747 -0.17417955 0.16438843 1.8108195 -0.8091668
0.14726251 -0.2957225 0.26156923 -0.17336623 0.10164837 0.38493285 -0.12872061 0.014066754
0.19573168 -0.19465819 -0.07988682 0.10100494 0.30030936 0.09034509 -0.14570117 -0.37957326
-3.6173208 -3.604293 -0.004308342 0.17917642 -0.04757314 -0.3753008 0.10003905 -0.29460332
0.0118225105 -0.2341027 0.097892754 0.21553355 2.137835 -0.4780065 0.41964763 -0.34966573
-0.013685393 -0.09338097 1.917951 0.7951188 -0.025389139 -0.14805035 -0.14920108 0.22951244
2.227419 0.9354 -0.13093838 0.3297256 0.08018002 -0.11662047 -2.3723757 -2.6330442
0.42164883 0.28638375 0.03898283 0.30102485 -0.8906687 1.5120485 -0.13452883 -0.39660856
0.26748967 0.073641144 0.27142602 -0.21486424 0.37559238 -0.18796945 0.5172264 -0.38407272
1.3582444 1.3539892 0.16282666 0.13926986 0.3934793 -0.18231682 -2.4546955 -2.6452994
0.284882 0.06672097 -0.090987094 0.24183865 -1.7683231 -0.0578136 -0.28990644 0.2559649
-0.38112438 0.11732222 1.6243404 1.9159617 0.18346828 -0.12213856 -0.17575042 0.12037903
-2.775559 -2.3301666 0.066949956 0.421254 -0.17501132 -0.4431713 -0.56393725 1.5107055
-0.094135635 0.27103344 -0.08641295 0.009120962 2.1352425 1.3810215 -0.3119577 -0.17824274
0.20156218 0.052740358 0.10304482 -0.14343156 -0.28285322 -0.041906912 0.3725995 -0.34661916
0.3060864 0.098233484 -0.10577593 0.08107142 0.109296836 0.02995513 1.717043 -1.991463
-0.07433472 0.20426013 0.30120388 -0.14117005 2.622777 0.3478493 -0.14588337 0.28901628
-0.23884028 0.16246004 -0.18752068 -2.4059918 -0.15190409 -0.19127557 -0.08613664 0.14070286
-2.1620255 2.579234 -0.26339337 -0.24985011 0.27917865 0.42951807 1.9552642 -1.5488285
-0.76557976 -0.22083339 0.081217326 0.18412967 -3.7825384 -1.9724727 0.13404371 0.11609249
-0.39430514 0.23675795 1.0344205 1.7131314 0.46541357 0.075967886 -0.9164139 -0.41222927
1.0795699 1.7997587 0.028366469 -0.2306801 -0.31403333 0.115369976 1.4536178 -1.9539866
0.2818723 0.09706221 -0.044147484 0.07271557 0.45416278 -2.3771126 -0.27933827 0.11544625
-0.1416398 0.079923555 -2.516859 -1.6433512 0.26449862 0.083900586 -0.38734782 0.15992698

fc.0.bias f4 [128]
00000000: 3b35 453e fdcf 2cbe b110 833e c7e0 db3d
00000010: 9115 ba3e decf 0a3e a4bc 22bf d139 2bbf
00000020: 357a a7be 4571 5a3e ce43 bf3d 96b4 dbbe
00000030: 3fbb 8dbd 0a65 763e 7cd5 073f 7302 9d3e
00000040: 216c d7be a9d0 87be 12f7 0e3d 77c5 98bd
00000050: 42ba aabc 69a2 28be b98e a4bc 2dd4 43be
00000060: 8d39 283e 28ba bdbe 24d4 4a3d 48d3 88bd
00000070: eda6 9a3c de96 93bd 355f a0bd f827 a1be
00000080: d6db b53d 6de3 d7be c6bf 673e 067b abbc
00000090: fe0f 2d3f a6c2 bebe 0368 1cbf 28b1 c0be
000000a0: aeb0 11bf 8e30 393d 1df3 fe3d 4b06 ad3e
000000b0: d6e4 83be db98 c4bd a9ad 283e a568 943e
000000c0: 0771 5bbe f266 01be ebe8 b33d 4cfb 0e3e
000000d0: b32b 9e3e 67f6 4bbe abd4 cabd 7431 9fbe
000000e0: 4b68 5bbe b86f 1abf 1ce4 a13d 1357 1b3e
000000f0: c416 2abd a6b3 1a3c 2c8a 813d 79df 9a3e
00000100: 1928 d23d 07f1 e6be 7561 263e 3bfe 8ebe
00000110: 8558 fd3e fbb8 a53e 20f9 12bf bbad ab3e
00000120: baa7 00bd 352b 1dbd eb60 503e 56af 18bf
00000130: cf27 cfbe 3bc0 d8be 3754 c0be 1199 973e
00000140: 264d 783e 1318 e4bd 48f3 a2be b796 88be
00000150: 46e2 edbd 7db7 fd3e 0eee 81be 955d 0cbd
00000160: b130 f9be d50c 8e3e 4b1d a23e 65d4 87be
00000170: 9557 b03d dc8b 293d eaf8 9f3e 1b59 0dbf
00000180: c421 92bb 5b76 dabd b9fd 6cbe 4b5b 24bf
00000190: 0807 153f 19e4 b13e 72a4 30bc cbfb 2abe
000001a0: 172e c83d a29a 0d3d 8e2a abbe 6f14 d6bc
000001b0: 874f 243e f4cc 0ebe f34d 483e 3126 99bd
000001c0: 1c44 cebd 68c4 f5bd fc3b bf3c e5c8 2b3e
000001d0: fed8 59be f82a 95be 126a 283e 8456 28bd
000001e0: e407 83be e88a bf3e 8b1e b9be f6e5 0f3e
000001f0: 6d3b 313e c386 0f3f 298b c6be 3468 b43e
0.19258587 -0.16876216 0.25598672 0.10736232 0.3634458 0.13555858 -0.6356909 -0.66885096
-0.32710424 0.21332271 0.093391046 -0.42911214 -0.0692048 0.24061981 0.53060126 0.3066593
-0.42074683 -0.26526383 0.034903593 -0.074595384 -0.020840768 -0.16468205 -0.020087587 -0.19123907
0.16428204 -0.37056088 0.04951872 -0.06680924 0.018878425 -0.0720651 -0.07830659 -0.31475806
0.08879821 -0.421657 0.2263175 -0.020932686 0.6760253 -0.3725788 -0.6109621 -0.3763516
-0.56910217 0.04521232 0.12448714 0.33793864 -0.25760525 -0.09599467 0.16472496 0.28986087
-0.21429835 -0.12636927 0.0878466 0.1396305 0.30892715 -0.19918214 -0.099038444 -0.31092417
-0.21426503 -0.6032672 0.079048365 0.15169935 -0.041525617 0.009442246 0.06325182 0.3024862
0.10261554 -0.45105764 0.16248114 -0.27928337 0.49481598 0.3236769 -0.57411385 0.33530983
-0.031409957 -0.038371284 0.20349471 -0.5964254 -0.4046006 -0.4233416 -0.3756425 0.29608968
0.2424818 -0.11137404 -0.31826234 -0.26677486 -0.11615424 0.49554053 -0.25376934 -0.034268934
-0.4866996 0.27744165 0.31662974 -0.26529232 0.08610455 0.041393146 0.31244594 -0.5521409
-0.0044595916 -0.10667106 -0.23143663 -0.642018 0.58213854 0.34744337 -0.010781394 -0.16697614
0.09774416 0.034571297 -0.33430904 -0.02613279 0.16045962 -0.13945371 0.19560985 -0.074779876
-0.100715846 -0.12000352 0.023344032 0.16775854 -0.21274182 -0.29134345 0.16446713 -0.041098133
-0.25591958 0.37410665 -0.36156115 0.14052567 0.17307825 0.56065005 -0.38778046 0.3523575

fc.2.weight f4 [64, 128]
00000000: 5934 c3bc ef08 883d 56f7 10be 0386 1a3d
00000010: 2257 98bc d78d e3bd 03fb 1c3e 840c 8d3d
00000020: 28c1 1c3d 1f86 c83d b89d af3a d8b2 e83d
00000030: b054 b03d ebc2 7ebd 5a4f 30bf 41a4 27bd
00000040: 68e6 eb3d 7d8c 98be 3de0 9e3d b829 0f3b
00000050: aae4 92bd 8ab9 3abd 2921 2240 f054 0dbe
00000060: f246 8fbd d2fc 47bc ea29 c5bc a9f8 2dbe
00000070: 5f17 383d 2b5b 48bd b599 ca3d 1f87 0e3e
00000080: aea5 af3d d32c 183d fc2d d1be cec9 2fbd
00000090: 7ebb 953e b456 d33c d069 583d 9bc0 b9bd
000000a0: b847 a03d 66a0 b2bd 7429 38bd 542d 4bbb
000000b0: ca0d 3fbd eb58 f53b a676 2c3d 4f19 88bd
000000c0: a504 a4bf 1ca6 c03d 6c2f 02be 745b 25bc
000000d0: 439c 8a3c 11c3 91bc 8526 c03d 7cf9 c63d
000000e0: 943a b3bc 27a7 473d 443f 2bbd 8031 8d3d
000000f0: 52ad 303d af3d 74bd 7bee a6bd 973f b7bc
00000100: 44a9 333d 5e85 0d3d f2ed d33b ba9c ccbc
00000110: b94b 02bd 6664 a5bc 5105 6a3e 1bb7 86bd
00000120: a638 f9bb a37d 83bd e223 a9be b884 df3c
00000130: 446a bcbb 1c86 053e e82b 2d3d c73c 88be
00000140: faff 1abd 50a5 463d cf96 423e 72c1 44bd
00000150: aa2d e9bc 455f 63bd 0c7a 2abc 6298 a43c
00000160: 4ef2 d23c 78f1 e6bc 9346 933d bee4 f13c
00000170: c7e7 95bd 2394 8b3e 662c 0a3d ba40 893d
00000180: 892b 5dbc a794 20be a924 4cbc c971 ca3d
00000190: 675a a33e 8894 fb3c d4cd acbc 3972 20bd
000001a0: e323 eb3e bdb4 443d 56bd cfbb 1014 80be
000001b0: d4d8 1a3d 9963 a23c fc77 b43c c052 8c3e
000001c0: e05c 803d 0323 f3bd 12b8 c83c 4034 69bd
000001d0: a4f9 7b3b 9b62 03be efbc ed3d f9cb 0ebe
000001e0: b8ad acbc ca5e 1fbd 001f bab9 9c6b 1c3e
000001f0: ec04 1a3d 6a5e 563d daff a13d 740e 4a3d
00000200: 802a cb3d 1024 a8bc 34fe a3bc ff72 08be
00000210: 6ca2 b4bd 1b1b 623c 0110 ecbd 44aa 0abc
00000220: 8610 603c 5087 50bc c3b2 bc3d c6c8 f2bd
00000230: 3043 feba 6007 4ebd a1cd f93d 7007 b73d
00000240: 46b1 9bbd 395a bd3d 36b9 01be 1c28 323c
00000250: 249b 1e3d 089d 973d 7676 86bd deb8 8cbb
00000260: 55b5 46bd 1a5c a2bd 789a eeba 6e05 60bc
00000270: e48c 87bd e074 a2b9 9b11 8a3d b8ed d83d
00000280: dfc7 fdbd 8a78 f4bd d014 b5bd d28d 29bc
00000290: 7646 803d d765 533d 0d2c 213d 6032 97bc
000002a0: 2d4e e63c dc15 f13b 5e61 603c 9f49 38bd
000002b0: 67ac 4bbd 582a 92bc 4fa0 d83d f217 823d
000002c0: 2807 303d 5d2a 87bd 02fb 7cbd 606c 5bbd
000002d0: 6245 58bb ed53 04bd b1a6 a9bd aa61 8cbd
000002e0: 252a ea3d 5449 cabc 034a c3bd 3033 903b
000002f0: b7fa 943d fe81 cc3d 1a53 843d fb5a 713d
00000300: 9bfb c43d e70f 82bd abf7 3c3c ffd9 65bd
00000310: bc77 49bc 75a2 f6bc 4bf6 13bd b40a 833d
00000320: bc57 b6bc b671 8e3b 82d3 d43d 642d 503d
00000330: 64c6 f43a d0b2 b5bd 4049 493c f91c 75bd
00000340: 8c7a 253d e8fc 17bd db17 193d f29d a7bc
00000350: c458 3e3d 5413 ba3d 72b7 883c 7752 86bd
00000360: 5426 203d bc5f 7a3d cfa1 7abc 9cdf b6bd
00000370: 98f5 69bd 1202 443d c88a f63c 6ca4 b1bc
00000380: 7a20 91bd b8c7 3ebd d297 e5bd 6309 c7bd
00000390: 053e 193d 4809 223d a753 a43d e3b6 12bd
000003a0: 7f6e b7bd bd79 6bbd 5745 8bbd bd14 0abd
000003b0: 5e1e 053c f929 ca3d d97e c0bd c39a 25bd
000003c0: 5ca8 873d 2150 33bd 615d 0cbd 4a65 493d
000003d0: c0d0 853d 25f3 bd3d 09c3 92bd 166a 863d
000003e0: b293 453d c574 d4bc d56c 673c 0221 183c
000003f0: daff 8bbb c487 ee3d 1625 bfbd ed9e fe3c
-0.023828672 0.06642329 -0.14156851 0.03772546 -0.018596236 -0.11111038 0.15330128 0.06887153
0.038270146 0.097912066 0.0013398444 0.11362237 0.08609903 -0.062197607 -0.6887108 -0.04092813
0.11518556 -0.29794684 0.07757614 0.0021844935 -0.071725205 -0.0455871 2.533274 -0.13801932
-0.069959536 -0.012206273 -0.024067838 -0.16989388 0.044944163 -0.04891507 0.098925985 0.13918732
0.08576523 0.037152123 -0.40855396 -0.042917065 0.29244608 0.02579818 0.052835286 -0.0906994
0.07826179 -0.08722 -0.044961408 -0.003100236 -0.04664401 0.0074874065 0.04210534 -0.06645452
-1.2813917 0.09406683 -0.12713403 -0.010092605 0.016920215 -0.01779321 0.09382347 0.09715554
-0.021878518 0.048743393 -0.04180838 0.06894207 0.04313404 -0.05962914 -0.08150955 -0.02236919
0.043862596 0.034551017 0.0064675743 -0.024977077 -0.031810496 -0.020189475 0.2285359 -0.06577893
-0.00760563 -0.06420448 -0.3303519 0.027284965 -0.0057499725 0.1303944 0.0422782 -0.2660887
-0.037841775 0.048497498 0.19002841 -0.048036046 -0.028464157 -0.055510778 -0.010405075 0.020092193
0.025750306 -0.028191313 0.07191195 0.029528018 -0.07319599 0.27261457 0.033733748 0.06701799
-0.013499149 -0.15681706 -0.012459912 0.09884984 0.3190491 0.030710474 -0.02109424 -0.03917143
0.45925817 0.048023928 -0.0063397093 -0.25015306 0.03780444 0.019822882 0.02202987 0.27406883
0.062677145 -0.11871912 0.024501834 -0.056934595 0.0038448358 -0.12830584 0.11608302 -0.13944997
-0.02107893 -0.038908757 -0.0003549978 0.15275425 0.03760235 0.052336134 0.07910128 0.04933019
0.099202156 -0.020525008 -0.020018674 -0.13325118 -0.08820042 0.013800408 -0.1152649 -0.008463446
0.0136758145 -0.0127275735 0.092137836 -0.11854701 -0.0019398686 -0.050300002 0.12197424 0.089369655
-0.076021716 0.09245724 -0.12668309 0.010873821 0.038722172 0.07402998 -0.065655634 -0.004294499
-0.048512775 -0.07927723 -0.0018203994 -0.01367317 -0.0661867 -0.00030986127 0.06741639 0.10592216
-0.12391638 -0.119370535 -0.0884186 -0.010348754 0.06263439 0.051610794 0.03934865 -0.018456638
0.028113449 0.007357342 0.013695089 -0.044992086 -0.049724963 -0.017842457 0.105774514 0.063522235
0.042975575 -0.06599877 -0.061762817 -0.05357015 -0.003300034 -0.0323066 -0.08283747 -0.068545654
0.1143382 -0.024693169 -0.09535601 0.0044006333 0.072743826 0.099857315 0.06461163 0.058924656
0.096183024 -0.063506894 0.011533658 -0.0561161 -0.012296613 -0.030106762 -0.036123555 0.06398526
-0.022258632 0.0043470515 0.103919044 0.050824538 0.0018674848 -0.088719964 0.012285531 -0.059842084
0.040400073 -0.037106425 0.037376266 -0.020461056 0.046471372 0.09085718 0.016689036 -0.06558698
0.039099053 0.061126456 -0.015297367 -0.08929369 -0.057118982 0.047853537 0.030095473 -0.021684848
-0.070862725 -0.046577185 -0.11210598 -0.09718587 0.037412662 0.039559633 0.08023768 -0.035818946
-0.08956622 -0.057489146 -0.06800335 -0.033711184 0.008124916 0.09871287 -0.09399194 -0.040430795
0.06623909 -0.04377759 -0.03426874 0.049168862 0.065339565 0.09274892 -0.07166106 0.06563203
0.048236556 -0.025934586 0.014125069 0.009285213 -0.0042724432 0.11646989 -0.093332455 0.031081641

fc.2.bias f4 [64]
00000000: 9111 64be de39 aabb 083d 94bb 80d3 9b3a
00000010: 97fd 75bc ff0c e13c f6ae 8cbc 19cb b2be
00000020: 4526 213d 5bf4 28bd c39b 543c 1033 9f3d
00000030: a6fc a4be 3d98 923c a2cf ebbd bf3d a7bc
00000040: d7e8 9fbd 759b 3d3d 9eb2 4cbc 7eb8 95bd
00000050: 298b 2a3e 4158 8f3e 5463 60bd 6bf1 263d
00000060: 76f0 a43d 742e d7bd ccb4 17bd ebae 35bc
00000070: c0ec c03d 23a9 bf3d 6c6b 0dbe 9d2b c0bd
00000080: d2bc 183d 39f4 83be be95 9b3c d83e 003c
00000090: 57d6 f83c c410 36be a200 b43c 0cd9 9b3d
000000a0: 2b63 2e3e 65bd c9bc 85fd f53c a62f acbd
000000b0: d03d 20ba 89bc 5d3d 7ba9 22be 3993 30be
000000c0: 588d 07bd 4a12 f73b 15a4 b33d 2662 113d
000000d0: 7346 c23c 0f91 af3e ceee 903d 4573 4c3d
000000e0: 8447 4a3c 4a22 583d 6aaf afbe 1ee3 0abc
000000f0: a08f 043d 8a8d 223e f72c b83c 92a3 1dbe
-0.22272326 -0.0051948866 -0.004523877 0.0011888593 -0.015014074 0.027472017 -0.017173272 -0.34920576
0.039343137 -0.04124866 0.01297659 0.07773411 -0.32224005 0.017894858 -0.11514212 -0.020415185
-0.078080826 0.046290834 -0.0124937575 -0.0731058 0.16654648 0.2799702 -0.054782227 0.040757578
0.08053677 -0.10506907 -0.037037656 -0.011089067 0.094201565 0.09358432 -0.1381051 -0.093833186
0.037289448 -0.25772265 0.018992301 0.007827483 0.030375643 -0.17779833 0.021972958 0.07609758
0.17030017 -0.024626443 0.030028114 -0.08407526 -0.00061127264 0.05413488 -0.15884964 -0.17243661
-0.03309378 0.007540022 0.087715305 0.035493992 0.023715233 0.34290358 0.070767984 0.049914617
0.012346152 0.052767076 -0.34313518 -0.0084770005 0.032363534 0.15874305 0.022482378 -0.15394428

fc.4.weight f4 [32, 64]
00000000: 9399 cebc 8b1d 63bd 9223 a0bd 6694 f63d
00000010: 3da6 063c e30a 2abd d69a 10bc 6c68 77bd
00000020: e4ad 9a3c ad8b b6bd c784 bf3e 0071 063b
00000030: 3ada 75bd 0570 6dbd feee 1dbf 2c7b 833d
00000040: 4a48 703c 9077 d6bd e09d 43bd 7653 05be
00000050: bd53 32bd 94c1 6f3c f082 cc3d 2d63 b33d
00000060: 10ef 72bc 7e08 683c 22c2 afbb 9562 81bd
00000070: 2a53 d0bc 1a84 253e f6d3 75bd 3411 7bbb
00000080: 27a7 49bd 174a 2ebd e24a 0e3e 9c66 d6bb
00000090: 28bc 46bc e671 113d 8dcc 65bd b76f 1e3e
000000a0: f044 0ebd b998 f03d 36b4 8b3b 5967 14bd
000000b0: 5a19 efbd 1ea6 3f3d 49f0 99bd 3d26 debd
000000c0: c604 d0bc ad51 97bd d7bb 4dbd 42ff 613d
000000d0: 6922 f8bd 45be babd f79d a73d 2d83 d9bd
000000e0: 5621 133d 3549 40bc 67b8 47be e249 db3d
000000f0: be35 e3bd ade0 3c3e d0db cc3d 6e9c c7bd
00000100: 9db4 943d 98fb bfbd b1c7 943d 96cc 29bd
00000110: df1f b23c 7ee8 b33d 2cce 22bd 53e1 433d
00000120: 3262 003d ea42 a63d c657 7b3d 6dd9 e1bd
00000130: 9e14 26bd dd8c 62bd ef95 19bd d69c b3bd
00000140: df5e d83d 0b9a 0ebd b371 f9bd 509c 013e
00000150: a664 ab3d 6ba7 ecbd d6b5 40bd a0d4 083d
00000160: e770 193c caf7 ab3d 442e c3bd 8a76 a3bd
00000170: a7e9 82bd a551 bc3d 9cd7 c1bd e75b d2bd
00000180: a4be 01be 8ea3 a83d 093f 94bd 27e2 873d
00000190: d2f8 a4bd c8d6 25bc 445e 173e e4f8 8f3d
000001a0: d672 a9bd 43c2 7b3d 4b5f fc3d fa0a 72bd
000001b0: c873 d53c 1f5b e53d 73a1 2f3c 4034 c4bc
000001c0: 601e 34bd af06 b43c 6392 67bd bab7 873c
000001d0: 0183 9ebc 49b4 c6bd 0f99 43bd f07b 09be
000001e0: bace 163e aeb6 583d 3339 5b3d eb28 09be
000001f0: 9894 8c3d 68d5 1cbe acaf 953b 3949 ce3d
00000200: eef0 c3bd 4a37 04be 44d7 b03d 2575 99bc
00000210: 6cd6 61bd ec02 cebc a086 4b3d 3534 0dbe
00000220: ecd5 07be d7d5 833d 6bb9 06bd 988f 943d
00000230: 5e80 60bd 90be f7bc 94f4 96bd 6b74 e6bd
00000240: 6c4c bdbd df4f 22bd 6434 983d 85b6 a0bd
00000250: 8c33 06be 69ef 313c e5c7 2bbe 6262 21bc
00000260: 0104 ca3d 0ea6 91bd af28 193d 7aa6 d43c
00000270: f09f f73d a1dd 0ebe cab6 49bd 3600 64bd
00000280: 06d3 3fbd c5c3 0f3c 7f48 a53d d8f0 18be
00000290: 3438 d2bd e08d f1bd a8b7 e83d cc47 d4bc
000002a0: c1ab 4e3c c7ca bcbc aa11 f73d be43 d63c
000002b0: 16b1 8c3d 0bba 993c c644 13bd fc1c d1bd
000002c0: 5e53 34bc 27aa 22bd 556c 19be 47b8 9d3d
000002d0: 1b0c bc3d aaff b63d b54d 1cbe 328f ab3d
000002e0: 1ed4 adbd 0cf0 5b3d d3f8 673d 7056 efbd
000002f0: 1eca 7dbd 0eca 86bc 3479 cd3d c2fc a6bd
00000300: 454c 26be 1323 7cbd 2aec a7bc 9509 4abe
00000310: 023b 1d3b f2f1 573d 3074 12be 2d78 533e
00000320: 0056 40ba d5d7 0fbe 9721 2ebd 4d59 a33d
00000330: d9fc e93d 9dcf 533d 7ae4 823e b6ff 4b3d
00000340: ac55 c4bc 663e dcbc c23d d9bd 9856 c83d
00000350: 26b4 94bb 0321 26be 98fe cabc bfbe d83c
00000360: 4f53 15bd 307a 23bd 6847 0dbd 8151 b3bc
00000370: a00b eb3d 6b29 183e e484 6d3d 1d4a a3bc
00000380: e245 aebd c9d9 0c3d cd5b 013d 4afc 00be
00000390: 6667 433d dc5f 50be 0892 28bd 3e9f 793d
000003a0: 32d0 c73d 2ee3 51bd 498f 653c e327 e3bd
000003b0: 04ea 033e 5fa7 453d 84ab 5abd 5511 fcbd
000003c0: d49e 4a3c 5036 f3bd e0fa e53d 1428 7e3c
000003d0: b3c4 bf3d 6baf b73d b725 d1bd 0d3f 823d
000003e0: f8d0 63bb 736e d4bd d477 503e e205 cb3d
000003f0: 5dd6 633d 0102 863e d505 4c3e 0529 233e
-0.025219714 -0.055448096 -0.078192845 0.120400235 0.008218345 -0.04151429 -0.008825978 -0.06040232
0.018881746 -0.0891336 0.3740599 0.002051413 -0.06002257 -0.05796816 -0.616928 0.064199775
0.014665673 -0.104720235 -0.047757983 -0.13020119 -0.04353689 0.014633555 0.09985912 0.08759151
-0.014827505 0.014162181 -0.0053637186 -0.06317631 -0.02543028 0.16163674 -0.060016595 -0.0038309814
-0.049231675 -0.042551126 0.13895753 -0.0065429937 -0.012129821 0.035509013 -0.056103278 0.15472303
-0.034733713 0.117478795 0.004263426 -0.036231373 -0.11674757 0.04678928 -0.07516534 -0.10847137
-0.025392901 -0.07388625 -0.050227966 0.055175073 -0.12115938 -0.09118322 0.08184426 -0.10620723
0.035920464 -0.011736204 -0.19503938 0.107074514 -0.11094235 0.18445082 0.100028634 -0.097466335
0.07261012 -0.093741596 0.072646506 -0.041454874 0.021743713 0.08784579 -0.039747402 0.047822308
0.031343646 0.081182316 0.061363004 -0.11027799 -0.040547006 -0.05531012 -0.037496503 -0.087701485
0.1056497 -0.034814876 -0.121798895 0.12657285 0.083688065 -0.1155537 -0.047048412 0.0334059
0.009365297 0.083968714 -0.09530309 -0.07981594 -0.06392222 0.0919526 -0.09464952 -0.10271435
-0.1267038 0.082343206 -0.072385855 0.06634932 -0.08055271 -0.010122009 0.14782053 0.07029894
-0.08273856 0.06146456 0.12322863 -0.0590925 0.026056185 0.111990206 0.010719645 -0.023950696
-0.04397428 0.021975843 -0.05653609 0.0165671 -0.019349577 -0.097023554 -0.04775339 -0.13426185
0.14727297 0.052908592 0.053521346 -0.13394515 0.068642795 -0.15315783 0.004568061 0.1007256
-0.09567438 -0.12911716 0.08634809 -0.018732617 -0.05513613 -0.025147878 0.049688935 -0.13789447
-0.13265198 0.06437271 -0.032891672 0.07253951 -0.05480992 -0.030242234 -0.07370868 -0.11252674
-0.09243092 -0.039626952 0.07431868 -0.07847313 -0.13105601 0.0108603025 -0.16775472 -0.009850116
0.09864045 -0.071117505 0.037392315 0.025958288 0.120910525 -0.13951732 -0.049246587 -0.055664264
-0.046832107 0.008774702 0.08070468 -0.14935625 -0.10264626 -0.11794639 0.11363155 -0.025913142
0.0126141915 -0.02304591 0.12063916 0.026155349 0.06869714 0.01876547 -0.03595426 -0.102106065
-0.011006204 -0.03971305 -0.14982732 0.07701164 0.091819964 0.08935483 -0.15264018 0.08376922
-0.08487724 0.053695723 0.05663378 -0.116864085 -0.061960332 -0.016453769 0.10032883 -0.081536785
-0.16240032 -0.061556887 -0.020498354 -0.19730218 0.002399147 0.05272097 -0.14302135 0.20651312
-0.0007337034 -0.14047177 -0.042512503 0.07976017 0.1142518 0.051711667 0.2556494 0.04980441
-0.023966633 -0.026885223 -0.106074825 0.097821414 -0.004538077 -0.1622353 -0.024779603 0.026458142
-0.036456402 -0.03991145 -0.034491926 -0.02188945 0.11476827 0.1485955 0.057988063 -0.0199328
-0.08509423 0.034387384 0.03158169 -0.1259624 0.04770603 -0.20349067 -0.04115489 0.06094288
0.09756507 -0.051242046 0.014011213 -0.11091592 0.12882239 0.04825532 -0.053386226 -0.12307993
0.012366969 -0.11875594 0.11229491 0.015512485 0.09363689 0.08969005 -0.10212272 0.06359682
-0.0034762006 -0.10372629 0.20358211 0.099132314 0.055624355 0.26173404 0.199241 0.15933616

fc.4.bias f4 [32]
00000000: 8d8b 4c3d 1419 193c 1bb5 e1bc 44f2 a13d
00000010: 925b b2bc 1d5a 28be 8ced 313e 0b87 afbd
00000020: 5a5b a0bd 3066 f2ba d46e da3d 8656 f33d
00000030: b1bf ac3d bb90 2f3d c96d ffbc abcd b1bd
00000040: b240 f03d ae51 c43c f45a 4ebe 0c47 dfbc
00000050: 2732 ee3d 6e0c 83bd 94a9 e23d 4512 b93e
00000060: 337e 55bd ce58 04be b4c5 27be d3ff aebd
00000070: f04d 03be 4aac 69bd 550e de3d 569d 713e
0.049937773 0.009344358 -0.027552178 0.079075366 -0.02177218 -0.16440625 0.17375773 -0.08570679
-0.07829924 -0.0018493589 0.1066567 0.118817374 0.08435 0.042862635 -0.03118028 -0.08681806
0.1173109 0.02396473 -0.20151883 -0.027255557 0.116306596 -0.06398855 0.11067501 0.3614675
-0.052122306 -0.12924501 -0.16384012 -0.08544888 -0.128227 -0.057049073 0.10842577 0.23595175

fc.6.weight f4 [3, 32]
00000000: d1db 30be a43e 83bd 819a 2abe 748b 513d
00000010: 571b bdbd b2b1 543d af53 98bd 4d81 f4bd
00000020: 2e1a fdbd 7c57 11be 84cb 103e a568 05be
00000030: 9be4 40be 87a7 0ebd 8fb4 403c c2fc ec3d
00000040: 432d 3cbc 00fc 4cbd 2829 e0bd acae 0bbe
00000050: 98ef 12be daf9 163e 0c7b 9ebd 6e43 98be
00000060: 94c7 033d 0c34 07bc 9e09 923d e6fb c03d
00000070: 97b0 43bd b276 01be 543f 7cbd 7c4c 9cbe
00000080: cfdb 833d 6f07 d3bd 14b0 b53c d946 19be
00000090: 5abf 4f3d 1876 cb3c 2f14 473e db4c 04be
000000a0: 7fe7 cebd e47f 9abd 30ee ce3d 2766 833e
000000b0: e957 533e 1499 113e e370 393e 8580 02be
000000c0: ec2c 4f3e 8467 163d 5628 11be a83d 86bd
000000d0: 1a55 42bc 9336 cb3b 3831 d13d 52d1 2d3e
000000e0: 1ad9 05c0 23e4 07bf 3d83 8fbe ee04 0d3e
000000f0: 5ada 14be a0be 383d 14c4 133e 77fc 943d
00000100: 1b9e b4bc 381e 4d3c a5c9 31bd f250 6b3e
00000110: 5356 34be 3795 9bbd bc7b 533e d81a 3c3e
00000120: dcbe d33d 1a41 623e 0a5a 403d 457f 163e
00000130: 742e febd d129 22be 1c47 b6bd aeb6 a3bd
00000140: 6949 ee3d 5381 253e 45ff e63d dd3b dc3c
00000150: d960 44bd 4cdf ecbc 86a1 a93c 5e82 a9bd
00000160: fba4 953e 9b36 f9bd 8738 0a3e e35b 27be
00000170: 2f47 05be 90fc c83d 5368 22bd 62d6 443e
-0.17271353 -0.06408432 -0.16660501 0.051158383 -0.0923373 0.051927276 -0.074378364 -0.11938725
-0.12358509 -0.14193529 0.14140135 -0.130282 -0.18837206 -0.034827735 0.0117617985 0.11571647
-0.011485401 -0.050045013 -0.1094535 -0.13640851 -0.1434921 0.14743748 -0.07738313 -0.29738945
0.032172754 -0.008252155 0.071307406 0.09423046 -0.04777583 -0.12642935 -0.061583832 -0.30527103
0.064384095 -0.10304152 0.022178687 -0.14968432 0.050719596 0.024836585 0.19441293 -0.12919943
-0.10102748 -0.075439245 0.101040244 0.25663874 0.20639004 0.14218551 0.18109469 -0.12744339
0.2023198 0.036719814 -0.14175543 -0.06554729 -0.01186111 0.006201574 0.10214466 0.1697438
-2.0913758 -0.53082484 -0.28029814 0.13771412 -0.1453642 0.04510367 0.14430267 0.07274716
-0.022048047 0.012519412 -0.043405194 0.22980097 -0.17611055 -0.0759682 0.2065267 0.18369615
0.10339138 0.22095147 0.046960868 0.14696987 -0.12411204 -0.15836264 -0.08900282 -0.07993828
0.116350956 0.16162615 0.112791575 0.026884014 -0.047943924 -0.02891507 0.020706903 -0.08276819
0.29227433 -0.12168618 0.13498126 -0.16343646 -0.13015436 0.098137975 -0.039650273 0.19222406

fc.6.bias f4 [3]
00000000: dc1e ddbd fc20 8d3e eac5 c53d
-0.107969016 0.27564228 0.0965689
