Genetic_Models/dino_genetic_model38.pth (torch, 48732 bytes, 8 tensors)

fc.0.weight f4 [128, 6]
00000000: c29c 363d e4fc 553e 8f3f 94be 685d 793e
00000010: 06b4 f8bf 6694 a7bf b2dc 65be 16f7 813d
00000020: ab95 413e b73c 68be 3aed ae3e df0d 323e
00000030: fa60 2cbd 4936 5cbe f0fa 8dbe eb90 643e
00000040: 24de 31c0 f03c 34c0 8c9e 7cbb 0574 e43d
00000050: 03f5 35be e111 3f3e 77da f73f 0e69 1040
00000060: 5d60 b6be bb5d 64be 2a8b 14bd f7eb 30be
00000070: b1e5 be3e b144 0fbe 8cbe 943e 1722 32be
00000080: 4b27 c9bd 0057 483e b2f5 f5bf 3ad8 02c0
00000090: 9b33 e93e 0800 edbc 2c12 063e 7d0a 09be
000000a0: 0528 30c0 344b 3dc0 2ef4 c53d b2ac 9d3e
000000b0: 7e02 69be 50a7 6abe 3945 42bf 2d0a 04c0
000000c0: d0a9 10be f528 9fbe 3920 9cbd a815 bd3d
000000d0: e09e 4cbe 0441 c1bd c4ac 28be ec56 663e
000000e0: 3ce0 c03c f8f7 adbe 4a9a 783c be9b 733d
000000f0: c367 503e 8526 65be 0ece 753e 8b30 a6be
00000100: e155 e73d c7c4 fcbd dff1 e6bd da08 7d3e
00000110: 2c63 33be f48d 1b3e 0457 e83f 1e0e 51bf
00000120: 55f3 163e ec4a 86be 302c 803e eb86 31be
00000130: 1112 e83d e18f c73e e75f 01be 5f23 853c
00000140: ef51 5d3e 2dca 46be 95bd 85bd 7862 d63d
00000150: 978f a23e 8d1c a53d 4d18 e6bd f26c c5be
00000160: f1f2 67c0 0513 66c0 88b8 a03b 1930 5c3e
00000170: 966a a9bd 97de ccbe 7803 c43d 4e0b 96be
00000180: 866c a8bb 2662 6dbe d994 8f3d 6c52 533e
00000190: 187e 0940 5d8f f4be 8750 d43e d389 a7be
000001a0: ba25 1ebd 32eb 03be 22c9 f43f fef5 4c3f
000001b0: 4be7 c8bc c99c 1abe b187 4cbe d289 7b3e
000001c0: 1e0e 0d40 1076 7c3f 0ad5 f9bd 411f a43e
000001d0: 423a 613d 0f0f ecbd 8ff8 17c0 3ebd 28c0
000001e0: fdb8 cf3e 52cd aa3e 9a22 0c3d 32cd a23e
000001f0: 6501 64bf 5858 bf3f 4449 04be c4db ccbe
00000200: c45d 933e 3ee0 883d 3de2 933e 95b5 74be
00000210: 72d7 c03e 19a9 31be ad83 053f 282d ccbe
00000220: 446a ae3f dab8 ad3f 08bc 263e 443d e53d
00000230: 1e76 c93e eba9 37be 1b08 1ec0 6133 2bc0
00000240: 930a 7b3e a2af 713d 07e4 ecbd c051 7c3e
00000250: 0df0 e0bf 4c3b 49bd 9e6e 94be 752b 8d3e
00000260: ae02 ccbe f781 093e 3472 d13f 728f f23f
00000270: c8c3 3b3e 5c3d d9bd 95bb 30be c795 f43d
00000280: 59b9 30c0 f0fe 14c0 a05a a13d 5282 cc3e
00000290: 80be 34be d5a4 e2be 90a1 0fbf 49a4 c33f
000002a0: f037 9abd 0ca4 8a3e 034a bbbd 49cc 0c3c
000002b0: 0b6c 0840 43ab ab3f afda a3be 3236 2bbe
000002c0: c4fb 3a3e cfec 613d cd0b ef3d 6c33 05be
000002d0: a102 93be acac 17bd e481 b03e e20c aebe
000002e0: 5b4b a33e 1fa0 b93d 1693 e4bd 11fe b53d
000002f0: 6aff 023e 689f 06ba f908 dc3f a6b5 febf
00000300: 5de8 31bd 627b 513e 6a72 a53e 7880 04be
00000310: b07c 2740 0a69 c13e c120 0fbe d136 903e
00000320: ddde 6ebe b80f 2e3e 23c6 3abe 45bf 1ac0
00000330: bf8c 1bbe 7e48 55be 5e2f b2bd 349f 143e
00000340: c3b9 09c0 1303 2740 6628 88be 8c5f 84be
00000350: ab35 983e 19ff e43e 316f f73f 9b58 c5bf
00000360: 020b 3dbf 5ee3 6abe edc0 9f3d c071 313e
00000370: 360a 71c0 4c38 fcbf deda 033e 5de7 d13d
00000380: 79ae c4be 2227 663e 140a 853f 756e db3f
00000390: e8ce e63e 697d 883d 4539 6bbf 977b c9be
000003a0: dda7 883f 0f5b e23f 034e 863c 9143 61be
000003b0: a8a3 a3be 08e2 d23d 2455 b93f d7a7 febf
000003c0: 3d96 923e 26c4 be3d b796 29bd 9a50 933d
000003d0: 5e15 e43e 894d 18c0 7812 9bbe e4c5 d43d
000003e0: 58db bbbd ba14 b03d 91be 20c0 9242 d3bf
000003f0: e8b0 8c3e 48ec e53d 47d1 c3be a157 2f3e
0.04458309 0.20897251 -0.2895474 0.24352038 -1.9429939 -1.3092163 -0.2244747 0.06345956
0.1890475 -0.22679411 0.34165365 0.17388104 -0.04208467 -0.21505083 -0.27730513 0.22320907
-2.7791834 -2.8162193 -0.003854665 0.111549415 -0.17769246 0.18659164 1.9363545 2.256412
-0.35620394 -0.2230138 -0.03626553 -0.17277513 0.37284616 -0.13991047 0.29051626 -0.17395817
-0.09821948 0.19564438 -1.9215605 -2.0444474 0.45547184 -0.028930679 0.1309287 -0.13382907
-2.7524426 -2.957715 0.09665714 0.3079582 -0.22754857 -0.22915387 -0.75886875 -2.063121
-0.14127278 -0.31085935 -0.076233335 0.09232646 -0.19982481 -0.09436229 -0.16472155 0.22494096
0.023544423 -0.33978248 0.015173504 0.0594747 0.20352082 -0.22377975 0.24004385 -0.3245891
0.11295677 -0.1234222 -0.11276602 0.24710408 -0.175183 0.1519087 1.8151555 -0.81662166
0.14741261 -0.26229036 0.25033712 -0.17336623 0.11331571 0.38976958 -0.1263424 0.016252218
0.21613286 -0.19413061 -0.065303005 0.10468 0.31750175 0.08062086 -0.11235104 -0.3855968
-3.624203 -3.5949109 0.0049048103 0.21502723 -0.08272283 -0.40013573 0.09570974 -0.293055
-0.00513989 -0.23181972 0.07010812 0.2063691 2.1483212 -0.47765628 0.41467687 -0.3272234
-0.038610198 -0.12882689 1.9123881 0.80062854 -0.024524352 -0.15098871 -0.19973637 0.24564293
2.2039866 0.9861765 -0.12198837 0.32055095 0.0549872 -0.1152631 -2.3745458 -2.6365504
0.40570822 0.33359772 0.034212686 0.31797177 -0.8906463 1.4948835 -0.12918574 -0.40011418
0.28782475 0.06683396 0.28883544 -0.23897393 0.37664372 -0.17349662 0.52154046 -0.398782
1.362618 1.3572037 0.16282666 0.11193326 0.3934793 -0.17935912 -2.4692447 -2.675011
0.24515752 0.059005387 -0.1156693 0.2464056 -1.7573258 -0.049128816 -0.28990644 0.27572218
-0.39845794 0.13428484 1.6362977 1.8950026 0.18336403 -0.106074065 -0.17259057 0.1194263
-2.7613127 -2.3280602 0.078786135 0.39943177 -0.17650795 -0.44266382 -0.561059 1.5284511
-0.075302005 0.27078283 -0.09144976 0.008593627 2.1315944 1.341164 -0.3200278 -0.16719893
0.18260103 0.05515748 0.11672173 -0.13007897 -0.28712943 -0.037029907 0.344741 -0.33994204
0.3189343 0.09063744 -0.11160867 0.0888635 0.12792745 -0.0005135448 1.7190238 -1.9899185
-0.04343449 0.20457223 0.32313854 -0.12939632 2.6169853 0.3777545 -0.13977338 0.28166822
-0.23327203 0.16998184 -0.18239646 -2.4179242 -0.15190409 -0.20828435 -0.08700441 0.14513856
-2.151963 2.6095626 -0.26593322 -0.25854146 0.29728445 0.44725874 1.9330808 -1.5417665
-0.7384492 -0.22938296 0.078004695 0.17328548 -3.7662482 -1.970468 0.1287646 0.10249207
-0.38414362 0.22475865 1.0393701 1.7143084 0.45079732 0.06664545 -0.9188426 -0.39352104
1.0676228 1.7684039 0.01639462 -0.21998431 -0.31960797 0.10297018 1.4479108 -1.9894971
0.28630248 0.09314756 -0.0414035 0.07193108 0.44547552 -2.3797324 -0.30287528 0.10389307
-0.09172696 0.08597703 -2.5116313 -1.6504691 0.2747872 0.11226708 -0.38245603 0.17123272

fc.0.bias f4 [128]
00000000: b0cc 143e 79cc 22be 6af1 843e 4fce 8a3d
00000010: 2445 a93e 40ea f93d f4a8 1fbf 5d1f 2dbf
00000020: b7b5 afbe 45fe 383e 9429 9c3d d761 e2be
00000030: a804 8cbd 33df 613e 7cd5 073f 198d 973e
00000040: 4368 cfbe 60db 79be d9a2 1b3d ea80 c0bd
00000050: 3687 b7bc 7a53 1cbe b98e a4bc ba58 35be
00000060: 97ee 073e 1098 b8be 203c 053d 59db 0abd
00000070: aa05 603c 6635 79bd 44f5 e3bd 75b6 a4be
00000080: c972 c83d f196 dbbe b5b5 773e 74ce 7ebd
00000090: 728d 343f dcc7 bebe 5d6c 1dbf 3dab b3be
000000a0: f02c 0fbf dd25 603d 42f5 ca3d 2af5 ac3e
000000b0: fa51 81be 1708 e7bd c155 363e dd08 8a3e
000000c0: 17d8 53be 270a 08be 18f6 6b3d d32b f33d
000000d0: fae5 9b3e 0797 51be 5f85 d7bd 7b9e acbe
000000e0: a0bd 5cbe 876b 1dbf 83bd b33d c7d0 163e
000000f0: ef36 31bd bd47 32bd 1a87 773d 9778 8d3e
00000100: 01bb b23d fc62 e7be b117 1f3e 3aca 95be
00000110: ab53 003f aacc ab3e 8020 12bf d436 a63e
00000120: f676 3fbd 9197 f7bc e9b6 4f3e 6d5f 13bf
00000130: 1967 d2be c2bd cabe 5132 bbbe a964 9d3e
00000140: bbbb 6d3e 9fa2 0dbe c1f6 9ebe 851e 7abe
00000150: 035c d7bd f3ed fa3e 1d7a 75be d84d 28bd
00000160: 798f eabe 02c7 943e 54ca b13e 16be 95be
00000170: 5c4e c83d f7ed dc3c 5332 a43e d437 0cbf
00000180: 36ce 153c 8e7d b7bd 916e 5dbe 6f25 1ebf
00000190: edf7 163f e315 a53e b5a2 96bc b282 1dbe
000001a0: 0e14 d23d d80f 613b 84e3 aabe 4572 52bc
000001b0: 355b 2d3e 70c8 0abe 3200 583e 51b3 95bd
000001c0: a096 e4bd 0cfe ddbd 4af4 d93c b3ea 2e3e
000001d0: 1d7f 3bbe e82d 99be 2a5b 3d3e 86d7 4fbd
000001e0: 8e29 6fbe 03e7 cc3e a3e9 aebe 5ec8 143e
000001f0: 38a0 1f3e 2568 133f 9529 c9be 36d2 a23e
0.14531207 -0.15898313 0.25965434 0.067776315 0.33060563 0.12202883 -0.62367177 -0.6762598
-0.34318325 0.18065746 0.07625118 -0.4421527 -0.068368256 0.220578 0.53060126 0.29599836
-0.40509233 -0.24400091 0.0379971 -0.093995884 -0.02240334 -0.15266219 -0.020087587 -0.17709628
0.13274609 -0.36053514 0.032528043 -0.033900592 0.013673225 -0.06084194 -0.11130765 -0.32170454
0.097875185 -0.42888597 0.2419041 -0.062208608 0.7052833 -0.37261856 -0.61493474 -0.35091582
-0.55927944 0.05472361 0.099100605 0.33780795 -0.25257856 -0.1128084 0.1780615 0.26959887
-0.206879 -0.13285123 0.05760774 0.11873593 0.30448896 -0.20467769 -0.105234854 -0.3371466
-0.21556711 -0.614922 0.08776381 0.1472808 -0.04326528 -0.043525446 0.060431577 0.27631065
0.087270744 -0.45192707 0.15536381 -0.2925585 0.5012767 0.33554584 -0.5708084 0.32463706
-0.04674431 -0.03022364 0.20284618 -0.57567483 -0.41094282 -0.395979 -0.36561826 0.3074086
0.23216145 -0.13831566 -0.31047633 -0.24425705 -0.10515597 0.49009666 -0.23972364 -0.041089863
-0.45812586 0.2905808 0.34724677 -0.29246587 0.09780571 0.02696894 0.32069644 -0.54772687
0.009143403 -0.089594945 -0.21624209 -0.6177587 0.58972055 0.3224326 -0.018388132 -0.15381888
0.102577314 0.003434172 -0.33376706 -0.012844627 0.16929324 -0.13553023 0.21093825 -0.073095925
-0.11161542 -0.10839471 0.026605744 0.17081718 -0.18310209 -0.29917836 0.18491808 -0.05074265
-0.23355696 0.40019998 -0.34162626 0.14529559 0.15588462 0.57580787 -0.39289537 0.31801003

fc.2.weight f4 [64, 128]
00000000: efc5 49bd efc4 933d 16e5 28be 0be2 c93c
00000010: 3dc2 c4bc 17e8 bbbd 08cb 0b3e ca49 8c3d
00000020: 28c1 1c3d e352 033e 7719 823c a391 b63d
00000030: 55f7 b93d 810a 3bbd 5ff7 2ebf 646f 3ebd
00000040: 6892 063e f11e 9cbe 13cb 7c3d 20fb ccb9
00000050: d6a9 1bbd 780f e3bc 9f8e 2240 08a8 b3bd
00000060: 006a 69bd d026 7dbc e7f0 2fbd 6f38 3cbe
00000070: fe0c 2c3d 7338 83bc 13e2 a03d 89af fe3d
00000080: 0566 423d f4e0 753d 6b21 d2be 015a efbc
00000090: f86b 893e 20b9 2cbc 196c a03d f0bc 93bd
000000a0: 1cd0 f43d 297e 98bd cc4f 6dbd 2441 b7bc
000000b0: 9e8f d8bc 6e31 953c 4f7e 9c3b d4b1 1ebd
000000c0: b8ea a5bf 9545 8e3d 2f34 e2bd 2608 80bb
000000d0: d092 1f3d 5e09 87bc 1708 a33d 792e b03d
000000e0: e455 bcbc 8031 023d d8fc bebc f4c0 6c3d
000000f0: 32be 4c3d 0c51 97bd ac0e a6bd f4e6 65bc
00000100: 3c0b 4a3d dd01 153d 6adf a13b cf9a f8bc
00000110: 7bd3 4bbd 8f2c 06bd dad2 793e 2e5a 43bd
00000120: b8b7 cebc c417 62bd cfd8 a5be fa5e 0b3d
00000130: 98c4 cebb 2989 e73d 804f 143d 4cdc 8cbe
00000140: faff 1abd 1f7f 7e3d 77b1 513e 1c9c 5abd
00000150: e9e7 95bc 0b09 64bd c5ae 95bd 24d3 a5bc
00000160: fc23 a03c 56a1 d8bc 3697 bb3d c05e e43b
00000170: 844f 93bd c866 893e 921b 703d 43e4 633d
00000180: 4c42 a7ba 2f70 30be a85a 52bb b100 f13d
00000190: 4408 a33e 3128 0c3d 9548 edbc d28b 8dbb
000001a0: 36ac e33e bdb4 443d 2be1 9a3c e625 61be
000001b0: 70de cf3c 9963 a23c 1078 973c d234 8f3e
000001c0: 5754 5c3d 10cf cbbd d01d 5d3d edfd f7bc
000001d0: 92cb cbbc dd08 01be b68b c43d c8bc 06be
000001e0: bb4e 09bd d242 d1bc de1b e7bc 8254 2a3e
000001f0: e6ec 023d 9422 9f3c dd2e 5c3d 91cd e33c
00000200: 6f31 c63d 5067 bfbb b2cf 38bd 4c56 dbbd
00000210: 1a2f 8ebd b861 1a3c d3c8 d0bd 0d91 29bd
00000220: 8b88 d33c b870 603b 8a92 8e3d 04d9 06be
00000230: b6d9 d43b 6007 4ebd 0510 ac3d 1e88 843d
00000240: 986f adbd 1689 d63d a2a2 d8bd 1284 fc3c
00000250: 1fb9 e23c 8a55 a83d 6d17 76bd 3ed1 443c
00000260: bc0c 6ebd dd83 34bd 6c7e 33bc a3f2 90bc
00000270: e48c 87bd d1ba 6c3c 6e6a 283d 839b ab3d
00000280: b4c3 9dbd 412e a8bd 132b 93bd d28d 29bc
00000290: a6d0 3c3d d001 673d 35fb 3d3d cec0 74bc
000002a0: 3499 ad3c a5e0 86bc 4f1a b43b 8e50 f7bc
000002b0: 745f 8bbd 3182 27bd b6a0 ab3d 36ae 753d
000002c0: c665 323d c971 8dbd 08c2 ebbb 3dfd 17bd
000002d0: 9425 f1bb 40e0 6cbd ccc2 a1bd 349d 6fbd
000002e0: 8e3c c53d 6797 f2bc 4832 25bd 52ac e63c
000002f0: eb1d 9a3d 95ee bc3d ae09 6d3d b87a e33b
00000300: 027f 363d c99b 2ebd 0353 03bc 5bab 5bbd
00000310: 3864 e1bb f073 e3bc 5a5b 43bd 612c 5f3d
00000320: afaa 0fbd cf82 35bd ebfc b13d 1bff 5a3d
00000330: f17c a43c 524c cabd 20d2 c93a e626 70bd
00000340: 2d88 2b3d 0483 efbc 816a 073d c30c 95bc
00000350: 7777 3a3d 9363 9c3d 45a3 e23c 96f7 a0bd
00000360: 8c76 d43c 2c85 953d 3ab3 19bb 0964 9dbd
00000370: 1108 82bd 0c01 4e3d e20e 7c3d 51e2 2e3c
00000380: c994 9abd 8ca3 35bd 0323 debd 1b74 80bd
00000390: be7a 4a3d 6e9c 4f3d 3f28 833d d5ac e6bc
000003a0: d5b6 9dbd 20be 7bbd ea2b 9fbd 5fa9 37bd
000003b0: eb37 b23c fd5f c63d 83e4 adbd 781d a1bd
000003c0: 58f6 823d f291 5fbd 0022 d8bc f489 973d
000003d0: d514 723d d247 9e3d f209 adbd a892 863d
000003e0: f8f8 183d cdc7 c6bc ef57 363d c3e2 cb3c
000003f0: 9e70 d7bb 9bf2 943d 4e8a 72bd 33e2 d73c
-0.04926103 0.072152965 -0.1649364 0.024643918 -0.024018401 -0.09175127 0.13651669 0.06850012
0.038270146 0.12824588 0.015881283 0.08914497 0.09080378 -0.045664314 -0.6834621 -0.04649295
0.13141787 -0.30492356 0.061717104 -0.00039097015 -0.038003765 -0.027717337 2.539955 -0.08772284
-0.056985855 -0.015451148 -0.04295435 -0.18380903 0.042004578 -0.016018128 0.0785562 0.124358244
0.047460575 0.060028985 -0.4104112 -0.029217722 0.26840186 -0.010542184 0.07833118 -0.07213771
0.11953756 -0.07445938 -0.05793743 -0.022369929 -0.02643567 0.018212046 0.0047757993 -0.03874381
-1.2962255 0.069468655 -0.110451095 -0.0039072214 0.03895837 -0.016483959 0.079605274 0.08602614
-0.022990175 0.031785488 -0.023313925 0.057801202 0.049986072 -0.07388505 -0.08108267 -0.014032114
0.04932712 0.03637873 0.004939963 -0.030347256 -0.04976223 -0.032757338 0.2439684 -0.047693424
-0.025234088 -0.055198446 -0.32391974 0.034026124 -0.006310057 0.11305458 0.03620863 -0.27511823
-0.037841775 0.06213295 0.20477854 -0.053371534 -0.01829906 -0.055672687 -0.07308725 -0.020242281
0.019548409 -0.026444118 0.091597006 0.006969303 -0.07192901 0.26836228 0.058620043 0.05563761
-0.0012760847 -0.17230295 -0.0032097492 0.1176771 0.31842244 0.034218017 -0.028965274 -0.0043196464
0.44467324 0.048023928 0.018906197 -0.21987113 0.025374621 0.019822882 0.018489867 0.27969986
0.05379137 -0.099516034 0.05398351 -0.030272448 -0.024877343 -0.12601037 0.0959696 -0.13157952
-0.03352235 -0.025544558 -0.02821153 0.166338 0.031964205 0.019425668 0.05375563 0.027807983
0.096773975 -0.005841173 -0.04511995 -0.10709819 -0.06942578 0.009422712 -0.10194554 -0.041398097
0.025821945 0.0034246873 0.06961544 -0.13168722 0.0064956797 -0.050300002 0.08401493 0.06471275
-0.084685504 0.10475366 -0.10577895 0.030824695 0.027676163 0.0821944 -0.060080934 0.012012778
-0.058117613 -0.044071067 -0.010955434 -0.017693823 -0.0661867 0.014448837 0.041117124 0.08379271
-0.07703343 -0.08211947 -0.0718595 -0.010348754 0.04609742 0.056398213 0.046382148 -0.014938546
0.021191217 -0.01646454 0.0054963003 -0.030189779 -0.068053156 -0.040895645 0.083802626 0.059980594
0.04355409 -0.069064684 -0.007194761 -0.03710674 -0.007359216 -0.05783105 -0.07898483 -0.05849953
0.096306905 -0.02961321 -0.040331155 0.02815834 0.07525238 0.092251934 0.05787056 0.0069421194
0.044554718 -0.042629037 -0.008015397 -0.053630214 -0.006878402 -0.027765244 -0.04769454 0.054485682
-0.035074886 -0.044314202 0.086908184 0.053465944 0.020079108 -0.09877838 0.0015397705 -0.058630846
0.041877914 -0.029237278 0.033060554 -0.018194562 0.045524087 0.0763618 0.027665744 -0.07859723
0.025935434 0.07300791 -0.0023452775 -0.07685096 -0.06349195 0.050293967 0.06153763 0.010674075
-0.0754791 -0.044345424 -0.10846522 -0.06272145 0.049433462 0.050686292 0.06404161 -0.028158585
-0.07700888 -0.061460614 -0.07772048 -0.04483926 0.02175518 0.09686277 -0.08490851 -0.07866949
0.063946426 -0.054582544 -0.0263834 0.07399359 0.0591019 0.077285424 -0.084491625 0.06570941
0.03734681 -0.024265194 0.044517454 0.024888402 -0.0065747043 0.07272836 -0.05921393 0.026352977

fc.2.bias f4 [64]
00000000: e26b 66be d883 a9ba 5be0 92bc 680e 6cbb
00000010: 5a7b f0bc 5a42 173d 6a5b 913a f0d4 9ebe
00000020: 3895 d13c c54a 0ebd 5725 633c c224 ae3d
00000030: 46dc a6be d42a 2cbc 2a75 d7bd f18b dfbc
00000040: d7e8 9fbd ab67 1e3d 5958 c3bc 00cc a3bd
00000050: 6268 0a3e 31b8 8b3e 98a3 94bd 440c 373d
00000060: 8f36 9f3d d789 c8bd 5218 34bd b8b8 bfbb
00000070: 44eb c13d 938d ce3d 0d24 01be 9ce9 83bd
00000080: e05e 573d 6680 7ebe ed4b 063d 19fb cbbc
00000090: b2fa d0bb 0cfc 55be 9824 313d 2795 a63d
000000a0: 2b63 2e3e d699 13bc 00e9 ec3c 5f07 adbd
000000b0: f336 803c 4a10 483d e7a4 28be 68d6 39be
000000c0: 38f3 86bc 729e fc3b 4b2b 793d 7e06 c83b
000000d0: 9d47 ae3c 86b0 ab3e bec5 593d 2f58 4f3d
000000e0: f671 03bc a6c2 3e3d 0dcf 8cbe 1ee3 0abc
000000f0: 4af9 243d b416 353e 0692 f63c c281 24be
-0.22502092 -0.0012932969 -0.017929247 -0.003601933 -0.029355694 0.036928512 0.0011089866 -0.31021833
0.025583848 -0.034739275 0.013863883 0.08503105 -0.3258993 -0.010508258 -0.10520394 -0.027288409
-0.078080826 0.038673084 -0.023845838 -0.07997894 0.13516381 0.27288964 -0.072577655 0.04468943
0.07774078 -0.09791916 -0.043968506 -0.0058508776 0.094687015 0.10085597 -0.12611409 -0.06441042
0.052580714 -0.24853668 0.032787252 -0.024900006 -0.0063775415 -0.2089693 0.04324779 0.08133917
0.17030017 -0.009008845 0.028919697 -0.084486715 0.015651202 0.04884366 -0.16469155 -0.18148196
-0.016473398 0.007709318 0.060832303 0.0061042896 0.021274382 0.33533114 0.053167097 0.050621208
-0.008022776 0.04657235 -0.27501717 -0.0084770005 0.040276803 0.17684442 0.030098926 -0.16065124

fc.4.weight f4 [32, 64]
00000000: 9399 cebc b694 a1bd a5a0 7dbd 6830 eb3d
00000010: f8a8 c8bc 327a 43bd 34aa 40bc e8d9 3ebd
00000020: 47f7 823d f85e c3bd 7a7e c73e 226a fe3c
00000030: cc8a fabc 50ee 66bd 8e69 1fbf a32a cc3d
00000040: 4076 50bb c286 ddbd 484b 02bc 7653 05be
00000050: 63c4 71bd 60f7 303b 72da f13d 3ce9 9c3d
00000060: 5a96 a5bc fa44 50bc c876 6d3b da52 b1bd
00000070: 0fbe 0fbd 1467 273e 7086 60bd 4a7c 1d3c
00000080: 4a20 8bbd e027 3bbd 00a2 1f3e 3397 8e3c
00000090: dd42 51bd 2b0b 483d 1279 33bd b76f 1e3e
000000a0: 7de0 cdbc e814 cd3d 7410 c03c c86a c3bc
000000b0: 4500 fabd a98f 0e3d 6dea a2bd 3e19 b6bd
000000c0: 4637 033c 6d08 a3bd c732 6fbd c7d2 823d
000000d0: 7b37 e2bd 45be babd 1986 a53d 129e e5bd
000000e0: e46e 3e3d 3549 40bc 67b8 47be 9425 e13d
000000f0: c031 e8bd 7eb7 023e 248e 0d3e b91c bdbd
00000100: 4d06 883d b901 91bd 788c ac3d 26a4 66bd
00000110: 3bd3 ea3b b3f5 d03d d8fe 35bd 95b2 a13d
00000120: d59c 8d3d 818c 8e3d 24b5 633d f5b2 eebd
00000130: 3913 e2bc 1fd8 28bd daf0 7abc 3d5e 5dbd
00000140: 9fd4 133e 6328 c03b 4c25 0bbe e286 dd3d
00000150: 9689 943d cb8e b1bd d20a b9bc e1ff 8f3d
00000160: 617b 45bc 5856 df3d d826 ccbd 1047 8abd
00000170: 3e2a 97bd 15fc 993d 8cfa 96bd ea69 c4bd
00000180: c4b8 d4bd c7cc b93d 04d6 92bd 65d3 213d
00000190: e147 aabd d465 70bc 5b5d ea3d 9ccc a83d
000001a0: a014 7abd 59cd 113d 0438 043e f356 4dbd
000001b0: db01 213d 3b46 e73d c8c3 ed3c b06a caba
000001c0: 1600 37bd 8ebf e63c 08ad 6fbd 0c86 fc3b
000001d0: 47f0 a8bc 2582 bcbd c2b3 9abd 0aa0 bdbd
000001e0: 3106 133e debb 1b3d 8aff 983d 73ab 10be
000001f0: 4f39 853d 1cb5 0dbe 61c3 913c 58f6 c63d
00000200: d586 a5bd a9d7 c3bd dd6b ac3d 1401 72bc
00000210: b046 9bbd f21e 4cbc 2ad0 053d 1c42 1cbe
00000220: 41e5 0abe 1674 743d 0fbc 89bc 6adb 823d
00000230: 0e6d 47bd 7c3e 52bd 4e9b 5dbd 2ff3 05be
00000240: 5896 c8bd 72f2 b3bc 303c 8b3d bc4a 6bbd
00000250: b8c7 1bbe e22e 21bd a348 0bbe 6262 21bc
00000260: 49cf c93d fdff 20bd 7f14 403c b828 60bc
00000270: d7eb dd3d ae58 fabd 9155 35bd cb1b 7abd
00000280: 88c2 58bd 9c6e f73c 8182 603d f50a 0cbe
00000290: 64f4 e2bd bc46 0cbe cd48 c33d 4201 09bd
000002a0: f09c 8bba 742d d93c 4d21 dd3d 0f2a 873c
000002b0: 4670 9f3d 54c2 903c 58ab 19bd ec12 e3bd
000002c0: 5e53 34bc d9b5 08bd 253e edbd 028e 433d
000002d0: 39e5 ba3d 9a8c 923d f16b 21be 0ca1 cd3d
000002e0: 1082 bbbd e0f7 4f3d 324d 8a3d 2045 fcbd
000002f0: 3fe0 71bd 0620 07bd 3479 cd3d 72e0 d6bd
00000300: 7c97 21be 1843 8dbd 08d5 47bd 8a7a 58be
00000310: 52a0 5fbb 658f 873d 2a2d 11be 58eb 553e
00000320: fde2 95bb ca58 e7bd 3d03 a2bc b66f 663d
00000330: 92c5 da3d ce22 633d 905d 803e 0411 823d
00000340: 166f d0bc 6945 bcbc 9527 08be f498 a23d
00000350: 7e78 a0bc 1f94 31be 1df7 f2bc e382 af3c
00000360: 3680 28bd 7946 e5bc e85b 57bd 8151 b3bc
00000370: 7e37 c73d a073 243e 4a1e ed3b 26b4 79bc
00000380: 8a0c a2bd bec9 2cbc da8a 423d 9934 debd
00000390: 7a47 be3c e20e 5bbe 83f8 8ebd 5206 ad3d
000003a0: 7bd7 af3d 47af d3bc 3fa7 53bc 8013 f4bd
000003b0: 04ea 033e 0cf3 373d 81d3 cebc a767 e7bd
000003c0: 438c 7c3c dc05 c0bd 17cd d63d f745 22bc
000003d0: c350 c73d 7786 b93d bc99 cebd 6d62 863d
000003e0: 606f cf3b ab4e b5bd 1b40 313e 28cc c23d
000003f0: 5929 453d 54db 813e 25a6 5c3e 8bd2 303e
-0.025219714 -0.078896925 -0.06192078 0.11483842 -0.024494633 -0.047723956 -0.01175933 -0.04659453
0.06394821 -0.09539598 0.3896368 0.031056467 -0.030583762 -0.056379616 -0.6227044 0.0996907
-0.0031808764 -0.10816719 -0.007952519 -0.13020119 -0.05902518 0.0027002916 0.11809243 0.076616734
-0.020213295 -0.012711758 0.003623413 -0.08658381 -0.035093363 0.16347915 -0.05481571 0.009612152
-0.06793268 -0.045692325 0.15589142 0.017406082 -0.051089156 0.048838776 -0.043816634 0.15472303
-0.025131458 0.10013753 0.023445345 -0.023854628 -0.12207083 0.034804974 -0.079548694 -0.08891533
0.008008784 -0.079605915 -0.058398034 0.06387859 -0.11045738 -0.09118322 0.08082218 -0.1121179
0.046492472 -0.011736204 -0.19503938 0.109934956 -0.11337614 0.12765309 0.13823754 -0.09233994
0.06641827 -0.07080407 0.0842523 -0.056308888 0.007166294 0.102031134 -0.04443249 0.0789539
0.06914679 0.06960393 0.05559267 -0.11655227 -0.027597057 -0.041221734 -0.015316213 -0.05404495
0.14436577 0.0058641895 -0.13588446 0.108167425 0.07252805 -0.08669814 -0.022588167 0.07031227
-0.012053342 0.10905141 -0.09968346 -0.06751835 -0.07381104 0.07518784 -0.07372007 -0.09590514
-0.10386804 0.09072261 -0.071697265 0.039508242 -0.08314491 -0.014672715 0.114435874 0.08242151
-0.061054826 0.035596225 0.12911993 -0.05013175 0.03930841 0.11292692 0.02902402 -0.0015443172
-0.044677816 0.028167512 -0.058514625 0.0077064093 -0.020622386 -0.092045106 -0.07553817 -0.09259041
0.1435783 0.03802096 0.07470615 -0.14127903 0.06505071 -0.13838619 0.01779336 0.09714955
-0.08082358 -0.09562618 0.08419011 -0.014770765 -0.07581842 -0.01245855 0.032669224 -0.15259594
-0.13564016 0.05968102 -0.016813306 0.06389506 -0.048687987 -0.05132912 -0.05410319 -0.13081048
-0.09794301 -0.021966193 0.06798589 -0.05744432 -0.15212905 -0.03935135 -0.13601927 -0.009850116
0.0985399 -0.03930663 0.011723637 -0.013681583 0.108359985 -0.122239456 -0.044271056 -0.06106166
-0.052919894 0.03020411 0.05481196 -0.13676055 -0.1108177 -0.13698858 0.0953537 -0.033448465
-0.001065163 0.026510932 0.10797367 0.016499547 0.07785086 0.017670788 -0.03751692 -0.110875934
-0.011006204 -0.03337655 -0.11584119 0.04774285 0.09125752 0.07155724 -0.15763833 0.10040483
-0.09155667 0.0507735 0.06753005 -0.12317872 -0.05905175 -0.032989524 0.10032883 -0.10492028
-0.15780443 -0.06897563 -0.048787147 -0.21140495 -0.0034122658 0.06619147 -0.14177385 0.20890558
-0.0045741783 -0.11296232 -0.019776935 0.05625888 0.10682215 0.055453114 0.25071383 0.06350902
-0.025443595 -0.022982316 -0.1329635 0.0793933 -0.019588705 -0.1734166 -0.029658848 0.021424716
-0.041137896 -0.027987706 -0.052577883 -0.02188945 0.09727381 0.16059732 0.0072362768 -0.015240705
-0.07912548 -0.010546146 0.0474957 -0.10849876 0.023227442 -0.21392396 -0.069809936 0.08448471
0.085860215 -0.025840415 -0.012918293 -0.11917782 0.12882239 0.044909522 -0.025247337 -0.11299067
0.0154143 -0.093761176 0.104883365 -0.009904376 0.09732201 0.0905885 -0.10087916 0.06561742
0.0063304156 -0.08852895 0.1730961 0.09511596 0.048135135 0.25362647 0.21547754 0.17267816

fc.4.bias f4 [32]
00000000: df0c 0b3d c244 373c 4186 2abd 0583 c83d
00000010: 006b 8739 90a8 2bbe cb58 193e 1d0f edbd
00000020: 6225 a0bd c1b0 153c 22dc da3d ec35 c83d
00000030: 760c bf3d ee9a 963c 95f7 1fbd bcf5 d8bd
00000040: 2149 d13d 9e48 cfbb 28ec 1dbe d065 5ebd
00000050: 970b e83d 72b4 87bd 3aa9 b33d 366d ba3e
00000060: 2d5b 20bd 6254 08be b4c5 27be 90e3 bdbd
00000070: c75a 05be 4004 9ebd 0da1 d43d c912 6d3e
0.03394782 0.011185827 -0.04163194 0.09790615 0.00025828928 -0.1676352 0.14975278 -0.11575148
-0.0781963 0.00913638 0.10686518 0.0977591 0.093285486 0.018384423 -0.039054472 -0.10593745
0.10219026 -0.0063257953 -0.15422118 -0.054296315 0.113303356 -0.06626214 0.08772512 0.36411446
-0.039149452 -0.1331344 -0.16384012 -0.0927192 -0.1302291 -0.077156544 0.103822805 0.23151697

fc.6.weight f4 [3, 32]
00000000: dea1 34be a2c7 59bd a339 1cbe 38aa 4c3d
00000010: f4bf f1bd 9c0f 233d 1609 a0bd ff06 e9bd
00000020: ef6d e7bd 0f0e efbd 740d 053e ecf7 fcbd
00000030: 9be4 40be c071 f9bc 9b85 603c bc89 d43d
00000040: 9342 7fbc 149c a2bd bdb6 acbd ee52 0cbe
00000050: 634d 17be 6889 fa3d e071 94bd db5e 9ebe
00000060: a53f 633d c005 21b9 262b b93d 3cb2 d43d
00000070: 219b 71bd 8bf6 fdbd a862 58bd cc84 97be
00000080: 0e2c 7c3d 0fc8 f0bd 1184 5cbc 35cf 2bbe
00000090: a16a cc3c 6b0f 743c 4f9a 4e3e de2f efbd
000000a0: eeab cabd 313e 8ebd 30ee ce3d ae22 6d3e
000000b0: 3a7d 4e3e bf31 f53d 20af 2a3e e884 e2bd
000000c0: 4dd9 5f3e 7ed7 1a3d f002 19be 1c83 95bd
000000d0: 8e7a 38bc 00f6 b63b 87b5 e23d 68a8 4b3e
000000e0: bfb2 05c0 ead8 0cbf f13d 8cbe ca03 fe3d
000000f0: 512c 9ebd 3bdc a63d b978 cb3d 4be4 843d
00000100: 7282 c7bb f8d1 cb3c 4c88 25bd 1b1f 663e
00000110: f0a5 29be e699 95bd 3f80 433e a7dd 2e3e
00000120: 2321 053e 3f21 6f3e 83fb 313d ef29 0b3e
00000130: 3eda 07be 2e00 fdbd 56fc 8ebd 6cbc b5bd
00000140: 1645 283e b014 243e c02e c13d ce74 093d
00000150: b885 41bd 66c7 47bd 022e e83c 7eab 9ebd
00000160: 6e8d 9c3e b605 d0bd 9fcc ff3d 3a2c 1bbe
00000170: 7b36 f9bd c0f9 423d 9e3d a2bd 19eb 453e
-0.17639872 -0.0531689 -0.15256362 0.04996702 -0.1180419 0.039809808 -0.07814233 -0.113782875
-0.11300265 -0.11672603 0.12993413 -0.12351975 -0.18837206 -0.030449748 0.013703729 0.10377833
-0.015579837 -0.07939926 -0.08433292 -0.1370351 -0.14775614 0.122332394 -0.072482824 -0.30931744
0.055480618 -0.00015356299 0.09041433 0.10385558 -0.058985833 -0.1240054 -0.05282846 -0.29593503
0.06156545 -0.11756908 -0.013459221 -0.16778262 0.024953188 0.014896254 0.20176052 -0.11679052
-0.09896074 -0.06945456 0.101040244 0.2315776 0.20164958 0.11972379 0.16668367 -0.11060506
0.21860237 0.037803166 -0.14942527 -0.07300398 -0.011259688 0.0055835247 0.1106978 0.1988846
-2.0890348 -0.55018485 -0.27391008 0.124030665 -0.077232964 0.081474744 0.099351354 0.06488856
-0.0060885483 0.024880394 -0.040413186 0.22472803 -0.16567206 -0.073047444 0.19091891 0.17076741
0.13000922 0.23352526 0.04345275 0.13590215 -0.13266847 -0.1235355 -0.06981723 -0.08873829
0.16432604 0.16023517 0.09432745 0.03355866 -0.047246665 -0.048774146 0.02834225 -0.07747553
0.30576652 -0.10157339 0.124902 -0.1515359 -0.121685944 0.04760146 -0.07921909 0.19327964

fc.6.bias f4 [3]
00000000: 71ac e9bd b532 903e df8f d83d
-0.11409844 0.28163686 0.10574316
